…
I0219 21:06:02.072896 31070 net.cpp:49] Initializing net from parameters: 
state {
  phase: TRAIN
}
layer {
  name: "data"
  type: "Python"
  top: "rgb"
  top: "depth"
  top: "label"
  python_param {
    module: "data_layers.washington_data_layer"
    layer: "WashingtonDataLayer"
    param_str: "{\'img_size\': (224, 224), \'split\': \'train\', \'dataset_dir\': \'/home/kevin/dataset/washington_rgbd_dataset\', \'randomize\': True, \'mean\': (104.00698793, 116.66876762, 122.67891434), \'seed\': 1337, \'batch_size\': 32, \'crop_size\': (224, 224, 224, 224)}"
  }
}
layer {
  name: "conv1_1"
  type: "Convolution"
  bottom: "rgb"
  top: "conv1_1"
  param {
    name: "conv1_1_w"
    lr_mult: 0
    decay_mult: 1
  }
  param {
    name: "conv1_1_b"
    lr_mult: 0
    decay_mult: 0
  }
  convolution_param {
    num_output: 64
    pad: 1
    kernel_size: 3
    group: 1
    stride: 1
    weight_filler {
      type: "xavier"
    }
  }
}
layer {
  name: "relu1_1"
  type: "ReLU"
  bottom: "conv1_1"
  top: "conv1_1"
}
layer {
  name: "conv1_2"
  type: "Convolution"
  bottom: "conv1_1"
  top: "conv1_2"
  param {
    name: "conv1_2_w"
    lr_mult: 0
    decay_mult: 1
  }
  param {
    name: "conv1_2_b"
    lr_mult: 0
    decay_mult: 0
  }
  convolution_param {
    num_output: 64
    pad: 1
    kernel_size: 3
    group: 1
    stride: 1
    weight_filler {
      type: "xavier"
    }
  }
}
layer {
  name: "relu1_2"
  type: "ReLU"
  bottom: "conv1_2"
  top: "conv1_2"
}
layer {
  name: "rgb_pool1"
  type: "Pooling"
  bottom: "conv1_2"
  top: "rgb_pool1"
  pooling_param {
    pool: MAX
    kernel_size: 2
    stride: 2
  }
}
layer {
  name: "conv2_1"
  type: "Convolution"
  bottom: "rgb_pool1"
  top: "conv2_1"
  param {
    name: "conv2_1_w"
    lr_mult: 0
    decay_mult: 1
  }
  param {
    name: "conv2_1_b"
    lr_mult: 0
    decay_mult: 0
  }
  convolution_param {
    num_output: 128
    pad: 1
    kernel_size: 3
    group: 1
    stride: 1
    weight_filler {
      type: "xavier"
    }
  }
}
layer {
  name: "relu2_1"
  type: "ReLU"
  bottom: "conv2_1"
  top: "conv2_1"
}
layer {
  name: "conv2_2"
  type: "Convolution"
  bottom: "conv2_1"
  top: "conv2_2"
  param {
    name: "conv2_2_w"
    lr_mult: 0
    decay_mult: 1
  }
  param {
    name: "conv2_2_b"
    lr_mult: 0
    decay_mult: 0
  }
  convolution_param {
    num_output: 128
    pad: 1
    kernel_size: 3
    group: 1
    stride: 1
    weight_filler {
      type: "xavier"
    }
  }
}
layer {
  name: "relu2_2"
  type: "ReLU"
  bottom: "conv2_2"
  top: "conv2_2"
}
layer {
  name: "rgb_pool2"
  type: "Pooling"
  bottom: "conv2_2"
  top: "rgb_pool2"
  pooling_param {
    pool: MAX
    kernel_size: 2
    stride: 2
  }
}
layer {
  name: "conv3_1"
  type: "Convolution"
  bottom: "rgb_pool2"
  top: "conv3_1"
  param {
    name: "conv3_1_w"
    lr_mult: 0
    decay_mult: 1
  }
  param {
    name: "conv3_1_b"
    lr_mult: 0
    decay_mult: 0
  }
  convolution_param {
    num_output: 256
    pad: 1
    kernel_size: 3
    group: 1
    stride: 1
    weight_filler {
      type: "xavier"
    }
  }
}
layer {
  name: "relu3_1"
  type: "ReLU"
  bottom: "conv3_1"
  top: "conv3_1"
}
layer {
  name: "conv3_2"
  type: "Convolution"
  bottom: "conv3_1"
  top: "conv3_2"
  param {
    name: "conv3_2_w"
    lr_mult: 0
    decay_mult: 1
  }
  param {
    name: "conv3_2_b"
    lr_mult: 0
    decay_mult: 0
  }
  convolution_param {
    num_output: 256
    pad: 1
    kernel_size: 3
    group: 1
    stride: 1
    weight_filler {
      type: "xavier"
    }
  }
}
layer {
  name: "relu3_2"
  type: "ReLU"
  bottom: "conv3_2"
  top: "conv3_2"
}
layer {
  name: "conv3_3"
  type: "Convolution"
  bottom: "conv3_2"
  top: "conv3_3"
  param {
    name: "conv3_3_w"
    lr_mult: 0
    decay_mult: 1
  }
  param {
    name: "conv3_3_b"
    lr_mult: 0
    decay_mult: 0
  }
  convolution_param {
    num_output: 256
    pad: 1
    kernel_size: 3
    group: 1
    stride: 1
    weight_filler {
      type: "xavier"
    }
  }
}
layer {
  name: "relu3_3"
  type: "ReLU"
  bottom: "conv3_3"
  top: "conv3_3"
}
layer {
  name: "rgb_pool3"
  type: "Pooling"
  bottom: "conv3_3"
  top: "rgb_pool3"
  pooling_param {
    pool: MAX
    kernel_size: 2
    stride: 2
  }
}
layer {
  name: "conv4_1"
  type: "Convolution"
  bottom: "rgb_pool3"
  top: "conv4_1"
  param {
    name: "conv4_1_w"
    lr_mult: 0
    decay_mult: 1
  }
  param {
    name: "conv4_1_b"
    lr_mult: 0
    decay_mult: 0
  }
  convolution_param {
    num_output: 512
    pad: 1
    kernel_size: 3
    group: 1
    stride: 1
    weight_filler {
      type: "xavier"
    }
  }
}
layer {
  name: "relu4_1"
  type: "ReLU"
  bottom: "conv4_1"
  top: "conv4_1"
}
layer {
  name: "conv4_2"
  type: "Convolution"
  bottom: "conv4_1"
  top: "conv4_2"
  param {
    name: "conv4_2_w"
    lr_mult: 0
    decay_mult: 1
  }
  param {
    name: "conv4_2_b"
    lr_mult: 0
    decay_mult: 0
  }
  convolution_param {
    num_output: 512
    pad: 1
    kernel_size: 3
    group: 1
    stride: 1
    weight_filler {
      type: "xavier"
    }
  }
}
layer {
  name: "relu4_2"
  type: "ReLU"
  bottom: "conv4_2"
  top: "conv4_2"
}
layer {
  name: "conv4_3"
  type: "Convolution"
  bottom: "conv4_2"
  top: "conv4_3"
  param {
    name: "conv4_3_w"
    lr_mult: 0
    decay_mult: 1
  }
  param {
    name: "conv4_3_b"
    lr_mult: 0
    decay_mult: 0
  }
  convolution_param {
    num_output: 512
    pad: 1
    kernel_size: 3
    group: 1
    stride: 1
    weight_filler {
      type: "xavier"
    }
  }
}
layer {
  name: "relu4_3"
  type: "ReLU"
  bottom: "conv4_3"
  top: "conv4_3"
}
layer {
  name: "rgb_pool4"
  type: "Pooling"
  bottom: "conv4_3"
  top: "rgb_pool4"
  pooling_param {
    pool: MAX
    kernel_size: 2
    stride: 2
  }
}
layer {
  name: "conv5_1"
  type: "Convolution"
  bottom: "rgb_pool4"
  top: "conv5_1"
  param {
    name: "conv5_1_w"
    lr_mult: 0
    decay_mult: 1
  }
  param {
    name: "conv5_1_b"
    lr_mult: 0
    decay_mult: 0
  }
  convolution_param {
    num_output: 512
    pad: 1
    kernel_size: 3
    group: 1
    stride: 1
    weight_filler {
      type: "xavier"
    }
  }
}
layer {
  name: "relu5_1"
  type: "ReLU"
  bottom: "conv5_1"
  top: "conv5_1"
}
layer {
  name: "conv5_2"
  type: "Convolution"
  bottom: "conv5_1"
  top: "conv5_2"
  param {
    name: "conv5_2_w"
    lr_mult: 0
    decay_mult: 1
  }
  param {
    name: "conv5_2_b"
    lr_mult: 0
    decay_mult: 0
  }
  convolution_param {
    num_output: 512
    pad: 1
    kernel_size: 3
    group: 1
    stride: 1
    weight_filler {
      type: "xavier"
    }
  }
}
layer {
  name: "relu5_2"
  type: "ReLU"
  bottom: "conv5_2"
  top: "conv5_2"
}
layer {
  name: "conv5_3"
  type: "Convolution"
  bottom: "conv5_2"
  top: "conv5_3"
  param {
    name: "conv5_3_w"
    lr_mult: 0
    decay_mult: 1
  }
  param {
    name: "conv5_3_b"
    lr_mult: 0
    decay_mult: 0
  }
  convolution_param {
    num_output: 512
    pad: 1
    kernel_size: 3
    group: 1
    stride: 1
    weight_filler {
      type: "xavier"
    }
  }
}
layer {
  name: "relu5_3"
  type: "ReLU"
  bottom: "conv5_3"
  top: "conv5_3"
}
layer {
  name: "rgb_pool5"
  type: "Pooling"
  bottom: "conv5_3"
  top: "rgb_pool5"
  pooling_param {
    pool: MAX
    kernel_size: 2
    stride: 2
  }
}
layer {
  name: "rgb_fc6"
  type: "InnerProduct"
  bottom: "rgb_pool5"
  top: "rgb_fc6"
  param {
    lr_mult: 0
    decay_mult: 1
  }
  param {
    lr_mult: 0
    decay_mult: 0
  }
  inner_product_param {
    num_output: 4096
    weight_filler {
      type: "xavier"
    }
  }
}
layer {
  name: "rgb_relu6"
  type: "ReLU"
  bottom: "rgb_fc6"
  top: "rgb_fc6"
}
layer {
  name: "rgb_drop6"
  type: "Dropout"
  bottom: "rgb_fc6"
  top: "rgb_fc6"
  dropout_param {
    dropout_ratio: 0.5
  }
}
layer {
  name: "rgb_fc7"
  type: "InnerProduct"
  bottom: "rgb_fc6"
  top: "rgb_fc7"
  param {
    lr_mult: 0
    decay_mult: 1
  }
  param {
    lr_mult: 0
    decay_mult: 0
  }
  inner_product_param {
    num_output: 4096
    weight_filler {
      type: "xavier"
    }
  }
}
layer {
  name: "rgb_relu7"
  type: "ReLU"
  bottom: "rgb_fc7"
  top: "rgb_fc7"
}
layer {
  name: "rgb_drop7"
  type: "Dropout"
  bottom: "rgb_fc7"
  top: "rgb_fc7"
  dropout_param {
    dropout_ratio: 0.5
  }
}
layer {
  name: "rgb_fc8"
  type: "InnerProduct"
  bottom: "rgb_fc7"
  top: "rgb_fc8"
  param {
    lr_mult: 0
    decay_mult: 1
  }
  param {
    lr_mult: 0
    decay_mult: 0
  }
  inner_product_param {
    num_output: 51
    weight_filler {
      type: "xavier"
    }
  }
}
layer {
  name: "conv1"
  type: "Convolution"
  bottom: "depth"
  top: "conv1"
  param {
    name: "conv1_w"
    lr_mult: 0
    decay_mult: 1
  }
  param {
    name: "conv1_b"
    lr_mult: 0
    decay_mult: 0
  }
  convolution_param {
    num_output: 128
    pad: 2
    kernel_size: 5
    group: 1
    stride: 2
    weight_filler {
      type: "xavier"
    }
  }
}
layer {
  name: "relu1"
  type: "ReLU"
  bottom: "conv1"
  top: "conv1"
}
layer {
  name: "depth_pool1"
  type: "Pooling"
  bottom: "conv1"
  top: "depth_pool1"
  pooling_param {
    pool: MAX
    kernel_size: 3
    stride: 2
  }
}
layer {
  name: "norm1"
  type: "LRN"
  bottom: "depth_pool1"
  top: "norm1"
  lrn_param {
    local_size: 5
    alpha: 0.0005
    beta: 0.75
    k: 2
  }
}
layer {
  name: "conv2"
  type: "Convolution"
  bottom: "norm1"
  top: "conv2"
  param {
    name: "conv2_w"
    lr_mult: 0
    decay_mult: 1
  }
  param {
    name: "conv2_b"
    lr_mult: 0
    decay_mult: 0
  }
  convolution_param {
    num_output: 256
    pad: 2
    kernel_size: 5
    group: 1
    stride: 1
    weight_filler {
      type: "xavier"
    }
  }
}
layer {
  name: "relu2"
  type: "ReLU"
  bottom: "conv2"
  top: "conv2"
}
layer {
  name: "depth_pool2"
  type: "Pooling"
  bottom: "conv2"
  top: "depth_pool2"
  pooling_param {
    pool: MAX
    kernel_size: 3
    stride: 2
  }
}
layer {
  name: "norm2"
  type: "LRN"
  bottom: "depth_pool2"
  top: "norm2"
  lrn_param {
    local_size: 5
    alpha: 0.0005
    beta: 0.75
    k: 2
  }
}
layer {
  name: "conv3"
  type: "Convolution"
  bottom: "norm2"
  top: "conv3"
  param {
    name: "conv3_w"
    lr_mult: 0
    decay_mult: 1
  }
  param {
    name: "conv3_b"
    lr_mult: 0
    decay_mult: 0
  }
  convolution_param {
    num_output: 384
    pad: 1
    kernel_size: 3
    group: 2
    stride: 1
    weight_filler {
      type: "xavier"
    }
  }
}
layer {
  name: "relu3"
  type: "ReLU"
  bottom: "conv3"
  top: "conv3"
}
layer {
  name: "depth_pool3"
  type: "Pooling"
  bottom: "conv3"
  top: "depth_pool3"
  pooling_param {
    pool: MAX
    kernel_size: 3
    stride: 2
  }
}
layer {
  name: "conv4"
  type: "Convolution"
  bottom: "depth_pool3"
  top: "conv4"
  param {
    name: "conv4_w"
    lr_mult: 0
    decay_mult: 1
  }
  param {
    name: "conv4_b"
    lr_mult: 0
    decay_mult: 0
  }
  convolution_param {
    num_output: 512
    pad: 1
    kernel_size: 3
    group: 1
    stride: 1
    weight_filler {
      type: "xavier"
    }
  }
}
layer {
  name: "relu4"
  type: "ReLU"
  bottom: "conv4"
  top: "conv4"
}
layer {
  name: "conv5"
  type: "Convolution"
  bottom: "conv4"
  top: "conv5"
  param {
    name: "conv5_w"
    lr_mult: 0
    decay_mult: 1
  }
  param {
    name: "conv5_b"
    lr_mult: 0
    decay_mult: 0
  }
  convolution_param {
    num_output: 512
    pad: 1
    kernel_size: 3
    group: 1
    stride: 1
    weight_filler {
      type: "xavier"
    }
  }
}
layer {
  name: "relu5"
  type: "ReLU"
  bottom: "conv5"
  top: "conv5"
}
layer {
  name: "depth_pool5"
  type: "Pooling"
  bottom: "conv5"
  top: "depth_pool5"
  pooling_param {
    pool: MAX
    kernel_size: 3
    stride: 2
  }
}
layer {
  name: "depth_fc6"
  type: "InnerProduct"
  bottom: "depth_pool5"
  top: "depth_fc6"
  param {
    lr_mult: 0
    decay_mult: 1
  }
  param {
    lr_mult: 0
    decay_mult: 0
  }
  inner_product_param {
    num_output: 4096
    weight_filler {
      type: "xavier"
    }
  }
}
layer {
  name: "depth_relu6"
  type: "ReLU"
  bottom: "depth_fc6"
  top: "depth_fc6"
}
layer {
  name: "depth_drop6"
  type: "Dropout"
  bottom: "depth_fc6"
  top: "depth_fc6"
  dropout_param {
    dropout_ratio: 0.5
  }
}
layer {
  name: "depth_fc7"
  type: "InnerProduct"
  bottom: "depth_fc6"
  top: "depth_fc7"
  param {
    lr_mult: 0
    decay_mult: 1
  }
  param {
    lr_mult: 0
    decay_mult: 0
  }
  inner_product_param {
    num_output: 4096
    weight_filler {
      type: "xavier"
    }
  }
}
layer {
  name: "depth_relu7"
  type: "ReLU"
  bottom: "depth_fc7"
  top: "depth_fc7"
}
layer {
  name: "depth_drop7"
  type: "Dropout"
  bottom: "depth_fc7"
  top: "depth_fc7"
  dropout_param {
    dropout_ratio: 0.5
  }
}
layer {
  name: "depth_fc8"
  type: "InnerProduct"
  bottom: "depth_fc7"
  top: "depth_fc8"
  param {
    lr_mult: 0
    decay_mult: 1
  }
  param {
    lr_mult: 0
    decay_mult: 0
  }
  inner_product_param {
    num_output: 51
    weight_filler {
      type: "xavier"
    }
  }
}
layer {
  name: "concat"
  type: "Concat"
  bottom: "rgb_fc7"
  bottom: "depth_fc7"
  top: "concat"
  concat_param {
    axis: 1
  }
}
layer {
  name: "rgbd_fc8"
  type: "InnerProduct"
  bottom: "concat"
  top: "rgbd_fc8"
  param {
    lr_mult: 1
    decay_mult: 1
  }
  param {
    lr_mult: 2
    decay_mult: 0
  }
  inner_product_param {
    num_output: 51
    weight_filler {
      type: "xavier"
    }
  }
}
layer {
  name: "rgb_accuracy"
  type: "Accuracy"
  bottom: "rgb_fc8"
  bottom: "label"
  top: "rgb_accuracy"
}
layer {
  name: "rgb_loss"
  type: "SoftmaxWithLoss"
  bottom: "rgb_fc8"
  bottom: "label"
  top: "rgb_loss"
}
layer {
  name: "depth_accuracy"
  type: "Accuracy"
  bottom: "depth_fc8"
  bottom: "label"
  top: "depth_accuracy"
}
layer {
  name: "depth_loss"
  type: "SoftmaxWithLoss"
  bottom: "depth_fc8"
  bottom: "label"
  top: "depth_loss"
}
layer {
  name: "rgbd_accuracy"
  type: "Accuracy"
  bottom: "rgbd_fc8"
  bottom: "label"
  top: "rgbd_accuracy"
}
layer {
  name: "rgbd_loss"
  type: "SoftmaxWithLoss"
  bottom: "rgbd_fc8"
  bottom: "label"
  top: "rgbd_loss"
}
I0219 21:06:02.076081 31070 layer_factory.hpp:77] Creating layer data
I0219 21:06:02.144753 31070 net.cpp:91] Creating Layer data
I0219 21:06:02.144779 31070 net.cpp:399] data -> rgb
I0219 21:06:02.144796 31070 net.cpp:399] data -> depth
I0219 21:06:02.144815 31070 net.cpp:399] data -> label
{'img_size': (224, 224), 'split': 'train', 'dataset_dir': '/home/kevin/dataset/washington_rgbd_dataset', 'crop_size': (224, 224, 224, 224), 'randomize': True, 'seed': 1337, 'batch_size': 32, 'mean': (104.00698793, 116.66876762, 122.67891434)}
I0219 21:06:02.476477 31070 net.cpp:141] Setting up data
I0219 21:06:02.476511 31070 net.cpp:148] Top shape: 32 3 224 224 (4816896)
I0219 21:06:02.476516 31070 net.cpp:148] Top shape: 32 1 224 224 (1605632)
I0219 21:06:02.476521 31070 net.cpp:148] Top shape: 32 1 (32)
I0219 21:06:02.476523 31070 net.cpp:156] Memory required for data: 25690240
I0219 21:06:02.476528 31070 layer_factory.hpp:77] Creating layer label_data_2_split
I0219 21:06:02.476585 31070 net.cpp:91] Creating Layer label_data_2_split
I0219 21:06:02.476600 31070 net.cpp:425] label_data_2_split <- label
I0219 21:06:02.476608 31070 net.cpp:399] label_data_2_split -> label_data_2_split_0
I0219 21:06:02.476626 31070 net.cpp:399] label_data_2_split -> label_data_2_split_1
I0219 21:06:02.476641 31070 net.cpp:399] label_data_2_split -> label_data_2_split_2
I0219 21:06:02.476645 31070 net.cpp:399] label_data_2_split -> label_data_2_split_3
I0219 21:06:02.476650 31070 net.cpp:399] label_data_2_split -> label_data_2_split_4
I0219 21:06:02.476655 31070 net.cpp:399] label_data_2_split -> label_data_2_split_5
I0219 21:06:02.476711 31070 net.cpp:141] Setting up label_data_2_split
I0219 21:06:02.476716 31070 net.cpp:148] Top shape: 32 1 (32)
I0219 21:06:02.476719 31070 net.cpp:148] Top shape: 32 1 (32)
I0219 21:06:02.476722 31070 net.cpp:148] Top shape: 32 1 (32)
I0219 21:06:02.476727 31070 net.cpp:148] Top shape: 32 1 (32)
I0219 21:06:02.476729 31070 net.cpp:148] Top shape: 32 1 (32)
I0219 21:06:02.476732 31070 net.cpp:148] Top shape: 32 1 (32)
I0219 21:06:02.476735 31070 net.cpp:156] Memory required for data: 25691008
I0219 21:06:02.476738 31070 layer_factory.hpp:77] Creating layer conv1_1
I0219 21:06:02.476748 31070 net.cpp:91] Creating Layer conv1_1
I0219 21:06:02.476752 31070 net.cpp:425] conv1_1 <- rgb
I0219 21:06:02.476757 31070 net.cpp:399] conv1_1 -> conv1_1
I0219 21:06:02.477834 31070 net.cpp:141] Setting up conv1_1
I0219 21:06:02.477843 31070 net.cpp:148] Top shape: 32 64 224 224 (102760448)
I0219 21:06:02.477845 31070 net.cpp:156] Memory required for data: 436732800
I0219 21:06:02.477854 31070 layer_factory.hpp:77] Creating layer relu1_1
I0219 21:06:02.477860 31070 net.cpp:91] Creating Layer relu1_1
I0219 21:06:02.477864 31070 net.cpp:425] relu1_1 <- conv1_1
I0219 21:06:02.477867 31070 net.cpp:386] relu1_1 -> conv1_1 (in-place)
I0219 21:06:02.477872 31070 net.cpp:141] Setting up relu1_1
I0219 21:06:02.477876 31070 net.cpp:148] Top shape: 32 64 224 224 (102760448)
I0219 21:06:02.477880 31070 net.cpp:156] Memory required for data: 847774592
I0219 21:06:02.477881 31070 layer_factory.hpp:77] Creating layer conv1_2
I0219 21:06:02.477890 31070 net.cpp:91] Creating Layer conv1_2
I0219 21:06:02.477892 31070 net.cpp:425] conv1_2 <- conv1_1
I0219 21:06:02.477897 31070 net.cpp:399] conv1_2 -> conv1_2
I0219 21:06:02.478211 31070 net.cpp:141] Setting up conv1_2
I0219 21:06:02.478217 31070 net.cpp:148] Top shape: 32 64 224 224 (102760448)
I0219 21:06:02.478220 31070 net.cpp:156] Memory required for data: 1258816384
I0219 21:06:02.478225 31070 layer_factory.hpp:77] Creating layer relu1_2
I0219 21:06:02.478230 31070 net.cpp:91] Creating Layer relu1_2
I0219 21:06:02.478232 31070 net.cpp:425] relu1_2 <- conv1_2
I0219 21:06:02.478236 31070 net.cpp:386] relu1_2 -> conv1_2 (in-place)
I0219 21:06:02.478240 31070 net.cpp:141] Setting up relu1_2
I0219 21:06:02.478245 31070 net.cpp:148] Top shape: 32 64 224 224 (102760448)
I0219 21:06:02.478246 31070 net.cpp:156] Memory required for data: 1669858176
I0219 21:06:02.478250 31070 layer_factory.hpp:77] Creating layer rgb_pool1
I0219 21:06:02.478255 31070 net.cpp:91] Creating Layer rgb_pool1
I0219 21:06:02.478258 31070 net.cpp:425] rgb_pool1 <- conv1_2
I0219 21:06:02.478262 31070 net.cpp:399] rgb_pool1 -> rgb_pool1
I0219 21:06:02.478289 31070 net.cpp:141] Setting up rgb_pool1
I0219 21:06:02.478293 31070 net.cpp:148] Top shape: 32 64 112 112 (25690112)
I0219 21:06:02.478296 31070 net.cpp:156] Memory required for data: 1772618624
I0219 21:06:02.478298 31070 layer_factory.hpp:77] Creating layer conv2_1
I0219 21:06:02.478307 31070 net.cpp:91] Creating Layer conv2_1
I0219 21:06:02.478309 31070 net.cpp:425] conv2_1 <- rgb_pool1
I0219 21:06:02.478314 31070 net.cpp:399] conv2_1 -> conv2_1
I0219 21:06:02.479449 31070 net.cpp:141] Setting up conv2_1
I0219 21:06:02.479472 31070 net.cpp:148] Top shape: 32 128 112 112 (51380224)
I0219 21:06:02.479477 31070 net.cpp:156] Memory required for data: 1978139520
I0219 21:06:02.479490 31070 layer_factory.hpp:77] Creating layer relu2_1
I0219 21:06:02.479506 31070 net.cpp:91] Creating Layer relu2_1
I0219 21:06:02.479513 31070 net.cpp:425] relu2_1 <- conv2_1
I0219 21:06:02.479534 31070 net.cpp:386] relu2_1 -> conv2_1 (in-place)
I0219 21:06:02.479543 31070 net.cpp:141] Setting up relu2_1
I0219 21:06:02.479549 31070 net.cpp:148] Top shape: 32 128 112 112 (51380224)
I0219 21:06:02.479554 31070 net.cpp:156] Memory required for data: 2183660416
I0219 21:06:02.479559 31070 layer_factory.hpp:77] Creating layer conv2_2
I0219 21:06:02.479584 31070 net.cpp:91] Creating Layer conv2_2
I0219 21:06:02.479598 31070 net.cpp:425] conv2_2 <- conv2_1
I0219 21:06:02.479606 31070 net.cpp:399] conv2_2 -> conv2_2
I0219 21:06:02.480479 31070 net.cpp:141] Setting up conv2_2
I0219 21:06:02.480489 31070 net.cpp:148] Top shape: 32 128 112 112 (51380224)
I0219 21:06:02.480494 31070 net.cpp:156] Memory required for data: 2389181312
I0219 21:06:02.480500 31070 layer_factory.hpp:77] Creating layer relu2_2
I0219 21:06:02.480520 31070 net.cpp:91] Creating Layer relu2_2
I0219 21:06:02.480525 31070 net.cpp:425] relu2_2 <- conv2_2
I0219 21:06:02.480541 31070 net.cpp:386] relu2_2 -> conv2_2 (in-place)
I0219 21:06:02.480559 31070 net.cpp:141] Setting up relu2_2
I0219 21:06:02.480566 31070 net.cpp:148] Top shape: 32 128 112 112 (51380224)
I0219 21:06:02.480581 31070 net.cpp:156] Memory required for data: 2594702208
I0219 21:06:02.480598 31070 layer_factory.hpp:77] Creating layer rgb_pool2
I0219 21:06:02.480617 31070 net.cpp:91] Creating Layer rgb_pool2
I0219 21:06:02.480623 31070 net.cpp:425] rgb_pool2 <- conv2_2
I0219 21:06:02.480643 31070 net.cpp:399] rgb_pool2 -> rgb_pool2
I0219 21:06:02.480676 31070 net.cpp:141] Setting up rgb_pool2
I0219 21:06:02.480684 31070 net.cpp:148] Top shape: 32 128 56 56 (12845056)
I0219 21:06:02.480689 31070 net.cpp:156] Memory required for data: 2646082432
I0219 21:06:02.480693 31070 layer_factory.hpp:77] Creating layer conv3_1
I0219 21:06:02.480716 31070 net.cpp:91] Creating Layer conv3_1
I0219 21:06:02.480731 31070 net.cpp:425] conv3_1 <- rgb_pool2
I0219 21:06:02.480738 31070 net.cpp:399] conv3_1 -> conv3_1
I0219 21:06:02.482565 31070 net.cpp:141] Setting up conv3_1
I0219 21:06:02.482589 31070 net.cpp:148] Top shape: 32 256 56 56 (25690112)
I0219 21:06:02.482594 31070 net.cpp:156] Memory required for data: 2748842880
I0219 21:06:02.482614 31070 layer_factory.hpp:77] Creating layer relu3_1
I0219 21:06:02.482630 31070 net.cpp:91] Creating Layer relu3_1
I0219 21:06:02.482636 31070 net.cpp:425] relu3_1 <- conv3_1
I0219 21:06:02.482645 31070 net.cpp:386] relu3_1 -> conv3_1 (in-place)
I0219 21:06:02.482661 31070 net.cpp:141] Setting up relu3_1
I0219 21:06:02.482677 31070 net.cpp:148] Top shape: 32 256 56 56 (25690112)
I0219 21:06:02.482692 31070 net.cpp:156] Memory required for data: 2851603328
I0219 21:06:02.482697 31070 layer_factory.hpp:77] Creating layer conv3_2
I0219 21:06:02.482719 31070 net.cpp:91] Creating Layer conv3_2
I0219 21:06:02.482734 31070 net.cpp:425] conv3_2 <- conv3_1
I0219 21:06:02.482751 31070 net.cpp:399] conv3_2 -> conv3_2
I0219 21:06:02.486135 31070 net.cpp:141] Setting up conv3_2
I0219 21:06:02.486150 31070 net.cpp:148] Top shape: 32 256 56 56 (25690112)
I0219 21:06:02.486155 31070 net.cpp:156] Memory required for data: 2954363776
I0219 21:06:02.486161 31070 layer_factory.hpp:77] Creating layer relu3_2
I0219 21:06:02.486181 31070 net.cpp:91] Creating Layer relu3_2
I0219 21:06:02.486186 31070 net.cpp:425] relu3_2 <- conv3_2
I0219 21:06:02.486222 31070 net.cpp:386] relu3_2 -> conv3_2 (in-place)
I0219 21:06:02.486228 31070 net.cpp:141] Setting up relu3_2
I0219 21:06:02.486244 31070 net.cpp:148] Top shape: 32 256 56 56 (25690112)
I0219 21:06:02.486263 31070 net.cpp:156] Memory required for data: 3057124224
I0219 21:06:02.486268 31070 layer_factory.hpp:77] Creating layer conv3_3
I0219 21:06:02.486299 31070 net.cpp:91] Creating Layer conv3_3
I0219 21:06:02.486305 31070 net.cpp:425] conv3_3 <- conv3_2
I0219 21:06:02.486321 31070 net.cpp:399] conv3_3 -> conv3_3
I0219 21:06:02.489811 31070 net.cpp:141] Setting up conv3_3
I0219 21:06:02.489841 31070 net.cpp:148] Top shape: 32 256 56 56 (25690112)
I0219 21:06:02.489846 31070 net.cpp:156] Memory required for data: 3159884672
I0219 21:06:02.489866 31070 layer_factory.hpp:77] Creating layer relu3_3
I0219 21:06:02.489876 31070 net.cpp:91] Creating Layer relu3_3
I0219 21:06:02.489883 31070 net.cpp:425] relu3_3 <- conv3_3
I0219 21:06:02.489892 31070 net.cpp:386] relu3_3 -> conv3_3 (in-place)
I0219 21:06:02.489900 31070 net.cpp:141] Setting up relu3_3
I0219 21:06:02.489907 31070 net.cpp:148] Top shape: 32 256 56 56 (25690112)
I0219 21:06:02.489913 31070 net.cpp:156] Memory required for data: 3262645120
I0219 21:06:02.489919 31070 layer_factory.hpp:77] Creating layer rgb_pool3
I0219 21:06:02.489929 31070 net.cpp:91] Creating Layer rgb_pool3
I0219 21:06:02.489936 31070 net.cpp:425] rgb_pool3 <- conv3_3
I0219 21:06:02.489943 31070 net.cpp:399] rgb_pool3 -> rgb_pool3
I0219 21:06:02.489994 31070 net.cpp:141] Setting up rgb_pool3
I0219 21:06:02.490011 31070 net.cpp:148] Top shape: 32 256 28 28 (6422528)
I0219 21:06:02.490016 31070 net.cpp:156] Memory required for data: 3288335232
I0219 21:06:02.490031 31070 layer_factory.hpp:77] Creating layer conv4_1
I0219 21:06:02.490042 31070 net.cpp:91] Creating Layer conv4_1
I0219 21:06:02.490048 31070 net.cpp:425] conv4_1 <- rgb_pool3
I0219 21:06:02.490056 31070 net.cpp:399] conv4_1 -> conv4_1
I0219 21:06:02.497122 31070 net.cpp:141] Setting up conv4_1
I0219 21:06:02.497148 31070 net.cpp:148] Top shape: 32 512 28 28 (12845056)
I0219 21:06:02.497154 31070 net.cpp:156] Memory required for data: 3339715456
I0219 21:06:02.497164 31070 layer_factory.hpp:77] Creating layer relu4_1
I0219 21:06:02.497186 31070 net.cpp:91] Creating Layer relu4_1
I0219 21:06:02.497203 31070 net.cpp:425] relu4_1 <- conv4_1
I0219 21:06:02.497221 31070 net.cpp:386] relu4_1 -> conv4_1 (in-place)
I0219 21:06:02.497242 31070 net.cpp:141] Setting up relu4_1
I0219 21:06:02.497248 31070 net.cpp:148] Top shape: 32 512 28 28 (12845056)
I0219 21:06:02.497264 31070 net.cpp:156] Memory required for data: 3391095680
I0219 21:06:02.497269 31070 layer_factory.hpp:77] Creating layer conv4_2
I0219 21:06:02.497304 31070 net.cpp:91] Creating Layer conv4_2
I0219 21:06:02.497310 31070 net.cpp:425] conv4_2 <- conv4_1
I0219 21:06:02.497319 31070 net.cpp:399] conv4_2 -> conv4_2
I0219 21:06:02.510849 31070 net.cpp:141] Setting up conv4_2
I0219 21:06:02.510881 31070 net.cpp:148] Top shape: 32 512 28 28 (12845056)
I0219 21:06:02.510888 31070 net.cpp:156] Memory required for data: 3442475904
I0219 21:06:02.510905 31070 layer_factory.hpp:77] Creating layer relu4_2
I0219 21:06:02.510918 31070 net.cpp:91] Creating Layer relu4_2
I0219 21:06:02.510926 31070 net.cpp:425] relu4_2 <- conv4_2
I0219 21:06:02.510936 31070 net.cpp:386] relu4_2 -> conv4_2 (in-place)
I0219 21:06:02.510946 31070 net.cpp:141] Setting up relu4_2
I0219 21:06:02.510952 31070 net.cpp:148] Top shape: 32 512 28 28 (12845056)
I0219 21:06:02.510959 31070 net.cpp:156] Memory required for data: 3493856128
I0219 21:06:02.510967 31070 layer_factory.hpp:77] Creating layer conv4_3
I0219 21:06:02.510979 31070 net.cpp:91] Creating Layer conv4_3
I0219 21:06:02.510985 31070 net.cpp:425] conv4_3 <- conv4_2
I0219 21:06:02.510995 31070 net.cpp:399] conv4_3 -> conv4_3
I0219 21:06:02.524593 31070 net.cpp:141] Setting up conv4_3
I0219 21:06:02.524624 31070 net.cpp:148] Top shape: 32 512 28 28 (12845056)
I0219 21:06:02.524643 31070 net.cpp:156] Memory required for data: 3545236352
I0219 21:06:02.524665 31070 layer_factory.hpp:77] Creating layer relu4_3
I0219 21:06:02.524682 31070 net.cpp:91] Creating Layer relu4_3
I0219 21:06:02.524699 31070 net.cpp:425] relu4_3 <- conv4_3
I0219 21:06:02.524721 31070 net.cpp:386] relu4_3 -> conv4_3 (in-place)
I0219 21:06:02.524731 31070 net.cpp:141] Setting up relu4_3
I0219 21:06:02.524739 31070 net.cpp:148] Top shape: 32 512 28 28 (12845056)
I0219 21:06:02.524746 31070 net.cpp:156] Memory required for data: 3596616576
I0219 21:06:02.524751 31070 layer_factory.hpp:77] Creating layer rgb_pool4
I0219 21:06:02.524761 31070 net.cpp:91] Creating Layer rgb_pool4
I0219 21:06:02.524777 31070 net.cpp:425] rgb_pool4 <- conv4_3
I0219 21:06:02.524786 31070 net.cpp:399] rgb_pool4 -> rgb_pool4
I0219 21:06:02.524829 31070 net.cpp:141] Setting up rgb_pool4
I0219 21:06:02.524838 31070 net.cpp:148] Top shape: 32 512 14 14 (3211264)
I0219 21:06:02.524853 31070 net.cpp:156] Memory required for data: 3609461632
I0219 21:06:02.524859 31070 layer_factory.hpp:77] Creating layer conv5_1
I0219 21:06:02.524873 31070 net.cpp:91] Creating Layer conv5_1
I0219 21:06:02.524878 31070 net.cpp:425] conv5_1 <- rgb_pool4
I0219 21:06:02.524889 31070 net.cpp:399] conv5_1 -> conv5_1
I0219 21:06:02.538645 31070 net.cpp:141] Setting up conv5_1
I0219 21:06:02.538676 31070 net.cpp:148] Top shape: 32 512 14 14 (3211264)
I0219 21:06:02.538684 31070 net.cpp:156] Memory required for data: 3622306688
I0219 21:06:02.538707 31070 layer_factory.hpp:77] Creating layer relu5_1
I0219 21:06:02.538733 31070 net.cpp:91] Creating Layer relu5_1
I0219 21:06:02.538741 31070 net.cpp:425] relu5_1 <- conv5_1
I0219 21:06:02.538751 31070 net.cpp:386] relu5_1 -> conv5_1 (in-place)
I0219 21:06:02.538763 31070 net.cpp:141] Setting up relu5_1
I0219 21:06:02.538770 31070 net.cpp:148] Top shape: 32 512 14 14 (3211264)
I0219 21:06:02.538776 31070 net.cpp:156] Memory required for data: 3635151744
I0219 21:06:02.538784 31070 layer_factory.hpp:77] Creating layer conv5_2
I0219 21:06:02.538797 31070 net.cpp:91] Creating Layer conv5_2
I0219 21:06:02.538803 31070 net.cpp:425] conv5_2 <- conv5_1
I0219 21:06:02.538820 31070 net.cpp:399] conv5_2 -> conv5_2
I0219 21:06:02.552436 31070 net.cpp:141] Setting up conv5_2
I0219 21:06:02.552479 31070 net.cpp:148] Top shape: 32 512 14 14 (3211264)
I0219 21:06:02.552484 31070 net.cpp:156] Memory required for data: 3647996800
I0219 21:06:02.552507 31070 layer_factory.hpp:77] Creating layer relu5_2
I0219 21:06:02.552527 31070 net.cpp:91] Creating Layer relu5_2
I0219 21:06:02.552536 31070 net.cpp:425] relu5_2 <- conv5_2
I0219 21:06:02.552544 31070 net.cpp:386] relu5_2 -> conv5_2 (in-place)
I0219 21:06:02.552554 31070 net.cpp:141] Setting up relu5_2
I0219 21:06:02.552572 31070 net.cpp:148] Top shape: 32 512 14 14 (3211264)
I0219 21:06:02.552577 31070 net.cpp:156] Memory required for data: 3660841856
I0219 21:06:02.552597 31070 layer_factory.hpp:77] Creating layer conv5_3
I0219 21:06:02.552621 31070 net.cpp:91] Creating Layer conv5_3
I0219 21:06:02.552637 31070 net.cpp:425] conv5_3 <- conv5_2
I0219 21:06:02.552645 31070 net.cpp:399] conv5_3 -> conv5_3
I0219 21:06:02.566222 31070 net.cpp:141] Setting up conv5_3
I0219 21:06:02.566275 31070 net.cpp:148] Top shape: 32 512 14 14 (3211264)
I0219 21:06:02.566280 31070 net.cpp:156] Memory required for data: 3673686912
I0219 21:06:02.566295 31070 layer_factory.hpp:77] Creating layer relu5_3
I0219 21:06:02.566309 31070 net.cpp:91] Creating Layer relu5_3
I0219 21:06:02.566316 31070 net.cpp:425] relu5_3 <- conv5_3
I0219 21:06:02.566326 31070 net.cpp:386] relu5_3 -> conv5_3 (in-place)
I0219 21:06:02.566339 31070 net.cpp:141] Setting up relu5_3
I0219 21:06:02.566347 31070 net.cpp:148] Top shape: 32 512 14 14 (3211264)
I0219 21:06:02.566354 31070 net.cpp:156] Memory required for data: 3686531968
I0219 21:06:02.566359 31070 layer_factory.hpp:77] Creating layer rgb_pool5
I0219 21:06:02.566373 31070 net.cpp:91] Creating Layer rgb_pool5
I0219 21:06:02.566380 31070 net.cpp:425] rgb_pool5 <- conv5_3
I0219 21:06:02.566390 31070 net.cpp:399] rgb_pool5 -> rgb_pool5
I0219 21:06:02.566426 31070 net.cpp:141] Setting up rgb_pool5
I0219 21:06:02.566435 31070 net.cpp:148] Top shape: 32 512 7 7 (802816)
I0219 21:06:02.566442 31070 net.cpp:156] Memory required for data: 3689743232
I0219 21:06:02.566448 31070 layer_factory.hpp:77] Creating layer rgb_fc6
I0219 21:06:02.566468 31070 net.cpp:91] Creating Layer rgb_fc6
I0219 21:06:02.566475 31070 net.cpp:425] rgb_fc6 <- rgb_pool5
I0219 21:06:02.566483 31070 net.cpp:399] rgb_fc6 -> rgb_fc6
I0219 21:06:03.037930 31070 net.cpp:141] Setting up rgb_fc6
I0219 21:06:03.037961 31070 net.cpp:148] Top shape: 32 4096 (131072)
I0219 21:06:03.037966 31070 net.cpp:156] Memory required for data: 3690267520
I0219 21:06:03.037976 31070 layer_factory.hpp:77] Creating layer rgb_relu6
I0219 21:06:03.037999 31070 net.cpp:91] Creating Layer rgb_relu6
I0219 21:06:03.038005 31070 net.cpp:425] rgb_relu6 <- rgb_fc6
I0219 21:06:03.038024 31070 net.cpp:386] rgb_relu6 -> rgb_fc6 (in-place)
I0219 21:06:03.038043 31070 net.cpp:141] Setting up rgb_relu6
I0219 21:06:03.038049 31070 net.cpp:148] Top shape: 32 4096 (131072)
I0219 21:06:03.038064 31070 net.cpp:156] Memory required for data: 3690791808
I0219 21:06:03.038069 31070 layer_factory.hpp:77] Creating layer rgb_drop6
I0219 21:06:03.038085 31070 net.cpp:91] Creating Layer rgb_drop6
I0219 21:06:03.038090 31070 net.cpp:425] rgb_drop6 <- rgb_fc6
I0219 21:06:03.038105 31070 net.cpp:386] rgb_drop6 -> rgb_fc6 (in-place)
I0219 21:06:03.038126 31070 net.cpp:141] Setting up rgb_drop6
I0219 21:06:03.038142 31070 net.cpp:148] Top shape: 32 4096 (131072)
I0219 21:06:03.038146 31070 net.cpp:156] Memory required for data: 3691316096
I0219 21:06:03.038149 31070 layer_factory.hpp:77] Creating layer rgb_fc7
I0219 21:06:03.038159 31070 net.cpp:91] Creating Layer rgb_fc7
I0219 21:06:03.038164 31070 net.cpp:425] rgb_fc7 <- rgb_fc6
I0219 21:06:03.038179 31070 net.cpp:399] rgb_fc7 -> rgb_fc7
I0219 21:06:03.116412 31070 net.cpp:141] Setting up rgb_fc7
I0219 21:06:03.116443 31070 net.cpp:148] Top shape: 32 4096 (131072)
I0219 21:06:03.116448 31070 net.cpp:156] Memory required for data: 3691840384
I0219 21:06:03.116458 31070 layer_factory.hpp:77] Creating layer rgb_relu7
I0219 21:06:03.116480 31070 net.cpp:91] Creating Layer rgb_relu7
I0219 21:06:03.116497 31070 net.cpp:425] rgb_relu7 <- rgb_fc7
I0219 21:06:03.116515 31070 net.cpp:386] rgb_relu7 -> rgb_fc7 (in-place)
I0219 21:06:03.116535 31070 net.cpp:141] Setting up rgb_relu7
I0219 21:06:03.116541 31070 net.cpp:148] Top shape: 32 4096 (131072)
I0219 21:06:03.116556 31070 net.cpp:156] Memory required for data: 3692364672
I0219 21:06:03.116560 31070 layer_factory.hpp:77] Creating layer rgb_drop7
I0219 21:06:03.116577 31070 net.cpp:91] Creating Layer rgb_drop7
I0219 21:06:03.116582 31070 net.cpp:425] rgb_drop7 <- rgb_fc7
I0219 21:06:03.116603 31070 net.cpp:386] rgb_drop7 -> rgb_fc7 (in-place)
I0219 21:06:03.116636 31070 net.cpp:141] Setting up rgb_drop7
I0219 21:06:03.116642 31070 net.cpp:148] Top shape: 32 4096 (131072)
I0219 21:06:03.116647 31070 net.cpp:156] Memory required for data: 3692888960
I0219 21:06:03.116660 31070 layer_factory.hpp:77] Creating layer rgb_fc7_rgb_drop7_0_split
I0219 21:06:03.116667 31070 net.cpp:91] Creating Layer rgb_fc7_rgb_drop7_0_split
I0219 21:06:03.116672 31070 net.cpp:425] rgb_fc7_rgb_drop7_0_split <- rgb_fc7
I0219 21:06:03.116686 31070 net.cpp:399] rgb_fc7_rgb_drop7_0_split -> rgb_fc7_rgb_drop7_0_split_0
I0219 21:06:03.116693 31070 net.cpp:399] rgb_fc7_rgb_drop7_0_split -> rgb_fc7_rgb_drop7_0_split_1
I0219 21:06:03.116750 31070 net.cpp:141] Setting up rgb_fc7_rgb_drop7_0_split
I0219 21:06:03.116768 31070 net.cpp:148] Top shape: 32 4096 (131072)
I0219 21:06:03.116775 31070 net.cpp:148] Top shape: 32 4096 (131072)
I0219 21:06:03.116778 31070 net.cpp:156] Memory required for data: 3693937536
I0219 21:06:03.116782 31070 layer_factory.hpp:77] Creating layer rgb_fc8
I0219 21:06:03.116792 31070 net.cpp:91] Creating Layer rgb_fc8
I0219 21:06:03.116797 31070 net.cpp:425] rgb_fc8 <- rgb_fc7_rgb_drop7_0_split_0
I0219 21:06:03.116803 31070 net.cpp:399] rgb_fc8 -> rgb_fc8
I0219 21:06:03.118041 31070 net.cpp:141] Setting up rgb_fc8
I0219 21:06:03.118052 31070 net.cpp:148] Top shape: 32 51 (1632)
I0219 21:06:03.118057 31070 net.cpp:156] Memory required for data: 3693944064
I0219 21:06:03.118062 31070 layer_factory.hpp:77] Creating layer rgb_fc8_rgb_fc8_0_split
I0219 21:06:03.118068 31070 net.cpp:91] Creating Layer rgb_fc8_rgb_fc8_0_split
I0219 21:06:03.118084 31070 net.cpp:425] rgb_fc8_rgb_fc8_0_split <- rgb_fc8
I0219 21:06:03.118089 31070 net.cpp:399] rgb_fc8_rgb_fc8_0_split -> rgb_fc8_rgb_fc8_0_split_0
I0219 21:06:03.118108 31070 net.cpp:399] rgb_fc8_rgb_fc8_0_split -> rgb_fc8_rgb_fc8_0_split_1
I0219 21:06:03.118166 31070 net.cpp:141] Setting up rgb_fc8_rgb_fc8_0_split
I0219 21:06:03.118183 31070 net.cpp:148] Top shape: 32 51 (1632)
I0219 21:06:03.118188 31070 net.cpp:148] Top shape: 32 51 (1632)
I0219 21:06:03.118203 31070 net.cpp:156] Memory required for data: 3693957120
I0219 21:06:03.118207 31070 layer_factory.hpp:77] Creating layer conv1
I0219 21:06:03.118216 31070 net.cpp:91] Creating Layer conv1
I0219 21:06:03.118221 31070 net.cpp:425] conv1 <- depth
I0219 21:06:03.118228 31070 net.cpp:399] conv1 -> conv1
I0219 21:06:03.118376 31070 net.cpp:141] Setting up conv1
I0219 21:06:03.118383 31070 net.cpp:148] Top shape: 32 128 112 112 (51380224)
I0219 21:06:03.118388 31070 net.cpp:156] Memory required for data: 3899478016
I0219 21:06:03.118397 31070 layer_factory.hpp:77] Creating layer relu1
I0219 21:06:03.118403 31070 net.cpp:91] Creating Layer relu1
I0219 21:06:03.118408 31070 net.cpp:425] relu1 <- conv1
I0219 21:06:03.118414 31070 net.cpp:386] relu1 -> conv1 (in-place)
I0219 21:06:03.118420 31070 net.cpp:141] Setting up relu1
I0219 21:06:03.118425 31070 net.cpp:148] Top shape: 32 128 112 112 (51380224)
I0219 21:06:03.118430 31070 net.cpp:156] Memory required for data: 4104998912
I0219 21:06:03.118434 31070 layer_factory.hpp:77] Creating layer depth_pool1
I0219 21:06:03.118440 31070 net.cpp:91] Creating Layer depth_pool1
I0219 21:06:03.118444 31070 net.cpp:425] depth_pool1 <- conv1
I0219 21:06:03.118451 31070 net.cpp:399] depth_pool1 -> depth_pool1
I0219 21:06:03.118476 31070 net.cpp:141] Setting up depth_pool1
I0219 21:06:03.118484 31070 net.cpp:148] Top shape: 32 128 56 56 (12845056)
I0219 21:06:03.118487 31070 net.cpp:156] Memory required for data: 4156379136
I0219 21:06:03.118491 31070 layer_factory.hpp:77] Creating layer norm1
I0219 21:06:03.118499 31070 net.cpp:91] Creating Layer norm1
I0219 21:06:03.118502 31070 net.cpp:425] norm1 <- depth_pool1
I0219 21:06:03.118508 31070 net.cpp:399] norm1 -> norm1
I0219 21:06:03.118530 31070 net.cpp:141] Setting up norm1
I0219 21:06:03.118536 31070 net.cpp:148] Top shape: 32 128 56 56 (12845056)
I0219 21:06:03.118541 31070 net.cpp:156] Memory required for data: 4207759360
I0219 21:06:03.118546 31070 layer_factory.hpp:77] Creating layer conv2
I0219 21:06:03.118553 31070 net.cpp:91] Creating Layer conv2
I0219 21:06:03.118558 31070 net.cpp:425] conv2 <- norm1
I0219 21:06:03.118566 31070 net.cpp:399] conv2 -> conv2
I0219 21:06:03.122701 31070 net.cpp:141] Setting up conv2
I0219 21:06:03.122714 31070 net.cpp:148] Top shape: 32 256 56 56 (25690112)
I0219 21:06:03.122719 31070 net.cpp:156] Memory required for data: 4310519808
I0219 21:06:03.122725 31070 layer_factory.hpp:77] Creating layer relu2
I0219 21:06:03.122731 31070 net.cpp:91] Creating Layer relu2
I0219 21:06:03.122735 31070 net.cpp:425] relu2 <- conv2
I0219 21:06:03.122750 31070 net.cpp:386] relu2 -> conv2 (in-place)
I0219 21:06:03.122757 31070 net.cpp:141] Setting up relu2
I0219 21:06:03.122762 31070 net.cpp:148] Top shape: 32 256 56 56 (25690112)
I0219 21:06:03.122766 31070 net.cpp:156] Memory required for data: 4413280256
I0219 21:06:03.122771 31070 layer_factory.hpp:77] Creating layer depth_pool2
I0219 21:06:03.122777 31070 net.cpp:91] Creating Layer depth_pool2
I0219 21:06:03.122781 31070 net.cpp:425] depth_pool2 <- conv2
I0219 21:06:03.122788 31070 net.cpp:399] depth_pool2 -> depth_pool2
I0219 21:06:03.122822 31070 net.cpp:141] Setting up depth_pool2
I0219 21:06:03.122828 31070 net.cpp:148] Top shape: 32 256 28 28 (6422528)
I0219 21:06:03.122833 31070 net.cpp:156] Memory required for data: 4438970368
I0219 21:06:03.122836 31070 layer_factory.hpp:77] Creating layer norm2
I0219 21:06:03.122843 31070 net.cpp:91] Creating Layer norm2
I0219 21:06:03.122848 31070 net.cpp:425] norm2 <- depth_pool2
I0219 21:06:03.122854 31070 net.cpp:399] norm2 -> norm2
I0219 21:06:03.122874 31070 net.cpp:141] Setting up norm2
I0219 21:06:03.122881 31070 net.cpp:148] Top shape: 32 256 28 28 (6422528)
I0219 21:06:03.122885 31070 net.cpp:156] Memory required for data: 4464660480
I0219 21:06:03.122889 31070 layer_factory.hpp:77] Creating layer conv3
I0219 21:06:03.122897 31070 net.cpp:91] Creating Layer conv3
I0219 21:06:03.122902 31070 net.cpp:425] conv3 <- norm2
I0219 21:06:03.122910 31070 net.cpp:399] conv3 -> conv3
I0219 21:06:03.125097 31070 net.cpp:141] Setting up conv3
I0219 21:06:03.125108 31070 net.cpp:148] Top shape: 32 384 28 28 (9633792)
I0219 21:06:03.125113 31070 net.cpp:156] Memory required for data: 4503195648
I0219 21:06:03.125120 31070 layer_factory.hpp:77] Creating layer relu3
I0219 21:06:03.125126 31070 net.cpp:91] Creating Layer relu3
I0219 21:06:03.125131 31070 net.cpp:425] relu3 <- conv3
I0219 21:06:03.125138 31070 net.cpp:386] relu3 -> conv3 (in-place)
I0219 21:06:03.125144 31070 net.cpp:141] Setting up relu3
I0219 21:06:03.125149 31070 net.cpp:148] Top shape: 32 384 28 28 (9633792)
I0219 21:06:03.125154 31070 net.cpp:156] Memory required for data: 4541730816
I0219 21:06:03.125157 31070 layer_factory.hpp:77] Creating layer depth_pool3
I0219 21:06:03.125164 31070 net.cpp:91] Creating Layer depth_pool3
I0219 21:06:03.125167 31070 net.cpp:425] depth_pool3 <- conv3
I0219 21:06:03.125174 31070 net.cpp:399] depth_pool3 -> depth_pool3
I0219 21:06:03.125197 31070 net.cpp:141] Setting up depth_pool3
I0219 21:06:03.125203 31070 net.cpp:148] Top shape: 32 384 14 14 (2408448)
I0219 21:06:03.125207 31070 net.cpp:156] Memory required for data: 4551364608
I0219 21:06:03.125212 31070 layer_factory.hpp:77] Creating layer conv4
I0219 21:06:03.125221 31070 net.cpp:91] Creating Layer conv4
I0219 21:06:03.125226 31070 net.cpp:425] conv4 <- depth_pool3
I0219 21:06:03.125231 31070 net.cpp:399] conv4 -> conv4
I0219 21:06:03.133678 31070 net.cpp:141] Setting up conv4
I0219 21:06:03.133704 31070 net.cpp:148] Top shape: 32 512 14 14 (3211264)
I0219 21:06:03.133708 31070 net.cpp:156] Memory required for data: 4564209664
I0219 21:06:03.133718 31070 layer_factory.hpp:77] Creating layer relu4
I0219 21:06:03.133740 31070 net.cpp:91] Creating Layer relu4
I0219 21:06:03.133745 31070 net.cpp:425] relu4 <- conv4
I0219 21:06:03.133761 31070 net.cpp:386] relu4 -> conv4 (in-place)
I0219 21:06:03.133780 31070 net.cpp:141] Setting up relu4
I0219 21:06:03.133785 31070 net.cpp:148] Top shape: 32 512 14 14 (3211264)
I0219 21:06:03.133788 31070 net.cpp:156] Memory required for data: 4577054720
I0219 21:06:03.133795 31070 layer_factory.hpp:77] Creating layer conv5
I0219 21:06:03.133813 31070 net.cpp:91] Creating Layer conv5
I0219 21:06:03.133817 31070 net.cpp:425] conv5 <- conv4
I0219 21:06:03.133824 31070 net.cpp:399] conv5 -> conv5
I0219 21:06:03.145493 31070 net.cpp:141] Setting up conv5
I0219 21:06:03.145532 31070 net.cpp:148] Top shape: 32 512 14 14 (3211264)
I0219 21:06:03.145537 31070 net.cpp:156] Memory required for data: 4589899776
I0219 21:06:03.145550 31070 layer_factory.hpp:77] Creating layer relu5
I0219 21:06:03.145571 31070 net.cpp:91] Creating Layer relu5
I0219 21:06:03.145578 31070 net.cpp:425] relu5 <- conv5
I0219 21:06:03.145586 31070 net.cpp:386] relu5 -> conv5 (in-place)
I0219 21:06:03.145596 31070 net.cpp:141] Setting up relu5
I0219 21:06:03.145612 31070 net.cpp:148] Top shape: 32 512 14 14 (3211264)
I0219 21:06:03.145618 31070 net.cpp:156] Memory required for data: 4602744832
I0219 21:06:03.145635 31070 layer_factory.hpp:77] Creating layer depth_pool5
I0219 21:06:03.145653 31070 net.cpp:91] Creating Layer depth_pool5
I0219 21:06:03.145658 31070 net.cpp:425] depth_pool5 <- conv5
I0219 21:06:03.145664 31070 net.cpp:399] depth_pool5 -> depth_pool5
I0219 21:06:03.145735 31070 net.cpp:141] Setting up depth_pool5
I0219 21:06:03.145743 31070 net.cpp:148] Top shape: 32 512 7 7 (802816)
I0219 21:06:03.145747 31070 net.cpp:156] Memory required for data: 4605956096
I0219 21:06:03.145752 31070 layer_factory.hpp:77] Creating layer depth_fc6
I0219 21:06:03.145761 31070 net.cpp:91] Creating Layer depth_fc6
I0219 21:06:03.145766 31070 net.cpp:425] depth_fc6 <- depth_pool5
I0219 21:06:03.145773 31070 net.cpp:399] depth_fc6 -> depth_fc6
I0219 21:06:03.614940 31070 net.cpp:141] Setting up depth_fc6
I0219 21:06:03.614970 31070 net.cpp:148] Top shape: 32 4096 (131072)
I0219 21:06:03.614974 31070 net.cpp:156] Memory required for data: 4606480384
I0219 21:06:03.614984 31070 layer_factory.hpp:77] Creating layer depth_relu6
I0219 21:06:03.615005 31070 net.cpp:91] Creating Layer depth_relu6
I0219 21:06:03.615021 31070 net.cpp:425] depth_relu6 <- depth_fc6
I0219 21:06:03.615030 31070 net.cpp:386] depth_relu6 -> depth_fc6 (in-place)
I0219 21:06:03.615046 31070 net.cpp:141] Setting up depth_relu6
I0219 21:06:03.615061 31070 net.cpp:148] Top shape: 32 4096 (131072)
I0219 21:06:03.615066 31070 net.cpp:156] Memory required for data: 4607004672
I0219 21:06:03.615078 31070 layer_factory.hpp:77] Creating layer depth_drop6
I0219 21:06:03.615097 31070 net.cpp:91] Creating Layer depth_drop6
I0219 21:06:03.615100 31070 net.cpp:425] depth_drop6 <- depth_fc6
I0219 21:06:03.615104 31070 net.cpp:386] depth_drop6 -> depth_fc6 (in-place)
I0219 21:06:03.615139 31070 net.cpp:141] Setting up depth_drop6
I0219 21:06:03.615155 31070 net.cpp:148] Top shape: 32 4096 (131072)
I0219 21:06:03.615159 31070 net.cpp:156] Memory required for data: 4607528960
I0219 21:06:03.615175 31070 layer_factory.hpp:77] Creating layer depth_fc7
I0219 21:06:03.615181 31070 net.cpp:91] Creating Layer depth_fc7
I0219 21:06:03.615185 31070 net.cpp:425] depth_fc7 <- depth_fc6
I0219 21:06:03.615200 31070 net.cpp:399] depth_fc7 -> depth_fc7
I0219 21:06:03.693310 31070 net.cpp:141] Setting up depth_fc7
I0219 21:06:03.693341 31070 net.cpp:148] Top shape: 32 4096 (131072)
I0219 21:06:03.693344 31070 net.cpp:156] Memory required for data: 4608053248
I0219 21:06:03.693353 31070 layer_factory.hpp:77] Creating layer depth_relu7
I0219 21:06:03.693375 31070 net.cpp:91] Creating Layer depth_relu7
I0219 21:06:03.693394 31070 net.cpp:425] depth_relu7 <- depth_fc7
I0219 21:06:03.693401 31070 net.cpp:386] depth_relu7 -> depth_fc7 (in-place)
I0219 21:06:03.693418 31070 net.cpp:141] Setting up depth_relu7
I0219 21:06:03.693434 31070 net.cpp:148] Top shape: 32 4096 (131072)
I0219 21:06:03.693436 31070 net.cpp:156] Memory required for data: 4608577536
I0219 21:06:03.693442 31070 layer_factory.hpp:77] Creating layer depth_drop7
I0219 21:06:03.693451 31070 net.cpp:91] Creating Layer depth_drop7
I0219 21:06:03.693456 31070 net.cpp:425] depth_drop7 <- depth_fc7
I0219 21:06:03.693470 31070 net.cpp:386] depth_drop7 -> depth_fc7 (in-place)
I0219 21:06:03.693497 31070 net.cpp:141] Setting up depth_drop7
I0219 21:06:03.693505 31070 net.cpp:148] Top shape: 32 4096 (131072)
I0219 21:06:03.693508 31070 net.cpp:156] Memory required for data: 4609101824
I0219 21:06:03.693512 31070 layer_factory.hpp:77] Creating layer depth_fc7_depth_drop7_0_split
I0219 21:06:03.693533 31070 net.cpp:91] Creating Layer depth_fc7_depth_drop7_0_split
I0219 21:06:03.693537 31070 net.cpp:425] depth_fc7_depth_drop7_0_split <- depth_fc7
I0219 21:06:03.693554 31070 net.cpp:399] depth_fc7_depth_drop7_0_split -> depth_fc7_depth_drop7_0_split_0
I0219 21:06:03.693562 31070 net.cpp:399] depth_fc7_depth_drop7_0_split -> depth_fc7_depth_drop7_0_split_1
I0219 21:06:03.693593 31070 net.cpp:141] Setting up depth_fc7_depth_drop7_0_split
I0219 21:06:03.693599 31070 net.cpp:148] Top shape: 32 4096 (131072)
I0219 21:06:03.693614 31070 net.cpp:148] Top shape: 32 4096 (131072)
I0219 21:06:03.693617 31070 net.cpp:156] Memory required for data: 4610150400
I0219 21:06:03.693630 31070 layer_factory.hpp:77] Creating layer depth_fc8
I0219 21:06:03.693648 31070 net.cpp:91] Creating Layer depth_fc8
I0219 21:06:03.693653 31070 net.cpp:425] depth_fc8 <- depth_fc7_depth_drop7_0_split_0
I0219 21:06:03.693662 31070 net.cpp:399] depth_fc8 -> depth_fc8
I0219 21:06:03.694824 31070 net.cpp:141] Setting up depth_fc8
I0219 21:06:03.694834 31070 net.cpp:148] Top shape: 32 51 (1632)
I0219 21:06:03.694839 31070 net.cpp:156] Memory required for data: 4610156928
I0219 21:06:03.694844 31070 layer_factory.hpp:77] Creating layer depth_fc8_depth_fc8_0_split
I0219 21:06:03.694849 31070 net.cpp:91] Creating Layer depth_fc8_depth_fc8_0_split
I0219 21:06:03.694854 31070 net.cpp:425] depth_fc8_depth_fc8_0_split <- depth_fc8
I0219 21:06:03.694869 31070 net.cpp:399] depth_fc8_depth_fc8_0_split -> depth_fc8_depth_fc8_0_split_0
I0219 21:06:03.694885 31070 net.cpp:399] depth_fc8_depth_fc8_0_split -> depth_fc8_depth_fc8_0_split_1
I0219 21:06:03.694916 31070 net.cpp:141] Setting up depth_fc8_depth_fc8_0_split
I0219 21:06:03.694932 31070 net.cpp:148] Top shape: 32 51 (1632)
I0219 21:06:03.694936 31070 net.cpp:148] Top shape: 32 51 (1632)
I0219 21:06:03.694939 31070 net.cpp:156] Memory required for data: 4610169984
I0219 21:06:03.694943 31070 layer_factory.hpp:77] Creating layer concat
I0219 21:06:03.694948 31070 net.cpp:91] Creating Layer concat
I0219 21:06:03.694953 31070 net.cpp:425] concat <- rgb_fc7_rgb_drop7_0_split_1
I0219 21:06:03.694969 31070 net.cpp:425] concat <- depth_fc7_depth_drop7_0_split_1
I0219 21:06:03.694974 31070 net.cpp:399] concat -> concat
I0219 21:06:03.695004 31070 net.cpp:141] Setting up concat
I0219 21:06:03.695010 31070 net.cpp:148] Top shape: 32 8192 (262144)
I0219 21:06:03.695024 31070 net.cpp:156] Memory required for data: 4611218560
I0219 21:06:03.695027 31070 layer_factory.hpp:77] Creating layer rgbd_fc8
I0219 21:06:03.695044 31070 net.cpp:91] Creating Layer rgbd_fc8
I0219 21:06:03.695049 31070 net.cpp:425] rgbd_fc8 <- concat
I0219 21:06:03.695055 31070 net.cpp:399] rgbd_fc8 -> rgbd_fc8
I0219 21:06:03.697194 31070 net.cpp:141] Setting up rgbd_fc8
I0219 21:06:03.697206 31070 net.cpp:148] Top shape: 32 51 (1632)
I0219 21:06:03.697211 31070 net.cpp:156] Memory required for data: 4611225088
I0219 21:06:03.697217 31070 layer_factory.hpp:77] Creating layer rgbd_fc8_rgbd_fc8_0_split
I0219 21:06:03.697223 31070 net.cpp:91] Creating Layer rgbd_fc8_rgbd_fc8_0_split
I0219 21:06:03.697227 31070 net.cpp:425] rgbd_fc8_rgbd_fc8_0_split <- rgbd_fc8
I0219 21:06:03.697233 31070 net.cpp:399] rgbd_fc8_rgbd_fc8_0_split -> rgbd_fc8_rgbd_fc8_0_split_0
I0219 21:06:03.697239 31070 net.cpp:399] rgbd_fc8_rgbd_fc8_0_split -> rgbd_fc8_rgbd_fc8_0_split_1
I0219 21:06:03.697260 31070 net.cpp:141] Setting up rgbd_fc8_rgbd_fc8_0_split
I0219 21:06:03.697266 31070 net.cpp:148] Top shape: 32 51 (1632)
I0219 21:06:03.697271 31070 net.cpp:148] Top shape: 32 51 (1632)
I0219 21:06:03.697275 31070 net.cpp:156] Memory required for data: 4611238144
I0219 21:06:03.697279 31070 layer_factory.hpp:77] Creating layer rgb_accuracy
I0219 21:06:03.697288 31070 net.cpp:91] Creating Layer rgb_accuracy
I0219 21:06:03.697293 31070 net.cpp:425] rgb_accuracy <- rgb_fc8_rgb_fc8_0_split_0
I0219 21:06:03.697299 31070 net.cpp:425] rgb_accuracy <- label_data_2_split_0
…
I0219 21:06:03.699326 31070 net.cpp:49] Initializing net from parameters: 
state {
  phase: TEST
}
layer {
  name: "data"
  type: "Python"
  top: "rgb"
  top: "depth"
  top: "label"
  python_param {
    module: "data_layers.washington_data_layer"
    layer: "WashingtonDataLayer"
    param_str: "{\'img_size\': (224, 224), \'split\': \'test\', \'dataset_dir\': \'/home/kevin/dataset/washington_rgbd_dataset\', \'randomize\': False, \'mean\': (104.00698793, 116.66876762, 122.67891434), \'seed\': 1337, \'batch_size\': 1, \'crop_size\': (224, 224, 224, 224)}"
  }
}
layer {
  name: "conv1_1"
  type: "Convolution"
  bottom: "rgb"
  top: "conv1_1"
  param {
    name: "conv1_1_w"
    lr_mult: 0
    decay_mult: 1
  }
  param {
    name: "conv1_1_b"
    lr_mult: 0
    decay_mult: 0
  }
  convolution_param {
    num_output: 64
    pad: 1
    kernel_size: 3
    group: 1
    stride: 1
    weight_filler {
      type: "xavier"
    }
  }
}
layer {
  name: "relu1_1"
  type: "ReLU"
  bottom: "conv1_1"
  top: "conv1_1"
}
layer {
  name: "conv1_2"
  type: "Convolution"
  bottom: "conv1_1"
  top: "conv1_2"
  param {
    name: "conv1_2_w"
    lr_mult: 0
    decay_mult: 1
  }
  param {
    name: "conv1_2_b"
    lr_mult: 0
    decay_mult: 0
  }
  convolution_param {
    num_output: 64
    pad: 1
    kernel_size: 3
    group: 1
    stride: 1
    weight_filler {
      type: "xavier"
    }
  }
}
layer {
  name: "relu1_2"
  type: "ReLU"
  bottom: "conv1_2"
  top: "conv1_2"
}
layer {
  name: "rgb_pool1"
  type: "Pooling"
  bottom: "conv1_2"
  top: "rgb_pool1"
  pooling_param {
    pool: MAX
    kernel_size: 2
    stride: 2
  }
}
layer {
  name: "conv2_1"
  type: "Convolution"
  bottom: "rgb_pool1"
  top: "conv2_1"
  param {
    name: "conv2_1_w"
    lr_mult: 0
    decay_mult: 1
  }
  param {
    name: "conv2_1_b"
    lr_mult: 0
    decay_mult: 0
  }
  convolution_param {
    num_output: 128
    pad: 1
    kernel_size: 3
    group: 1
    stride: 1
    weight_filler {
      type: "xavier"
    }
  }
}
layer {
  name: "relu2_1"
  type: "ReLU"
  bottom: "conv2_1"
  top: "conv2_1"
}
layer {
  name: "conv2_2"
  type: "Convolution"
  bottom: "conv2_1"
  top: "conv2_2"
  param {
    name: "conv2_2_w"
    lr_mult: 0
    decay_mult: 1
  }
  param {
    name: "conv2_2_b"
    lr_mult: 0
    decay_mult: 0
  }
  convolution_param {
    num_output: 128
    pad: 1
    kernel_size: 3
    group: 1
    stride: 1
    weight_filler {
      type: "xavier"
    }
  }
}
layer {
  name: "relu2_2"
  type: "ReLU"
  bottom: "conv2_2"
  top: "conv2_2"
}
layer {
  name: "rgb_pool2"
  type: "Pooling"
  bottom: "conv2_2"
  top: "rgb_pool2"
  pooling_param {
    pool: MAX
    kernel_size: 2
    stride: 2
  }
}
layer {
  name: "conv3_1"
  type: "Convolution"
  bottom: "rgb_pool2"
  top: "conv3_1"
  param {
    name: "conv3_1_w"
    lr_mult: 0
    decay_mult: 1
  }
  param {
    name: "conv3_1_b"
    lr_mult: 0
    decay_mult: 0
  }
  convolution_param {
    num_output: 256
    pad: 1
    kernel_size: 3
    group: 1
    stride: 1
    weight_filler {
      type: "xavier"
    }
  }
}
layer {
  name: "relu3_1"
  type: "ReLU"
  bottom: "conv3_1"
  top: "conv3_1"
}
layer {
  name: "conv3_2"
  type: "Convolution"
  bottom: "conv3_1"
  top: "conv3_2"
  param {
    name: "conv3_2_w"
    lr_mult: 0
    decay_mult: 1
  }
  param {
    name: "conv3_2_b"
    lr_mult: 0
    decay_mult: 0
  }
  convolution_param {
    num_output: 256
    pad: 1
    kernel_size: 3
    group: 1
    stride: 1
    weight_filler {
      type: "xavier"
    }
  }
}
layer {
  name: "relu3_2"
  type: "ReLU"
  bottom: "conv3_2"
  top: "conv3_2"
}
layer {
  name: "conv3_3"
  type: "Convolution"
  bottom: "conv3_2"
  top: "conv3_3"
  param {
    name: "conv3_3_w"
    lr_mult: 0
    decay_mult: 1
  }
  param {
    name: "conv3_3_b"
    lr_mult: 0
    decay_mult: 0
  }
  convolution_param {
    num_output: 256
    pad: 1
    kernel_size: 3
    group: 1
    stride: 1
    weight_filler {
      type: "xavier"
    }
  }
}
layer {
  name: "relu3_3"
  type: "ReLU"
  bottom: "conv3_3"
  top: "conv3_3"
}
layer {
  name: "rgb_pool3"
  type: "Pooling"
  bottom: "conv3_3"
  top: "rgb_pool3"
  pooling_param {
    pool: MAX
    kernel_size: 2
    stride: 2
  }
}
layer {
  name: "conv4_1"
  type: "Convolution"
  bottom: "rgb_pool3"
  top: "conv4_1"
  param {
    name: "conv4_1_w"
    lr_mult: 0
    decay_mult: 1
  }
  param {
    name: "conv4_1_b"
    lr_mult: 0
    decay_mult: 0
  }
  convolution_param {
    num_output: 512
    pad: 1
    kernel_size: 3
    group: 1
    stride: 1
    weight_filler {
      type: "xavier"
    }
  }
}
layer {
  name: "relu4_1"
  type: "ReLU"
  bottom: "conv4_1"
  top: "conv4_1"
}
layer {
  name: "conv4_2"
  type: "Convolution"
  bottom: "conv4_1"
  top: "conv4_2"
  param {
    name: "conv4_2_w"
    lr_mult: 0
    decay_mult: 1
  }
  param {
    name: "conv4_2_b"
    lr_mult: 0
    decay_mult: 0
  }
  convolution_param {
    num_output: 512
    pad: 1
    kernel_size: 3
    group: 1
    stride: 1
    weight_filler {
      type: "xavier"
    }
  }
}
layer {
  name: "relu4_2"
  type: "ReLU"
  bottom: "conv4_2"
  top: "conv4_2"
}
layer {
  name: "conv4_3"
  type: "Convolution"
  bottom: "conv4_2"
  top: "conv4_3"
  param {
    name: "conv4_3_w"
    lr_mult: 0
    decay_mult: 1
  }
  param {
    name: "conv4_3_b"
    lr_mult: 0
    decay_mult: 0
  }
  convolution_param {
    num_output: 512
    pad: 1
    kernel_size: 3
    group: 1
    stride: 1
    weight_filler {
      type: "xavier"
    }
  }
}
layer {
  name: "relu4_3"
  type: "ReLU"
  bottom: "conv4_3"
  top: "conv4_3"
}
layer {
  name: "rgb_pool4"
  type: "Pooling"
  bottom: "conv4_3"
  top: "rgb_pool4"
  pooling_param {
    pool: MAX
    kernel_size: 2
    stride: 2
  }
}
layer {
  name: "conv5_1"
  type: "Convolution"
  bottom: "rgb_pool4"
  top: "conv5_1"
  param {
    name: "conv5_1_w"
    lr_mult: 0
    decay_mult: 1
  }
  param {
    name: "conv5_1_b"
    lr_mult: 0
    decay_mult: 0
  }
  convolution_param {
    num_output: 512
    pad: 1
    kernel_size: 3
    group: 1
    stride: 1
    weight_filler {
      type: "xavier"
    }
  }
}
layer {
  name: "relu5_1"
  type: "ReLU"
  bottom: "conv5_1"
  top: "conv5_1"
}
layer {
  name: "conv5_2"
  type: "Convolution"
  bottom: "conv5_1"
  top: "conv5_2"
  param {
    name: "conv5_2_w"
    lr_mult: 0
    decay_mult: 1
  }
  param {
    name: "conv5_2_b"
    lr_mult: 0
    decay_mult: 0
  }
  convolution_param {
    num_output: 512
    pad: 1
    kernel_size: 3
    group: 1
    stride: 1
    weight_filler {
      type: "xavier"
    }
  }
}
layer {
  name: "relu5_2"
  type: "ReLU"
  bottom: "conv5_2"
  top: "conv5_2"
}
layer {
  name: "conv5_3"
  type: "Convolution"
  bottom: "conv5_2"
  top: "conv5_3"
  param {
    name: "conv5_3_w"
    lr_mult: 0
    decay_mult: 1
  }
  param {
    name: "conv5_3_b"
    lr_mult: 0
    decay_mult: 0
  }
  convolution_param {
    num_output: 512
    pad: 1
    kernel_size: 3
    group: 1
    stride: 1
    weight_filler {
      type: "xavier"
    }
  }
}
layer {
  name: "relu5_3"
  type: "ReLU"
  bottom: "conv5_3"
  top: "conv5_3"
}
layer {
  name: "rgb_pool5"
  type: "Pooling"
  bottom: "conv5_3"
  top: "rgb_pool5"
  pooling_param {
    pool: MAX
    kernel_size: 2
    stride: 2
  }
}
layer {
  name: "rgb_fc6"
  type: "InnerProduct"
  bottom: "rgb_pool5"
  top: "rgb_fc6"
  param {
    lr_mult: 0
    decay_mult: 1
  }
  param {
    lr_mult: 0
    decay_mult: 0
  }
  inner_product_param {
    num_output: 4096
    weight_filler {
      type: "xavier"
    }
  }
}
layer {
  name: "rgb_relu6"
  type: "ReLU"
  bottom: "rgb_fc6"
  top: "rgb_fc6"
}
layer {
  name: "rgb_drop6"
  type: "Dropout"
  bottom: "rgb_fc6"
  top: "rgb_fc6"
  dropout_param {
    dropout_ratio: 0.5
  }
}
layer {
  name: "rgb_fc7"
  type: "InnerProduct"
  bottom: "rgb_fc6"
  top: "rgb_fc7"
  param {
    lr_mult: 0
    decay_mult: 1
  }
  param {
    lr_mult: 0
    decay_mult: 0
  }
  inner_product_param {
    num_output: 4096
    weight_filler {
      type: "xavier"
    }
  }
}
layer {
  name: "rgb_relu7"
  type: "ReLU"
  bottom: "rgb_fc7"
  top: "rgb_fc7"
}
layer {
  name: "rgb_drop7"
  type: "Dropout"
  bottom: "rgb_fc7"
  top: "rgb_fc7"
  dropout_param {
    dropout_ratio: 0.5
  }
}
layer {
  name: "rgb_fc8"
  type: "InnerProduct"
  bottom: "rgb_fc7"
  top: "rgb_fc8"
  param {
    lr_mult: 0
    decay_mult: 1
  }
  param {
    lr_mult: 0
    decay_mult: 0
  }
  inner_product_param {
    num_output: 51
    weight_filler {
      type: "xavier"
    }
  }
}
layer {
  name: "conv1"
  type: "Convolution"
  bottom: "depth"
  top: "conv1"
  param {
    name: "conv1_w"
    lr_mult: 0
    decay_mult: 1
  }
  param {
    name: "conv1_b"
    lr_mult: 0
    decay_mult: 0
  }
  convolution_param {
    num_output: 128
    pad: 2
    kernel_size: 5
    group: 1
    stride: 2
    weight_filler {
      type: "xavier"
    }
  }
}
layer {
  name: "relu1"
  type: "ReLU"
  bottom: "conv1"
  top: "conv1"
}
layer {
  name: "depth_pool1"
  type: "Pooling"
  bottom: "conv1"
  top: "depth_pool1"
  pooling_param {
    pool: MAX
    kernel_size: 3
    stride: 2
  }
}
layer {
  name: "norm1"
  type: "LRN"
  bottom: "depth_pool1"
  top: "norm1"
  lrn_param {
    local_size: 5
    alpha: 0.0005
    beta: 0.75
    k: 2
  }
}
layer {
  name: "conv2"
  type: "Convolution"
  bottom: "norm1"
  top: "conv2"
  param {
    name: "conv2_w"
    lr_mult: 0
    decay_mult: 1
  }
  param {
    name: "conv2_b"
    lr_mult: 0
    decay_mult: 0
  }
  convolution_param {
    num_output: 256
    pad: 2
    kernel_size: 5
    group: 1
    stride: 1
    weight_filler {
      type: "xavier"
    }
  }
}
layer {
  name: "relu2"
  type: "ReLU"
  bottom: "conv2"
  top: "conv2"
}
layer {
  name: "depth_pool2"
  type: "Pooling"
  bottom: "conv2"
  top: "depth_pool2"
  pooling_param {
    pool: MAX
    kernel_size: 3
    stride: 2
  }
}
layer {
  name: "norm2"
  type: "LRN"
  bottom: "depth_pool2"
  top: "norm2"
  lrn_param {
    local_size: 5
    alpha: 0.0005
    beta: 0.75
    k: 2
  }
}
layer {
  name: "conv3"
  type: "Convolution"
  bottom: "norm2"
  top: "conv3"
  param {
    name: "conv3_w"
    lr_mult: 0
    decay_mult: 1
  }
  param {
    name: "conv3_b"
    lr_mult: 0
    decay_mult: 0
  }
  convolution_param {
    num_output: 384
    pad: 1
    kernel_size: 3
    group: 2
    stride: 1
    weight_filler {
      type: "xavier"
    }
  }
}
layer {
  name: "relu3"
  type: "ReLU"
  bottom: "conv3"
  top: "conv3"
}
layer {
  name: "depth_pool3"
  type: "Pooling"
  bottom: "conv3"
  top: "depth_pool3"
  pooling_param {
    pool: MAX
    kernel_size: 3
    stride: 2
  }
}
layer {
  name: "conv4"
  type: "Convolution"
  bottom: "depth_pool3"
  top: "conv4"
  param {
    name: "conv4_w"
    lr_mult: 0
    decay_mult: 1
  }
  param {
    name: "conv4_b"
    lr_mult: 0
    decay_mult: 0
  }
  convolution_param {
    num_output: 512
    pad: 1
    kernel_size: 3
    group: 1
    stride: 1
    weight_filler {
      type: "xavier"
    }
  }
}
layer {
  name: "relu4"
  type: "ReLU"
  bottom: "conv4"
  top: "conv4"
}
layer {
  name: "conv5"
  type: "Convolution"
  bottom: "conv4"
  top: "conv5"
  param {
    name: "conv5_w"
    lr_mult: 0
    decay_mult: 1
  }
  param {
    name: "conv5_b"
    lr_mult: 0
    decay_mult: 0
  }
  convolution_param {
    num_output: 512
    pad: 1
    kernel_size: 3
    group: 1
    stride: 1
    weight_filler {
      type: "xavier"
    }
  }
}
layer {
  name: "relu5"
  type: "ReLU"
  bottom: "conv5"
  top: "conv5"
}
layer {
  name: "depth_pool5"
  type: "Pooling"
  bottom: "conv5"
  top: "depth_pool5"
  pooling_param {
    pool: MAX
    kernel_size: 3
    stride: 2
  }
}
layer {
  name: "depth_fc6"
  type: "InnerProduct"
  bottom: "depth_pool5"
  top: "depth_fc6"
  param {
    lr_mult: 0
    decay_mult: 1
  }
  param {
    lr_mult: 0
    decay_mult: 0
  }
  inner_product_param {
    num_output: 4096
    weight_filler {
      type: "xavier"
    }
  }
}
layer {
  name: "depth_relu6"
  type: "ReLU"
  bottom: "depth_fc6"
  top: "depth_fc6"
}
layer {
  name: "depth_drop6"
  type: "Dropout"
  bottom: "depth_fc6"
  top: "depth_fc6"
  dropout_param {
    dropout_ratio: 0.5
  }
}
layer {
  name: "depth_fc7"
  type: "InnerProduct"
  bottom: "depth_fc6"
  top: "depth_fc7"
  param {
    lr_mult: 0
    decay_mult: 1
  }
  param {
    lr_mult: 0
    decay_mult: 0
  }
  inner_product_param {
    num_output: 4096
    weight_filler {
      type: "xavier"
    }
  }
}
layer {
  name: "depth_relu7"
  type: "ReLU"
  bottom: "depth_fc7"
  top: "depth_fc7"
}
layer {
  name: "depth_drop7"
  type: "Dropout"
  bottom: "depth_fc7"
  top: "depth_fc7"
  dropout_param {
    dropout_ratio: 0.5
  }
}
layer {
  name: "depth_fc8"
  type: "InnerProduct"
  bottom: "depth_fc7"
  top: "depth_fc8"
  param {
    lr_mult: 0
    decay_mult: 1
  }
  param {
    lr_mult: 0
    decay_mult: 0
  }
  inner_product_param {
    num_output: 51
    weight_filler {
      type: "xavier"
    }
  }
}
layer {
  name: "concat"
  type: "Concat"
  bottom: "rgb_fc7"
  bottom: "depth_fc7"
  top: "concat"
  concat_param {
    axis: 1
  }
}
layer {
  name: "rgbd_fc8"
  type: "InnerProduct"
  bottom: "concat"
  top: "rgbd_fc8"
  param {
    lr_mult: 1
    decay_mult: 1
  }
  param {
    lr_mult: 2
    decay_mult: 0
  }
  inner_product_param {
    num_output: 51
    weight_filler {
      type: "xavier"
    }
  }
}
layer {
  name: "rgb_accuracy"
  type: "Accuracy"
  bottom: "rgb_fc8"
  bottom: "label"
  top: "rgb_accuracy"
}
layer {
  name: "rgb_loss"
  type: "SoftmaxWithLoss"
  bottom: "rgb_fc8"
  bottom: "label"
  top: "rgb_loss"
}
layer {
  name: "depth_accuracy"
  type: "Accuracy"
  bottom: "depth_fc8"
  bottom: "label"
  top: "depth_accuracy"
}
layer {
  name: "depth_loss"
  type: "SoftmaxWithLoss"
  bottom: "depth_fc8"
  bottom: "label"
  top: "depth_loss"
}
layer {
  name: "rgbd_accuracy"
  type: "Accuracy"
  bottom: "rgbd_fc8"
  bottom: "label"
  top: "rgbd_accuracy"
}
layer {
  name: "rgbd_loss"
  type: "SoftmaxWithLoss"
  bottom: "rgbd_fc8"
  bottom: "label"
  top: "rgbd_loss"
}
I0219 21:06:03.701280 31070 layer_factory.hpp:77] Creating layer data
I0219 21:06:03.701328 31070 net.cpp:91] Creating Layer data
I0219 21:06:03.701333 31070 net.cpp:399] data -> rgb
I0219 21:06:03.701339 31070 net.cpp:399] data -> depth
I0219 21:06:03.701344 31070 net.cpp:399] data -> label
{'img_size': (224, 224), 'split': 'test', 'dataset_dir': '/home/kevin/dataset/washington_rgbd_dataset', 'crop_size': (224, 224, 224, 224), 'randomize': False, 'seed': 1337, 'batch_size': 1, 'mean': (104.00698793, 116.66876762, 122.67891434)}
I0219 21:06:03.704089 31070 net.cpp:141] Setting up data
I0219 21:06:03.704103 31070 net.cpp:148] Top shape: 1 3 224 224 (150528)
I0219 21:06:03.704108 31070 net.cpp:148] Top shape: 1 1 224 224 (50176)
I0219 21:06:03.704113 31070 net.cpp:148] Top shape: 1 1 (1)
I0219 21:06:03.704115 31070 net.cpp:156] Memory required for data: 802820
I0219 21:06:03.704120 31070 layer_factory.hpp:77] Creating layer label_data_2_split
I0219 21:06:03.704136 31070 net.cpp:91] Creating Layer label_data_2_split
I0219 21:06:03.704140 31070 net.cpp:425] label_data_2_split <- label
I0219 21:06:03.704146 31070 net.cpp:399] label_data_2_split -> label_data_2_split_0
I0219 21:06:03.704152 31070 net.cpp:399] label_data_2_split -> label_data_2_split_1
I0219 21:06:03.704161 31070 net.cpp:399] label_data_2_split -> label_data_2_split_2
I0219 21:06:03.704169 31070 net.cpp:399] label_data_2_split -> label_data_2_split_3
I0219 21:06:03.704175 31070 net.cpp:399] label_data_2_split -> label_data_2_split_4
I0219 21:06:03.704180 31070 net.cpp:399] label_data_2_split -> label_data_2_split_5
I0219 21:06:03.704227 31070 net.cpp:141] Setting up label_data_2_split
I0219 21:06:03.704233 31070 net.cpp:148] Top shape: 1 1 (1)
I0219 21:06:03.704237 31070 net.cpp:148] Top shape: 1 1 (1)
I0219 21:06:03.704241 31070 net.cpp:148] Top shape: 1 1 (1)
I0219 21:06:03.704246 31070 net.cpp:148] Top shape: 1 1 (1)
I0219 21:06:03.704248 31070 net.cpp:148] Top shape: 1 1 (1)
I0219 21:06:03.704252 31070 net.cpp:148] Top shape: 1 1 (1)
I0219 21:06:03.704255 31070 net.cpp:156] Memory required for data: 802844
I0219 21:06:03.704259 31070 layer_factory.hpp:77] Creating layer conv1_1
I0219 21:06:03.704267 31070 net.cpp:91] Creating Layer conv1_1
I0219 21:06:03.704270 31070 net.cpp:425] conv1_1 <- rgb
I0219 21:06:03.704275 31070 net.cpp:399] conv1_1 -> conv1_1
I0219 21:06:03.704439 31070 net.cpp:141] Setting up conv1_1
I0219 21:06:03.704447 31070 net.cpp:148] Top shape: 1 64 224 224 (3211264)
I0219 21:06:03.704450 31070 net.cpp:156] Memory required for data: 13647900
I0219 21:06:03.704457 31070 layer_factory.hpp:77] Creating layer relu1_1
I0219 21:06:03.704463 31070 net.cpp:91] Creating Layer relu1_1
I0219 21:06:03.704466 31070 net.cpp:425] relu1_1 <- conv1_1
I0219 21:06:03.704470 31070 net.cpp:386] relu1_1 -> conv1_1 (in-place)
I0219 21:06:03.704476 31070 net.cpp:141] Setting up relu1_1
I0219 21:06:03.704480 31070 net.cpp:148] Top shape: 1 64 224 224 (3211264)
I0219 21:06:03.704483 31070 net.cpp:156] Memory required for data: 26492956
I0219 21:06:03.704488 31070 layer_factory.hpp:77] Creating layer conv1_2
I0219 21:06:03.704493 31070 net.cpp:91] Creating Layer conv1_2
I0219 21:06:03.704497 31070 net.cpp:425] conv1_2 <- conv1_1
I0219 21:06:03.704501 31070 net.cpp:399] conv1_2 -> conv1_2
I0219 21:06:03.705291 31070 net.cpp:141] Setting up conv1_2
I0219 21:06:03.705302 31070 net.cpp:148] Top shape: 1 64 224 224 (3211264)
I0219 21:06:03.705307 31070 net.cpp:156] Memory required for data: 39338012
I0219 21:06:03.705313 31070 layer_factory.hpp:77] Creating layer relu1_2
I0219 21:06:03.705318 31070 net.cpp:91] Creating Layer relu1_2
I0219 21:06:03.705322 31070 net.cpp:425] relu1_2 <- conv1_2
I0219 21:06:03.705327 31070 net.cpp:386] relu1_2 -> conv1_2 (in-place)
I0219 21:06:03.705333 31070 net.cpp:141] Setting up relu1_2
I0219 21:06:03.705338 31070 net.cpp:148] Top shape: 1 64 224 224 (3211264)
I0219 21:06:03.705340 31070 net.cpp:156] Memory required for data: 52183068
I0219 21:06:03.705344 31070 layer_factory.hpp:77] Creating layer rgb_pool1
I0219 21:06:03.705349 31070 net.cpp:91] Creating Layer rgb_pool1
I0219 21:06:03.705353 31070 net.cpp:425] rgb_pool1 <- conv1_2
I0219 21:06:03.705358 31070 net.cpp:399] rgb_pool1 -> rgb_pool1
I0219 21:06:03.705382 31070 net.cpp:141] Setting up rgb_pool1
I0219 21:06:03.705389 31070 net.cpp:148] Top shape: 1 64 112 112 (802816)
I0219 21:06:03.705391 31070 net.cpp:156] Memory required for data: 55394332
I0219 21:06:03.705394 31070 layer_factory.hpp:77] Creating layer conv2_1
I0219 21:06:03.705401 31070 net.cpp:91] Creating Layer conv2_1
I0219 21:06:03.705404 31070 net.cpp:425] conv2_1 <- rgb_pool1
I0219 21:06:03.705410 31070 net.cpp:399] conv2_1 -> conv2_1
I0219 21:06:03.706046 31070 net.cpp:141] Setting up conv2_1
I0219 21:06:03.706056 31070 net.cpp:148] Top shape: 1 128 112 112 (1605632)
I0219 21:06:03.706060 31070 net.cpp:156] Memory required for data: 61816860
I0219 21:06:03.706066 31070 layer_factory.hpp:77] Creating layer relu2_1
I0219 21:06:03.706073 31070 net.cpp:91] Creating Layer relu2_1
I0219 21:06:03.706076 31070 net.cpp:425] relu2_1 <- conv2_1
I0219 21:06:03.706080 31070 net.cpp:386] relu2_1 -> conv2_1 (in-place)
I0219 21:06:03.706086 31070 net.cpp:141] Setting up relu2_1
I0219 21:06:03.706090 31070 net.cpp:148] Top shape: 1 128 112 112 (1605632)
I0219 21:06:03.706094 31070 net.cpp:156] Memory required for data: 68239388
I0219 21:06:03.706097 31070 layer_factory.hpp:77] Creating layer conv2_2
I0219 21:06:03.706104 31070 net.cpp:91] Creating Layer conv2_2
I0219 21:06:03.706107 31070 net.cpp:425] conv2_2 <- conv2_1
I0219 21:06:03.706111 31070 net.cpp:399] conv2_2 -> conv2_2
I0219 21:06:03.706817 31070 net.cpp:141] Setting up conv2_2
I0219 21:06:03.706827 31070 net.cpp:148] Top shape: 1 128 112 112 (1605632)
I0219 21:06:03.706831 31070 net.cpp:156] Memory required for data: 74661916
I0219 21:06:03.706836 31070 layer_factory.hpp:77] Creating layer relu2_2
I0219 21:06:03.706850 31070 net.cpp:91] Creating Layer relu2_2
I0219 21:06:03.706854 31070 net.cpp:425] relu2_2 <- conv2_2
I0219 21:06:03.706858 31070 net.cpp:386] relu2_2 -> conv2_2 (in-place)
I0219 21:06:03.706864 31070 net.cpp:141] Setting up relu2_2
I0219 21:06:03.706868 31070 net.cpp:148] Top shape: 1 128 112 112 (1605632)
I0219 21:06:03.706872 31070 net.cpp:156] Memory required for data: 81084444
I0219 21:06:03.706876 31070 layer_factory.hpp:77] Creating layer rgb_pool2
I0219 21:06:03.706881 31070 net.cpp:91] Creating Layer rgb_pool2
I0219 21:06:03.706884 31070 net.cpp:425] rgb_pool2 <- conv2_2
I0219 21:06:03.706889 31070 net.cpp:399] rgb_pool2 -> rgb_pool2
I0219 21:06:03.706912 31070 net.cpp:141] Setting up rgb_pool2
I0219 21:06:03.706918 31070 net.cpp:148] Top shape: 1 128 56 56 (401408)
I0219 21:06:03.706921 31070 net.cpp:156] Memory required for data: 82690076
I0219 21:06:03.706925 31070 layer_factory.hpp:77] Creating layer conv3_1
I0219 21:06:03.706931 31070 net.cpp:91] Creating Layer conv3_1
I0219 21:06:03.706935 31070 net.cpp:425] conv3_1 <- rgb_pool2
I0219 21:06:03.706941 31070 net.cpp:399] conv3_1 -> conv3_1
I0219 21:06:03.708539 31070 net.cpp:141] Setting up conv3_1
I0219 21:06:03.708551 31070 net.cpp:148] Top shape: 1 256 56 56 (802816)
I0219 21:06:03.708555 31070 net.cpp:156] Memory required for data: 85901340
I0219 21:06:03.708562 31070 layer_factory.hpp:77] Creating layer relu3_1
I0219 21:06:03.708567 31070 net.cpp:91] Creating Layer relu3_1
I0219 21:06:03.708571 31070 net.cpp:425] relu3_1 <- conv3_1
I0219 21:06:03.708576 31070 net.cpp:386] relu3_1 -> conv3_1 (in-place)
I0219 21:06:03.708581 31070 net.cpp:141] Setting up relu3_1
I0219 21:06:03.708586 31070 net.cpp:148] Top shape: 1 256 56 56 (802816)
I0219 21:06:03.708590 31070 net.cpp:156] Memory required for data: 89112604
I0219 21:06:03.708592 31070 layer_factory.hpp:77] Creating layer conv3_2
I0219 21:06:03.708600 31070 net.cpp:91] Creating Layer conv3_2
I0219 21:06:03.708603 31070 net.cpp:425] conv3_2 <- conv3_1
I0219 21:06:03.708607 31070 net.cpp:399] conv3_2 -> conv3_2
I0219 21:06:03.711491 31070 net.cpp:141] Setting up conv3_2
I0219 21:06:03.711503 31070 net.cpp:148] Top shape: 1 256 56 56 (802816)
I0219 21:06:03.711506 31070 net.cpp:156] Memory required for data: 92323868
I0219 21:06:03.711513 31070 layer_factory.hpp:77] Creating layer relu3_2
I0219 21:06:03.711519 31070 net.cpp:91] Creating Layer relu3_2
I0219 21:06:03.711522 31070 net.cpp:425] relu3_2 <- conv3_2
I0219 21:06:03.711526 31070 net.cpp:386] relu3_2 -> conv3_2 (in-place)
I0219 21:06:03.711531 31070 net.cpp:141] Setting up relu3_2
I0219 21:06:03.711536 31070 net.cpp:148] Top shape: 1 256 56 56 (802816)
I0219 21:06:03.711539 31070 net.cpp:156] Memory required for data: 95535132
I0219 21:06:03.711542 31070 layer_factory.hpp:77] Creating layer conv3_3
I0219 21:06:03.711551 31070 net.cpp:91] Creating Layer conv3_3
I0219 21:06:03.711555 31070 net.cpp:425] conv3_3 <- conv3_2
I0219 21:06:03.711560 31070 net.cpp:399] conv3_3 -> conv3_3
I0219 21:06:03.714368 31070 net.cpp:141] Setting up conv3_3
I0219 21:06:03.714380 31070 net.cpp:148] Top shape: 1 256 56 56 (802816)
I0219 21:06:03.714383 31070 net.cpp:156] Memory required for data: 98746396
I0219 21:06:03.714390 31070 layer_factory.hpp:77] Creating layer relu3_3
I0219 21:06:03.714395 31070 net.cpp:91] Creating Layer relu3_3
I0219 21:06:03.714398 31070 net.cpp:425] relu3_3 <- conv3_3
I0219 21:06:03.714402 31070 net.cpp:386] relu3_3 -> conv3_3 (in-place)
I0219 21:06:03.714408 31070 net.cpp:141] Setting up relu3_3
I0219 21:06:03.714412 31070 net.cpp:148] Top shape: 1 256 56 56 (802816)
I0219 21:06:03.714416 31070 net.cpp:156] Memory required for data: 101957660
I0219 21:06:03.714418 31070 layer_factory.hpp:77] Creating layer rgb_pool3
I0219 21:06:03.714424 31070 net.cpp:91] Creating Layer rgb_pool3
I0219 21:06:03.714427 31070 net.cpp:425] rgb_pool3 <- conv3_3
I0219 21:06:03.714432 31070 net.cpp:399] rgb_pool3 -> rgb_pool3
I0219 21:06:03.714454 31070 net.cpp:141] Setting up rgb_pool3
I0219 21:06:03.714459 31070 net.cpp:148] Top shape: 1 256 28 28 (200704)
I0219 21:06:03.714463 31070 net.cpp:156] Memory required for data: 102760476
I0219 21:06:03.714467 31070 layer_factory.hpp:77] Creating layer conv4_1
I0219 21:06:03.714473 31070 net.cpp:91] Creating Layer conv4_1
I0219 21:06:03.714478 31070 net.cpp:425] conv4_1 <- rgb_pool3
I0219 21:06:03.714483 31070 net.cpp:399] conv4_1 -> conv4_1
I0219 21:06:03.719923 31070 net.cpp:141] Setting up conv4_1
I0219 21:06:03.719938 31070 net.cpp:148] Top shape: 1 512 28 28 (401408)
I0219 21:06:03.719943 31070 net.cpp:156] Memory required for data: 104366108
I0219 21:06:03.719949 31070 layer_factory.hpp:77] Creating layer relu4_1
I0219 21:06:03.719954 31070 net.cpp:91] Creating Layer relu4_1
I0219 21:06:03.719959 31070 net.cpp:425] relu4_1 <- conv4_1
I0219 21:06:03.719964 31070 net.cpp:386] relu4_1 -> conv4_1 (in-place)
I0219 21:06:03.719969 31070 net.cpp:141] Setting up relu4_1
I0219 21:06:03.719974 31070 net.cpp:148] Top shape: 1 512 28 28 (401408)
I0219 21:06:03.719976 31070 net.cpp:156] Memory required for data: 105971740
I0219 21:06:03.719980 31070 layer_factory.hpp:77] Creating layer conv4_2
I0219 21:06:03.719987 31070 net.cpp:91] Creating Layer conv4_2
I0219 21:06:03.719990 31070 net.cpp:425] conv4_2 <- conv4_1
I0219 21:06:03.719995 31070 net.cpp:399] conv4_2 -> conv4_2
I0219 21:06:03.731556 31070 net.cpp:141] Setting up conv4_2
I0219 21:06:03.731582 31070 net.cpp:148] Top shape: 1 512 28 28 (401408)
I0219 21:06:03.731586 31070 net.cpp:156] Memory required for data: 107577372
I0219 21:06:03.731600 31070 layer_factory.hpp:77] Creating layer relu4_2
I0219 21:06:03.731621 31070 net.cpp:91] Creating Layer relu4_2
I0219 21:06:03.731627 31070 net.cpp:425] relu4_2 <- conv4_2
I0219 21:06:03.731644 31070 net.cpp:386] relu4_2 -> conv4_2 (in-place)
I0219 21:06:03.731662 31070 net.cpp:141] Setting up relu4_2
I0219 21:06:03.731678 31070 net.cpp:148] Top shape: 1 512 28 28 (401408)
I0219 21:06:03.731683 31070 net.cpp:156] Memory required for data: 109183004
I0219 21:06:03.731698 31070 layer_factory.hpp:77] Creating layer conv4_3
I0219 21:06:03.731714 31070 net.cpp:91] Creating Layer conv4_3
I0219 21:06:03.731719 31070 net.cpp:425] conv4_3 <- conv4_2
I0219 21:06:03.731734 31070 net.cpp:399] conv4_3 -> conv4_3
I0219 21:06:03.742763 31070 net.cpp:141] Setting up conv4_3
I0219 21:06:03.742790 31070 net.cpp:148] Top shape: 1 512 28 28 (401408)
I0219 21:06:03.742794 31070 net.cpp:156] Memory required for data: 110788636
I0219 21:06:03.742804 31070 layer_factory.hpp:77] Creating layer relu4_3
I0219 21:06:03.742823 31070 net.cpp:91] Creating Layer relu4_3
I0219 21:06:03.742830 31070 net.cpp:425] relu4_3 <- conv4_3
I0219 21:06:03.742844 31070 net.cpp:386] relu4_3 -> conv4_3 (in-place)
I0219 21:06:03.742851 31070 net.cpp:141] Setting up relu4_3
I0219 21:06:03.742866 31070 net.cpp:148] Top shape: 1 512 28 28 (401408)
I0219 21:06:03.742869 31070 net.cpp:156] Memory required for data: 112394268
I0219 21:06:03.742882 31070 layer_factory.hpp:77] Creating layer rgb_pool4
I0219 21:06:03.742889 31070 net.cpp:91] Creating Layer rgb_pool4
I0219 21:06:03.742903 31070 net.cpp:425] rgb_pool4 <- conv4_3
I0219 21:06:03.742908 31070 net.cpp:399] rgb_pool4 -> rgb_pool4
I0219 21:06:03.742960 31070 net.cpp:141] Setting up rgb_pool4
I0219 21:06:03.742966 31070 net.cpp:148] Top shape: 1 512 14 14 (100352)
I0219 21:06:03.742970 31070 net.cpp:156] Memory required for data: 112795676
I0219 21:06:03.742974 31070 layer_factory.hpp:77] Creating layer conv5_1
I0219 21:06:03.742981 31070 net.cpp:91] Creating Layer conv5_1
I0219 21:06:03.742986 31070 net.cpp:425] conv5_1 <- rgb_pool4
I0219 21:06:03.742991 31070 net.cpp:399] conv5_1 -> conv5_1
I0219 21:06:03.754245 31070 net.cpp:141] Setting up conv5_1
I0219 21:06:03.754272 31070 net.cpp:148] Top shape: 1 512 14 14 (100352)
I0219 21:06:03.754278 31070 net.cpp:156] Memory required for data: 113197084
I0219 21:06:03.754287 31070 layer_factory.hpp:77] Creating layer relu5_1
I0219 21:06:03.754310 31070 net.cpp:91] Creating Layer relu5_1
I0219 21:06:03.754324 31070 net.cpp:425] relu5_1 <- conv5_1
I0219 21:06:03.754331 31070 net.cpp:386] relu5_1 -> conv5_1 (in-place)
I0219 21:06:03.754350 31070 net.cpp:141] Setting up relu5_1
I0219 21:06:03.754364 31070 net.cpp:148] Top shape: 1 512 14 14 (100352)
I0219 21:06:03.754369 31070 net.cpp:156] Memory required for data: 113598492
I0219 21:06:03.754384 31070 layer_factory.hpp:77] Creating layer conv5_2
I0219 21:06:03.754400 31070 net.cpp:91] Creating Layer conv5_2
I0219 21:06:03.754405 31070 net.cpp:425] conv5_2 <- conv5_1
I0219 21:06:03.754422 31070 net.cpp:399] conv5_2 -> conv5_2
I0219 21:06:03.765995 31070 net.cpp:141] Setting up conv5_2
I0219 21:06:03.766024 31070 net.cpp:148] Top shape: 1 512 14 14 (100352)
I0219 21:06:03.766029 31070 net.cpp:156] Memory required for data: 113999900
I0219 21:06:03.766048 31070 layer_factory.hpp:77] Creating layer relu5_2
I0219 21:06:03.766062 31070 net.cpp:91] Creating Layer relu5_2
I0219 21:06:03.766067 31070 net.cpp:425] relu5_2 <- conv5_2
I0219 21:06:03.766074 31070 net.cpp:386] relu5_2 -> conv5_2 (in-place)
I0219 21:06:03.766083 31070 net.cpp:141] Setting up relu5_2
I0219 21:06:03.766088 31070 net.cpp:148] Top shape: 1 512 14 14 (100352)
I0219 21:06:03.766093 31070 net.cpp:156] Memory required for data: 114401308
I0219 21:06:03.766096 31070 layer_factory.hpp:77] Creating layer conv5_3
I0219 21:06:03.766106 31070 net.cpp:91] Creating Layer conv5_3
I0219 21:06:03.766110 31070 net.cpp:425] conv5_3 <- conv5_2
I0219 21:06:03.766116 31070 net.cpp:399] conv5_3 -> conv5_3
I0219 21:06:03.777346 31070 net.cpp:141] Setting up conv5_3
I0219 21:06:03.777370 31070 net.cpp:148] Top shape: 1 512 14 14 (100352)
I0219 21:06:03.777375 31070 net.cpp:156] Memory required for data: 114802716
I0219 21:06:03.777384 31070 layer_factory.hpp:77] Creating layer relu5_3
I0219 21:06:03.777407 31070 net.cpp:91] Creating Layer relu5_3
I0219 21:06:03.777413 31070 net.cpp:425] relu5_3 <- conv5_3
I0219 21:06:03.777428 31070 net.cpp:386] relu5_3 -> conv5_3 (in-place)
I0219 21:06:03.777447 31070 net.cpp:141] Setting up relu5_3
I0219 21:06:03.777452 31070 net.cpp:148] Top shape: 1 512 14 14 (100352)
I0219 21:06:03.777464 31070 net.cpp:156] Memory required for data: 115204124
I0219 21:06:03.777469 31070 layer_factory.hpp:77] Creating layer rgb_pool5
I0219 21:06:03.777488 31070 net.cpp:91] Creating Layer rgb_pool5
I0219 21:06:03.777503 31070 net.cpp:425] rgb_pool5 <- conv5_3
I0219 21:06:03.777508 31070 net.cpp:399] rgb_pool5 -> rgb_pool5
I0219 21:06:03.777555 31070 net.cpp:141] Setting up rgb_pool5
I0219 21:06:03.777562 31070 net.cpp:148] Top shape: 1 512 7 7 (25088)
I0219 21:06:03.777565 31070 net.cpp:156] Memory required for data: 115304476
I0219 21:06:03.777570 31070 layer_factory.hpp:77] Creating layer rgb_fc6
I0219 21:06:03.777576 31070 net.cpp:91] Creating Layer rgb_fc6
I0219 21:06:03.777580 31070 net.cpp:425] rgb_fc6 <- rgb_pool5
I0219 21:06:03.777596 31070 net.cpp:399] rgb_fc6 -> rgb_fc6
I0219 21:06:04.247092 31070 net.cpp:141] Setting up rgb_fc6
I0219 21:06:04.247123 31070 net.cpp:148] Top shape: 1 4096 (4096)
I0219 21:06:04.247128 31070 net.cpp:156] Memory required for data: 115320860
I0219 21:06:04.247138 31070 layer_factory.hpp:77] Creating layer rgb_relu6
I0219 21:06:04.247159 31070 net.cpp:91] Creating Layer rgb_relu6
I0219 21:06:04.247176 31070 net.cpp:425] rgb_relu6 <- rgb_fc6
I0219 21:06:04.247194 31070 net.cpp:386] rgb_relu6 -> rgb_fc6 (in-place)
I0219 21:06:04.247215 31070 net.cpp:141] Setting up rgb_relu6
I0219 21:06:04.247221 31070 net.cpp:148] Top shape: 1 4096 (4096)
I0219 21:06:04.247225 31070 net.cpp:156] Memory required for data: 115337244
I0219 21:06:04.247231 31070 layer_factory.hpp:77] Creating layer rgb_drop6
I0219 21:06:04.247246 31070 net.cpp:91] Creating Layer rgb_drop6
I0219 21:06:04.247267 31070 net.cpp:425] rgb_drop6 <- rgb_fc6
I0219 21:06:04.247282 31070 net.cpp:386] rgb_drop6 -> rgb_fc6 (in-place)
I0219 21:06:04.247325 31070 net.cpp:141] Setting up rgb_drop6
I0219 21:06:04.247331 31070 net.cpp:148] Top shape: 1 4096 (4096)
I0219 21:06:04.247336 31070 net.cpp:156] Memory required for data: 115353628
I0219 21:06:04.247349 31070 layer_factory.hpp:77] Creating layer rgb_fc7
I0219 21:06:04.247371 31070 net.cpp:91] Creating Layer rgb_fc7
I0219 21:06:04.247375 31070 net.cpp:425] rgb_fc7 <- rgb_fc6
I0219 21:06:04.247390 31070 net.cpp:399] rgb_fc7 -> rgb_fc7
I0219 21:06:04.325297 31070 net.cpp:141] Setting up rgb_fc7
I0219 21:06:04.325328 31070 net.cpp:148] Top shape: 1 4096 (4096)
I0219 21:06:04.325335 31070 net.cpp:156] Memory required for data: 115370012
I0219 21:06:04.325345 31070 layer_factory.hpp:77] Creating layer rgb_relu7
I0219 21:06:04.325366 31070 net.cpp:91] Creating Layer rgb_relu7
I0219 21:06:04.325374 31070 net.cpp:425] rgb_relu7 <- rgb_fc7
I0219 21:06:04.325381 31070 net.cpp:386] rgb_relu7 -> rgb_fc7 (in-place)
I0219 21:06:04.325400 31070 net.cpp:141] Setting up rgb_relu7
I0219 21:06:04.325405 31070 net.cpp:148] Top shape: 1 4096 (4096)
I0219 21:06:04.325420 31070 net.cpp:156] Memory required for data: 115386396
I0219 21:06:04.325425 31070 layer_factory.hpp:77] Creating layer rgb_drop7
I0219 21:06:04.325444 31070 net.cpp:91] Creating Layer rgb_drop7
I0219 21:06:04.325450 31070 net.cpp:425] rgb_drop7 <- rgb_fc7
I0219 21:06:04.325458 31070 net.cpp:386] rgb_drop7 -> rgb_fc7 (in-place)
I0219 21:06:04.325489 31070 net.cpp:141] Setting up rgb_drop7
I0219 21:06:04.325495 31070 net.cpp:148] Top shape: 1 4096 (4096)
I0219 21:06:04.325510 31070 net.cpp:156] Memory required for data: 115402780
I0219 21:06:04.325513 31070 layer_factory.hpp:77] Creating layer rgb_fc7_rgb_drop7_0_split
I0219 21:06:04.325528 31070 net.cpp:91] Creating Layer rgb_fc7_rgb_drop7_0_split
I0219 21:06:04.325544 31070 net.cpp:425] rgb_fc7_rgb_drop7_0_split <- rgb_fc7
I0219 21:06:04.325549 31070 net.cpp:399] rgb_fc7_rgb_drop7_0_split -> rgb_fc7_rgb_drop7_0_split_0
I0219 21:06:04.325564 31070 net.cpp:399] rgb_fc7_rgb_drop7_0_split -> rgb_fc7_rgb_drop7_0_split_1
I0219 21:06:04.325611 31070 net.cpp:141] Setting up rgb_fc7_rgb_drop7_0_split
I0219 21:06:04.325625 31070 net.cpp:148] Top shape: 1 4096 (4096)
I0219 21:06:04.325629 31070 net.cpp:148] Top shape: 1 4096 (4096)
I0219 21:06:04.325634 31070 net.cpp:156] Memory required for data: 115435548
I0219 21:06:04.325646 31070 layer_factory.hpp:77] Creating layer rgb_fc8
I0219 21:06:04.325662 31070 net.cpp:91] Creating Layer rgb_fc8
I0219 21:06:04.325667 31070 net.cpp:425] rgb_fc8 <- rgb_fc7_rgb_drop7_0_split_0
I0219 21:06:04.325686 31070 net.cpp:399] rgb_fc8 -> rgb_fc8
I0219 21:06:04.326910 31070 net.cpp:141] Setting up rgb_fc8
I0219 21:06:04.326923 31070 net.cpp:148] Top shape: 1 51 (51)
I0219 21:06:04.326926 31070 net.cpp:156] Memory required for data: 115435752
I0219 21:06:04.326933 31070 layer_factory.hpp:77] Creating layer rgb_fc8_rgb_fc8_0_split
I0219 21:06:04.326939 31070 net.cpp:91] Creating Layer rgb_fc8_rgb_fc8_0_split
I0219 21:06:04.326956 31070 net.cpp:425] rgb_fc8_rgb_fc8_0_split <- rgb_fc8
I0219 21:06:04.326961 31070 net.cpp:399] rgb_fc8_rgb_fc8_0_split -> rgb_fc8_rgb_fc8_0_split_0
I0219 21:06:04.326979 31070 net.cpp:399] rgb_fc8_rgb_fc8_0_split -> rgb_fc8_rgb_fc8_0_split_1
I0219 21:06:04.327035 31070 net.cpp:141] Setting up rgb_fc8_rgb_fc8_0_split
I0219 21:06:04.327052 31070 net.cpp:148] Top shape: 1 51 (51)
I0219 21:06:04.327056 31070 net.cpp:148] Top shape: 1 51 (51)
I0219 21:06:04.327059 31070 net.cpp:156] Memory required for data: 115436160
I0219 21:06:04.327080 31070 layer_factory.hpp:77] Creating layer conv1
I0219 21:06:04.327090 31070 net.cpp:91] Creating Layer conv1
I0219 21:06:04.327095 31070 net.cpp:425] conv1 <- depth
I0219 21:06:04.327113 31070 net.cpp:399] conv1 -> conv1
I0219 21:06:04.327299 31070 net.cpp:141] Setting up conv1
I0219 21:06:04.327306 31070 net.cpp:148] Top shape: 1 128 112 112 (1605632)
I0219 21:06:04.327311 31070 net.cpp:156] Memory required for data: 121858688
I0219 21:06:04.327319 31070 layer_factory.hpp:77] Creating layer relu1
I0219 21:06:04.327327 31070 net.cpp:91] Creating Layer relu1
I0219 21:06:04.327342 31070 net.cpp:425] relu1 <- conv1
I0219 21:06:04.327347 31070 net.cpp:386] relu1 -> conv1 (in-place)
I0219 21:06:04.327363 31070 net.cpp:141] Setting up relu1
I0219 21:06:04.327368 31070 net.cpp:148] Top shape: 1 128 112 112 (1605632)
I0219 21:06:04.327373 31070 net.cpp:156] Memory required for data: 128281216
I0219 21:06:04.327385 31070 layer_factory.hpp:77] Creating layer depth_pool1
I0219 21:06:04.327392 31070 net.cpp:91] Creating Layer depth_pool1
I0219 21:06:04.327406 31070 net.cpp:425] depth_pool1 <- conv1
I0219 21:06:04.327425 31070 net.cpp:399] depth_pool1 -> depth_pool1
I0219 21:06:04.327461 31070 net.cpp:141] Setting up depth_pool1
I0219 21:06:04.327476 31070 net.cpp:148] Top shape: 1 128 56 56 (401408)
I0219 21:06:04.327479 31070 net.cpp:156] Memory required for data: 129886848
I0219 21:06:04.327482 31070 layer_factory.hpp:77] Creating layer norm1
I0219 21:06:04.327498 31070 net.cpp:91] Creating Layer norm1
I0219 21:06:04.327502 31070 net.cpp:425] norm1 <- depth_pool1
I0219 21:06:04.327507 31070 net.cpp:399] norm1 -> norm1
I0219 21:06:04.327539 31070 net.cpp:141] Setting up norm1
I0219 21:06:04.327545 31070 net.cpp:148] Top shape: 1 128 56 56 (401408)
I0219 21:06:04.327549 31070 net.cpp:156] Memory required for data: 131492480
I0219 21:06:04.327554 31070 layer_factory.hpp:77] Creating layer conv2
I0219 21:06:04.327571 31070 net.cpp:91] Creating Layer conv2
I0219 21:06:04.327575 31070 net.cpp:425] conv2 <- norm1
I0219 21:06:04.327581 31070 net.cpp:399] conv2 -> conv2
I0219 21:06:04.331776 31070 net.cpp:141] Setting up conv2
I0219 21:06:04.331789 31070 net.cpp:148] Top shape: 1 256 56 56 (802816)
I0219 21:06:04.331794 31070 net.cpp:156] Memory required for data: 134703744
I0219 21:06:04.331799 31070 layer_factory.hpp:77] Creating layer relu2
I0219 21:06:04.331805 31070 net.cpp:91] Creating Layer relu2
I0219 21:06:04.331810 31070 net.cpp:425] relu2 <- conv2
I0219 21:06:04.331826 31070 net.cpp:386] relu2 -> conv2 (in-place)
I0219 21:06:04.331840 31070 net.cpp:141] Setting up relu2
I0219 21:06:04.331846 31070 net.cpp:148] Top shape: 1 256 56 56 (802816)
I0219 21:06:04.331862 31070 net.cpp:156] Memory required for data: 137915008
I0219 21:06:04.331866 31070 layer_factory.hpp:77] Creating layer depth_pool2
I0219 21:06:04.331881 31070 net.cpp:91] Creating Layer depth_pool2
I0219 21:06:04.331885 31070 net.cpp:425] depth_pool2 <- conv2
I0219 21:06:04.331903 31070 net.cpp:399] depth_pool2 -> depth_pool2
I0219 21:06:04.331936 31070 net.cpp:141] Setting up depth_pool2
I0219 21:06:04.331943 31070 net.cpp:148] Top shape: 1 256 28 28 (200704)
I0219 21:06:04.331946 31070 net.cpp:156] Memory required for data: 138717824
I0219 21:06:04.331949 31070 layer_factory.hpp:77] Creating layer norm2
I0219 21:06:04.331955 31070 net.cpp:91] Creating Layer norm2
I0219 21:06:04.331960 31070 net.cpp:425] norm2 <- depth_pool2
I0219 21:06:04.331980 31070 net.cpp:399] norm2 -> norm2
I0219 21:06:04.332011 31070 net.cpp:141] Setting up norm2
I0219 21:06:04.332016 31070 net.cpp:148] Top shape: 1 256 28 28 (200704)
I0219 21:06:04.332020 31070 net.cpp:156] Memory required for data: 139520640
I0219 21:06:04.332023 31070 layer_factory.hpp:77] Creating layer conv3
I0219 21:06:04.332031 31070 net.cpp:91] Creating Layer conv3
I0219 21:06:04.332034 31070 net.cpp:425] conv3 <- norm2
I0219 21:06:04.332054 31070 net.cpp:399] conv3 -> conv3
I0219 21:06:04.334305 31070 net.cpp:141] Setting up conv3
I0219 21:06:04.334317 31070 net.cpp:148] Top shape: 1 384 28 28 (301056)
I0219 21:06:04.334321 31070 net.cpp:156] Memory required for data: 140724864
I0219 21:06:04.334327 31070 layer_factory.hpp:77] Creating layer relu3
I0219 21:06:04.334332 31070 net.cpp:91] Creating Layer relu3
I0219 21:06:04.334337 31070 net.cpp:425] relu3 <- conv3
I0219 21:06:04.334352 31070 net.cpp:386] relu3 -> conv3 (in-place)
I0219 21:06:04.334358 31070 net.cpp:141] Setting up relu3
I0219 21:06:04.334364 31070 net.cpp:148] Top shape: 1 384 28 28 (301056)
I0219 21:06:04.334378 31070 net.cpp:156] Memory required for data: 141929088
I0219 21:06:04.334383 31070 layer_factory.hpp:77] Creating layer depth_pool3
I0219 21:06:04.334396 31070 net.cpp:91] Creating Layer depth_pool3
I0219 21:06:04.334400 31070 net.cpp:425] depth_pool3 <- conv3
I0219 21:06:04.334419 31070 net.cpp:399] depth_pool3 -> depth_pool3
I0219 21:06:04.334442 31070 net.cpp:141] Setting up depth_pool3
I0219 21:06:04.334448 31070 net.cpp:148] Top shape: 1 384 14 14 (75264)
I0219 21:06:04.334452 31070 net.cpp:156] Memory required for data: 142230144
I0219 21:06:04.334456 31070 layer_factory.hpp:77] Creating layer conv4
I0219 21:06:04.334477 31070 net.cpp:91] Creating Layer conv4
I0219 21:06:04.334491 31070 net.cpp:425] conv4 <- depth_pool3
I0219 21:06:04.334496 31070 net.cpp:399] conv4 -> conv4
I0219 21:06:04.342974 31070 net.cpp:141] Setting up conv4
I0219 21:06:04.343003 31070 net.cpp:148] Top shape: 1 512 14 14 (100352)
I0219 21:06:04.343006 31070 net.cpp:156] Memory required for data: 142631552
I0219 21:06:04.343016 31070 layer_factory.hpp:77] Creating layer relu4
I0219 21:06:04.343039 31070 net.cpp:91] Creating Layer relu4
I0219 21:06:04.343044 31070 net.cpp:425] relu4 <- conv4
I0219 21:06:04.343061 31070 net.cpp:386] relu4 -> conv4 (in-place)
I0219 21:06:04.343080 31070 net.cpp:141] Setting up relu4
I0219 21:06:04.343094 31070 net.cpp:148] Top shape: 1 512 14 14 (100352)
I0219 21:06:04.343097 31070 net.cpp:156] Memory required for data: 143032960
I0219 21:06:04.343101 31070 layer_factory.hpp:77] Creating layer conv5
I0219 21:06:04.343132 31070 net.cpp:91] Creating Layer conv5
I0219 21:06:04.343135 31070 net.cpp:425] conv5 <- conv4
I0219 21:06:04.343142 31070 net.cpp:399] conv5 -> conv5
I0219 21:06:04.354387 31070 net.cpp:141] Setting up conv5
I0219 21:06:04.354413 31070 net.cpp:148] Top shape: 1 512 14 14 (100352)
I0219 21:06:04.354418 31070 net.cpp:156] Memory required for data: 143434368
I0219 21:06:04.354426 31070 layer_factory.hpp:77] Creating layer relu5
I0219 21:06:04.354447 31070 net.cpp:91] Creating Layer relu5
I0219 21:06:04.354452 31070 net.cpp:425] relu5 <- conv5
I0219 21:06:04.354470 31070 net.cpp:386] relu5 -> conv5 (in-place)
I0219 21:06:04.354487 31070 net.cpp:141] Setting up relu5
I0219 21:06:04.354501 31070 net.cpp:148] Top shape: 1 512 14 14 (100352)
I0219 21:06:04.354506 31070 net.cpp:156] Memory required for data: 143835776
I0219 21:06:04.354519 31070 layer_factory.hpp:77] Creating layer depth_pool5
I0219 21:06:04.354526 31070 net.cpp:91] Creating Layer depth_pool5
I0219 21:06:04.354539 31070 net.cpp:425] depth_pool5 <- conv5
I0219 21:06:04.354545 31070 net.cpp:399] depth_pool5 -> depth_pool5
I0219 21:06:04.354617 31070 net.cpp:141] Setting up depth_pool5
I0219 21:06:04.354624 31070 net.cpp:148] Top shape: 1 512 7 7 (25088)
I0219 21:06:04.354637 31070 net.cpp:156] Memory required for data: 143936128
I0219 21:06:04.354641 31070 layer_factory.hpp:77] Creating layer depth_fc6
I0219 21:06:04.354662 31070 net.cpp:91] Creating Layer depth_fc6
I0219 21:06:04.354667 31070 net.cpp:425] depth_fc6 <- depth_pool5
I0219 21:06:04.354683 31070 net.cpp:399] depth_fc6 -> depth_fc6
I0219 21:06:04.823671 31070 net.cpp:141] Setting up depth_fc6
I0219 21:06:04.823700 31070 net.cpp:148] Top shape: 1 4096 (4096)
I0219 21:06:04.823704 31070 net.cpp:156] Memory required for data: 143952512
I0219 21:06:04.823714 31070 layer_factory.hpp:77] Creating layer depth_relu6
I0219 21:06:04.823735 31070 net.cpp:91] Creating Layer depth_relu6
I0219 21:06:04.823753 31070 net.cpp:425] depth_relu6 <- depth_fc6
I0219 21:06:04.823760 31070 net.cpp:386] depth_relu6 -> depth_fc6 (in-place)
I0219 21:06:04.823778 31070 net.cpp:141] Setting up depth_relu6
I0219 21:06:04.823796 31070 net.cpp:148] Top shape: 1 4096 (4096)
I0219 21:06:04.823799 31070 net.cpp:156] Memory required for data: 143968896
I0219 21:06:04.823814 31070 layer_factory.hpp:77] Creating layer depth_drop6
I0219 21:06:04.823830 31070 net.cpp:91] Creating Layer depth_drop6
I0219 21:06:04.823834 31070 net.cpp:425] depth_drop6 <- depth_fc6
I0219 21:06:04.823848 31070 net.cpp:386] depth_drop6 -> depth_fc6 (in-place)
I0219 21:06:04.823889 31070 net.cpp:141] Setting up depth_drop6
I0219 21:06:04.823894 31070 net.cpp:148] Top shape: 1 4096 (4096)
I0219 21:06:04.823909 31070 net.cpp:156] Memory required for data: 143985280
I0219 21:06:04.823914 31070 layer_factory.hpp:77] Creating layer depth_fc7
I0219 21:06:04.823931 31070 net.cpp:91] Creating Layer depth_fc7
I0219 21:06:04.823935 31070 net.cpp:425] depth_fc7 <- depth_fc6
I0219 21:06:04.823942 31070 net.cpp:399] depth_fc7 -> depth_fc7
I0219 21:06:04.901159 31070 net.cpp:141] Setting up depth_fc7
I0219 21:06:04.901190 31070 net.cpp:148] Top shape: 1 4096 (4096)
I0219 21:06:04.901195 31070 net.cpp:156] Memory required for data: 144001664
I0219 21:06:04.901203 31070 layer_factory.hpp:77] Creating layer depth_relu7
I0219 21:06:04.901213 31070 net.cpp:91] Creating Layer depth_relu7
I0219 21:06:04.901219 31070 net.cpp:425] depth_relu7 <- depth_fc7
I0219 21:06:04.901226 31070 net.cpp:386] depth_relu7 -> depth_fc7 (in-place)
I0219 21:06:04.901243 31070 net.cpp:141] Setting up depth_relu7
I0219 21:06:04.901259 31070 net.cpp:148] Top shape: 1 4096 (4096)
I0219 21:06:04.901263 31070 net.cpp:156] Memory required for data: 144018048
I0219 21:06:04.901269 31070 layer_factory.hpp:77] Creating layer depth_drop7
I0219 21:06:04.901276 31070 net.cpp:91] Creating Layer depth_drop7
I0219 21:06:04.901280 31070 net.cpp:425] depth_drop7 <- depth_fc7
I0219 21:06:04.901285 31070 net.cpp:386] depth_drop7 -> depth_fc7 (in-place)
I0219 21:06:04.901302 31070 net.cpp:141] Setting up depth_drop7
I0219 21:06:04.901317 31070 net.cpp:148] Top shape: 1 4096 (4096)
I0219 21:06:04.901320 31070 net.cpp:156] Memory required for data: 144034432
I0219 21:06:04.901335 31070 layer_factory.hpp:77] Creating layer depth_fc7_depth_drop7_0_split
I0219 21:06:04.901355 31070 net.cpp:91] Creating Layer depth_fc7_depth_drop7_0_split
I0219 21:06:04.901372 31070 net.cpp:425] depth_fc7_depth_drop7_0_split <- depth_fc7
I0219 21:06:04.901378 31070 net.cpp:399] depth_fc7_depth_drop7_0_split -> depth_fc7_depth_drop7_0_split_0
I0219 21:06:04.901396 31070 net.cpp:399] depth_fc7_depth_drop7_0_split -> depth_fc7_depth_drop7_0_split_1
I0219 21:06:04.901417 31070 net.cpp:141] Setting up depth_fc7_depth_drop7_0_split
I0219 21:06:04.901423 31070 net.cpp:148] Top shape: 1 4096 (4096)
I0219 21:06:04.901427 31070 net.cpp:148] Top shape: 1 4096 (4096)
I0219 21:06:04.901432 31070 net.cpp:156] Memory required for data: 144067200
I0219 21:06:04.901446 31070 layer_factory.hpp:77] Creating layer depth_fc8
I0219 21:06:04.901453 31070 net.cpp:91] Creating Layer depth_fc8
I0219 21:06:04.901458 31070 net.cpp:425] depth_fc8 <- depth_fc7_depth_drop7_0_split_0
I0219 21:06:04.901464 31070 net.cpp:399] depth_fc8 -> depth_fc8
I0219 21:06:04.902643 31070 net.cpp:141] Setting up depth_fc8
I0219 21:06:04.902655 31070 net.cpp:148] Top shape: 1 51 (51)
I0219 21:06:04.902659 31070 net.cpp:156] Memory required for data: 144067404
I0219 21:06:04.902665 31070 layer_factory.hpp:77] Creating layer depth_fc8_depth_fc8_0_split
I0219 21:06:04.902673 31070 net.cpp:91] Creating Layer depth_fc8_depth_fc8_0_split
I0219 21:06:04.902688 31070 net.cpp:425] depth_fc8_depth_fc8_0_split <- depth_fc8
I0219 21:06:04.902693 31070 net.cpp:399] depth_fc8_depth_fc8_0_split -> depth_fc8_depth_fc8_0_split_0
I0219 21:06:04.902700 31070 net.cpp:399] depth_fc8_depth_fc8_0_split -> depth_fc8_depth_fc8_0_split_1
I0219 21:06:04.902732 31070 net.cpp:141] Setting up depth_fc8_depth_fc8_0_split
I0219 21:06:04.902739 31070 net.cpp:148] Top shape: 1 51 (51)
I0219 21:06:04.902743 31070 net.cpp:148] Top shape: 1 51 (51)
I0219 21:06:04.902747 31070 net.cpp:156] Memory required for data: 144067812
I0219 21:06:04.902751 31070 layer_factory.hpp:77] Creating layer concat
I0219 21:06:04.902758 31070 net.cpp:91] Creating Layer concat
I0219 21:06:04.902763 31070 net.cpp:425] concat <- rgb_fc7_rgb_drop7_0_split_1
I0219 21:06:04.902770 31070 net.cpp:425] concat <- depth_fc7_depth_drop7_0_split_1
I0219 21:06:04.902775 31070 net.cpp:399] concat -> concat
I0219 21:06:04.902791 31070 net.cpp:141] Setting up concat
I0219 21:06:04.902796 31070 net.cpp:148] Top shape: 1 8192 (8192)
I0219 21:06:04.902801 31070 net.cpp:156] Memory required for data: 144100580
I0219 21:06:04.902806 31070 layer_factory.hpp:77] Creating layer rgbd_fc8
I0219 21:06:04.902812 31070 net.cpp:91] Creating Layer rgbd_fc8
I0219 21:06:04.902817 31070 net.cpp:425] rgbd_fc8 <- concat
I0219 21:06:04.902822 31070 net.cpp:399] rgbd_fc8 -> rgbd_fc8
I0219 21:06:04.904777 31070 net.cpp:141] Setting up rgbd_fc8
I0219 21:06:04.904788 31070 net.cpp:148] Top shape: 1 51 (51)
I0219 21:06:04.904803 31070 net.cpp:156] Memory required for data: 144100784
I0219 21:06:04.904808 31070 layer_factory.hpp:77] Creating layer rgbd_fc8_rgbd_fc8_0_split
I0219 21:06:04.904826 31070 net.cpp:91] Creating Layer rgbd_fc8_rgbd_fc8_0_split
I0219 21:06:04.904832 31070 net.cpp:425] rgbd_fc8_rgbd_fc8_0_split <- rgbd_fc8
I0219 21:06:04.904839 31070 net.cpp:399] rgbd_fc8_rgbd_fc8_0_split -> rgbd_fc8_rgbd_fc8_0_split_0
I0219 21:06:04.904845 31070 net.cpp:399] rgbd_fc8_rgbd_fc8_0_split -> rgbd_fc8_rgbd_fc8_0_split_1
I0219 21:06:04.904886 31070 net.cpp:141] Setting up rgbd_fc8_rgbd_fc8_0_split
I0219 21:06:04.904892 31070 net.cpp:148] Top shape: 1 51 (51)
I0219 21:06:04.904897 31070 net.cpp:148] Top shape: 1 51 (51)
I0219 21:06:04.904901 31070 net.cpp:156] Memory required for data: 144101192
I0219 21:06:04.904906 31070 layer_factory.hpp:77] Creating layer rgb_accuracy
I0219 21:06:04.904911 31070 net.cpp:91] Creating Layer rgb_accuracy
I0219 21:06:04.904917 31070 net.cpp:425] rgb_accuracy <- rgb_fc8_rgb_fc8_0_split_0
I0219 21:06:04.904922 31070 net.cpp:425] rgb_accuracy <- label_data_2_split_0
I0219 21:06:04.904927 31070 net.cpp:399] rgb_accuracy -> rgb_accuracy
…
