…
I0205 18:21:11.337082 11825 net.cpp:49] Initializing net from parameters: 
state {
  phase: TRAIN
}
layer {
  name: "data"
  type: "Python"
  top: "rgb"
  top: "depth"
  top: "label"
  python_param {
    module: "data_layers.washington_data_layer"
    layer: "WashingtonDataLayer"
    param_str: "{\'img_size\': (224, 224), \'split\': \'train\', \'dataset_dir\': \'/home/kevin/dataset/washington_rgbd_dataset\', \'randomize\': True, \'mean\': (104.00698793, 116.66876762, 122.67891434), \'seed\': 1337, \'batch_size\': 32, \'crop_size\': (224, 224, 224, 224)}"
  }
}
layer {
  name: "conv1_1"
  type: "Convolution"
  bottom: "rgb"
  top: "conv1_1"
  param {
    name: "conv1_1_w"
    lr_mult: 0
    decay_mult: 1
  }
  param {
    name: "conv1_1_b"
    lr_mult: 0
    decay_mult: 0
  }
  convolution_param {
    num_output: 64
    pad: 1
    kernel_size: 3
    group: 1
    stride: 1
    weight_filler {
      type: "xavier"
    }
  }
}
layer {
  name: "relu1_1"
  type: "ReLU"
  bottom: "conv1_1"
  top: "conv1_1"
}
layer {
  name: "conv1_2"
  type: "Convolution"
  bottom: "conv1_1"
  top: "conv1_2"
  param {
    name: "conv1_2_w"
    lr_mult: 0
    decay_mult: 1
  }
  param {
    name: "conv1_2_b"
    lr_mult: 0
    decay_mult: 0
  }
  convolution_param {
    num_output: 64
    pad: 1
    kernel_size: 3
    group: 1
    stride: 1
    weight_filler {
      type: "xavier"
    }
  }
}
layer {
  name: "relu1_2"
  type: "ReLU"
  bottom: "conv1_2"
  top: "conv1_2"
}
layer {
  name: "rgb_pool1"
  type: "Pooling"
  bottom: "conv1_2"
  top: "rgb_pool1"
  pooling_param {
    pool: MAX
    kernel_size: 2
    stride: 2
  }
}
layer {
  name: "conv2_1"
  type: "Convolution"
  bottom: "rgb_pool1"
  top: "conv2_1"
  param {
    name: "conv2_1_w"
    lr_mult: 0
    decay_mult: 1
  }
  param {
    name: "conv2_1_b"
    lr_mult: 0
    decay_mult: 0
  }
  convolution_param {
    num_output: 128
    pad: 1
    kernel_size: 3
    group: 1
    stride: 1
    weight_filler {
      type: "xavier"
    }
  }
}
layer {
  name: "relu2_1"
  type: "ReLU"
  bottom: "conv2_1"
  top: "conv2_1"
}
layer {
  name: "conv2_2"
  type: "Convolution"
  bottom: "conv2_1"
  top: "conv2_2"
  param {
    name: "conv2_2_w"
    lr_mult: 0
    decay_mult: 1
  }
  param {
    name: "conv2_2_b"
    lr_mult: 0
    decay_mult: 0
  }
  convolution_param {
    num_output: 128
    pad: 1
    kernel_size: 3
    group: 1
    stride: 1
    weight_filler {
      type: "xavier"
    }
  }
}
layer {
  name: "relu2_2"
  type: "ReLU"
  bottom: "conv2_2"
  top: "conv2_2"
}
layer {
  name: "rgb_pool2"
  type: "Pooling"
  bottom: "conv2_2"
  top: "rgb_pool2"
  pooling_param {
    pool: MAX
    kernel_size: 2
    stride: 2
  }
}
layer {
  name: "conv3_1"
  type: "Convolution"
  bottom: "rgb_pool2"
  top: "conv3_1"
  param {
    name: "conv3_1_w"
    lr_mult: 0
    decay_mult: 1
  }
  param {
    name: "conv3_1_b"
    lr_mult: 0
    decay_mult: 0
  }
  convolution_param {
    num_output: 256
    pad: 1
    kernel_size: 3
    group: 1
    stride: 1
    weight_filler {
      type: "xavier"
    }
  }
}
layer {
  name: "relu3_1"
  type: "ReLU"
  bottom: "conv3_1"
  top: "conv3_1"
}
layer {
  name: "conv3_2"
  type: "Convolution"
  bottom: "conv3_1"
  top: "conv3_2"
  param {
    name: "conv3_2_w"
    lr_mult: 0
    decay_mult: 1
  }
  param {
    name: "conv3_2_b"
    lr_mult: 0
    decay_mult: 0
  }
  convolution_param {
    num_output: 256
    pad: 1
    kernel_size: 3
    group: 1
    stride: 1
    weight_filler {
      type: "xavier"
    }
  }
}
layer {
  name: "relu3_2"
  type: "ReLU"
  bottom: "conv3_2"
  top: "conv3_2"
}
layer {
  name: "conv3_3"
  type: "Convolution"
  bottom: "conv3_2"
  top: "conv3_3"
  param {
    name: "conv3_3_w"
    lr_mult: 0
    decay_mult: 1
  }
  param {
    name: "conv3_3_b"
    lr_mult: 0
    decay_mult: 0
  }
  convolution_param {
    num_output: 256
    pad: 1
    kernel_size: 3
    group: 1
    stride: 1
    weight_filler {
      type: "xavier"
    }
  }
}
layer {
  name: "relu3_3"
  type: "ReLU"
  bottom: "conv3_3"
  top: "conv3_3"
}
layer {
  name: "rgb_pool3"
  type: "Pooling"
  bottom: "conv3_3"
  top: "rgb_pool3"
  pooling_param {
    pool: MAX
    kernel_size: 2
    stride: 2
  }
}
layer {
  name: "conv4_1"
  type: "Convolution"
  bottom: "rgb_pool3"
  top: "conv4_1"
  param {
    name: "conv4_1_w"
    lr_mult: 0
    decay_mult: 1
  }
  param {
    name: "conv4_1_b"
    lr_mult: 0
    decay_mult: 0
  }
  convolution_param {
    num_output: 512
    pad: 1
    kernel_size: 3
    group: 1
    stride: 1
    weight_filler {
      type: "xavier"
    }
  }
}
layer {
  name: "relu4_1"
  type: "ReLU"
  bottom: "conv4_1"
  top: "conv4_1"
}
layer {
  name: "conv4_2"
  type: "Convolution"
  bottom: "conv4_1"
  top: "conv4_2"
  param {
    name: "conv4_2_w"
    lr_mult: 0
    decay_mult: 1
  }
  param {
    name: "conv4_2_b"
    lr_mult: 0
    decay_mult: 0
  }
  convolution_param {
    num_output: 512
    pad: 1
    kernel_size: 3
    group: 1
    stride: 1
    weight_filler {
      type: "xavier"
    }
  }
}
layer {
  name: "relu4_2"
  type: "ReLU"
  bottom: "conv4_2"
  top: "conv4_2"
}
layer {
  name: "conv4_3"
  type: "Convolution"
  bottom: "conv4_2"
  top: "conv4_3"
  param {
    name: "conv4_3_w"
    lr_mult: 0
    decay_mult: 1
  }
  param {
    name: "conv4_3_b"
    lr_mult: 0
    decay_mult: 0
  }
  convolution_param {
    num_output: 512
    pad: 1
    kernel_size: 3
    group: 1
    stride: 1
    weight_filler {
      type: "xavier"
    }
  }
}
layer {
  name: "relu4_3"
  type: "ReLU"
  bottom: "conv4_3"
  top: "conv4_3"
}
layer {
  name: "rgb_pool4"
  type: "Pooling"
  bottom: "conv4_3"
  top: "rgb_pool4"
  pooling_param {
    pool: MAX
    kernel_size: 2
    stride: 2
  }
}
layer {
  name: "conv5_1"
  type: "Convolution"
  bottom: "rgb_pool4"
  top: "conv5_1"
  param {
    name: "conv5_1_w"
    lr_mult: 0
    decay_mult: 1
  }
  param {
    name: "conv5_1_b"
    lr_mult: 0
    decay_mult: 0
  }
  convolution_param {
    num_output: 512
    pad: 1
    kernel_size: 3
    group: 1
    stride: 1
    weight_filler {
      type: "xavier"
    }
  }
}
layer {
  name: "relu5_1"
  type: "ReLU"
  bottom: "conv5_1"
  top: "conv5_1"
}
layer {
  name: "conv5_2"
  type: "Convolution"
  bottom: "conv5_1"
  top: "conv5_2"
  param {
    name: "conv5_2_w"
    lr_mult: 0
    decay_mult: 1
  }
  param {
    name: "conv5_2_b"
    lr_mult: 0
    decay_mult: 0
  }
  convolution_param {
    num_output: 512
    pad: 1
    kernel_size: 3
    group: 1
    stride: 1
    weight_filler {
      type: "xavier"
    }
  }
}
layer {
  name: "relu5_2"
  type: "ReLU"
  bottom: "conv5_2"
  top: "conv5_2"
}
layer {
  name: "conv5_3"
  type: "Convolution"
  bottom: "conv5_2"
  top: "conv5_3"
  param {
    name: "conv5_3_w"
    lr_mult: 0
    decay_mult: 1
  }
  param {
    name: "conv5_3_b"
    lr_mult: 0
    decay_mult: 0
  }
  convolution_param {
    num_output: 512
    pad: 1
    kernel_size: 3
    group: 1
    stride: 1
    weight_filler {
      type: "xavier"
    }
  }
}
layer {
  name: "relu5_3"
  type: "ReLU"
  bottom: "conv5_3"
  top: "conv5_3"
}
layer {
  name: "rgb_pool5"
  type: "Pooling"
  bottom: "conv5_3"
  top: "rgb_pool5"
  pooling_param {
    pool: MAX
    kernel_size: 2
    stride: 2
  }
}
layer {
  name: "rgb_fc6"
  type: "InnerProduct"
  bottom: "rgb_pool5"
  top: "rgb_fc6"
  param {
    lr_mult: 0
    decay_mult: 1
  }
  param {
    lr_mult: 0
    decay_mult: 0
  }
  inner_product_param {
    num_output: 4096
    weight_filler {
      type: "xavier"
    }
  }
}
layer {
  name: "rgb_relu6"
  type: "ReLU"
  bottom: "rgb_fc6"
  top: "rgb_fc6"
}
layer {
  name: "rgb_drop6"
  type: "Dropout"
  bottom: "rgb_fc6"
  top: "rgb_fc6"
  dropout_param {
    dropout_ratio: 0.5
  }
}
layer {
  name: "rgb_fc7"
  type: "InnerProduct"
  bottom: "rgb_fc6"
  top: "rgb_fc7"
  param {
    lr_mult: 0
    decay_mult: 1
  }
  param {
    lr_mult: 0
    decay_mult: 0
  }
  inner_product_param {
    num_output: 4096
    weight_filler {
      type: "xavier"
    }
  }
}
layer {
  name: "rgb_relu7"
  type: "ReLU"
  bottom: "rgb_fc7"
  top: "rgb_fc7"
}
layer {
  name: "rgb_drop7"
  type: "Dropout"
  bottom: "rgb_fc7"
  top: "rgb_fc7"
  dropout_param {
    dropout_ratio: 0.5
  }
}
layer {
  name: "rgb_fc8"
  type: "InnerProduct"
  bottom: "rgb_fc7"
  top: "rgb_fc8"
  param {
    lr_mult: 1
    decay_mult: 1
  }
  param {
    lr_mult: 2
    decay_mult: 0
  }
  inner_product_param {
    num_output: 51
    weight_filler {
      type: "xavier"
    }
  }
}
layer {
  name: "conv1"
  type: "Convolution"
  bottom: "depth"
  top: "conv1"
  param {
    name: "conv1_w"
    lr_mult: 0
    decay_mult: 1
  }
  param {
    name: "conv1_b"
    lr_mult: 0
    decay_mult: 0
  }
  convolution_param {
    num_output: 128
    pad: 2
    kernel_size: 5
    group: 1
    stride: 2
    weight_filler {
      type: "xavier"
    }
  }
}
layer {
  name: "relu1"
  type: "ReLU"
  bottom: "conv1"
  top: "conv1"
}
layer {
  name: "depth_pool1"
  type: "Pooling"
  bottom: "conv1"
  top: "depth_pool1"
  pooling_param {
    pool: MAX
    kernel_size: 3
    stride: 2
  }
}
layer {
  name: "norm1"
  type: "LRN"
  bottom: "depth_pool1"
  top: "norm1"
  lrn_param {
    local_size: 5
    alpha: 0.0005
    beta: 0.75
    k: 2
  }
}
layer {
  name: "conv2"
  type: "Convolution"
  bottom: "norm1"
  top: "conv2"
  param {
    name: "conv2_w"
    lr_mult: 0
    decay_mult: 1
  }
  param {
    name: "conv2_b"
    lr_mult: 0
    decay_mult: 0
  }
  convolution_param {
    num_output: 256
    pad: 2
    kernel_size: 5
    group: 1
    stride: 1
    weight_filler {
      type: "xavier"
    }
  }
}
layer {
  name: "relu2"
  type: "ReLU"
  bottom: "conv2"
  top: "conv2"
}
layer {
  name: "depth_pool2"
  type: "Pooling"
  bottom: "conv2"
  top: "depth_pool2"
  pooling_param {
    pool: MAX
    kernel_size: 3
    stride: 2
  }
}
layer {
  name: "norm2"
  type: "LRN"
  bottom: "depth_pool2"
  top: "norm2"
  lrn_param {
    local_size: 5
    alpha: 0.0005
    beta: 0.75
    k: 2
  }
}
layer {
  name: "conv3"
  type: "Convolution"
  bottom: "norm2"
  top: "conv3"
  param {
    name: "conv3_w"
    lr_mult: 0
    decay_mult: 1
  }
  param {
    name: "conv3_b"
    lr_mult: 0
    decay_mult: 0
  }
  convolution_param {
    num_output: 384
    pad: 1
    kernel_size: 3
    group: 2
    stride: 1
    weight_filler {
      type: "xavier"
    }
  }
}
layer {
  name: "relu3"
  type: "ReLU"
  bottom: "conv3"
  top: "conv3"
}
layer {
  name: "depth_pool3"
  type: "Pooling"
  bottom: "conv3"
  top: "depth_pool3"
  pooling_param {
    pool: MAX
    kernel_size: 3
    stride: 2
  }
}
layer {
  name: "conv4"
  type: "Convolution"
  bottom: "depth_pool3"
  top: "conv4"
  param {
    name: "conv4_w"
    lr_mult: 0
    decay_mult: 1
  }
  param {
    name: "conv4_b"
    lr_mult: 0
    decay_mult: 0
  }
  convolution_param {
    num_output: 512
    pad: 1
    kernel_size: 3
    group: 1
    stride: 1
    weight_filler {
      type: "xavier"
    }
  }
}
layer {
  name: "relu4"
  type: "ReLU"
  bottom: "conv4"
  top: "conv4"
}
layer {
  name: "conv5"
  type: "Convolution"
  bottom: "conv4"
  top: "conv5"
  param {
    name: "conv5_w"
    lr_mult: 0
    decay_mult: 1
  }
  param {
    name: "conv5_b"
    lr_mult: 0
    decay_mult: 0
  }
  convolution_param {
    num_output: 512
    pad: 1
    kernel_size: 3
    group: 1
    stride: 1
    weight_filler {
      type: "xavier"
    }
  }
}
layer {
  name: "relu5"
  type: "ReLU"
  bottom: "conv5"
  top: "conv5"
}
layer {
  name: "depth_pool5"
  type: "Pooling"
  bottom: "conv5"
  top: "depth_pool5"
  pooling_param {
    pool: MAX
    kernel_size: 3
    stride: 2
  }
}
layer {
  name: "depth_fc6"
  type: "InnerProduct"
  bottom: "depth_pool5"
  top: "depth_fc6"
  param {
    lr_mult: 0
    decay_mult: 1
  }
  param {
    lr_mult: 0
    decay_mult: 0
  }
  inner_product_param {
    num_output: 4096
    weight_filler {
      type: "xavier"
    }
  }
}
layer {
  name: "depth_relu6"
  type: "ReLU"
  bottom: "depth_fc6"
  top: "depth_fc6"
}
layer {
  name: "depth_drop6"
  type: "Dropout"
  bottom: "depth_fc6"
  top: "depth_fc6"
  dropout_param {
    dropout_ratio: 0.5
  }
}
layer {
  name: "depth_fc7"
  type: "InnerProduct"
  bottom: "depth_fc6"
  top: "depth_fc7"
  param {
    lr_mult: 0
    decay_mult: 1
  }
  param {
    lr_mult: 0
    decay_mult: 0
  }
  inner_product_param {
    num_output: 4096
    weight_filler {
      type: "xavier"
    }
  }
}
layer {
  name: "depth_relu7"
  type: "ReLU"
  bottom: "depth_fc7"
  top: "depth_fc7"
}
layer {
  name: "depth_drop7"
  type: "Dropout"
  bottom: "depth_fc7"
  top: "depth_fc7"
  dropout_param {
    dropout_ratio: 0.5
  }
}
layer {
  name: "depth_fc8"
  type: "InnerProduct"
  bottom: "depth_fc7"
  top: "depth_fc8"
  param {
    lr_mult: 1
    decay_mult: 1
  }
  param {
    lr_mult: 2
    decay_mult: 0
  }
  inner_product_param {
    num_output: 51
    weight_filler {
      type: "xavier"
    }
  }
}
layer {
  name: "concat"
  type: "Concat"
  bottom: "rgb_fc7"
  bottom: "depth_fc7"
  top: "concat"
  concat_param {
    axis: 1
  }
}
layer {
  name: "fuse_fc1"
  type: "InnerProduct"
  bottom: "concat"
  top: "fuse_fc1"
  param {
    lr_mult: 1
    decay_mult: 1
  }
  param {
    lr_mult: 2
    decay_mult: 0
  }
  inner_product_param {
    num_output: 4096
    weight_filler {
      type: "xavier"
    }
  }
}
layer {
  name: "fuse_drop1"
  type: "Dropout"
  bottom: "fuse_fc1"
  top: "fuse_fc1"
  dropout_param {
    dropout_ratio: 0.9
  }
}
layer {
  name: "fuse_fc2"
  type: "InnerProduct"
  bottom: "fuse_fc1"
  top: "fuse_fc2"
  param {
    lr_mult: 1
    decay_mult: 1
  }
  param {
    lr_mult: 2
    decay_mult: 0
  }
  inner_product_param {
    num_output: 4096
    weight_filler {
      type: "xavier"
    }
  }
}
layer {
  name: "fuse_drop2"
  type: "Dropout"
  bottom: "fuse_fc2"
  top: "fuse_fc2"
  dropout_param {
    dropout_ratio: 0.9
  }
}
layer {
  name: "rgbd_fc8"
  type: "InnerProduct"
  bottom: "fuse_fc2"
  top: "rgbd_fc8"
  param {
    lr_mult: 1
    decay_mult: 1
  }
  param {
    lr_mult: 2
    decay_mult: 0
  }
  inner_product_param {
    num_output: 51
    weight_filler {
      type: "xavier"
    }
  }
}
layer {
  name: "rgb_accuracy"
  type: "Accuracy"
  bottom: "rgb_fc8"
  bottom: "label"
  top: "rgb_accuracy"
}
layer {
  name: "rgb_loss"
  type: "SoftmaxWithLoss"
  bottom: "rgb_fc8"
  bottom: "label"
  top: "rgb_loss"
}
layer {
  name: "depth_accuracy"
  type: "Accuracy"
  bottom: "depth_fc8"
  bottom: "label"
  top: "depth_accuracy"
}
layer {
  name: "depth_loss"
  type: "SoftmaxWithLoss"
  bottom: "depth_fc8"
  bottom: "label"
  top: "depth_loss"
}
layer {
  name: "rgbd_accuracy"
  type: "Accuracy"
  bottom: "rgbd_fc8"
  bottom: "label"
  top: "rgbd_accuracy"
}
layer {
  name: "rgbd_loss"
  type: "SoftmaxWithLoss"
  bottom: "rgbd_fc8"
  bottom: "label"
  top: "rgbd_loss"
}
I0205 18:21:11.340169 11825 layer_factory.hpp:77] Creating layer data
I0205 18:21:11.415585 11825 net.cpp:91] Creating Layer data
I0205 18:21:11.415628 11825 net.cpp:399] data -> rgb
I0205 18:21:11.415648 11825 net.cpp:399] data -> depth
I0205 18:21:11.415662 11825 net.cpp:399] data -> label
{'img_size': (224, 224), 'split': 'train', 'dataset_dir': '/home/kevin/dataset/washington_rgbd_dataset', 'crop_size': (224, 224, 224, 224), 'randomize': True, 'seed': 1337, 'batch_size': 32, 'mean': (104.00698793, 116.66876762, 122.67891434)}
I0205 18:21:11.657759 11825 net.cpp:141] Setting up data
I0205 18:21:11.657835 11825 net.cpp:148] Top shape: 32 3 224 224 (4816896)
I0205 18:21:11.657876 11825 net.cpp:148] Top shape: 32 1 224 224 (1605632)
I0205 18:21:11.657892 11825 net.cpp:148] Top shape: 32 1 (32)
I0205 18:21:11.657902 11825 net.cpp:156] Memory required for data: 25690240
I0205 18:21:11.657915 11825 layer_factory.hpp:77] Creating layer label_data_2_split
I0205 18:21:11.657948 11825 net.cpp:91] Creating Layer label_data_2_split
I0205 18:21:11.657959 11825 net.cpp:425] label_data_2_split <- label
I0205 18:21:11.657979 11825 net.cpp:399] label_data_2_split -> label_data_2_split_0
I0205 18:21:11.657999 11825 net.cpp:399] label_data_2_split -> label_data_2_split_1
I0205 18:21:11.658015 11825 net.cpp:399] label_data_2_split -> label_data_2_split_2
I0205 18:21:11.658025 11825 net.cpp:399] label_data_2_split -> label_data_2_split_3
I0205 18:21:11.658035 11825 net.cpp:399] label_data_2_split -> label_data_2_split_4
I0205 18:21:11.658046 11825 net.cpp:399] label_data_2_split -> label_data_2_split_5
I0205 18:21:11.658139 11825 net.cpp:141] Setting up label_data_2_split
I0205 18:21:11.658154 11825 net.cpp:148] Top shape: 32 1 (32)
I0205 18:21:11.658162 11825 net.cpp:148] Top shape: 32 1 (32)
I0205 18:21:11.658170 11825 net.cpp:148] Top shape: 32 1 (32)
I0205 18:21:11.658179 11825 net.cpp:148] Top shape: 32 1 (32)
I0205 18:21:11.658185 11825 net.cpp:148] Top shape: 32 1 (32)
I0205 18:21:11.658193 11825 net.cpp:148] Top shape: 32 1 (32)
I0205 18:21:11.658202 11825 net.cpp:156] Memory required for data: 25691008
I0205 18:21:11.658210 11825 layer_factory.hpp:77] Creating layer conv1_1
I0205 18:21:11.658229 11825 net.cpp:91] Creating Layer conv1_1
I0205 18:21:11.658237 11825 net.cpp:425] conv1_1 <- rgb
I0205 18:21:11.658249 11825 net.cpp:399] conv1_1 -> conv1_1
I0205 18:21:11.659772 11825 net.cpp:141] Setting up conv1_1
I0205 18:21:11.659811 11825 net.cpp:148] Top shape: 32 64 224 224 (102760448)
I0205 18:21:11.659821 11825 net.cpp:156] Memory required for data: 436732800
I0205 18:21:11.659842 11825 layer_factory.hpp:77] Creating layer relu1_1
I0205 18:21:11.659862 11825 net.cpp:91] Creating Layer relu1_1
I0205 18:21:11.659874 11825 net.cpp:425] relu1_1 <- conv1_1
I0205 18:21:11.659885 11825 net.cpp:386] relu1_1 -> conv1_1 (in-place)
I0205 18:21:11.659898 11825 net.cpp:141] Setting up relu1_1
I0205 18:21:11.659909 11825 net.cpp:148] Top shape: 32 64 224 224 (102760448)
I0205 18:21:11.659917 11825 net.cpp:156] Memory required for data: 847774592
I0205 18:21:11.659925 11825 layer_factory.hpp:77] Creating layer conv1_2
I0205 18:21:11.659945 11825 net.cpp:91] Creating Layer conv1_2
I0205 18:21:11.659955 11825 net.cpp:425] conv1_2 <- conv1_1
I0205 18:21:11.659971 11825 net.cpp:399] conv1_2 -> conv1_2
I0205 18:21:11.660439 11825 net.cpp:141] Setting up conv1_2
I0205 18:21:11.660456 11825 net.cpp:148] Top shape: 32 64 224 224 (102760448)
I0205 18:21:11.660465 11825 net.cpp:156] Memory required for data: 1258816384
I0205 18:21:11.660480 11825 layer_factory.hpp:77] Creating layer relu1_2
I0205 18:21:11.660491 11825 net.cpp:91] Creating Layer relu1_2
I0205 18:21:11.660501 11825 net.cpp:425] relu1_2 <- conv1_2
I0205 18:21:11.660512 11825 net.cpp:386] relu1_2 -> conv1_2 (in-place)
I0205 18:21:11.660524 11825 net.cpp:141] Setting up relu1_2
I0205 18:21:11.660536 11825 net.cpp:148] Top shape: 32 64 224 224 (102760448)
I0205 18:21:11.660543 11825 net.cpp:156] Memory required for data: 1669858176
I0205 18:21:11.660552 11825 layer_factory.hpp:77] Creating layer rgb_pool1
I0205 18:21:11.660567 11825 net.cpp:91] Creating Layer rgb_pool1
I0205 18:21:11.660576 11825 net.cpp:425] rgb_pool1 <- conv1_2
I0205 18:21:11.660589 11825 net.cpp:399] rgb_pool1 -> rgb_pool1
I0205 18:21:11.660643 11825 net.cpp:141] Setting up rgb_pool1
I0205 18:21:11.660656 11825 net.cpp:148] Top shape: 32 64 112 112 (25690112)
I0205 18:21:11.660665 11825 net.cpp:156] Memory required for data: 1772618624
I0205 18:21:11.660673 11825 layer_factory.hpp:77] Creating layer conv2_1
I0205 18:21:11.660692 11825 net.cpp:91] Creating Layer conv2_1
I0205 18:21:11.660701 11825 net.cpp:425] conv2_1 <- rgb_pool1
I0205 18:21:11.660713 11825 net.cpp:399] conv2_1 -> conv2_1
I0205 18:21:11.662201 11825 net.cpp:141] Setting up conv2_1
I0205 18:21:11.662233 11825 net.cpp:148] Top shape: 32 128 112 112 (51380224)
I0205 18:21:11.662243 11825 net.cpp:156] Memory required for data: 1978139520
I0205 18:21:11.662263 11825 layer_factory.hpp:77] Creating layer relu2_1
I0205 18:21:11.662287 11825 net.cpp:91] Creating Layer relu2_1
I0205 18:21:11.662299 11825 net.cpp:425] relu2_1 <- conv2_1
I0205 18:21:11.662309 11825 net.cpp:386] relu2_1 -> conv2_1 (in-place)
I0205 18:21:11.662324 11825 net.cpp:141] Setting up relu2_1
I0205 18:21:11.662334 11825 net.cpp:148] Top shape: 32 128 112 112 (51380224)
I0205 18:21:11.662343 11825 net.cpp:156] Memory required for data: 2183660416
I0205 18:21:11.662351 11825 layer_factory.hpp:77] Creating layer conv2_2
I0205 18:21:11.662369 11825 net.cpp:91] Creating Layer conv2_2
I0205 18:21:11.662377 11825 net.cpp:425] conv2_2 <- conv2_1
I0205 18:21:11.662390 11825 net.cpp:399] conv2_2 -> conv2_2
I0205 18:21:11.663460 11825 net.cpp:141] Setting up conv2_2
I0205 18:21:11.663480 11825 net.cpp:148] Top shape: 32 128 112 112 (51380224)
I0205 18:21:11.663487 11825 net.cpp:156] Memory required for data: 2389181312
I0205 18:21:11.663501 11825 layer_factory.hpp:77] Creating layer relu2_2
I0205 18:21:11.663512 11825 net.cpp:91] Creating Layer relu2_2
I0205 18:21:11.663522 11825 net.cpp:425] relu2_2 <- conv2_2
I0205 18:21:11.663532 11825 net.cpp:386] relu2_2 -> conv2_2 (in-place)
I0205 18:21:11.663543 11825 net.cpp:141] Setting up relu2_2
I0205 18:21:11.663553 11825 net.cpp:148] Top shape: 32 128 112 112 (51380224)
I0205 18:21:11.663561 11825 net.cpp:156] Memory required for data: 2594702208
I0205 18:21:11.663568 11825 layer_factory.hpp:77] Creating layer rgb_pool2
I0205 18:21:11.663578 11825 net.cpp:91] Creating Layer rgb_pool2
I0205 18:21:11.663585 11825 net.cpp:425] rgb_pool2 <- conv2_2
I0205 18:21:11.663596 11825 net.cpp:399] rgb_pool2 -> rgb_pool2
I0205 18:21:11.663636 11825 net.cpp:141] Setting up rgb_pool2
I0205 18:21:11.663648 11825 net.cpp:148] Top shape: 32 128 56 56 (12845056)
I0205 18:21:11.663657 11825 net.cpp:156] Memory required for data: 2646082432
I0205 18:21:11.663664 11825 layer_factory.hpp:77] Creating layer conv3_1
I0205 18:21:11.663681 11825 net.cpp:91] Creating Layer conv3_1
I0205 18:21:11.663689 11825 net.cpp:425] conv3_1 <- rgb_pool2
I0205 18:21:11.663700 11825 net.cpp:399] conv3_1 -> conv3_1
I0205 18:21:11.666100 11825 net.cpp:141] Setting up conv3_1
I0205 18:21:11.666132 11825 net.cpp:148] Top shape: 32 256 56 56 (25690112)
I0205 18:21:11.666142 11825 net.cpp:156] Memory required for data: 2748842880
I0205 18:21:11.666162 11825 layer_factory.hpp:77] Creating layer relu3_1
I0205 18:21:11.666177 11825 net.cpp:91] Creating Layer relu3_1
I0205 18:21:11.666188 11825 net.cpp:425] relu3_1 <- conv3_1
I0205 18:21:11.666200 11825 net.cpp:386] relu3_1 -> conv3_1 (in-place)
I0205 18:21:11.666215 11825 net.cpp:141] Setting up relu3_1
I0205 18:21:11.666226 11825 net.cpp:148] Top shape: 32 256 56 56 (25690112)
I0205 18:21:11.666234 11825 net.cpp:156] Memory required for data: 2851603328
I0205 18:21:11.666244 11825 layer_factory.hpp:77] Creating layer conv3_2
I0205 18:21:11.666262 11825 net.cpp:91] Creating Layer conv3_2
I0205 18:21:11.666271 11825 net.cpp:425] conv3_2 <- conv3_1
I0205 18:21:11.666282 11825 net.cpp:399] conv3_2 -> conv3_2
I0205 18:21:11.670706 11825 net.cpp:141] Setting up conv3_2
I0205 18:21:11.670737 11825 net.cpp:148] Top shape: 32 256 56 56 (25690112)
I0205 18:21:11.670748 11825 net.cpp:156] Memory required for data: 2954363776
I0205 18:21:11.670761 11825 layer_factory.hpp:77] Creating layer relu3_2
I0205 18:21:11.670775 11825 net.cpp:91] Creating Layer relu3_2
I0205 18:21:11.670784 11825 net.cpp:425] relu3_2 <- conv3_2
I0205 18:21:11.670795 11825 net.cpp:386] relu3_2 -> conv3_2 (in-place)
I0205 18:21:11.670807 11825 net.cpp:141] Setting up relu3_2
I0205 18:21:11.670817 11825 net.cpp:148] Top shape: 32 256 56 56 (25690112)
I0205 18:21:11.670824 11825 net.cpp:156] Memory required for data: 3057124224
I0205 18:21:11.670830 11825 layer_factory.hpp:77] Creating layer conv3_3
I0205 18:21:11.670851 11825 net.cpp:91] Creating Layer conv3_3
I0205 18:21:11.670859 11825 net.cpp:425] conv3_3 <- conv3_2
I0205 18:21:11.670871 11825 net.cpp:399] conv3_3 -> conv3_3
I0205 18:21:11.675271 11825 net.cpp:141] Setting up conv3_3
I0205 18:21:11.675307 11825 net.cpp:148] Top shape: 32 256 56 56 (25690112)
I0205 18:21:11.675318 11825 net.cpp:156] Memory required for data: 3159884672
I0205 18:21:11.675334 11825 layer_factory.hpp:77] Creating layer relu3_3
I0205 18:21:11.675350 11825 net.cpp:91] Creating Layer relu3_3
I0205 18:21:11.675361 11825 net.cpp:425] relu3_3 <- conv3_3
I0205 18:21:11.675374 11825 net.cpp:386] relu3_3 -> conv3_3 (in-place)
I0205 18:21:11.675386 11825 net.cpp:141] Setting up relu3_3
I0205 18:21:11.675397 11825 net.cpp:148] Top shape: 32 256 56 56 (25690112)
I0205 18:21:11.675405 11825 net.cpp:156] Memory required for data: 3262645120
I0205 18:21:11.675413 11825 layer_factory.hpp:77] Creating layer rgb_pool3
I0205 18:21:11.675426 11825 net.cpp:91] Creating Layer rgb_pool3
I0205 18:21:11.675434 11825 net.cpp:425] rgb_pool3 <- conv3_3
I0205 18:21:11.675446 11825 net.cpp:399] rgb_pool3 -> rgb_pool3
I0205 18:21:11.675492 11825 net.cpp:141] Setting up rgb_pool3
I0205 18:21:11.675505 11825 net.cpp:148] Top shape: 32 256 28 28 (6422528)
I0205 18:21:11.675513 11825 net.cpp:156] Memory required for data: 3288335232
I0205 18:21:11.675521 11825 layer_factory.hpp:77] Creating layer conv4_1
I0205 18:21:11.675540 11825 net.cpp:91] Creating Layer conv4_1
I0205 18:21:11.675550 11825 net.cpp:425] conv4_1 <- rgb_pool3
I0205 18:21:11.675561 11825 net.cpp:399] conv4_1 -> conv4_1
I0205 18:21:11.684295 11825 net.cpp:141] Setting up conv4_1
I0205 18:21:11.684341 11825 net.cpp:148] Top shape: 32 512 28 28 (12845056)
I0205 18:21:11.684352 11825 net.cpp:156] Memory required for data: 3339715456
I0205 18:21:11.684366 11825 layer_factory.hpp:77] Creating layer relu4_1
I0205 18:21:11.684381 11825 net.cpp:91] Creating Layer relu4_1
I0205 18:21:11.684392 11825 net.cpp:425] relu4_1 <- conv4_1
I0205 18:21:11.684404 11825 net.cpp:386] relu4_1 -> conv4_1 (in-place)
I0205 18:21:11.684417 11825 net.cpp:141] Setting up relu4_1
I0205 18:21:11.684427 11825 net.cpp:148] Top shape: 32 512 28 28 (12845056)
I0205 18:21:11.684434 11825 net.cpp:156] Memory required for data: 3391095680
I0205 18:21:11.684442 11825 layer_factory.hpp:77] Creating layer conv4_2
I0205 18:21:11.684458 11825 net.cpp:91] Creating Layer conv4_2
I0205 18:21:11.684466 11825 net.cpp:425] conv4_2 <- conv4_1
I0205 18:21:11.684478 11825 net.cpp:399] conv4_2 -> conv4_2
I0205 18:21:11.700765 11825 net.cpp:141] Setting up conv4_2
I0205 18:21:11.700812 11825 net.cpp:148] Top shape: 32 512 28 28 (12845056)
I0205 18:21:11.700830 11825 net.cpp:156] Memory required for data: 3442475904
I0205 18:21:11.700855 11825 layer_factory.hpp:77] Creating layer relu4_2
I0205 18:21:11.700872 11825 net.cpp:91] Creating Layer relu4_2
I0205 18:21:11.700884 11825 net.cpp:425] relu4_2 <- conv4_2
I0205 18:21:11.700896 11825 net.cpp:386] relu4_2 -> conv4_2 (in-place)
I0205 18:21:11.700909 11825 net.cpp:141] Setting up relu4_2
I0205 18:21:11.700920 11825 net.cpp:148] Top shape: 32 512 28 28 (12845056)
I0205 18:21:11.700928 11825 net.cpp:156] Memory required for data: 3493856128
I0205 18:21:11.700935 11825 layer_factory.hpp:77] Creating layer conv4_3
I0205 18:21:11.700953 11825 net.cpp:91] Creating Layer conv4_3
I0205 18:21:11.700961 11825 net.cpp:425] conv4_3 <- conv4_2
I0205 18:21:11.700973 11825 net.cpp:399] conv4_3 -> conv4_3
I0205 18:21:11.717038 11825 net.cpp:141] Setting up conv4_3
I0205 18:21:11.717079 11825 net.cpp:148] Top shape: 32 512 28 28 (12845056)
I0205 18:21:11.717092 11825 net.cpp:156] Memory required for data: 3545236352
I0205 18:21:11.717108 11825 layer_factory.hpp:77] Creating layer relu4_3
I0205 18:21:11.717124 11825 net.cpp:91] Creating Layer relu4_3
I0205 18:21:11.717135 11825 net.cpp:425] relu4_3 <- conv4_3
I0205 18:21:11.717147 11825 net.cpp:386] relu4_3 -> conv4_3 (in-place)
I0205 18:21:11.717162 11825 net.cpp:141] Setting up relu4_3
I0205 18:21:11.717172 11825 net.cpp:148] Top shape: 32 512 28 28 (12845056)
I0205 18:21:11.717180 11825 net.cpp:156] Memory required for data: 3596616576
I0205 18:21:11.717190 11825 layer_factory.hpp:77] Creating layer rgb_pool4
I0205 18:21:11.717203 11825 net.cpp:91] Creating Layer rgb_pool4
I0205 18:21:11.717212 11825 net.cpp:425] rgb_pool4 <- conv4_3
I0205 18:21:11.717223 11825 net.cpp:399] rgb_pool4 -> rgb_pool4
I0205 18:21:11.717272 11825 net.cpp:141] Setting up rgb_pool4
I0205 18:21:11.717285 11825 net.cpp:148] Top shape: 32 512 14 14 (3211264)
I0205 18:21:11.717293 11825 net.cpp:156] Memory required for data: 3609461632
I0205 18:21:11.717301 11825 layer_factory.hpp:77] Creating layer conv5_1
I0205 18:21:11.717320 11825 net.cpp:91] Creating Layer conv5_1
I0205 18:21:11.717329 11825 net.cpp:425] conv5_1 <- rgb_pool4
I0205 18:21:11.717344 11825 net.cpp:399] conv5_1 -> conv5_1
I0205 18:21:11.731367 11825 net.cpp:141] Setting up conv5_1
I0205 18:21:11.731412 11825 net.cpp:148] Top shape: 32 512 14 14 (3211264)
I0205 18:21:11.731418 11825 net.cpp:156] Memory required for data: 3622306688
I0205 18:21:11.731431 11825 layer_factory.hpp:77] Creating layer relu5_1
I0205 18:21:11.731453 11825 net.cpp:91] Creating Layer relu5_1
I0205 18:21:11.731462 11825 net.cpp:425] relu5_1 <- conv5_1
I0205 18:21:11.731472 11825 net.cpp:386] relu5_1 -> conv5_1 (in-place)
I0205 18:21:11.731482 11825 net.cpp:141] Setting up relu5_1
I0205 18:21:11.731487 11825 net.cpp:148] Top shape: 32 512 14 14 (3211264)
I0205 18:21:11.731492 11825 net.cpp:156] Memory required for data: 3635151744
I0205 18:21:11.731497 11825 layer_factory.hpp:77] Creating layer conv5_2
I0205 18:21:11.731506 11825 net.cpp:91] Creating Layer conv5_2
I0205 18:21:11.731513 11825 net.cpp:425] conv5_2 <- conv5_1
I0205 18:21:11.731519 11825 net.cpp:399] conv5_2 -> conv5_2
I0205 18:21:11.743516 11825 net.cpp:141] Setting up conv5_2
I0205 18:21:11.743558 11825 net.cpp:148] Top shape: 32 512 14 14 (3211264)
I0205 18:21:11.743566 11825 net.cpp:156] Memory required for data: 3647996800
I0205 18:21:11.743577 11825 layer_factory.hpp:77] Creating layer relu5_2
I0205 18:21:11.743588 11825 net.cpp:91] Creating Layer relu5_2
I0205 18:21:11.743597 11825 net.cpp:425] relu5_2 <- conv5_2
I0205 18:21:11.743614 11825 net.cpp:386] relu5_2 -> conv5_2 (in-place)
I0205 18:21:11.743623 11825 net.cpp:141] Setting up relu5_2
I0205 18:21:11.743629 11825 net.cpp:148] Top shape: 32 512 14 14 (3211264)
I0205 18:21:11.743634 11825 net.cpp:156] Memory required for data: 3660841856
I0205 18:21:11.743640 11825 layer_factory.hpp:77] Creating layer conv5_3
I0205 18:21:11.743652 11825 net.cpp:91] Creating Layer conv5_3
I0205 18:21:11.743659 11825 net.cpp:425] conv5_3 <- conv5_2
I0205 18:21:11.743665 11825 net.cpp:399] conv5_3 -> conv5_3
I0205 18:21:11.755960 11825 net.cpp:141] Setting up conv5_3
I0205 18:21:11.756017 11825 net.cpp:148] Top shape: 32 512 14 14 (3211264)
I0205 18:21:11.756028 11825 net.cpp:156] Memory required for data: 3673686912
I0205 18:21:11.756050 11825 layer_factory.hpp:77] Creating layer relu5_3
I0205 18:21:11.756069 11825 net.cpp:91] Creating Layer relu5_3
I0205 18:21:11.756081 11825 net.cpp:425] relu5_3 <- conv5_3
I0205 18:21:11.756093 11825 net.cpp:386] relu5_3 -> conv5_3 (in-place)
I0205 18:21:11.756108 11825 net.cpp:141] Setting up relu5_3
I0205 18:21:11.756116 11825 net.cpp:148] Top shape: 32 512 14 14 (3211264)
I0205 18:21:11.756122 11825 net.cpp:156] Memory required for data: 3686531968
I0205 18:21:11.756129 11825 layer_factory.hpp:77] Creating layer rgb_pool5
I0205 18:21:11.756145 11825 net.cpp:91] Creating Layer rgb_pool5
I0205 18:21:11.756152 11825 net.cpp:425] rgb_pool5 <- conv5_3
I0205 18:21:11.756160 11825 net.cpp:399] rgb_pool5 -> rgb_pool5
I0205 18:21:11.756217 11825 net.cpp:141] Setting up rgb_pool5
I0205 18:21:11.756237 11825 net.cpp:148] Top shape: 32 512 7 7 (802816)
I0205 18:21:11.756244 11825 net.cpp:156] Memory required for data: 3689743232
I0205 18:21:11.756253 11825 layer_factory.hpp:77] Creating layer rgb_fc6
I0205 18:21:11.756283 11825 net.cpp:91] Creating Layer rgb_fc6
I0205 18:21:11.756292 11825 net.cpp:425] rgb_fc6 <- rgb_pool5
I0205 18:21:11.756304 11825 net.cpp:399] rgb_fc6 -> rgb_fc6
I0205 18:21:12.350474 11825 net.cpp:141] Setting up rgb_fc6
I0205 18:21:12.350528 11825 net.cpp:148] Top shape: 32 4096 (131072)
I0205 18:21:12.350533 11825 net.cpp:156] Memory required for data: 3690267520
I0205 18:21:12.350546 11825 layer_factory.hpp:77] Creating layer rgb_relu6
I0205 18:21:12.350564 11825 net.cpp:91] Creating Layer rgb_relu6
I0205 18:21:12.350571 11825 net.cpp:425] rgb_relu6 <- rgb_fc6
I0205 18:21:12.350579 11825 net.cpp:386] rgb_relu6 -> rgb_fc6 (in-place)
I0205 18:21:12.350590 11825 net.cpp:141] Setting up rgb_relu6
I0205 18:21:12.350595 11825 net.cpp:148] Top shape: 32 4096 (131072)
I0205 18:21:12.350600 11825 net.cpp:156] Memory required for data: 3690791808
I0205 18:21:12.350603 11825 layer_factory.hpp:77] Creating layer rgb_drop6
I0205 18:21:12.350620 11825 net.cpp:91] Creating Layer rgb_drop6
I0205 18:21:12.350623 11825 net.cpp:425] rgb_drop6 <- rgb_fc6
I0205 18:21:12.350630 11825 net.cpp:386] rgb_drop6 -> rgb_fc6 (in-place)
I0205 18:21:12.350651 11825 net.cpp:141] Setting up rgb_drop6
I0205 18:21:12.350656 11825 net.cpp:148] Top shape: 32 4096 (131072)
I0205 18:21:12.350661 11825 net.cpp:156] Memory required for data: 3691316096
I0205 18:21:12.350664 11825 layer_factory.hpp:77] Creating layer rgb_fc7
I0205 18:21:12.350673 11825 net.cpp:91] Creating Layer rgb_fc7
I0205 18:21:12.350678 11825 net.cpp:425] rgb_fc7 <- rgb_fc6
I0205 18:21:12.350684 11825 net.cpp:399] rgb_fc7 -> rgb_fc7
I0205 18:21:12.496562 11825 net.cpp:141] Setting up rgb_fc7
I0205 18:21:12.496599 11825 net.cpp:148] Top shape: 32 4096 (131072)
I0205 18:21:12.496616 11825 net.cpp:156] Memory required for data: 3691840384
I0205 18:21:12.496635 11825 layer_factory.hpp:77] Creating layer rgb_relu7
I0205 18:21:12.496649 11825 net.cpp:91] Creating Layer rgb_relu7
I0205 18:21:12.496655 11825 net.cpp:425] rgb_relu7 <- rgb_fc7
I0205 18:21:12.496662 11825 net.cpp:386] rgb_relu7 -> rgb_fc7 (in-place)
I0205 18:21:12.496675 11825 net.cpp:141] Setting up rgb_relu7
I0205 18:21:12.496683 11825 net.cpp:148] Top shape: 32 4096 (131072)
I0205 18:21:12.496690 11825 net.cpp:156] Memory required for data: 3692364672
I0205 18:21:12.496702 11825 layer_factory.hpp:77] Creating layer rgb_drop7
I0205 18:21:12.496717 11825 net.cpp:91] Creating Layer rgb_drop7
I0205 18:21:12.496726 11825 net.cpp:425] rgb_drop7 <- rgb_fc7
I0205 18:21:12.496731 11825 net.cpp:386] rgb_drop7 -> rgb_fc7 (in-place)
I0205 18:21:12.496772 11825 net.cpp:141] Setting up rgb_drop7
I0205 18:21:12.496781 11825 net.cpp:148] Top shape: 32 4096 (131072)
I0205 18:21:12.496788 11825 net.cpp:156] Memory required for data: 3692888960
I0205 18:21:12.496794 11825 layer_factory.hpp:77] Creating layer rgb_fc7_rgb_drop7_0_split
I0205 18:21:12.496803 11825 net.cpp:91] Creating Layer rgb_fc7_rgb_drop7_0_split
I0205 18:21:12.496810 11825 net.cpp:425] rgb_fc7_rgb_drop7_0_split <- rgb_fc7
I0205 18:21:12.496816 11825 net.cpp:399] rgb_fc7_rgb_drop7_0_split -> rgb_fc7_rgb_drop7_0_split_0
I0205 18:21:12.496834 11825 net.cpp:399] rgb_fc7_rgb_drop7_0_split -> rgb_fc7_rgb_drop7_0_split_1
I0205 18:21:12.496892 11825 net.cpp:141] Setting up rgb_fc7_rgb_drop7_0_split
I0205 18:21:12.496909 11825 net.cpp:148] Top shape: 32 4096 (131072)
I0205 18:21:12.496922 11825 net.cpp:148] Top shape: 32 4096 (131072)
I0205 18:21:12.496933 11825 net.cpp:156] Memory required for data: 3693937536
I0205 18:21:12.496944 11825 layer_factory.hpp:77] Creating layer rgb_fc8
I0205 18:21:12.496963 11825 net.cpp:91] Creating Layer rgb_fc8
I0205 18:21:12.496971 11825 net.cpp:425] rgb_fc8 <- rgb_fc7_rgb_drop7_0_split_0
I0205 18:21:12.496980 11825 net.cpp:399] rgb_fc8 -> rgb_fc8
I0205 18:21:12.499027 11825 net.cpp:141] Setting up rgb_fc8
I0205 18:21:12.499043 11825 net.cpp:148] Top shape: 32 51 (1632)
I0205 18:21:12.499055 11825 net.cpp:156] Memory required for data: 3693944064
I0205 18:21:12.499073 11825 layer_factory.hpp:77] Creating layer rgb_fc8_rgb_fc8_0_split
I0205 18:21:12.499090 11825 net.cpp:91] Creating Layer rgb_fc8_rgb_fc8_0_split
I0205 18:21:12.499102 11825 net.cpp:425] rgb_fc8_rgb_fc8_0_split <- rgb_fc8
I0205 18:21:12.499115 11825 net.cpp:399] rgb_fc8_rgb_fc8_0_split -> rgb_fc8_rgb_fc8_0_split_0
I0205 18:21:12.499133 11825 net.cpp:399] rgb_fc8_rgb_fc8_0_split -> rgb_fc8_rgb_fc8_0_split_1
I0205 18:21:12.499197 11825 net.cpp:141] Setting up rgb_fc8_rgb_fc8_0_split
I0205 18:21:12.499213 11825 net.cpp:148] Top shape: 32 51 (1632)
I0205 18:21:12.499225 11825 net.cpp:148] Top shape: 32 51 (1632)
I0205 18:21:12.499236 11825 net.cpp:156] Memory required for data: 3693957120
I0205 18:21:12.499248 11825 layer_factory.hpp:77] Creating layer conv1
I0205 18:21:12.499270 11825 net.cpp:91] Creating Layer conv1
I0205 18:21:12.499284 11825 net.cpp:425] conv1 <- depth
I0205 18:21:12.499300 11825 net.cpp:399] conv1 -> conv1
I0205 18:21:12.499660 11825 net.cpp:141] Setting up conv1
I0205 18:21:12.499676 11825 net.cpp:148] Top shape: 32 128 112 112 (51380224)
I0205 18:21:12.499687 11825 net.cpp:156] Memory required for data: 3899478016
I0205 18:21:12.499711 11825 layer_factory.hpp:77] Creating layer relu1
I0205 18:21:12.499727 11825 net.cpp:91] Creating Layer relu1
I0205 18:21:12.499738 11825 net.cpp:425] relu1 <- conv1
I0205 18:21:12.499752 11825 net.cpp:386] relu1 -> conv1 (in-place)
I0205 18:21:12.499768 11825 net.cpp:141] Setting up relu1
I0205 18:21:12.499779 11825 net.cpp:148] Top shape: 32 128 112 112 (51380224)
I0205 18:21:12.499790 11825 net.cpp:156] Memory required for data: 4104998912
I0205 18:21:12.499799 11825 layer_factory.hpp:77] Creating layer depth_pool1
I0205 18:21:12.499812 11825 net.cpp:91] Creating Layer depth_pool1
I0205 18:21:12.499825 11825 net.cpp:425] depth_pool1 <- conv1
I0205 18:21:12.499837 11825 net.cpp:399] depth_pool1 -> depth_pool1
I0205 18:21:12.499905 11825 net.cpp:141] Setting up depth_pool1
I0205 18:21:12.499920 11825 net.cpp:148] Top shape: 32 128 56 56 (12845056)
I0205 18:21:12.499932 11825 net.cpp:156] Memory required for data: 4156379136
I0205 18:21:12.499941 11825 layer_factory.hpp:77] Creating layer norm1
I0205 18:21:12.499959 11825 net.cpp:91] Creating Layer norm1
I0205 18:21:12.499970 11825 net.cpp:425] norm1 <- depth_pool1
I0205 18:21:12.499984 11825 net.cpp:399] norm1 -> norm1
I0205 18:21:12.500041 11825 net.cpp:141] Setting up norm1
I0205 18:21:12.500053 11825 net.cpp:148] Top shape: 32 128 56 56 (12845056)
I0205 18:21:12.500061 11825 net.cpp:156] Memory required for data: 4207759360
I0205 18:21:12.500069 11825 layer_factory.hpp:77] Creating layer conv2
I0205 18:21:12.500087 11825 net.cpp:91] Creating Layer conv2
I0205 18:21:12.500099 11825 net.cpp:425] conv2 <- norm1
I0205 18:21:12.500116 11825 net.cpp:399] conv2 -> conv2
I0205 18:21:12.508864 11825 net.cpp:141] Setting up conv2
I0205 18:21:12.508915 11825 net.cpp:148] Top shape: 32 256 56 56 (25690112)
I0205 18:21:12.508929 11825 net.cpp:156] Memory required for data: 4310519808
I0205 18:21:12.508952 11825 layer_factory.hpp:77] Creating layer relu2
I0205 18:21:12.508975 11825 net.cpp:91] Creating Layer relu2
I0205 18:21:12.508988 11825 net.cpp:425] relu2 <- conv2
I0205 18:21:12.509007 11825 net.cpp:386] relu2 -> conv2 (in-place)
I0205 18:21:12.509028 11825 net.cpp:141] Setting up relu2
I0205 18:21:12.509042 11825 net.cpp:148] Top shape: 32 256 56 56 (25690112)
I0205 18:21:12.509052 11825 net.cpp:156] Memory required for data: 4413280256
I0205 18:21:12.509063 11825 layer_factory.hpp:77] Creating layer depth_pool2
I0205 18:21:12.509079 11825 net.cpp:91] Creating Layer depth_pool2
I0205 18:21:12.509090 11825 net.cpp:425] depth_pool2 <- conv2
I0205 18:21:12.509104 11825 net.cpp:399] depth_pool2 -> depth_pool2
I0205 18:21:12.509176 11825 net.cpp:141] Setting up depth_pool2
I0205 18:21:12.509188 11825 net.cpp:148] Top shape: 32 256 28 28 (6422528)
I0205 18:21:12.509197 11825 net.cpp:156] Memory required for data: 4438970368
I0205 18:21:12.509207 11825 layer_factory.hpp:77] Creating layer norm2
I0205 18:21:12.509225 11825 net.cpp:91] Creating Layer norm2
I0205 18:21:12.509238 11825 net.cpp:425] norm2 <- depth_pool2
I0205 18:21:12.509250 11825 net.cpp:399] norm2 -> norm2
I0205 18:21:12.509315 11825 net.cpp:141] Setting up norm2
I0205 18:21:12.509330 11825 net.cpp:148] Top shape: 32 256 28 28 (6422528)
I0205 18:21:12.509341 11825 net.cpp:156] Memory required for data: 4464660480
I0205 18:21:12.509351 11825 layer_factory.hpp:77] Creating layer conv3
I0205 18:21:12.509373 11825 net.cpp:91] Creating Layer conv3
I0205 18:21:12.509383 11825 net.cpp:425] conv3 <- norm2
I0205 18:21:12.509400 11825 net.cpp:399] conv3 -> conv3
I0205 18:21:12.515393 11825 net.cpp:141] Setting up conv3
I0205 18:21:12.515450 11825 net.cpp:148] Top shape: 32 384 28 28 (9633792)
I0205 18:21:12.515461 11825 net.cpp:156] Memory required for data: 4503195648
I0205 18:21:12.515481 11825 layer_factory.hpp:77] Creating layer relu3
I0205 18:21:12.515493 11825 net.cpp:91] Creating Layer relu3
I0205 18:21:12.515503 11825 net.cpp:425] relu3 <- conv3
I0205 18:21:12.515516 11825 net.cpp:386] relu3 -> conv3 (in-place)
I0205 18:21:12.515533 11825 net.cpp:141] Setting up relu3
I0205 18:21:12.515543 11825 net.cpp:148] Top shape: 32 384 28 28 (9633792)
I0205 18:21:12.515552 11825 net.cpp:156] Memory required for data: 4541730816
I0205 18:21:12.515560 11825 layer_factory.hpp:77] Creating layer depth_pool3
I0205 18:21:12.515575 11825 net.cpp:91] Creating Layer depth_pool3
I0205 18:21:12.515584 11825 net.cpp:425] depth_pool3 <- conv3
I0205 18:21:12.515596 11825 net.cpp:399] depth_pool3 -> depth_pool3
I0205 18:21:12.515686 11825 net.cpp:141] Setting up depth_pool3
I0205 18:21:12.515714 11825 net.cpp:148] Top shape: 32 384 14 14 (2408448)
I0205 18:21:12.515727 11825 net.cpp:156] Memory required for data: 4551364608
I0205 18:21:12.515736 11825 layer_factory.hpp:77] Creating layer conv4
I0205 18:21:12.515758 11825 net.cpp:91] Creating Layer conv4
I0205 18:21:12.515768 11825 net.cpp:425] conv4 <- depth_pool3
I0205 18:21:12.515776 11825 net.cpp:399] conv4 -> conv4
I0205 18:21:12.533413 11825 net.cpp:141] Setting up conv4
I0205 18:21:12.533459 11825 net.cpp:148] Top shape: 32 512 14 14 (3211264)
I0205 18:21:12.533470 11825 net.cpp:156] Memory required for data: 4564209664
I0205 18:21:12.533489 11825 layer_factory.hpp:77] Creating layer relu4
I0205 18:21:12.533509 11825 net.cpp:91] Creating Layer relu4
I0205 18:21:12.533526 11825 net.cpp:425] relu4 <- conv4
I0205 18:21:12.533545 11825 net.cpp:386] relu4 -> conv4 (in-place)
I0205 18:21:12.533568 11825 net.cpp:141] Setting up relu4
I0205 18:21:12.533582 11825 net.cpp:148] Top shape: 32 512 14 14 (3211264)
I0205 18:21:12.533591 11825 net.cpp:156] Memory required for data: 4577054720
I0205 18:21:12.533596 11825 layer_factory.hpp:77] Creating layer conv5
I0205 18:21:12.533615 11825 net.cpp:91] Creating Layer conv5
I0205 18:21:12.533624 11825 net.cpp:425] conv5 <- conv4
I0205 18:21:12.533639 11825 net.cpp:399] conv5 -> conv5
I0205 18:21:12.555622 11825 net.cpp:141] Setting up conv5
I0205 18:21:12.555675 11825 net.cpp:148] Top shape: 32 512 14 14 (3211264)
I0205 18:21:12.555687 11825 net.cpp:156] Memory required for data: 4589899776
I0205 18:21:12.555708 11825 layer_factory.hpp:77] Creating layer relu5
I0205 18:21:12.555727 11825 net.cpp:91] Creating Layer relu5
I0205 18:21:12.555739 11825 net.cpp:425] relu5 <- conv5
I0205 18:21:12.555754 11825 net.cpp:386] relu5 -> conv5 (in-place)
I0205 18:21:12.555773 11825 net.cpp:141] Setting up relu5
I0205 18:21:12.555783 11825 net.cpp:148] Top shape: 32 512 14 14 (3211264)
I0205 18:21:12.555791 11825 net.cpp:156] Memory required for data: 4602744832
I0205 18:21:12.555799 11825 layer_factory.hpp:77] Creating layer depth_pool5
I0205 18:21:12.555812 11825 net.cpp:91] Creating Layer depth_pool5
I0205 18:21:12.555821 11825 net.cpp:425] depth_pool5 <- conv5
I0205 18:21:12.555835 11825 net.cpp:399] depth_pool5 -> depth_pool5
I0205 18:21:12.555897 11825 net.cpp:141] Setting up depth_pool5
I0205 18:21:12.555920 11825 net.cpp:148] Top shape: 32 512 7 7 (802816)
I0205 18:21:12.555933 11825 net.cpp:156] Memory required for data: 4605956096
I0205 18:21:12.555943 11825 layer_factory.hpp:77] Creating layer depth_fc6
I0205 18:21:12.555961 11825 net.cpp:91] Creating Layer depth_fc6
I0205 18:21:12.555974 11825 net.cpp:425] depth_fc6 <- depth_pool5
I0205 18:21:12.555989 11825 net.cpp:399] depth_fc6 -> depth_fc6
I0205 18:21:13.549376 11825 net.cpp:141] Setting up depth_fc6
I0205 18:21:13.549407 11825 net.cpp:148] Top shape: 32 4096 (131072)
I0205 18:21:13.549413 11825 net.cpp:156] Memory required for data: 4606480384
I0205 18:21:13.549423 11825 layer_factory.hpp:77] Creating layer depth_relu6
I0205 18:21:13.549437 11825 net.cpp:91] Creating Layer depth_relu6
I0205 18:21:13.549443 11825 net.cpp:425] depth_relu6 <- depth_fc6
I0205 18:21:13.549450 11825 net.cpp:386] depth_relu6 -> depth_fc6 (in-place)
I0205 18:21:13.549460 11825 net.cpp:141] Setting up depth_relu6
I0205 18:21:13.549465 11825 net.cpp:148] Top shape: 32 4096 (131072)
I0205 18:21:13.549469 11825 net.cpp:156] Memory required for data: 4607004672
I0205 18:21:13.549474 11825 layer_factory.hpp:77] Creating layer depth_drop6
I0205 18:21:13.549482 11825 net.cpp:91] Creating Layer depth_drop6
I0205 18:21:13.549486 11825 net.cpp:425] depth_drop6 <- depth_fc6
I0205 18:21:13.549492 11825 net.cpp:386] depth_drop6 -> depth_fc6 (in-place)
I0205 18:21:13.549513 11825 net.cpp:141] Setting up depth_drop6
I0205 18:21:13.549520 11825 net.cpp:148] Top shape: 32 4096 (131072)
I0205 18:21:13.549525 11825 net.cpp:156] Memory required for data: 4607528960
I0205 18:21:13.549528 11825 layer_factory.hpp:77] Creating layer depth_fc7
I0205 18:21:13.549536 11825 net.cpp:91] Creating Layer depth_fc7
I0205 18:21:13.549541 11825 net.cpp:425] depth_fc7 <- depth_fc6
I0205 18:21:13.549546 11825 net.cpp:399] depth_fc7 -> depth_fc7
I0205 18:21:13.636513 11825 net.cpp:141] Setting up depth_fc7
I0205 18:21:13.636545 11825 net.cpp:148] Top shape: 32 4096 (131072)
I0205 18:21:13.636551 11825 net.cpp:156] Memory required for data: 4608053248
I0205 18:21:13.636564 11825 layer_factory.hpp:77] Creating layer depth_relu7
I0205 18:21:13.636575 11825 net.cpp:91] Creating Layer depth_relu7
I0205 18:21:13.636582 11825 net.cpp:425] depth_relu7 <- depth_fc7
I0205 18:21:13.636592 11825 net.cpp:386] depth_relu7 -> depth_fc7 (in-place)
I0205 18:21:13.636603 11825 net.cpp:141] Setting up depth_relu7
I0205 18:21:13.636608 11825 net.cpp:148] Top shape: 32 4096 (131072)
I0205 18:21:13.636612 11825 net.cpp:156] Memory required for data: 4608577536
I0205 18:21:13.636617 11825 layer_factory.hpp:77] Creating layer depth_drop7
I0205 18:21:13.636623 11825 net.cpp:91] Creating Layer depth_drop7
I0205 18:21:13.636629 11825 net.cpp:425] depth_drop7 <- depth_fc7
I0205 18:21:13.636636 11825 net.cpp:386] depth_drop7 -> depth_fc7 (in-place)
I0205 18:21:13.636662 11825 net.cpp:141] Setting up depth_drop7
I0205 18:21:13.636668 11825 net.cpp:148] Top shape: 32 4096 (131072)
I0205 18:21:13.636672 11825 net.cpp:156] Memory required for data: 4609101824
I0205 18:21:13.636677 11825 layer_factory.hpp:77] Creating layer depth_fc7_depth_drop7_0_split
I0205 18:21:13.636689 11825 net.cpp:91] Creating Layer depth_fc7_depth_drop7_0_split
I0205 18:21:13.636694 11825 net.cpp:425] depth_fc7_depth_drop7_0_split <- depth_fc7
I0205 18:21:13.636700 11825 net.cpp:399] depth_fc7_depth_drop7_0_split -> depth_fc7_depth_drop7_0_split_0
I0205 18:21:13.636706 11825 net.cpp:399] depth_fc7_depth_drop7_0_split -> depth_fc7_depth_drop7_0_split_1
I0205 18:21:13.636734 11825 net.cpp:141] Setting up depth_fc7_depth_drop7_0_split
I0205 18:21:13.636741 11825 net.cpp:148] Top shape: 32 4096 (131072)
I0205 18:21:13.636747 11825 net.cpp:148] Top shape: 32 4096 (131072)
I0205 18:21:13.636751 11825 net.cpp:156] Memory required for data: 4610150400
I0205 18:21:13.636756 11825 layer_factory.hpp:77] Creating layer depth_fc8
I0205 18:21:13.636764 11825 net.cpp:91] Creating Layer depth_fc8
I0205 18:21:13.636767 11825 net.cpp:425] depth_fc8 <- depth_fc7_depth_drop7_0_split_0
I0205 18:21:13.636780 11825 net.cpp:399] depth_fc8 -> depth_fc8
I0205 18:21:13.638125 11825 net.cpp:141] Setting up depth_fc8
I0205 18:21:13.638139 11825 net.cpp:148] Top shape: 32 51 (1632)
I0205 18:21:13.638142 11825 net.cpp:156] Memory required for data: 4610156928
I0205 18:21:13.638150 11825 layer_factory.hpp:77] Creating layer depth_fc8_depth_fc8_0_split
I0205 18:21:13.638159 11825 net.cpp:91] Creating Layer depth_fc8_depth_fc8_0_split
I0205 18:21:13.638164 11825 net.cpp:425] depth_fc8_depth_fc8_0_split <- depth_fc8
I0205 18:21:13.638171 11825 net.cpp:399] depth_fc8_depth_fc8_0_split -> depth_fc8_depth_fc8_0_split_0
I0205 18:21:13.638177 11825 net.cpp:399] depth_fc8_depth_fc8_0_split -> depth_fc8_depth_fc8_0_split_1
I0205 18:21:13.638203 11825 net.cpp:141] Setting up depth_fc8_depth_fc8_0_split
I0205 18:21:13.638211 11825 net.cpp:148] Top shape: 32 51 (1632)
I0205 18:21:13.638214 11825 net.cpp:148] Top shape: 32 51 (1632)
I0205 18:21:13.638219 11825 net.cpp:156] Memory required for data: 4610169984
I0205 18:21:13.638224 11825 layer_factory.hpp:77] Creating layer concat
I0205 18:21:13.638233 11825 net.cpp:91] Creating Layer concat
I0205 18:21:13.638237 11825 net.cpp:425] concat <- rgb_fc7_rgb_drop7_0_split_1
I0205 18:21:13.638242 11825 net.cpp:425] concat <- depth_fc7_depth_drop7_0_split_1
I0205 18:21:13.638247 11825 net.cpp:399] concat -> concat
I0205 18:21:13.638270 11825 net.cpp:141] Setting up concat
I0205 18:21:13.638278 11825 net.cpp:148] Top shape: 32 8192 (262144)
I0205 18:21:13.638281 11825 net.cpp:156] Memory required for data: 4611218560
I0205 18:21:13.638285 11825 layer_factory.hpp:77] Creating layer fuse_fc1
I0205 18:21:13.638293 11825 net.cpp:91] Creating Layer fuse_fc1
I0205 18:21:13.638296 11825 net.cpp:425] fuse_fc1 <- concat
I0205 18:21:13.638303 11825 net.cpp:399] fuse_fc1 -> fuse_fc1
I0205 18:21:13.813359 11825 net.cpp:141] Setting up fuse_fc1
I0205 18:21:13.813390 11825 net.cpp:148] Top shape: 32 4096 (131072)
I0205 18:21:13.813395 11825 net.cpp:156] Memory required for data: 4611742848
I0205 18:21:13.813405 11825 layer_factory.hpp:77] Creating layer fuse_drop1
I0205 18:21:13.813418 11825 net.cpp:91] Creating Layer fuse_drop1
I0205 18:21:13.813426 11825 net.cpp:425] fuse_drop1 <- fuse_fc1
I0205 18:21:13.813436 11825 net.cpp:386] fuse_drop1 -> fuse_fc1 (in-place)
I0205 18:21:13.813463 11825 net.cpp:141] Setting up fuse_drop1
I0205 18:21:13.813470 11825 net.cpp:148] Top shape: 32 4096 (131072)
I0205 18:21:13.813474 11825 net.cpp:156] Memory required for data: 4612267136
I0205 18:21:13.813478 11825 layer_factory.hpp:77] Creating layer fuse_fc2
I0205 18:21:13.813488 11825 net.cpp:91] Creating Layer fuse_fc2
I0205 18:21:13.813493 11825 net.cpp:425] fuse_fc2 <- fuse_fc1
I0205 18:21:13.813498 11825 net.cpp:399] fuse_fc2 -> fuse_fc2
I0205 18:21:13.904342 11825 net.cpp:141] Setting up fuse_fc2
I0205 18:21:13.904371 11825 net.cpp:148] Top shape: 32 4096 (131072)
I0205 18:21:13.904376 11825 net.cpp:156] Memory required for data: 4612791424
I0205 18:21:13.904386 11825 layer_factory.hpp:77] Creating layer fuse_drop2
I0205 18:21:13.904398 11825 net.cpp:91] Creating Layer fuse_drop2
I0205 18:21:13.904405 11825 net.cpp:425] fuse_drop2 <- fuse_fc2
I0205 18:21:13.904413 11825 net.cpp:386] fuse_drop2 -> fuse_fc2 (in-place)
I0205 18:21:13.904438 11825 net.cpp:141] Setting up fuse_drop2
I0205 18:21:13.904444 11825 net.cpp:148] Top shape: 32 4096 (131072)
I0205 18:21:13.904448 11825 net.cpp:156] Memory required for data: 4613315712
I0205 18:21:13.904453 11825 layer_factory.hpp:77] Creating layer rgbd_fc8
I0205 18:21:13.904460 11825 net.cpp:91] Creating Layer rgbd_fc8
I0205 18:21:13.904466 11825 net.cpp:425] rgbd_fc8 <- fuse_fc2
I0205 18:21:13.904471 11825 net.cpp:399] rgbd_fc8 -> rgbd_fc8
I0205 18:21:13.905741 11825 net.cpp:141] Setting up rgbd_fc8
I0205 18:21:13.905753 11825 net.cpp:148] Top shape: 32 51 (1632)
I0205 18:21:13.905757 11825 net.cpp:156] Memory required for data: 4613322240
I0205 18:21:13.905764 11825 layer_factory.hpp:77] Creating layer rgbd_fc8_rgbd_fc8_0_split
I0205 18:21:13.905773 11825 net.cpp:91] Creating Layer rgbd_fc8_rgbd_fc8_0_split
I0205 18:21:13.905779 11825 net.cpp:425] rgbd_fc8_rgbd_fc8_0_split <- rgbd_fc8
I0205 18:21:13.905787 11825 net.cpp:399] rgbd_fc8_rgbd_fc8_0_split -> rgbd_fc8_rgbd_fc8_0_split_0
I0205 18:21:13.905796 11825 net.cpp:399] rgbd_fc8_rgbd_fc8_0_split -> rgbd_fc8_rgbd_fc8_0_split_1
I0205 18:21:13.905819 11825 net.cpp:141] Setting up rgbd_fc8_rgbd_fc8_0_split
I0205 18:21:13.905825 11825 net.cpp:148] Top shape: 32 51 (1632)
I0205 18:21:13.905831 11825 net.cpp:148] Top shape: 32 51 (1632)
I0205 18:21:13.905836 11825 net.cpp:156] Memory required for data: 4613335296
I0205 18:21:13.905841 11825 layer_factory.hpp:77] Creating layer rgb_accuracy
I0205 18:21:13.905853 11825 net.cpp:91] Creating Layer rgb_accuracy
I0205 18:21:13.905858 11825 net.cpp:425] rgb_accuracy <- rgb_fc8_rgb_fc8_0_split_0
I0205 18:21:13.905863 11825 net.cpp:425] rgb_accuracy <- label_data_2_split_0
…
I0205 18:21:13.908021 11825 net.cpp:49] Initializing net from parameters: 
state {
  phase: TEST
}
layer {
  name: "data"
  type: "Python"
  top: "rgb"
  top: "depth"
  top: "label"
  python_param {
    module: "data_layers.washington_data_layer"
    layer: "WashingtonDataLayer"
    param_str: "{\'img_size\': (224, 224), \'split\': \'test\', \'dataset_dir\': \'/home/kevin/dataset/washington_rgbd_dataset\', \'randomize\': False, \'mean\': (104.00698793, 116.66876762, 122.67891434), \'seed\': 1337, \'batch_size\': 1, \'crop_size\': (224, 224, 224, 224)}"
  }
}
layer {
  name: "conv1_1"
  type: "Convolution"
  bottom: "rgb"
  top: "conv1_1"
  param {
    name: "conv1_1_w"
    lr_mult: 0
    decay_mult: 1
  }
  param {
    name: "conv1_1_b"
    lr_mult: 0
    decay_mult: 0
  }
  convolution_param {
    num_output: 64
    pad: 1
    kernel_size: 3
    group: 1
    stride: 1
    weight_filler {
      type: "xavier"
    }
  }
}
layer {
  name: "relu1_1"
  type: "ReLU"
  bottom: "conv1_1"
  top: "conv1_1"
}
layer {
  name: "conv1_2"
  type: "Convolution"
  bottom: "conv1_1"
  top: "conv1_2"
  param {
    name: "conv1_2_w"
    lr_mult: 0
    decay_mult: 1
  }
  param {
    name: "conv1_2_b"
    lr_mult: 0
    decay_mult: 0
  }
  convolution_param {
    num_output: 64
    pad: 1
    kernel_size: 3
    group: 1
    stride: 1
    weight_filler {
      type: "xavier"
    }
  }
}
layer {
  name: "relu1_2"
  type: "ReLU"
  bottom: "conv1_2"
  top: "conv1_2"
}
layer {
  name: "rgb_pool1"
  type: "Pooling"
  bottom: "conv1_2"
  top: "rgb_pool1"
  pooling_param {
    pool: MAX
    kernel_size: 2
    stride: 2
  }
}
layer {
  name: "conv2_1"
  type: "Convolution"
  bottom: "rgb_pool1"
  top: "conv2_1"
  param {
    name: "conv2_1_w"
    lr_mult: 0
    decay_mult: 1
  }
  param {
    name: "conv2_1_b"
    lr_mult: 0
    decay_mult: 0
  }
  convolution_param {
    num_output: 128
    pad: 1
    kernel_size: 3
    group: 1
    stride: 1
    weight_filler {
      type: "xavier"
    }
  }
}
layer {
  name: "relu2_1"
  type: "ReLU"
  bottom: "conv2_1"
  top: "conv2_1"
}
layer {
  name: "conv2_2"
  type: "Convolution"
  bottom: "conv2_1"
  top: "conv2_2"
  param {
    name: "conv2_2_w"
    lr_mult: 0
    decay_mult: 1
  }
  param {
    name: "conv2_2_b"
    lr_mult: 0
    decay_mult: 0
  }
  convolution_param {
    num_output: 128
    pad: 1
    kernel_size: 3
    group: 1
    stride: 1
    weight_filler {
      type: "xavier"
    }
  }
}
layer {
  name: "relu2_2"
  type: "ReLU"
  bottom: "conv2_2"
  top: "conv2_2"
}
layer {
  name: "rgb_pool2"
  type: "Pooling"
  bottom: "conv2_2"
  top: "rgb_pool2"
  pooling_param {
    pool: MAX
    kernel_size: 2
    stride: 2
  }
}
layer {
  name: "conv3_1"
  type: "Convolution"
  bottom: "rgb_pool2"
  top: "conv3_1"
  param {
    name: "conv3_1_w"
    lr_mult: 0
    decay_mult: 1
  }
  param {
    name: "conv3_1_b"
    lr_mult: 0
    decay_mult: 0
  }
  convolution_param {
    num_output: 256
    pad: 1
    kernel_size: 3
    group: 1
    stride: 1
    weight_filler {
      type: "xavier"
    }
  }
}
layer {
  name: "relu3_1"
  type: "ReLU"
  bottom: "conv3_1"
  top: "conv3_1"
}
layer {
  name: "conv3_2"
  type: "Convolution"
  bottom: "conv3_1"
  top: "conv3_2"
  param {
    name: "conv3_2_w"
    lr_mult: 0
    decay_mult: 1
  }
  param {
    name: "conv3_2_b"
    lr_mult: 0
    decay_mult: 0
  }
  convolution_param {
    num_output: 256
    pad: 1
    kernel_size: 3
    group: 1
    stride: 1
    weight_filler {
      type: "xavier"
    }
  }
}
layer {
  name: "relu3_2"
  type: "ReLU"
  bottom: "conv3_2"
  top: "conv3_2"
}
layer {
  name: "conv3_3"
  type: "Convolution"
  bottom: "conv3_2"
  top: "conv3_3"
  param {
    name: "conv3_3_w"
    lr_mult: 0
    decay_mult: 1
  }
  param {
    name: "conv3_3_b"
    lr_mult: 0
    decay_mult: 0
  }
  convolution_param {
    num_output: 256
    pad: 1
    kernel_size: 3
    group: 1
    stride: 1
    weight_filler {
      type: "xavier"
    }
  }
}
layer {
  name: "relu3_3"
  type: "ReLU"
  bottom: "conv3_3"
  top: "conv3_3"
}
layer {
  name: "rgb_pool3"
  type: "Pooling"
  bottom: "conv3_3"
  top: "rgb_pool3"
  pooling_param {
    pool: MAX
    kernel_size: 2
    stride: 2
  }
}
layer {
  name: "conv4_1"
  type: "Convolution"
  bottom: "rgb_pool3"
  top: "conv4_1"
  param {
    name: "conv4_1_w"
    lr_mult: 0
    decay_mult: 1
  }
  param {
    name: "conv4_1_b"
    lr_mult: 0
    decay_mult: 0
  }
  convolution_param {
    num_output: 512
    pad: 1
    kernel_size: 3
    group: 1
    stride: 1
    weight_filler {
      type: "xavier"
    }
  }
}
layer {
  name: "relu4_1"
  type: "ReLU"
  bottom: "conv4_1"
  top: "conv4_1"
}
layer {
  name: "conv4_2"
  type: "Convolution"
  bottom: "conv4_1"
  top: "conv4_2"
  param {
    name: "conv4_2_w"
    lr_mult: 0
    decay_mult: 1
  }
  param {
    name: "conv4_2_b"
    lr_mult: 0
    decay_mult: 0
  }
  convolution_param {
    num_output: 512
    pad: 1
    kernel_size: 3
    group: 1
    stride: 1
    weight_filler {
      type: "xavier"
    }
  }
}
layer {
  name: "relu4_2"
  type: "ReLU"
  bottom: "conv4_2"
  top: "conv4_2"
}
layer {
  name: "conv4_3"
  type: "Convolution"
  bottom: "conv4_2"
  top: "conv4_3"
  param {
    name: "conv4_3_w"
    lr_mult: 0
    decay_mult: 1
  }
  param {
    name: "conv4_3_b"
    lr_mult: 0
    decay_mult: 0
  }
  convolution_param {
    num_output: 512
    pad: 1
    kernel_size: 3
    group: 1
    stride: 1
    weight_filler {
      type: "xavier"
    }
  }
}
layer {
  name: "relu4_3"
  type: "ReLU"
  bottom: "conv4_3"
  top: "conv4_3"
}
layer {
  name: "rgb_pool4"
  type: "Pooling"
  bottom: "conv4_3"
  top: "rgb_pool4"
  pooling_param {
    pool: MAX
    kernel_size: 2
    stride: 2
  }
}
layer {
  name: "conv5_1"
  type: "Convolution"
  bottom: "rgb_pool4"
  top: "conv5_1"
  param {
    name: "conv5_1_w"
    lr_mult: 0
    decay_mult: 1
  }
  param {
    name: "conv5_1_b"
    lr_mult: 0
    decay_mult: 0
  }
  convolution_param {
    num_output: 512
    pad: 1
    kernel_size: 3
    group: 1
    stride: 1
    weight_filler {
      type: "xavier"
    }
  }
}
layer {
  name: "relu5_1"
  type: "ReLU"
  bottom: "conv5_1"
  top: "conv5_1"
}
layer {
  name: "conv5_2"
  type: "Convolution"
  bottom: "conv5_1"
  top: "conv5_2"
  param {
    name: "conv5_2_w"
    lr_mult: 0
    decay_mult: 1
  }
  param {
    name: "conv5_2_b"
    lr_mult: 0
    decay_mult: 0
  }
  convolution_param {
    num_output: 512
    pad: 1
    kernel_size: 3
    group: 1
    stride: 1
    weight_filler {
      type: "xavier"
    }
  }
}
layer {
  name: "relu5_2"
  type: "ReLU"
  bottom: "conv5_2"
  top: "conv5_2"
}
layer {
  name: "conv5_3"
  type: "Convolution"
  bottom: "conv5_2"
  top: "conv5_3"
  param {
    name: "conv5_3_w"
    lr_mult: 0
    decay_mult: 1
  }
  param {
    name: "conv5_3_b"
    lr_mult: 0
    decay_mult: 0
  }
  convolution_param {
    num_output: 512
    pad: 1
    kernel_size: 3
    group: 1
    stride: 1
    weight_filler {
      type: "xavier"
    }
  }
}
layer {
  name: "relu5_3"
  type: "ReLU"
  bottom: "conv5_3"
  top: "conv5_3"
}
layer {
  name: "rgb_pool5"
  type: "Pooling"
  bottom: "conv5_3"
  top: "rgb_pool5"
  pooling_param {
    pool: MAX
    kernel_size: 2
    stride: 2
  }
}
layer {
  name: "rgb_fc6"
  type: "InnerProduct"
  bottom: "rgb_pool5"
  top: "rgb_fc6"
  param {
    lr_mult: 0
    decay_mult: 1
  }
  param {
    lr_mult: 0
    decay_mult: 0
  }
  inner_product_param {
    num_output: 4096
    weight_filler {
      type: "xavier"
    }
  }
}
layer {
  name: "rgb_relu6"
  type: "ReLU"
  bottom: "rgb_fc6"
  top: "rgb_fc6"
}
layer {
  name: "rgb_drop6"
  type: "Dropout"
  bottom: "rgb_fc6"
  top: "rgb_fc6"
  dropout_param {
    dropout_ratio: 0.5
  }
}
layer {
  name: "rgb_fc7"
  type: "InnerProduct"
  bottom: "rgb_fc6"
  top: "rgb_fc7"
  param {
    lr_mult: 0
    decay_mult: 1
  }
  param {
    lr_mult: 0
    decay_mult: 0
  }
  inner_product_param {
    num_output: 4096
    weight_filler {
      type: "xavier"
    }
  }
}
layer {
  name: "rgb_relu7"
  type: "ReLU"
  bottom: "rgb_fc7"
  top: "rgb_fc7"
}
layer {
  name: "rgb_drop7"
  type: "Dropout"
  bottom: "rgb_fc7"
  top: "rgb_fc7"
  dropout_param {
    dropout_ratio: 0.5
  }
}
layer {
  name: "rgb_fc8"
  type: "InnerProduct"
  bottom: "rgb_fc7"
  top: "rgb_fc8"
  param {
    lr_mult: 1
    decay_mult: 1
  }
  param {
    lr_mult: 2
    decay_mult: 0
  }
  inner_product_param {
    num_output: 51
    weight_filler {
      type: "xavier"
    }
  }
}
layer {
  name: "conv1"
  type: "Convolution"
  bottom: "depth"
  top: "conv1"
  param {
    name: "conv1_w"
    lr_mult: 0
    decay_mult: 1
  }
  param {
    name: "conv1_b"
    lr_mult: 0
    decay_mult: 0
  }
  convolution_param {
    num_output: 128
    pad: 2
    kernel_size: 5
    group: 1
    stride: 2
    weight_filler {
      type: "xavier"
    }
  }
}
layer {
  name: "relu1"
  type: "ReLU"
  bottom: "conv1"
  top: "conv1"
}
layer {
  name: "depth_pool1"
  type: "Pooling"
  bottom: "conv1"
  top: "depth_pool1"
  pooling_param {
    pool: MAX
    kernel_size: 3
    stride: 2
  }
}
layer {
  name: "norm1"
  type: "LRN"
  bottom: "depth_pool1"
  top: "norm1"
  lrn_param {
    local_size: 5
    alpha: 0.0005
    beta: 0.75
    k: 2
  }
}
layer {
  name: "conv2"
  type: "Convolution"
  bottom: "norm1"
  top: "conv2"
  param {
    name: "conv2_w"
    lr_mult: 0
    decay_mult: 1
  }
  param {
    name: "conv2_b"
    lr_mult: 0
    decay_mult: 0
  }
  convolution_param {
    num_output: 256
    pad: 2
    kernel_size: 5
    group: 1
    stride: 1
    weight_filler {
      type: "xavier"
    }
  }
}
layer {
  name: "relu2"
  type: "ReLU"
  bottom: "conv2"
  top: "conv2"
}
layer {
  name: "depth_pool2"
  type: "Pooling"
  bottom: "conv2"
  top: "depth_pool2"
  pooling_param {
    pool: MAX
    kernel_size: 3
    stride: 2
  }
}
layer {
  name: "norm2"
  type: "LRN"
  bottom: "depth_pool2"
  top: "norm2"
  lrn_param {
    local_size: 5
    alpha: 0.0005
    beta: 0.75
    k: 2
  }
}
layer {
  name: "conv3"
  type: "Convolution"
  bottom: "norm2"
  top: "conv3"
  param {
    name: "conv3_w"
    lr_mult: 0
    decay_mult: 1
  }
  param {
    name: "conv3_b"
    lr_mult: 0
    decay_mult: 0
  }
  convolution_param {
    num_output: 384
    pad: 1
    kernel_size: 3
    group: 2
    stride: 1
    weight_filler {
      type: "xavier"
    }
  }
}
layer {
  name: "relu3"
  type: "ReLU"
  bottom: "conv3"
  top: "conv3"
}
layer {
  name: "depth_pool3"
  type: "Pooling"
  bottom: "conv3"
  top: "depth_pool3"
  pooling_param {
    pool: MAX
    kernel_size: 3
    stride: 2
  }
}
layer {
  name: "conv4"
  type: "Convolution"
  bottom: "depth_pool3"
  top: "conv4"
  param {
    name: "conv4_w"
    lr_mult: 0
    decay_mult: 1
  }
  param {
    name: "conv4_b"
    lr_mult: 0
    decay_mult: 0
  }
  convolution_param {
    num_output: 512
    pad: 1
    kernel_size: 3
    group: 1
    stride: 1
    weight_filler {
      type: "xavier"
    }
  }
}
layer {
  name: "relu4"
  type: "ReLU"
  bottom: "conv4"
  top: "conv4"
}
layer {
  name: "conv5"
  type: "Convolution"
  bottom: "conv4"
  top: "conv5"
  param {
    name: "conv5_w"
    lr_mult: 0
    decay_mult: 1
  }
  param {
    name: "conv5_b"
    lr_mult: 0
    decay_mult: 0
  }
  convolution_param {
    num_output: 512
    pad: 1
    kernel_size: 3
    group: 1
    stride: 1
    weight_filler {
      type: "xavier"
    }
  }
}
layer {
  name: "relu5"
  type: "ReLU"
  bottom: "conv5"
  top: "conv5"
}
layer {
  name: "depth_pool5"
  type: "Pooling"
  bottom: "conv5"
  top: "depth_pool5"
  pooling_param {
    pool: MAX
    kernel_size: 3
    stride: 2
  }
}
layer {
  name: "depth_fc6"
  type: "InnerProduct"
  bottom: "depth_pool5"
  top: "depth_fc6"
  param {
    lr_mult: 0
    decay_mult: 1
  }
  param {
    lr_mult: 0
    decay_mult: 0
  }
  inner_product_param {
    num_output: 4096
    weight_filler {
      type: "xavier"
    }
  }
}
layer {
  name: "depth_relu6"
  type: "ReLU"
  bottom: "depth_fc6"
  top: "depth_fc6"
}
layer {
  name: "depth_drop6"
  type: "Dropout"
  bottom: "depth_fc6"
  top: "depth_fc6"
  dropout_param {
    dropout_ratio: 0.5
  }
}
layer {
  name: "depth_fc7"
  type: "InnerProduct"
  bottom: "depth_fc6"
  top: "depth_fc7"
  param {
    lr_mult: 0
    decay_mult: 1
  }
  param {
    lr_mult: 0
    decay_mult: 0
  }
  inner_product_param {
    num_output: 4096
    weight_filler {
      type: "xavier"
    }
  }
}
layer {
  name: "depth_relu7"
  type: "ReLU"
  bottom: "depth_fc7"
  top: "depth_fc7"
}
layer {
  name: "depth_drop7"
  type: "Dropout"
  bottom: "depth_fc7"
  top: "depth_fc7"
  dropout_param {
    dropout_ratio: 0.5
  }
}
layer {
  name: "depth_fc8"
  type: "InnerProduct"
  bottom: "depth_fc7"
  top: "depth_fc8"
  param {
    lr_mult: 1
    decay_mult: 1
  }
  param {
    lr_mult: 2
    decay_mult: 0
  }
  inner_product_param {
    num_output: 51
    weight_filler {
      type: "xavier"
    }
  }
}
layer {
  name: "concat"
  type: "Concat"
  bottom: "rgb_fc7"
  bottom: "depth_fc7"
  top: "concat"
  concat_param {
    axis: 1
  }
}
layer {
  name: "fuse_fc1"
  type: "InnerProduct"
  bottom: "concat"
  top: "fuse_fc1"
  param {
    lr_mult: 1
    decay_mult: 1
  }
  param {
    lr_mult: 2
    decay_mult: 0
  }
  inner_product_param {
    num_output: 4096
    weight_filler {
      type: "xavier"
    }
  }
}
layer {
  name: "fuse_drop1"
  type: "Dropout"
  bottom: "fuse_fc1"
  top: "fuse_fc1"
  dropout_param {
    dropout_ratio: 0.9
  }
}
layer {
  name: "fuse_fc2"
  type: "InnerProduct"
  bottom: "fuse_fc1"
  top: "fuse_fc2"
  param {
    lr_mult: 1
    decay_mult: 1
  }
  param {
    lr_mult: 2
    decay_mult: 0
  }
  inner_product_param {
    num_output: 4096
    weight_filler {
      type: "xavier"
    }
  }
}
layer {
  name: "fuse_drop2"
  type: "Dropout"
  bottom: "fuse_fc2"
  top: "fuse_fc2"
  dropout_param {
    dropout_ratio: 0.9
  }
}
layer {
  name: "rgbd_fc8"
  type: "InnerProduct"
  bottom: "fuse_fc2"
  top: "rgbd_fc8"
  param {
    lr_mult: 1
    decay_mult: 1
  }
  param {
    lr_mult: 2
    decay_mult: 0
  }
  inner_product_param {
    num_output: 51
    weight_filler {
      type: "xavier"
    }
  }
}
layer {
  name: "rgb_accuracy"
  type: "Accuracy"
  bottom: "rgb_fc8"
  bottom: "label"
  top: "rgb_accuracy"
}
layer {
  name: "rgb_loss"
  type: "SoftmaxWithLoss"
  bottom: "rgb_fc8"
  bottom: "label"
  top: "rgb_loss"
}
layer {
  name: "depth_accuracy"
  type: "Accuracy"
  bottom: "depth_fc8"
  bottom: "label"
  top: "depth_accuracy"
}
layer {
  name: "depth_loss"
  type: "SoftmaxWithLoss"
  bottom: "depth_fc8"
  bottom: "label"
  top: "depth_loss"
}
layer {
  name: "rgbd_accuracy"
  type: "Accuracy"
  bottom: "rgbd_fc8"
  bottom: "label"
  top: "rgbd_accuracy"
}
layer {
  name: "rgbd_loss"
  type: "SoftmaxWithLoss"
  bottom: "rgbd_fc8"
  bottom: "label"
  top: "rgbd_loss"
}
I0205 18:21:13.908535 11825 layer_factory.hpp:77] Creating layer data
I0205 18:21:13.908586 11825 net.cpp:91] Creating Layer data
I0205 18:21:13.908591 11825 net.cpp:399] data -> rgb
I0205 18:21:13.908596 11825 net.cpp:399] data -> depth
I0205 18:21:13.908599 11825 net.cpp:399] data -> label
{'img_size': (224, 224), 'split': 'test', 'dataset_dir': '/home/kevin/dataset/washington_rgbd_dataset', 'crop_size': (224, 224, 224, 224), 'randomize': False, 'seed': 1337, 'batch_size': 1, 'mean': (104.00698793, 116.66876762, 122.67891434)}
I0205 18:21:13.911556 11825 net.cpp:141] Setting up data
I0205 18:21:13.911567 11825 net.cpp:148] Top shape: 1 3 224 224 (150528)
I0205 18:21:13.911571 11825 net.cpp:148] Top shape: 1 1 224 224 (50176)
I0205 18:21:13.911573 11825 net.cpp:148] Top shape: 1 1 (1)
I0205 18:21:13.911576 11825 net.cpp:156] Memory required for data: 802820
I0205 18:21:13.911579 11825 layer_factory.hpp:77] Creating layer label_data_2_split
I0205 18:21:13.911586 11825 net.cpp:91] Creating Layer label_data_2_split
I0205 18:21:13.911588 11825 net.cpp:425] label_data_2_split <- label
I0205 18:21:13.911592 11825 net.cpp:399] label_data_2_split -> label_data_2_split_0
I0205 18:21:13.911598 11825 net.cpp:399] label_data_2_split -> label_data_2_split_1
I0205 18:21:13.911602 11825 net.cpp:399] label_data_2_split -> label_data_2_split_2
I0205 18:21:13.911633 11825 net.cpp:399] label_data_2_split -> label_data_2_split_3
I0205 18:21:13.911639 11825 net.cpp:399] label_data_2_split -> label_data_2_split_4
I0205 18:21:13.911643 11825 net.cpp:399] label_data_2_split -> label_data_2_split_5
I0205 18:21:13.911702 11825 net.cpp:141] Setting up label_data_2_split
I0205 18:21:13.911707 11825 net.cpp:148] Top shape: 1 1 (1)
I0205 18:21:13.911710 11825 net.cpp:148] Top shape: 1 1 (1)
I0205 18:21:13.911712 11825 net.cpp:148] Top shape: 1 1 (1)
I0205 18:21:13.911715 11825 net.cpp:148] Top shape: 1 1 (1)
I0205 18:21:13.911718 11825 net.cpp:148] Top shape: 1 1 (1)
I0205 18:21:13.911722 11825 net.cpp:148] Top shape: 1 1 (1)
I0205 18:21:13.911725 11825 net.cpp:156] Memory required for data: 802844
I0205 18:21:13.911727 11825 layer_factory.hpp:77] Creating layer conv1_1
I0205 18:21:13.911736 11825 net.cpp:91] Creating Layer conv1_1
I0205 18:21:13.911739 11825 net.cpp:425] conv1_1 <- rgb
I0205 18:21:13.911743 11825 net.cpp:399] conv1_1 -> conv1_1
I0205 18:21:13.911928 11825 net.cpp:141] Setting up conv1_1
I0205 18:21:13.911933 11825 net.cpp:148] Top shape: 1 64 224 224 (3211264)
I0205 18:21:13.911936 11825 net.cpp:156] Memory required for data: 13647900
I0205 18:21:13.911942 11825 layer_factory.hpp:77] Creating layer relu1_1
I0205 18:21:13.911945 11825 net.cpp:91] Creating Layer relu1_1
I0205 18:21:13.911948 11825 net.cpp:425] relu1_1 <- conv1_1
I0205 18:21:13.911952 11825 net.cpp:386] relu1_1 -> conv1_1 (in-place)
I0205 18:21:13.911954 11825 net.cpp:141] Setting up relu1_1
I0205 18:21:13.911957 11825 net.cpp:148] Top shape: 1 64 224 224 (3211264)
I0205 18:21:13.911959 11825 net.cpp:156] Memory required for data: 26492956
I0205 18:21:13.911962 11825 layer_factory.hpp:77] Creating layer conv1_2
I0205 18:21:13.911967 11825 net.cpp:91] Creating Layer conv1_2
I0205 18:21:13.911968 11825 net.cpp:425] conv1_2 <- conv1_1
I0205 18:21:13.911972 11825 net.cpp:399] conv1_2 -> conv1_2
I0205 18:21:13.912608 11825 net.cpp:141] Setting up conv1_2
I0205 18:21:13.912616 11825 net.cpp:148] Top shape: 1 64 224 224 (3211264)
I0205 18:21:13.912617 11825 net.cpp:156] Memory required for data: 39338012
I0205 18:21:13.912623 11825 layer_factory.hpp:77] Creating layer relu1_2
I0205 18:21:13.912626 11825 net.cpp:91] Creating Layer relu1_2
I0205 18:21:13.912629 11825 net.cpp:425] relu1_2 <- conv1_2
I0205 18:21:13.912632 11825 net.cpp:386] relu1_2 -> conv1_2 (in-place)
I0205 18:21:13.912636 11825 net.cpp:141] Setting up relu1_2
I0205 18:21:13.912639 11825 net.cpp:148] Top shape: 1 64 224 224 (3211264)
I0205 18:21:13.912642 11825 net.cpp:156] Memory required for data: 52183068
I0205 18:21:13.912643 11825 layer_factory.hpp:77] Creating layer rgb_pool1
I0205 18:21:13.912647 11825 net.cpp:91] Creating Layer rgb_pool1
I0205 18:21:13.912649 11825 net.cpp:425] rgb_pool1 <- conv1_2
I0205 18:21:13.912652 11825 net.cpp:399] rgb_pool1 -> rgb_pool1
I0205 18:21:13.912678 11825 net.cpp:141] Setting up rgb_pool1
I0205 18:21:13.912681 11825 net.cpp:148] Top shape: 1 64 112 112 (802816)
I0205 18:21:13.912683 11825 net.cpp:156] Memory required for data: 55394332
I0205 18:21:13.912685 11825 layer_factory.hpp:77] Creating layer conv2_1
I0205 18:21:13.912690 11825 net.cpp:91] Creating Layer conv2_1
I0205 18:21:13.912693 11825 net.cpp:425] conv2_1 <- rgb_pool1
I0205 18:21:13.912696 11825 net.cpp:399] conv2_1 -> conv2_1
I0205 18:21:13.913400 11825 net.cpp:141] Setting up conv2_1
I0205 18:21:13.913408 11825 net.cpp:148] Top shape: 1 128 112 112 (1605632)
I0205 18:21:13.913410 11825 net.cpp:156] Memory required for data: 61816860
I0205 18:21:13.913415 11825 layer_factory.hpp:77] Creating layer relu2_1
I0205 18:21:13.913420 11825 net.cpp:91] Creating Layer relu2_1
I0205 18:21:13.913422 11825 net.cpp:425] relu2_1 <- conv2_1
I0205 18:21:13.913426 11825 net.cpp:386] relu2_1 -> conv2_1 (in-place)
I0205 18:21:13.913430 11825 net.cpp:141] Setting up relu2_1
I0205 18:21:13.913434 11825 net.cpp:148] Top shape: 1 128 112 112 (1605632)
I0205 18:21:13.913435 11825 net.cpp:156] Memory required for data: 68239388
I0205 18:21:13.913437 11825 layer_factory.hpp:77] Creating layer conv2_2
I0205 18:21:13.913444 11825 net.cpp:91] Creating Layer conv2_2
I0205 18:21:13.913445 11825 net.cpp:425] conv2_2 <- conv2_1
I0205 18:21:13.913449 11825 net.cpp:399] conv2_2 -> conv2_2
I0205 18:21:13.914188 11825 net.cpp:141] Setting up conv2_2
I0205 18:21:13.914192 11825 net.cpp:148] Top shape: 1 128 112 112 (1605632)
I0205 18:21:13.914194 11825 net.cpp:156] Memory required for data: 74661916
I0205 18:21:13.914198 11825 layer_factory.hpp:77] Creating layer relu2_2
I0205 18:21:13.914201 11825 net.cpp:91] Creating Layer relu2_2
I0205 18:21:13.914203 11825 net.cpp:425] relu2_2 <- conv2_2
I0205 18:21:13.914206 11825 net.cpp:386] relu2_2 -> conv2_2 (in-place)
I0205 18:21:13.914211 11825 net.cpp:141] Setting up relu2_2
I0205 18:21:13.914212 11825 net.cpp:148] Top shape: 1 128 112 112 (1605632)
I0205 18:21:13.914214 11825 net.cpp:156] Memory required for data: 81084444
I0205 18:21:13.914216 11825 layer_factory.hpp:77] Creating layer rgb_pool2
I0205 18:21:13.914221 11825 net.cpp:91] Creating Layer rgb_pool2
I0205 18:21:13.914222 11825 net.cpp:425] rgb_pool2 <- conv2_2
I0205 18:21:13.914225 11825 net.cpp:399] rgb_pool2 -> rgb_pool2
I0205 18:21:13.914247 11825 net.cpp:141] Setting up rgb_pool2
I0205 18:21:13.914249 11825 net.cpp:148] Top shape: 1 128 56 56 (401408)
I0205 18:21:13.914252 11825 net.cpp:156] Memory required for data: 82690076
I0205 18:21:13.914253 11825 layer_factory.hpp:77] Creating layer conv3_1
I0205 18:21:13.914259 11825 net.cpp:91] Creating Layer conv3_1
I0205 18:21:13.914261 11825 net.cpp:425] conv3_1 <- rgb_pool2
I0205 18:21:13.914265 11825 net.cpp:399] conv3_1 -> conv3_1
I0205 18:21:13.915907 11825 net.cpp:141] Setting up conv3_1
I0205 18:21:13.915915 11825 net.cpp:148] Top shape: 1 256 56 56 (802816)
I0205 18:21:13.915917 11825 net.cpp:156] Memory required for data: 85901340
I0205 18:21:13.915923 11825 layer_factory.hpp:77] Creating layer relu3_1
I0205 18:21:13.915928 11825 net.cpp:91] Creating Layer relu3_1
I0205 18:21:13.915930 11825 net.cpp:425] relu3_1 <- conv3_1
I0205 18:21:13.915935 11825 net.cpp:386] relu3_1 -> conv3_1 (in-place)
I0205 18:21:13.915938 11825 net.cpp:141] Setting up relu3_1
I0205 18:21:13.915941 11825 net.cpp:148] Top shape: 1 256 56 56 (802816)
I0205 18:21:13.915943 11825 net.cpp:156] Memory required for data: 89112604
I0205 18:21:13.915946 11825 layer_factory.hpp:77] Creating layer conv3_2
I0205 18:21:13.915951 11825 net.cpp:91] Creating Layer conv3_2
I0205 18:21:13.915953 11825 net.cpp:425] conv3_2 <- conv3_1
I0205 18:21:13.915956 11825 net.cpp:399] conv3_2 -> conv3_2
I0205 18:21:13.919786 11825 net.cpp:141] Setting up conv3_2
I0205 18:21:13.919811 11825 net.cpp:148] Top shape: 1 256 56 56 (802816)
I0205 18:21:13.919814 11825 net.cpp:156] Memory required for data: 92323868
I0205 18:21:13.919826 11825 layer_factory.hpp:77] Creating layer relu3_2
I0205 18:21:13.919834 11825 net.cpp:91] Creating Layer relu3_2
I0205 18:21:13.919839 11825 net.cpp:425] relu3_2 <- conv3_2
I0205 18:21:13.919847 11825 net.cpp:386] relu3_2 -> conv3_2 (in-place)
I0205 18:21:13.919853 11825 net.cpp:141] Setting up relu3_2
I0205 18:21:13.919858 11825 net.cpp:148] Top shape: 1 256 56 56 (802816)
I0205 18:21:13.919862 11825 net.cpp:156] Memory required for data: 95535132
I0205 18:21:13.919865 11825 layer_factory.hpp:77] Creating layer conv3_3
I0205 18:21:13.919878 11825 net.cpp:91] Creating Layer conv3_3
I0205 18:21:13.919922 11825 net.cpp:425] conv3_3 <- conv3_2
I0205 18:21:13.919932 11825 net.cpp:399] conv3_3 -> conv3_3
I0205 18:21:13.924247 11825 net.cpp:141] Setting up conv3_3
I0205 18:21:13.924275 11825 net.cpp:148] Top shape: 1 256 56 56 (802816)
I0205 18:21:13.924280 11825 net.cpp:156] Memory required for data: 98746396
I0205 18:21:13.924291 11825 layer_factory.hpp:77] Creating layer relu3_3
I0205 18:21:13.924302 11825 net.cpp:91] Creating Layer relu3_3
I0205 18:21:13.924309 11825 net.cpp:425] relu3_3 <- conv3_3
I0205 18:21:13.924315 11825 net.cpp:386] relu3_3 -> conv3_3 (in-place)
I0205 18:21:13.924324 11825 net.cpp:141] Setting up relu3_3
I0205 18:21:13.924329 11825 net.cpp:148] Top shape: 1 256 56 56 (802816)
I0205 18:21:13.924335 11825 net.cpp:156] Memory required for data: 101957660
I0205 18:21:13.924338 11825 layer_factory.hpp:77] Creating layer rgb_pool3
I0205 18:21:13.924346 11825 net.cpp:91] Creating Layer rgb_pool3
I0205 18:21:13.924350 11825 net.cpp:425] rgb_pool3 <- conv3_3
I0205 18:21:13.924355 11825 net.cpp:399] rgb_pool3 -> rgb_pool3
I0205 18:21:13.924383 11825 net.cpp:141] Setting up rgb_pool3
I0205 18:21:13.924391 11825 net.cpp:148] Top shape: 1 256 28 28 (200704)
I0205 18:21:13.924396 11825 net.cpp:156] Memory required for data: 102760476
I0205 18:21:13.924402 11825 layer_factory.hpp:77] Creating layer conv4_1
I0205 18:21:13.924412 11825 net.cpp:91] Creating Layer conv4_1
I0205 18:21:13.924415 11825 net.cpp:425] conv4_1 <- rgb_pool3
I0205 18:21:13.924422 11825 net.cpp:399] conv4_1 -> conv4_1
I0205 18:21:13.930662 11825 net.cpp:141] Setting up conv4_1
I0205 18:21:13.930697 11825 net.cpp:148] Top shape: 1 512 28 28 (401408)
I0205 18:21:13.930706 11825 net.cpp:156] Memory required for data: 104366108
I0205 18:21:13.930719 11825 layer_factory.hpp:77] Creating layer relu4_1
I0205 18:21:13.930733 11825 net.cpp:91] Creating Layer relu4_1
I0205 18:21:13.930743 11825 net.cpp:425] relu4_1 <- conv4_1
I0205 18:21:13.930754 11825 net.cpp:386] relu4_1 -> conv4_1 (in-place)
I0205 18:21:13.930766 11825 net.cpp:141] Setting up relu4_1
I0205 18:21:13.930775 11825 net.cpp:148] Top shape: 1 512 28 28 (401408)
I0205 18:21:13.930783 11825 net.cpp:156] Memory required for data: 105971740
I0205 18:21:13.930790 11825 layer_factory.hpp:77] Creating layer conv4_2
I0205 18:21:13.930804 11825 net.cpp:91] Creating Layer conv4_2
I0205 18:21:13.930811 11825 net.cpp:425] conv4_2 <- conv4_1
I0205 18:21:13.930820 11825 net.cpp:399] conv4_2 -> conv4_2
I0205 18:21:13.945013 11825 net.cpp:141] Setting up conv4_2
I0205 18:21:13.945044 11825 net.cpp:148] Top shape: 1 512 28 28 (401408)
I0205 18:21:13.945049 11825 net.cpp:156] Memory required for data: 107577372
I0205 18:21:13.945062 11825 layer_factory.hpp:77] Creating layer relu4_2
I0205 18:21:13.945073 11825 net.cpp:91] Creating Layer relu4_2
I0205 18:21:13.945080 11825 net.cpp:425] relu4_2 <- conv4_2
I0205 18:21:13.945087 11825 net.cpp:386] relu4_2 -> conv4_2 (in-place)
I0205 18:21:13.945096 11825 net.cpp:141] Setting up relu4_2
I0205 18:21:13.945101 11825 net.cpp:148] Top shape: 1 512 28 28 (401408)
I0205 18:21:13.945106 11825 net.cpp:156] Memory required for data: 109183004
I0205 18:21:13.945111 11825 layer_factory.hpp:77] Creating layer conv4_3
I0205 18:21:13.945119 11825 net.cpp:91] Creating Layer conv4_3
I0205 18:21:13.945125 11825 net.cpp:425] conv4_3 <- conv4_2
I0205 18:21:13.945130 11825 net.cpp:399] conv4_3 -> conv4_3
I0205 18:21:13.957415 11825 net.cpp:141] Setting up conv4_3
I0205 18:21:13.957444 11825 net.cpp:148] Top shape: 1 512 28 28 (401408)
I0205 18:21:13.957449 11825 net.cpp:156] Memory required for data: 110788636
I0205 18:21:13.957459 11825 layer_factory.hpp:77] Creating layer relu4_3
I0205 18:21:13.957470 11825 net.cpp:91] Creating Layer relu4_3
I0205 18:21:13.957478 11825 net.cpp:425] relu4_3 <- conv4_3
I0205 18:21:13.957484 11825 net.cpp:386] relu4_3 -> conv4_3 (in-place)
I0205 18:21:13.957492 11825 net.cpp:141] Setting up relu4_3
I0205 18:21:13.957499 11825 net.cpp:148] Top shape: 1 512 28 28 (401408)
I0205 18:21:13.957502 11825 net.cpp:156] Memory required for data: 112394268
I0205 18:21:13.957506 11825 layer_factory.hpp:77] Creating layer rgb_pool4
I0205 18:21:13.957512 11825 net.cpp:91] Creating Layer rgb_pool4
I0205 18:21:13.957517 11825 net.cpp:425] rgb_pool4 <- conv4_3
I0205 18:21:13.957523 11825 net.cpp:399] rgb_pool4 -> rgb_pool4
I0205 18:21:13.957548 11825 net.cpp:141] Setting up rgb_pool4
I0205 18:21:13.957556 11825 net.cpp:148] Top shape: 1 512 14 14 (100352)
I0205 18:21:13.957559 11825 net.cpp:156] Memory required for data: 112795676
I0205 18:21:13.957563 11825 layer_factory.hpp:77] Creating layer conv5_1
I0205 18:21:13.957572 11825 net.cpp:91] Creating Layer conv5_1
I0205 18:21:13.957577 11825 net.cpp:425] conv5_1 <- rgb_pool4
I0205 18:21:13.957582 11825 net.cpp:399] conv5_1 -> conv5_1
I0205 18:21:13.971925 11825 net.cpp:141] Setting up conv5_1
I0205 18:21:13.971956 11825 net.cpp:148] Top shape: 1 512 14 14 (100352)
I0205 18:21:13.971964 11825 net.cpp:156] Memory required for data: 113197084
I0205 18:21:13.971976 11825 layer_factory.hpp:77] Creating layer relu5_1
I0205 18:21:13.971987 11825 net.cpp:91] Creating Layer relu5_1
I0205 18:21:13.971993 11825 net.cpp:425] relu5_1 <- conv5_1
I0205 18:21:13.972002 11825 net.cpp:386] relu5_1 -> conv5_1 (in-place)
I0205 18:21:13.972010 11825 net.cpp:141] Setting up relu5_1
I0205 18:21:13.972017 11825 net.cpp:148] Top shape: 1 512 14 14 (100352)
I0205 18:21:13.972020 11825 net.cpp:156] Memory required for data: 113598492
I0205 18:21:13.972025 11825 layer_factory.hpp:77] Creating layer conv5_2
I0205 18:21:13.972036 11825 net.cpp:91] Creating Layer conv5_2
I0205 18:21:13.972043 11825 net.cpp:425] conv5_2 <- conv5_1
I0205 18:21:13.972048 11825 net.cpp:399] conv5_2 -> conv5_2
I0205 18:21:13.985025 11825 net.cpp:141] Setting up conv5_2
I0205 18:21:13.985054 11825 net.cpp:148] Top shape: 1 512 14 14 (100352)
I0205 18:21:13.985059 11825 net.cpp:156] Memory required for data: 113999900
I0205 18:21:13.985069 11825 layer_factory.hpp:77] Creating layer relu5_2
I0205 18:21:13.985080 11825 net.cpp:91] Creating Layer relu5_2
I0205 18:21:13.985088 11825 net.cpp:425] relu5_2 <- conv5_2
I0205 18:21:13.985095 11825 net.cpp:386] relu5_2 -> conv5_2 (in-place)
I0205 18:21:13.985105 11825 net.cpp:141] Setting up relu5_2
I0205 18:21:13.985110 11825 net.cpp:148] Top shape: 1 512 14 14 (100352)
I0205 18:21:13.985113 11825 net.cpp:156] Memory required for data: 114401308
I0205 18:21:13.985118 11825 layer_factory.hpp:77] Creating layer conv5_3
I0205 18:21:13.985127 11825 net.cpp:91] Creating Layer conv5_3
I0205 18:21:13.985133 11825 net.cpp:425] conv5_3 <- conv5_2
I0205 18:21:13.985138 11825 net.cpp:399] conv5_3 -> conv5_3
I0205 18:21:13.997558 11825 net.cpp:141] Setting up conv5_3
I0205 18:21:13.997586 11825 net.cpp:148] Top shape: 1 512 14 14 (100352)
I0205 18:21:13.997591 11825 net.cpp:156] Memory required for data: 114802716
I0205 18:21:13.997601 11825 layer_factory.hpp:77] Creating layer relu5_3
I0205 18:21:13.997611 11825 net.cpp:91] Creating Layer relu5_3
I0205 18:21:13.997617 11825 net.cpp:425] relu5_3 <- conv5_3
I0205 18:21:13.997623 11825 net.cpp:386] relu5_3 -> conv5_3 (in-place)
I0205 18:21:13.997632 11825 net.cpp:141] Setting up relu5_3
I0205 18:21:13.997637 11825 net.cpp:148] Top shape: 1 512 14 14 (100352)
I0205 18:21:13.997642 11825 net.cpp:156] Memory required for data: 115204124
I0205 18:21:13.997647 11825 layer_factory.hpp:77] Creating layer rgb_pool5
I0205 18:21:13.997656 11825 net.cpp:91] Creating Layer rgb_pool5
I0205 18:21:13.997660 11825 net.cpp:425] rgb_pool5 <- conv5_3
I0205 18:21:13.997666 11825 net.cpp:399] rgb_pool5 -> rgb_pool5
I0205 18:21:13.997699 11825 net.cpp:141] Setting up rgb_pool5
I0205 18:21:13.997705 11825 net.cpp:148] Top shape: 1 512 7 7 (25088)
I0205 18:21:13.997709 11825 net.cpp:156] Memory required for data: 115304476
I0205 18:21:13.997714 11825 layer_factory.hpp:77] Creating layer rgb_fc6
I0205 18:21:13.997721 11825 net.cpp:91] Creating Layer rgb_fc6
I0205 18:21:13.997727 11825 net.cpp:425] rgb_fc6 <- rgb_pool5
I0205 18:21:13.997733 11825 net.cpp:399] rgb_fc6 -> rgb_fc6
I0205 18:21:14.536283 11825 net.cpp:141] Setting up rgb_fc6
I0205 18:21:14.536320 11825 net.cpp:148] Top shape: 1 4096 (4096)
I0205 18:21:14.536330 11825 net.cpp:156] Memory required for data: 115320860
I0205 18:21:14.536344 11825 layer_factory.hpp:77] Creating layer rgb_relu6
I0205 18:21:14.536353 11825 net.cpp:91] Creating Layer rgb_relu6
I0205 18:21:14.536361 11825 net.cpp:425] rgb_relu6 <- rgb_fc6
I0205 18:21:14.536367 11825 net.cpp:386] rgb_relu6 -> rgb_fc6 (in-place)
I0205 18:21:14.536379 11825 net.cpp:141] Setting up rgb_relu6
I0205 18:21:14.536384 11825 net.cpp:148] Top shape: 1 4096 (4096)
I0205 18:21:14.536391 11825 net.cpp:156] Memory required for data: 115337244
I0205 18:21:14.536398 11825 layer_factory.hpp:77] Creating layer rgb_drop6
I0205 18:21:14.536408 11825 net.cpp:91] Creating Layer rgb_drop6
I0205 18:21:14.536415 11825 net.cpp:425] rgb_drop6 <- rgb_fc6
I0205 18:21:14.536422 11825 net.cpp:386] rgb_drop6 -> rgb_fc6 (in-place)
I0205 18:21:14.536448 11825 net.cpp:141] Setting up rgb_drop6
I0205 18:21:14.536458 11825 net.cpp:148] Top shape: 1 4096 (4096)
I0205 18:21:14.536468 11825 net.cpp:156] Memory required for data: 115353628
I0205 18:21:14.536475 11825 layer_factory.hpp:77] Creating layer rgb_fc7
I0205 18:21:14.536487 11825 net.cpp:91] Creating Layer rgb_fc7
I0205 18:21:14.536496 11825 net.cpp:425] rgb_fc7 <- rgb_fc6
I0205 18:21:14.536505 11825 net.cpp:399] rgb_fc7 -> rgb_fc7
I0205 18:21:14.630522 11825 net.cpp:141] Setting up rgb_fc7
I0205 18:21:14.630575 11825 net.cpp:148] Top shape: 1 4096 (4096)
I0205 18:21:14.630589 11825 net.cpp:156] Memory required for data: 115370012
I0205 18:21:14.630609 11825 layer_factory.hpp:77] Creating layer rgb_relu7
I0205 18:21:14.630632 11825 net.cpp:91] Creating Layer rgb_relu7
I0205 18:21:14.630648 11825 net.cpp:425] rgb_relu7 <- rgb_fc7
I0205 18:21:14.630667 11825 net.cpp:386] rgb_relu7 -> rgb_fc7 (in-place)
I0205 18:21:14.630692 11825 net.cpp:141] Setting up rgb_relu7
I0205 18:21:14.630705 11825 net.cpp:148] Top shape: 1 4096 (4096)
I0205 18:21:14.630713 11825 net.cpp:156] Memory required for data: 115386396
I0205 18:21:14.630722 11825 layer_factory.hpp:77] Creating layer rgb_drop7
I0205 18:21:14.630738 11825 net.cpp:91] Creating Layer rgb_drop7
I0205 18:21:14.630748 11825 net.cpp:425] rgb_drop7 <- rgb_fc7
I0205 18:21:14.630759 11825 net.cpp:386] rgb_drop7 -> rgb_fc7 (in-place)
I0205 18:21:14.630798 11825 net.cpp:141] Setting up rgb_drop7
I0205 18:21:14.630811 11825 net.cpp:148] Top shape: 1 4096 (4096)
I0205 18:21:14.630820 11825 net.cpp:156] Memory required for data: 115402780
I0205 18:21:14.630830 11825 layer_factory.hpp:77] Creating layer rgb_fc7_rgb_drop7_0_split
I0205 18:21:14.630841 11825 net.cpp:91] Creating Layer rgb_fc7_rgb_drop7_0_split
I0205 18:21:14.630851 11825 net.cpp:425] rgb_fc7_rgb_drop7_0_split <- rgb_fc7
I0205 18:21:14.630863 11825 net.cpp:399] rgb_fc7_rgb_drop7_0_split -> rgb_fc7_rgb_drop7_0_split_0
I0205 18:21:14.630878 11825 net.cpp:399] rgb_fc7_rgb_drop7_0_split -> rgb_fc7_rgb_drop7_0_split_1
I0205 18:21:14.630928 11825 net.cpp:141] Setting up rgb_fc7_rgb_drop7_0_split
I0205 18:21:14.630937 11825 net.cpp:148] Top shape: 1 4096 (4096)
I0205 18:21:14.630947 11825 net.cpp:148] Top shape: 1 4096 (4096)
I0205 18:21:14.630956 11825 net.cpp:156] Memory required for data: 115435548
I0205 18:21:14.630965 11825 layer_factory.hpp:77] Creating layer rgb_fc8
I0205 18:21:14.630981 11825 net.cpp:91] Creating Layer rgb_fc8
I0205 18:21:14.630992 11825 net.cpp:425] rgb_fc8 <- rgb_fc7_rgb_drop7_0_split_0
I0205 18:21:14.631011 11825 net.cpp:399] rgb_fc8 -> rgb_fc8
I0205 18:21:14.633240 11825 net.cpp:141] Setting up rgb_fc8
I0205 18:21:14.633263 11825 net.cpp:148] Top shape: 1 51 (51)
I0205 18:21:14.633275 11825 net.cpp:156] Memory required for data: 115435752
I0205 18:21:14.633289 11825 layer_factory.hpp:77] Creating layer rgb_fc8_rgb_fc8_0_split
I0205 18:21:14.633303 11825 net.cpp:91] Creating Layer rgb_fc8_rgb_fc8_0_split
I0205 18:21:14.633316 11825 net.cpp:425] rgb_fc8_rgb_fc8_0_split <- rgb_fc8
I0205 18:21:14.633332 11825 net.cpp:399] rgb_fc8_rgb_fc8_0_split -> rgb_fc8_rgb_fc8_0_split_0
I0205 18:21:14.633363 11825 net.cpp:399] rgb_fc8_rgb_fc8_0_split -> rgb_fc8_rgb_fc8_0_split_1
I0205 18:21:14.633429 11825 net.cpp:141] Setting up rgb_fc8_rgb_fc8_0_split
I0205 18:21:14.633445 11825 net.cpp:148] Top shape: 1 51 (51)
I0205 18:21:14.633455 11825 net.cpp:148] Top shape: 1 51 (51)
I0205 18:21:14.633463 11825 net.cpp:156] Memory required for data: 115436160
I0205 18:21:14.633474 11825 layer_factory.hpp:77] Creating layer conv1
I0205 18:21:14.633493 11825 net.cpp:91] Creating Layer conv1
I0205 18:21:14.633504 11825 net.cpp:425] conv1 <- depth
I0205 18:21:14.633522 11825 net.cpp:399] conv1 -> conv1
I0205 18:21:14.633893 11825 net.cpp:141] Setting up conv1
I0205 18:21:14.633924 11825 net.cpp:148] Top shape: 1 128 112 112 (1605632)
I0205 18:21:14.633940 11825 net.cpp:156] Memory required for data: 121858688
I0205 18:21:14.633968 11825 layer_factory.hpp:77] Creating layer relu1
I0205 18:21:14.633987 11825 net.cpp:91] Creating Layer relu1
I0205 18:21:14.634004 11825 net.cpp:425] relu1 <- conv1
I0205 18:21:14.634022 11825 net.cpp:386] relu1 -> conv1 (in-place)
I0205 18:21:14.634042 11825 net.cpp:141] Setting up relu1
I0205 18:21:14.634063 11825 net.cpp:148] Top shape: 1 128 112 112 (1605632)
I0205 18:21:14.634078 11825 net.cpp:156] Memory required for data: 128281216
I0205 18:21:14.634094 11825 layer_factory.hpp:77] Creating layer depth_pool1
I0205 18:21:14.634117 11825 net.cpp:91] Creating Layer depth_pool1
I0205 18:21:14.634130 11825 net.cpp:425] depth_pool1 <- conv1
I0205 18:21:14.634145 11825 net.cpp:399] depth_pool1 -> depth_pool1
I0205 18:21:14.634215 11825 net.cpp:141] Setting up depth_pool1
I0205 18:21:14.634228 11825 net.cpp:148] Top shape: 1 128 56 56 (401408)
I0205 18:21:14.634237 11825 net.cpp:156] Memory required for data: 129886848
I0205 18:21:14.634244 11825 layer_factory.hpp:77] Creating layer norm1
I0205 18:21:14.634259 11825 net.cpp:91] Creating Layer norm1
I0205 18:21:14.634269 11825 net.cpp:425] norm1 <- depth_pool1
I0205 18:21:14.634282 11825 net.cpp:399] norm1 -> norm1
I0205 18:21:14.634335 11825 net.cpp:141] Setting up norm1
I0205 18:21:14.634356 11825 net.cpp:148] Top shape: 1 128 56 56 (401408)
I0205 18:21:14.634366 11825 net.cpp:156] Memory required for data: 131492480
I0205 18:21:14.634376 11825 layer_factory.hpp:77] Creating layer conv2
I0205 18:21:14.634392 11825 net.cpp:91] Creating Layer conv2
I0205 18:21:14.634402 11825 net.cpp:425] conv2 <- norm1
I0205 18:21:14.634415 11825 net.cpp:399] conv2 -> conv2
I0205 18:21:14.642056 11825 net.cpp:141] Setting up conv2
I0205 18:21:14.642125 11825 net.cpp:148] Top shape: 1 256 56 56 (802816)
I0205 18:21:14.642143 11825 net.cpp:156] Memory required for data: 134703744
I0205 18:21:14.642174 11825 layer_factory.hpp:77] Creating layer relu2
I0205 18:21:14.642202 11825 net.cpp:91] Creating Layer relu2
I0205 18:21:14.642220 11825 net.cpp:425] relu2 <- conv2
I0205 18:21:14.642242 11825 net.cpp:386] relu2 -> conv2 (in-place)
I0205 18:21:14.642277 11825 net.cpp:141] Setting up relu2
I0205 18:21:14.642298 11825 net.cpp:148] Top shape: 1 256 56 56 (802816)
I0205 18:21:14.642359 11825 net.cpp:156] Memory required for data: 137915008
I0205 18:21:14.642380 11825 layer_factory.hpp:77] Creating layer depth_pool2
I0205 18:21:14.642405 11825 net.cpp:91] Creating Layer depth_pool2
I0205 18:21:14.642421 11825 net.cpp:425] depth_pool2 <- conv2
I0205 18:21:14.642446 11825 net.cpp:399] depth_pool2 -> depth_pool2
I0205 18:21:14.642545 11825 net.cpp:141] Setting up depth_pool2
I0205 18:21:14.642565 11825 net.cpp:148] Top shape: 1 256 28 28 (200704)
I0205 18:21:14.642573 11825 net.cpp:156] Memory required for data: 138717824
I0205 18:21:14.642585 11825 layer_factory.hpp:77] Creating layer norm2
I0205 18:21:14.642599 11825 net.cpp:91] Creating Layer norm2
I0205 18:21:14.642611 11825 net.cpp:425] norm2 <- depth_pool2
I0205 18:21:14.642626 11825 net.cpp:399] norm2 -> norm2
I0205 18:21:14.642693 11825 net.cpp:141] Setting up norm2
I0205 18:21:14.642709 11825 net.cpp:148] Top shape: 1 256 28 28 (200704)
I0205 18:21:14.642719 11825 net.cpp:156] Memory required for data: 139520640
I0205 18:21:14.642729 11825 layer_factory.hpp:77] Creating layer conv3
I0205 18:21:14.642753 11825 net.cpp:91] Creating Layer conv3
I0205 18:21:14.642768 11825 net.cpp:425] conv3 <- norm2
I0205 18:21:14.642783 11825 net.cpp:399] conv3 -> conv3
I0205 18:21:14.647148 11825 net.cpp:141] Setting up conv3
I0205 18:21:14.647197 11825 net.cpp:148] Top shape: 1 384 28 28 (301056)
I0205 18:21:14.647208 11825 net.cpp:156] Memory required for data: 140724864
I0205 18:21:14.647230 11825 layer_factory.hpp:77] Creating layer relu3
I0205 18:21:14.647245 11825 net.cpp:91] Creating Layer relu3
I0205 18:21:14.647254 11825 net.cpp:425] relu3 <- conv3
I0205 18:21:14.647267 11825 net.cpp:386] relu3 -> conv3 (in-place)
I0205 18:21:14.647285 11825 net.cpp:141] Setting up relu3
I0205 18:21:14.647296 11825 net.cpp:148] Top shape: 1 384 28 28 (301056)
I0205 18:21:14.647305 11825 net.cpp:156] Memory required for data: 141929088
I0205 18:21:14.647315 11825 layer_factory.hpp:77] Creating layer depth_pool3
I0205 18:21:14.647328 11825 net.cpp:91] Creating Layer depth_pool3
I0205 18:21:14.647337 11825 net.cpp:425] depth_pool3 <- conv3
I0205 18:21:14.647351 11825 net.cpp:399] depth_pool3 -> depth_pool3
I0205 18:21:14.647408 11825 net.cpp:141] Setting up depth_pool3
I0205 18:21:14.647420 11825 net.cpp:148] Top shape: 1 384 14 14 (75264)
I0205 18:21:14.647429 11825 net.cpp:156] Memory required for data: 142230144
I0205 18:21:14.647439 11825 layer_factory.hpp:77] Creating layer conv4
I0205 18:21:14.647457 11825 net.cpp:91] Creating Layer conv4
I0205 18:21:14.647476 11825 net.cpp:425] conv4 <- depth_pool3
I0205 18:21:14.647497 11825 net.cpp:399] conv4 -> conv4
I0205 18:21:14.665333 11825 net.cpp:141] Setting up conv4
I0205 18:21:14.665392 11825 net.cpp:148] Top shape: 1 512 14 14 (100352)
I0205 18:21:14.665407 11825 net.cpp:156] Memory required for data: 142631552
I0205 18:21:14.665427 11825 layer_factory.hpp:77] Creating layer relu4
I0205 18:21:14.665447 11825 net.cpp:91] Creating Layer relu4
I0205 18:21:14.665458 11825 net.cpp:425] relu4 <- conv4
I0205 18:21:14.665472 11825 net.cpp:386] relu4 -> conv4 (in-place)
I0205 18:21:14.665490 11825 net.cpp:141] Setting up relu4
I0205 18:21:14.665501 11825 net.cpp:148] Top shape: 1 512 14 14 (100352)
I0205 18:21:14.665510 11825 net.cpp:156] Memory required for data: 143032960
I0205 18:21:14.665519 11825 layer_factory.hpp:77] Creating layer conv5
I0205 18:21:14.665539 11825 net.cpp:91] Creating Layer conv5
I0205 18:21:14.665549 11825 net.cpp:425] conv5 <- conv4
I0205 18:21:14.665561 11825 net.cpp:399] conv5 -> conv5
I0205 18:21:14.690588 11825 net.cpp:141] Setting up conv5
I0205 18:21:14.690675 11825 net.cpp:148] Top shape: 1 512 14 14 (100352)
I0205 18:21:14.690688 11825 net.cpp:156] Memory required for data: 143434368
I0205 18:21:14.690719 11825 layer_factory.hpp:77] Creating layer relu5
I0205 18:21:14.690745 11825 net.cpp:91] Creating Layer relu5
I0205 18:21:14.690762 11825 net.cpp:425] relu5 <- conv5
I0205 18:21:14.690783 11825 net.cpp:386] relu5 -> conv5 (in-place)
I0205 18:21:14.690807 11825 net.cpp:141] Setting up relu5
I0205 18:21:14.690824 11825 net.cpp:148] Top shape: 1 512 14 14 (100352)
I0205 18:21:14.690838 11825 net.cpp:156] Memory required for data: 143835776
I0205 18:21:14.690852 11825 layer_factory.hpp:77] Creating layer depth_pool5
I0205 18:21:14.690871 11825 net.cpp:91] Creating Layer depth_pool5
I0205 18:21:14.690889 11825 net.cpp:425] depth_pool5 <- conv5
I0205 18:21:14.690910 11825 net.cpp:399] depth_pool5 -> depth_pool5
I0205 18:21:14.691006 11825 net.cpp:141] Setting up depth_pool5
I0205 18:21:14.691030 11825 net.cpp:148] Top shape: 1 512 7 7 (25088)
I0205 18:21:14.691041 11825 net.cpp:156] Memory required for data: 143936128
I0205 18:21:14.691056 11825 layer_factory.hpp:77] Creating layer depth_fc6
I0205 18:21:14.691077 11825 net.cpp:91] Creating Layer depth_fc6
I0205 18:21:14.691094 11825 net.cpp:425] depth_fc6 <- depth_pool5
I0205 18:21:14.691112 11825 net.cpp:399] depth_fc6 -> depth_fc6
I0205 18:21:15.273375 11825 net.cpp:141] Setting up depth_fc6
I0205 18:21:15.273427 11825 net.cpp:148] Top shape: 1 4096 (4096)
I0205 18:21:15.273439 11825 net.cpp:156] Memory required for data: 143952512
I0205 18:21:15.273460 11825 layer_factory.hpp:77] Creating layer depth_relu6
I0205 18:21:15.273479 11825 net.cpp:91] Creating Layer depth_relu6
I0205 18:21:15.273489 11825 net.cpp:425] depth_relu6 <- depth_fc6
I0205 18:21:15.273502 11825 net.cpp:386] depth_relu6 -> depth_fc6 (in-place)
I0205 18:21:15.273519 11825 net.cpp:141] Setting up depth_relu6
I0205 18:21:15.273530 11825 net.cpp:148] Top shape: 1 4096 (4096)
I0205 18:21:15.273538 11825 net.cpp:156] Memory required for data: 143968896
I0205 18:21:15.273546 11825 layer_factory.hpp:77] Creating layer depth_drop6
I0205 18:21:15.273561 11825 net.cpp:91] Creating Layer depth_drop6
I0205 18:21:15.273569 11825 net.cpp:425] depth_drop6 <- depth_fc6
I0205 18:21:15.273579 11825 net.cpp:386] depth_drop6 -> depth_fc6 (in-place)
I0205 18:21:15.273617 11825 net.cpp:141] Setting up depth_drop6
I0205 18:21:15.273627 11825 net.cpp:148] Top shape: 1 4096 (4096)
I0205 18:21:15.273635 11825 net.cpp:156] Memory required for data: 143985280
I0205 18:21:15.273643 11825 layer_factory.hpp:77] Creating layer depth_fc7
I0205 18:21:15.273658 11825 net.cpp:91] Creating Layer depth_fc7
I0205 18:21:15.273668 11825 net.cpp:425] depth_fc7 <- depth_fc6
I0205 18:21:15.273680 11825 net.cpp:399] depth_fc7 -> depth_fc7
I0205 18:21:15.419641 11825 net.cpp:141] Setting up depth_fc7
I0205 18:21:15.419697 11825 net.cpp:148] Top shape: 1 4096 (4096)
I0205 18:21:15.419713 11825 net.cpp:156] Memory required for data: 144001664
I0205 18:21:15.419736 11825 layer_factory.hpp:77] Creating layer depth_relu7
I0205 18:21:15.419754 11825 net.cpp:91] Creating Layer depth_relu7
I0205 18:21:15.419765 11825 net.cpp:425] depth_relu7 <- depth_fc7
I0205 18:21:15.419780 11825 net.cpp:386] depth_relu7 -> depth_fc7 (in-place)
I0205 18:21:15.419798 11825 net.cpp:141] Setting up depth_relu7
I0205 18:21:15.419811 11825 net.cpp:148] Top shape: 1 4096 (4096)
I0205 18:21:15.419818 11825 net.cpp:156] Memory required for data: 144018048
I0205 18:21:15.419828 11825 layer_factory.hpp:77] Creating layer depth_drop7
I0205 18:21:15.419842 11825 net.cpp:91] Creating Layer depth_drop7
I0205 18:21:15.419852 11825 net.cpp:425] depth_drop7 <- depth_fc7
I0205 18:21:15.419864 11825 net.cpp:386] depth_drop7 -> depth_fc7 (in-place)
I0205 18:21:15.419922 11825 net.cpp:141] Setting up depth_drop7
I0205 18:21:15.419935 11825 net.cpp:148] Top shape: 1 4096 (4096)
I0205 18:21:15.419945 11825 net.cpp:156] Memory required for data: 144034432
I0205 18:21:15.419955 11825 layer_factory.hpp:77] Creating layer depth_fc7_depth_drop7_0_split
I0205 18:21:15.419976 11825 net.cpp:91] Creating Layer depth_fc7_depth_drop7_0_split
I0205 18:21:15.419986 11825 net.cpp:425] depth_fc7_depth_drop7_0_split <- depth_fc7
I0205 18:21:15.419998 11825 net.cpp:399] depth_fc7_depth_drop7_0_split -> depth_fc7_depth_drop7_0_split_0
I0205 18:21:15.420013 11825 net.cpp:399] depth_fc7_depth_drop7_0_split -> depth_fc7_depth_drop7_0_split_1
I0205 18:21:15.420075 11825 net.cpp:141] Setting up depth_fc7_depth_drop7_0_split
I0205 18:21:15.420087 11825 net.cpp:148] Top shape: 1 4096 (4096)
I0205 18:21:15.420099 11825 net.cpp:148] Top shape: 1 4096 (4096)
I0205 18:21:15.420107 11825 net.cpp:156] Memory required for data: 144067200
I0205 18:21:15.420117 11825 layer_factory.hpp:77] Creating layer depth_fc8
I0205 18:21:15.420133 11825 net.cpp:91] Creating Layer depth_fc8
I0205 18:21:15.420143 11825 net.cpp:425] depth_fc8 <- depth_fc7_depth_drop7_0_split_0
I0205 18:21:15.420156 11825 net.cpp:399] depth_fc8 -> depth_fc8
I0205 18:21:15.422461 11825 net.cpp:141] Setting up depth_fc8
I0205 18:21:15.422485 11825 net.cpp:148] Top shape: 1 51 (51)
I0205 18:21:15.422497 11825 net.cpp:156] Memory required for data: 144067404
I0205 18:21:15.422511 11825 layer_factory.hpp:77] Creating layer depth_fc8_depth_fc8_0_split
I0205 18:21:15.422526 11825 net.cpp:91] Creating Layer depth_fc8_depth_fc8_0_split
I0205 18:21:15.422538 11825 net.cpp:425] depth_fc8_depth_fc8_0_split <- depth_fc8
I0205 18:21:15.422550 11825 net.cpp:399] depth_fc8_depth_fc8_0_split -> depth_fc8_depth_fc8_0_split_0
I0205 18:21:15.422564 11825 net.cpp:399] depth_fc8_depth_fc8_0_split -> depth_fc8_depth_fc8_0_split_1
I0205 18:21:15.422621 11825 net.cpp:141] Setting up depth_fc8_depth_fc8_0_split
I0205 18:21:15.422632 11825 net.cpp:148] Top shape: 1 51 (51)
I0205 18:21:15.422643 11825 net.cpp:148] Top shape: 1 51 (51)
I0205 18:21:15.422652 11825 net.cpp:156] Memory required for data: 144067812
I0205 18:21:15.422658 11825 layer_factory.hpp:77] Creating layer concat
I0205 18:21:15.422672 11825 net.cpp:91] Creating Layer concat
I0205 18:21:15.422683 11825 net.cpp:425] concat <- rgb_fc7_rgb_drop7_0_split_1
I0205 18:21:15.422694 11825 net.cpp:425] concat <- depth_fc7_depth_drop7_0_split_1
I0205 18:21:15.422706 11825 net.cpp:399] concat -> concat
I0205 18:21:15.422745 11825 net.cpp:141] Setting up concat
I0205 18:21:15.422757 11825 net.cpp:148] Top shape: 1 8192 (8192)
I0205 18:21:15.422767 11825 net.cpp:156] Memory required for data: 144100580
I0205 18:21:15.422776 11825 layer_factory.hpp:77] Creating layer fuse_fc1
I0205 18:21:15.422792 11825 net.cpp:91] Creating Layer fuse_fc1
I0205 18:21:15.422802 11825 net.cpp:425] fuse_fc1 <- concat
I0205 18:21:15.422816 11825 net.cpp:399] fuse_fc1 -> fuse_fc1
I0205 18:21:15.625990 11825 net.cpp:141] Setting up fuse_fc1
I0205 18:21:15.626036 11825 net.cpp:148] Top shape: 1 4096 (4096)
I0205 18:21:15.626049 11825 net.cpp:156] Memory required for data: 144116964
I0205 18:21:15.626077 11825 layer_factory.hpp:77] Creating layer fuse_drop1
I0205 18:21:15.626099 11825 net.cpp:91] Creating Layer fuse_drop1
I0205 18:21:15.626112 11825 net.cpp:425] fuse_drop1 <- fuse_fc1
I0205 18:21:15.626127 11825 net.cpp:386] fuse_drop1 -> fuse_fc1 (in-place)
I0205 18:21:15.626173 11825 net.cpp:141] Setting up fuse_drop1
I0205 18:21:15.626186 11825 net.cpp:148] Top shape: 1 4096 (4096)
I0205 18:21:15.626195 11825 net.cpp:156] Memory required for data: 144133348
I0205 18:21:15.626205 11825 layer_factory.hpp:77] Creating layer fuse_fc2
I0205 18:21:15.626222 11825 net.cpp:91] Creating Layer fuse_fc2
I0205 18:21:15.626231 11825 net.cpp:425] fuse_fc2 <- fuse_fc1
I0205 18:21:15.626243 11825 net.cpp:399] fuse_fc2 -> fuse_fc2
I0205 18:21:15.771229 11825 net.cpp:141] Setting up fuse_fc2
I0205 18:21:15.771281 11825 net.cpp:148] Top shape: 1 4096 (4096)
I0205 18:21:15.771294 11825 net.cpp:156] Memory required for data: 144149732
I0205 18:21:15.771317 11825 layer_factory.hpp:77] Creating layer fuse_drop2
I0205 18:21:15.771337 11825 net.cpp:91] Creating Layer fuse_drop2
I0205 18:21:15.771349 11825 net.cpp:425] fuse_drop2 <- fuse_fc2
I0205 18:21:15.771364 11825 net.cpp:386] fuse_drop2 -> fuse_fc2 (in-place)
I0205 18:21:15.771409 11825 net.cpp:141] Setting up fuse_drop2
I0205 18:21:15.771422 11825 net.cpp:148] Top shape: 1 4096 (4096)
I0205 18:21:15.771431 11825 net.cpp:156] Memory required for data: 144166116
I0205 18:21:15.771440 11825 layer_factory.hpp:77] Creating layer rgbd_fc8
I0205 18:21:15.771456 11825 net.cpp:91] Creating Layer rgbd_fc8
I0205 18:21:15.771466 11825 net.cpp:425] rgbd_fc8 <- fuse_fc2
I0205 18:21:15.771479 11825 net.cpp:399] rgbd_fc8 -> rgbd_fc8
I0205 18:21:15.773649 11825 net.cpp:141] Setting up rgbd_fc8
I0205 18:21:15.773671 11825 net.cpp:148] Top shape: 1 51 (51)
I0205 18:21:15.773682 11825 net.cpp:156] Memory required for data: 144166320
I0205 18:21:15.773695 11825 layer_factory.hpp:77] Creating layer rgbd_fc8_rgbd_fc8_0_split
I0205 18:21:15.773710 11825 net.cpp:91] Creating Layer rgbd_fc8_rgbd_fc8_0_split
I0205 18:21:15.773721 11825 net.cpp:425] rgbd_fc8_rgbd_fc8_0_split <- rgbd_fc8
I0205 18:21:15.773733 11825 net.cpp:399] rgbd_fc8_rgbd_fc8_0_split -> rgbd_fc8_rgbd_fc8_0_split_0
I0205 18:21:15.773748 11825 net.cpp:399] rgbd_fc8_rgbd_fc8_0_split -> rgbd_fc8_rgbd_fc8_0_split_1
I0205 18:21:15.773802 11825 net.cpp:141] Setting up rgbd_fc8_rgbd_fc8_0_split
I0205 18:21:15.773815 11825 net.cpp:148] Top shape: 1 51 (51)
I0205 18:21:15.773825 11825 net.cpp:148] Top shape: 1 51 (51)
I0205 18:21:15.773834 11825 net.cpp:156] Memory required for data: 144166728
I0205 18:21:15.773844 11825 layer_factory.hpp:77] Creating layer rgb_accuracy
I0205 18:21:15.773856 11825 net.cpp:91] Creating Layer rgb_accuracy
I0205 18:21:15.773867 11825 net.cpp:425] rgb_accuracy <- rgb_fc8_rgb_fc8_0_split_0
I0205 18:21:15.773874 11825 net.cpp:425] rgb_accuracy <- label_data_2_split_0
I0205 18:21:15.773885 11825 net.cpp:399] rgb_accuracy -> rgb_accuracy
…
