…
I0119 01:28:16.631016 12148 solver.cpp:81] Creating training net from train_net file: train.prototxt
I0119 01:28:16.632586 12148 net.cpp:49] Initializing net from parameters: 
state {
  phase: TRAIN
}
layer {
  name: "data"
  type: "Python"
  top: "rgb"
  top: "depth"
  top: "label"
  python_param {
    module: "data_layers.rgbd_data_layer"
    layer: "RGBDDataLayer"
    param_str: "{\'img_size\': (224, 224), \'split\': \'train\', \'dataset_dir\': \'/home/kevin/dataset/rgbd\', \'seed\': 1337, \'batch_size\': 32, \'mean\': (104.00698793, 116.66876762, 122.67891434)}"
  }
}
layer {
  name: "conv1_1"
  type: "Convolution"
  bottom: "rgb"
  top: "conv1_1"
  param {
    name: "conv1_1_w"
    lr_mult: 1
    decay_mult: 1
  }
  param {
    name: "conv1_1_b"
    lr_mult: 2
    decay_mult: 0
  }
  convolution_param {
    num_output: 64
    pad: 1
    kernel_size: 3
    group: 1
    stride: 1
    weight_filler {
      type: "xavier"
    }
  }
}
layer {
  name: "relu1_1"
  type: "ReLU"
  bottom: "conv1_1"
  top: "conv1_1"
}
layer {
  name: "conv1_2"
  type: "Convolution"
  bottom: "conv1_1"
  top: "conv1_2"
  param {
    name: "conv1_2_w"
    lr_mult: 1
    decay_mult: 1
  }
  param {
    name: "conv1_2_b"
    lr_mult: 2
    decay_mult: 0
  }
  convolution_param {
    num_output: 64
    pad: 1
    kernel_size: 3
    group: 1
    stride: 1
    weight_filler {
      type: "xavier"
    }
  }
}
layer {
  name: "relu1_2"
  type: "ReLU"
  bottom: "conv1_2"
  top: "conv1_2"
}
layer {
  name: "rgb_pool1"
  type: "Pooling"
  bottom: "conv1_2"
  top: "rgb_pool1"
  pooling_param {
    pool: MAX
    kernel_size: 2
    stride: 2
  }
}
layer {
  name: "conv2_1"
  type: "Convolution"
  bottom: "rgb_pool1"
  top: "conv2_1"
  param {
    name: "conv2_1_w"
    lr_mult: 1
    decay_mult: 1
  }
  param {
    name: "conv2_1_b"
    lr_mult: 2
    decay_mult: 0
  }
  convolution_param {
    num_output: 128
    pad: 1
    kernel_size: 3
    group: 1
    stride: 1
    weight_filler {
      type: "xavier"
    }
  }
}
layer {
  name: "relu2_1"
  type: "ReLU"
  bottom: "conv2_1"
  top: "conv2_1"
}
layer {
  name: "conv2_2"
  type: "Convolution"
  bottom: "conv2_1"
  top: "conv2_2"
  param {
    name: "conv2_2_w"
    lr_mult: 1
    decay_mult: 1
  }
  param {
    name: "conv2_2_b"
    lr_mult: 2
    decay_mult: 0
  }
  convolution_param {
    num_output: 128
    pad: 1
    kernel_size: 3
    group: 1
    stride: 1
    weight_filler {
      type: "xavier"
    }
  }
}
layer {
  name: "relu2_2"
  type: "ReLU"
  bottom: "conv2_2"
  top: "conv2_2"
}
layer {
  name: "rgb_pool2"
  type: "Pooling"
  bottom: "conv2_2"
  top: "rgb_pool2"
  pooling_param {
    pool: MAX
    kernel_size: 2
    stride: 2
  }
}
layer {
  name: "conv3_1"
  type: "Convolution"
  bottom: "rgb_pool2"
  top: "conv3_1"
  param {
    name: "conv3_1_w"
    lr_mult: 1
    decay_mult: 1
  }
  param {
    name: "conv3_1_b"
    lr_mult: 2
    decay_mult: 0
  }
  convolution_param {
    num_output: 256
    pad: 1
    kernel_size: 3
    group: 1
    stride: 1
    weight_filler {
      type: "xavier"
    }
  }
}
layer {
  name: "relu3_1"
  type: "ReLU"
  bottom: "conv3_1"
  top: "conv3_1"
}
layer {
  name: "conv3_2"
  type: "Convolution"
  bottom: "conv3_1"
  top: "conv3_2"
  param {
    name: "conv3_2_w"
    lr_mult: 1
    decay_mult: 1
  }
  param {
    name: "conv3_2_b"
    lr_mult: 2
    decay_mult: 0
  }
  convolution_param {
    num_output: 256
    pad: 1
    kernel_size: 3
    group: 1
    stride: 1
    weight_filler {
      type: "xavier"
    }
  }
}
layer {
  name: "relu3_2"
  type: "ReLU"
  bottom: "conv3_2"
  top: "conv3_2"
}
layer {
  name: "conv3_3"
  type: "Convolution"
  bottom: "conv3_2"
  top: "conv3_3"
  param {
    name: "conv3_3_w"
    lr_mult: 1
    decay_mult: 1
  }
  param {
    name: "conv3_3_b"
    lr_mult: 2
    decay_mult: 0
  }
  convolution_param {
    num_output: 256
    pad: 1
    kernel_size: 3
    group: 1
    stride: 1
    weight_filler {
      type: "xavier"
    }
  }
}
layer {
  name: "relu3_3"
  type: "ReLU"
  bottom: "conv3_3"
  top: "conv3_3"
}
layer {
  name: "rgb_pool3"
  type: "Pooling"
  bottom: "conv3_3"
  top: "rgb_pool3"
  pooling_param {
    pool: MAX
    kernel_size: 2
    stride: 2
  }
}
layer {
  name: "conv4_1"
  type: "Convolution"
  bottom: "rgb_pool3"
  top: "conv4_1"
  param {
    name: "conv4_1_w"
    lr_mult: 1
    decay_mult: 1
  }
  param {
    name: "conv4_1_b"
    lr_mult: 2
    decay_mult: 0
  }
  convolution_param {
    num_output: 512
    pad: 1
    kernel_size: 3
    group: 1
    stride: 1
    weight_filler {
      type: "xavier"
    }
  }
}
layer {
  name: "relu4_1"
  type: "ReLU"
  bottom: "conv4_1"
  top: "conv4_1"
}
layer {
  name: "conv4_2"
  type: "Convolution"
  bottom: "conv4_1"
  top: "conv4_2"
  param {
    name: "conv4_2_w"
    lr_mult: 1
    decay_mult: 1
  }
  param {
    name: "conv4_2_b"
    lr_mult: 2
    decay_mult: 0
  }
  convolution_param {
    num_output: 512
    pad: 1
    kernel_size: 3
    group: 1
    stride: 1
    weight_filler {
      type: "xavier"
    }
  }
}
layer {
  name: "relu4_2"
  type: "ReLU"
  bottom: "conv4_2"
  top: "conv4_2"
}
layer {
  name: "conv4_3"
  type: "Convolution"
  bottom: "conv4_2"
  top: "conv4_3"
  param {
    name: "conv4_3_w"
    lr_mult: 1
    decay_mult: 1
  }
  param {
    name: "conv4_3_b"
    lr_mult: 2
    decay_mult: 0
  }
  convolution_param {
    num_output: 512
    pad: 1
    kernel_size: 3
    group: 1
    stride: 1
    weight_filler {
      type: "xavier"
    }
  }
}
layer {
  name: "relu4_3"
  type: "ReLU"
  bottom: "conv4_3"
  top: "conv4_3"
}
layer {
  name: "rgb_pool4"
  type: "Pooling"
  bottom: "conv4_3"
  top: "rgb_pool4"
  pooling_param {
    pool: MAX
    kernel_size: 2
    stride: 2
  }
}
layer {
  name: "conv5_1"
  type: "Convolution"
  bottom: "rgb_pool4"
  top: "conv5_1"
  param {
    name: "conv5_1_w"
    lr_mult: 1
    decay_mult: 1
  }
  param {
    name: "conv5_1_b"
    lr_mult: 2
    decay_mult: 0
  }
  convolution_param {
    num_output: 512
    pad: 1
    kernel_size: 3
    group: 1
    stride: 1
    weight_filler {
      type: "xavier"
    }
  }
}
layer {
  name: "relu5_1"
  type: "ReLU"
  bottom: "conv5_1"
  top: "conv5_1"
}
layer {
  name: "conv5_2"
  type: "Convolution"
  bottom: "conv5_1"
  top: "conv5_2"
  param {
    name: "conv5_2_w"
    lr_mult: 1
    decay_mult: 1
  }
  param {
    name: "conv5_2_b"
    lr_mult: 2
    decay_mult: 0
  }
  convolution_param {
    num_output: 512
    pad: 1
    kernel_size: 3
    group: 1
    stride: 1
    weight_filler {
      type: "xavier"
    }
  }
}
layer {
  name: "relu5_2"
  type: "ReLU"
  bottom: "conv5_2"
  top: "conv5_2"
}
layer {
  name: "conv5_3"
  type: "Convolution"
  bottom: "conv5_2"
  top: "conv5_3"
  param {
    name: "conv5_3_w"
    lr_mult: 1
    decay_mult: 1
  }
  param {
    name: "conv5_3_b"
    lr_mult: 2
    decay_mult: 0
  }
  convolution_param {
    num_output: 512
    pad: 1
    kernel_size: 3
    group: 1
    stride: 1
    weight_filler {
      type: "xavier"
    }
  }
}
layer {
  name: "relu5_3"
  type: "ReLU"
  bottom: "conv5_3"
  top: "conv5_3"
}
layer {
  name: "rgb_pool5"
  type: "Pooling"
  bottom: "conv5_3"
  top: "rgb_pool5"
  pooling_param {
    pool: MAX
    kernel_size: 2
    stride: 2
  }
}
layer {
  name: "rgb_fc6"
  type: "InnerProduct"
  bottom: "rgb_pool5"
  top: "rgb_fc6"
  param {
    lr_mult: 1
    decay_mult: 1
  }
  param {
    lr_mult: 2
    decay_mult: 0
  }
  inner_product_param {
    num_output: 4096
    weight_filler {
      type: "xavier"
    }
  }
}
layer {
  name: "rgb_relu6"
  type: "ReLU"
  bottom: "rgb_fc6"
  top: "rgb_fc6"
}
layer {
  name: "rgb_drop6"
  type: "Dropout"
  bottom: "rgb_fc6"
  top: "rgb_fc6"
  dropout_param {
    dropout_ratio: 0.9
  }
}
layer {
  name: "rgb_fc7"
  type: "InnerProduct"
  bottom: "rgb_fc6"
  top: "rgb_fc7"
  param {
    lr_mult: 1
    decay_mult: 1
  }
  param {
    lr_mult: 2
    decay_mult: 0
  }
  inner_product_param {
    num_output: 4096
    weight_filler {
      type: "xavier"
    }
  }
}
layer {
  name: "rgb_relu7"
  type: "ReLU"
  bottom: "rgb_fc7"
  top: "rgb_fc7"
}
layer {
  name: "rgb_drop7"
  type: "Dropout"
  bottom: "rgb_fc7"
  top: "rgb_fc7"
  dropout_param {
    dropout_ratio: 0.9
  }
}
layer {
  name: "conv1"
  type: "Convolution"
  bottom: "depth"
  top: "conv1"
  param {
    name: "conv1_w"
    lr_mult: 1
    decay_mult: 1
  }
  param {
    name: "conv1_b"
    lr_mult: 2
    decay_mult: 0
  }
  convolution_param {
    num_output: 128
    pad: 2
    kernel_size: 5
    group: 1
    stride: 2
    weight_filler {
      type: "xavier"
    }
  }
}
layer {
  name: "relu1"
  type: "ReLU"
  bottom: "conv1"
  top: "conv1"
}
layer {
  name: "depth_pool1"
  type: "Pooling"
  bottom: "conv1"
  top: "depth_pool1"
  pooling_param {
    pool: MAX
    kernel_size: 3
    stride: 2
  }
}
layer {
  name: "norm1"
  type: "LRN"
  bottom: "depth_pool1"
  top: "norm1"
  lrn_param {
    local_size: 5
    alpha: 0.0005
    beta: 0.75
    k: 2
  }
}
layer {
  name: "conv2"
  type: "Convolution"
  bottom: "norm1"
  top: "conv2"
  param {
    name: "conv2_w"
    lr_mult: 1
    decay_mult: 1
  }
  param {
    name: "conv2_b"
    lr_mult: 2
    decay_mult: 0
  }
  convolution_param {
    num_output: 256
    pad: 2
    kernel_size: 5
    group: 1
    stride: 1
    weight_filler {
      type: "xavier"
    }
  }
}
layer {
  name: "relu2"
  type: "ReLU"
  bottom: "conv2"
  top: "conv2"
}
layer {
  name: "depth_pool2"
  type: "Pooling"
  bottom: "conv2"
  top: "depth_pool2"
  pooling_param {
    pool: MAX
    kernel_size: 3
    stride: 2
  }
}
layer {
  name: "norm2"
  type: "LRN"
  bottom: "depth_pool2"
  top: "norm2"
  lrn_param {
    local_size: 5
    alpha: 0.0005
    beta: 0.75
    k: 2
  }
}
layer {
  name: "conv3"
  type: "Convolution"
  bottom: "norm2"
  top: "conv3"
  param {
    name: "conv3_w"
    lr_mult: 1
    decay_mult: 1
  }
  param {
    name: "conv3_b"
    lr_mult: 2
    decay_mult: 0
  }
  convolution_param {
    num_output: 384
    pad: 1
    kernel_size: 3
    group: 2
    stride: 1
    weight_filler {
      type: "xavier"
    }
  }
}
layer {
  name: "relu3"
  type: "ReLU"
  bottom: "conv3"
  top: "conv3"
}
layer {
  name: "depth_pool3"
  type: "Pooling"
  bottom: "conv3"
  top: "depth_pool3"
  pooling_param {
    pool: MAX
    kernel_size: 3
    stride: 2
  }
}
layer {
  name: "conv4"
  type: "Convolution"
  bottom: "depth_pool3"
  top: "conv4"
  param {
    name: "conv4_w"
    lr_mult: 1
    decay_mult: 1
  }
  param {
    name: "conv4_b"
    lr_mult: 2
    decay_mult: 0
  }
  convolution_param {
    num_output: 512
    pad: 1
    kernel_size: 3
    group: 1
    stride: 1
    weight_filler {
      type: "xavier"
    }
  }
}
layer {
  name: "relu4"
  type: "ReLU"
  bottom: "conv4"
  top: "conv4"
}
layer {
  name: "conv5"
  type: "Convolution"
  bottom: "conv4"
  top: "conv5"
  param {
    name: "conv5_w"
    lr_mult: 1
    decay_mult: 1
  }
  param {
    name: "conv5_b"
    lr_mult: 2
    decay_mult: 0
  }
  convolution_param {
    num_output: 512
    pad: 1
    kernel_size: 3
    group: 1
    stride: 1
    weight_filler {
      type: "xavier"
    }
  }
}
layer {
  name: "relu5"
  type: "ReLU"
  bottom: "conv5"
  top: "conv5"
}
layer {
  name: "depth_pool5"
  type: "Pooling"
  bottom: "conv5"
  top: "depth_pool5"
  pooling_param {
    pool: MAX
    kernel_size: 3
    stride: 2
  }
}
layer {
  name: "depth_fc6"
  type: "InnerProduct"
  bottom: "depth_pool5"
  top: "depth_fc6"
  param {
    lr_mult: 1
    decay_mult: 1
  }
  param {
    lr_mult: 2
    decay_mult: 0
  }
  inner_product_param {
    num_output: 4096
    weight_filler {
      type: "xavier"
    }
  }
}
layer {
  name: "depth_relu6"
  type: "ReLU"
  bottom: "depth_fc6"
  top: "depth_fc6"
}
layer {
  name: "depth_drop6"
  type: "Dropout"
  bottom: "depth_fc6"
  top: "depth_fc6"
  dropout_param {
    dropout_ratio: 0.9
  }
}
layer {
  name: "depth_fc7"
  type: "InnerProduct"
  bottom: "depth_fc6"
  top: "depth_fc7"
  param {
    lr_mult: 1
    decay_mult: 1
  }
  param {
    lr_mult: 2
    decay_mult: 0
  }
  inner_product_param {
    num_output: 4096
    weight_filler {
      type: "xavier"
    }
  }
}
layer {
  name: "depth_relu7"
  type: "ReLU"
  bottom: "depth_fc7"
  top: "depth_fc7"
}
layer {
  name: "depth_drop7"
  type: "Dropout"
  bottom: "depth_fc7"
  top: "depth_fc7"
  dropout_param {
    dropout_ratio: 0.9
  }
}
layer {
  name: "concat"
  type: "Concat"
  bottom: "rgb_fc7"
  bottom: "depth_fc7"
  top: "concat"
  concat_param {
    axis: 1
  }
}
layer {
  name: "rgbd_fc8"
  type: "InnerProduct"
  bottom: "concat"
  top: "rgbd_fc8"
  param {
    lr_mult: 1
    decay_mult: 1
  }
  param {
    lr_mult: 2
    decay_mult: 0
  }
  inner_product_param {
    num_output: 6
    weight_filler {
      type: "xavier"
    }
  }
}
layer {
  name: "accuracy"
  type: "Accuracy"
  bottom: "rgbd_fc8"
  bottom: "label"
  top: "accuracy"
}
layer {
  name: "loss"
  type: "SoftmaxWithLoss"
  bottom: "rgbd_fc8"
  bottom: "label"
  top: "loss"
}
I0119 01:28:16.636015 12148 layer_factory.hpp:77] Creating layer data
I0119 01:28:16.656275 12148 net.cpp:91] Creating Layer data
I0119 01:28:16.656327 12148 net.cpp:399] data -> rgb
I0119 01:28:16.656357 12148 net.cpp:399] data -> depth
I0119 01:28:16.656370 12148 net.cpp:399] data -> label
{'img_size': (224, 224), 'batch_size': 32, 'seed': 1337, 'split': 'train', 'dataset_dir': '/home/kevin/dataset/rgbd', 'mean': (104.00698793, 116.66876762, 122.67891434)}
I0119 01:28:16.836433 12148 net.cpp:141] Setting up data
I0119 01:28:16.836467 12148 net.cpp:148] Top shape: 32 3 224 224 (4816896)
I0119 01:28:16.836474 12148 net.cpp:148] Top shape: 32 1 224 224 (1605632)
I0119 01:28:16.836483 12148 net.cpp:148] Top shape: 32 1 (32)
I0119 01:28:16.836489 12148 net.cpp:156] Memory required for data: 25690240
I0119 01:28:16.836498 12148 layer_factory.hpp:77] Creating layer label_data_2_split
I0119 01:28:16.836515 12148 net.cpp:91] Creating Layer label_data_2_split
I0119 01:28:16.836520 12148 net.cpp:425] label_data_2_split <- label
I0119 01:28:16.836529 12148 net.cpp:399] label_data_2_split -> label_data_2_split_0
I0119 01:28:16.836537 12148 net.cpp:399] label_data_2_split -> label_data_2_split_1
I0119 01:28:16.836567 12148 net.cpp:141] Setting up label_data_2_split
I0119 01:28:16.836575 12148 net.cpp:148] Top shape: 32 1 (32)
I0119 01:28:16.836580 12148 net.cpp:148] Top shape: 32 1 (32)
I0119 01:28:16.836583 12148 net.cpp:156] Memory required for data: 25690496
I0119 01:28:16.836587 12148 layer_factory.hpp:77] Creating layer conv1_1
I0119 01:28:16.836599 12148 net.cpp:91] Creating Layer conv1_1
I0119 01:28:16.836603 12148 net.cpp:425] conv1_1 <- rgb
I0119 01:28:16.836609 12148 net.cpp:399] conv1_1 -> conv1_1
I0119 01:28:16.837621 12148 net.cpp:141] Setting up conv1_1
I0119 01:28:16.837635 12148 net.cpp:148] Top shape: 32 64 224 224 (102760448)
I0119 01:28:16.837640 12148 net.cpp:156] Memory required for data: 436732288
I0119 01:28:16.837649 12148 layer_factory.hpp:77] Creating layer relu1_1
I0119 01:28:16.837658 12148 net.cpp:91] Creating Layer relu1_1
I0119 01:28:16.837662 12148 net.cpp:425] relu1_1 <- conv1_1
I0119 01:28:16.837668 12148 net.cpp:386] relu1_1 -> conv1_1 (in-place)
I0119 01:28:16.837676 12148 net.cpp:141] Setting up relu1_1
I0119 01:28:16.837680 12148 net.cpp:148] Top shape: 32 64 224 224 (102760448)
I0119 01:28:16.837684 12148 net.cpp:156] Memory required for data: 847774080
I0119 01:28:16.837690 12148 layer_factory.hpp:77] Creating layer conv1_2
I0119 01:28:16.837699 12148 net.cpp:91] Creating Layer conv1_2
I0119 01:28:16.837704 12148 net.cpp:425] conv1_2 <- conv1_1
I0119 01:28:16.837710 12148 net.cpp:399] conv1_2 -> conv1_2
I0119 01:28:16.838120 12148 net.cpp:141] Setting up conv1_2
I0119 01:28:16.838134 12148 net.cpp:148] Top shape: 32 64 224 224 (102760448)
I0119 01:28:16.838138 12148 net.cpp:156] Memory required for data: 1258815872
I0119 01:28:16.838145 12148 layer_factory.hpp:77] Creating layer relu1_2
I0119 01:28:16.838153 12148 net.cpp:91] Creating Layer relu1_2
I0119 01:28:16.838157 12148 net.cpp:425] relu1_2 <- conv1_2
I0119 01:28:16.838163 12148 net.cpp:386] relu1_2 -> conv1_2 (in-place)
I0119 01:28:16.838171 12148 net.cpp:141] Setting up relu1_2
I0119 01:28:16.838176 12148 net.cpp:148] Top shape: 32 64 224 224 (102760448)
I0119 01:28:16.838179 12148 net.cpp:156] Memory required for data: 1669857664
I0119 01:28:16.838184 12148 layer_factory.hpp:77] Creating layer rgb_pool1
I0119 01:28:16.838191 12148 net.cpp:91] Creating Layer rgb_pool1
I0119 01:28:16.838196 12148 net.cpp:425] rgb_pool1 <- conv1_2
I0119 01:28:16.838201 12148 net.cpp:399] rgb_pool1 -> rgb_pool1
I0119 01:28:16.838227 12148 net.cpp:141] Setting up rgb_pool1
I0119 01:28:16.838234 12148 net.cpp:148] Top shape: 32 64 112 112 (25690112)
I0119 01:28:16.838238 12148 net.cpp:156] Memory required for data: 1772618112
I0119 01:28:16.838243 12148 layer_factory.hpp:77] Creating layer conv2_1
I0119 01:28:16.838251 12148 net.cpp:91] Creating Layer conv2_1
I0119 01:28:16.838256 12148 net.cpp:425] conv2_1 <- rgb_pool1
I0119 01:28:16.838263 12148 net.cpp:399] conv2_1 -> conv2_1
I0119 01:28:16.839272 12148 net.cpp:141] Setting up conv2_1
I0119 01:28:16.839287 12148 net.cpp:148] Top shape: 32 128 112 112 (51380224)
I0119 01:28:16.839292 12148 net.cpp:156] Memory required for data: 1978139008
I0119 01:28:16.839299 12148 layer_factory.hpp:77] Creating layer relu2_1
I0119 01:28:16.839308 12148 net.cpp:91] Creating Layer relu2_1
I0119 01:28:16.839313 12148 net.cpp:425] relu2_1 <- conv2_1
I0119 01:28:16.839318 12148 net.cpp:386] relu2_1 -> conv2_1 (in-place)
I0119 01:28:16.839325 12148 net.cpp:141] Setting up relu2_1
I0119 01:28:16.839330 12148 net.cpp:148] Top shape: 32 128 112 112 (51380224)
I0119 01:28:16.839335 12148 net.cpp:156] Memory required for data: 2183659904
I0119 01:28:16.839339 12148 layer_factory.hpp:77] Creating layer conv2_2
I0119 01:28:16.839349 12148 net.cpp:91] Creating Layer conv2_2
I0119 01:28:16.839352 12148 net.cpp:425] conv2_2 <- conv2_1
I0119 01:28:16.839359 12148 net.cpp:399] conv2_2 -> conv2_2
I0119 01:28:16.840143 12148 net.cpp:141] Setting up conv2_2
I0119 01:28:16.840154 12148 net.cpp:148] Top shape: 32 128 112 112 (51380224)
I0119 01:28:16.840159 12148 net.cpp:156] Memory required for data: 2389180800
I0119 01:28:16.840165 12148 layer_factory.hpp:77] Creating layer relu2_2
I0119 01:28:16.840173 12148 net.cpp:91] Creating Layer relu2_2
I0119 01:28:16.840178 12148 net.cpp:425] relu2_2 <- conv2_2
I0119 01:28:16.840183 12148 net.cpp:386] relu2_2 -> conv2_2 (in-place)
I0119 01:28:16.840189 12148 net.cpp:141] Setting up relu2_2
I0119 01:28:16.840194 12148 net.cpp:148] Top shape: 32 128 112 112 (51380224)
I0119 01:28:16.840199 12148 net.cpp:156] Memory required for data: 2594701696
I0119 01:28:16.840204 12148 layer_factory.hpp:77] Creating layer rgb_pool2
I0119 01:28:16.840210 12148 net.cpp:91] Creating Layer rgb_pool2
I0119 01:28:16.840215 12148 net.cpp:425] rgb_pool2 <- conv2_2
I0119 01:28:16.840220 12148 net.cpp:399] rgb_pool2 -> rgb_pool2
I0119 01:28:16.840242 12148 net.cpp:141] Setting up rgb_pool2
I0119 01:28:16.840250 12148 net.cpp:148] Top shape: 32 128 56 56 (12845056)
I0119 01:28:16.840253 12148 net.cpp:156] Memory required for data: 2646081920
I0119 01:28:16.840258 12148 layer_factory.hpp:77] Creating layer conv3_1
I0119 01:28:16.840266 12148 net.cpp:91] Creating Layer conv3_1
I0119 01:28:16.840271 12148 net.cpp:425] conv3_1 <- rgb_pool2
I0119 01:28:16.840277 12148 net.cpp:399] conv3_1 -> conv3_1
I0119 01:28:16.841892 12148 net.cpp:141] Setting up conv3_1
I0119 01:28:16.841904 12148 net.cpp:148] Top shape: 32 256 56 56 (25690112)
I0119 01:28:16.841909 12148 net.cpp:156] Memory required for data: 2748842368
I0119 01:28:16.841918 12148 layer_factory.hpp:77] Creating layer relu3_1
I0119 01:28:16.841925 12148 net.cpp:91] Creating Layer relu3_1
I0119 01:28:16.841930 12148 net.cpp:425] relu3_1 <- conv3_1
I0119 01:28:16.841936 12148 net.cpp:386] relu3_1 -> conv3_1 (in-place)
I0119 01:28:16.841943 12148 net.cpp:141] Setting up relu3_1
I0119 01:28:16.841948 12148 net.cpp:148] Top shape: 32 256 56 56 (25690112)
I0119 01:28:16.841953 12148 net.cpp:156] Memory required for data: 2851602816
I0119 01:28:16.841956 12148 layer_factory.hpp:77] Creating layer conv3_2
I0119 01:28:16.841964 12148 net.cpp:91] Creating Layer conv3_2
I0119 01:28:16.841969 12148 net.cpp:425] conv3_2 <- conv3_1
I0119 01:28:16.841975 12148 net.cpp:399] conv3_2 -> conv3_2
I0119 01:28:16.845046 12148 net.cpp:141] Setting up conv3_2
I0119 01:28:16.845067 12148 net.cpp:148] Top shape: 32 256 56 56 (25690112)
I0119 01:28:16.845074 12148 net.cpp:156] Memory required for data: 2954363264
I0119 01:28:16.845085 12148 layer_factory.hpp:77] Creating layer relu3_2
I0119 01:28:16.845093 12148 net.cpp:91] Creating Layer relu3_2
I0119 01:28:16.845098 12148 net.cpp:425] relu3_2 <- conv3_2
I0119 01:28:16.845104 12148 net.cpp:386] relu3_2 -> conv3_2 (in-place)
I0119 01:28:16.845111 12148 net.cpp:141] Setting up relu3_2
I0119 01:28:16.845116 12148 net.cpp:148] Top shape: 32 256 56 56 (25690112)
I0119 01:28:16.845121 12148 net.cpp:156] Memory required for data: 3057123712
I0119 01:28:16.845125 12148 layer_factory.hpp:77] Creating layer conv3_3
I0119 01:28:16.845137 12148 net.cpp:91] Creating Layer conv3_3
I0119 01:28:16.845142 12148 net.cpp:425] conv3_3 <- conv3_2
I0119 01:28:16.845147 12148 net.cpp:399] conv3_3 -> conv3_3
I0119 01:28:16.848222 12148 net.cpp:141] Setting up conv3_3
I0119 01:28:16.848239 12148 net.cpp:148] Top shape: 32 256 56 56 (25690112)
I0119 01:28:16.848244 12148 net.cpp:156] Memory required for data: 3159884160
I0119 01:28:16.848254 12148 layer_factory.hpp:77] Creating layer relu3_3
I0119 01:28:16.848261 12148 net.cpp:91] Creating Layer relu3_3
I0119 01:28:16.848266 12148 net.cpp:425] relu3_3 <- conv3_3
I0119 01:28:16.848273 12148 net.cpp:386] relu3_3 -> conv3_3 (in-place)
I0119 01:28:16.848280 12148 net.cpp:141] Setting up relu3_3
I0119 01:28:16.848286 12148 net.cpp:148] Top shape: 32 256 56 56 (25690112)
I0119 01:28:16.848290 12148 net.cpp:156] Memory required for data: 3262644608
I0119 01:28:16.848294 12148 layer_factory.hpp:77] Creating layer rgb_pool3
I0119 01:28:16.848300 12148 net.cpp:91] Creating Layer rgb_pool3
I0119 01:28:16.848304 12148 net.cpp:425] rgb_pool3 <- conv3_3
I0119 01:28:16.848309 12148 net.cpp:399] rgb_pool3 -> rgb_pool3
I0119 01:28:16.848333 12148 net.cpp:141] Setting up rgb_pool3
I0119 01:28:16.848340 12148 net.cpp:148] Top shape: 32 256 28 28 (6422528)
I0119 01:28:16.848347 12148 net.cpp:156] Memory required for data: 3288334720
I0119 01:28:16.848354 12148 layer_factory.hpp:77] Creating layer conv4_1
I0119 01:28:16.848366 12148 net.cpp:91] Creating Layer conv4_1
I0119 01:28:16.848373 12148 net.cpp:425] conv4_1 <- rgb_pool3
I0119 01:28:16.848382 12148 net.cpp:399] conv4_1 -> conv4_1
I0119 01:28:16.855443 12148 net.cpp:141] Setting up conv4_1
I0119 01:28:16.855492 12148 net.cpp:148] Top shape: 32 512 28 28 (12845056)
I0119 01:28:16.855500 12148 net.cpp:156] Memory required for data: 3339714944
I0119 01:28:16.855516 12148 layer_factory.hpp:77] Creating layer relu4_1
I0119 01:28:16.855532 12148 net.cpp:91] Creating Layer relu4_1
I0119 01:28:16.855540 12148 net.cpp:425] relu4_1 <- conv4_1
I0119 01:28:16.855551 12148 net.cpp:386] relu4_1 -> conv4_1 (in-place)
I0119 01:28:16.855563 12148 net.cpp:141] Setting up relu4_1
I0119 01:28:16.855571 12148 net.cpp:148] Top shape: 32 512 28 28 (12845056)
I0119 01:28:16.855576 12148 net.cpp:156] Memory required for data: 3391095168
I0119 01:28:16.855581 12148 layer_factory.hpp:77] Creating layer conv4_2
I0119 01:28:16.855593 12148 net.cpp:91] Creating Layer conv4_2
I0119 01:28:16.855600 12148 net.cpp:425] conv4_2 <- conv4_1
I0119 01:28:16.855607 12148 net.cpp:399] conv4_2 -> conv4_2
I0119 01:28:16.869249 12148 net.cpp:141] Setting up conv4_2
I0119 01:28:16.869284 12148 net.cpp:148] Top shape: 32 512 28 28 (12845056)
I0119 01:28:16.869293 12148 net.cpp:156] Memory required for data: 3442475392
I0119 01:28:16.869310 12148 layer_factory.hpp:77] Creating layer relu4_2
I0119 01:28:16.869323 12148 net.cpp:91] Creating Layer relu4_2
I0119 01:28:16.869330 12148 net.cpp:425] relu4_2 <- conv4_2
I0119 01:28:16.869339 12148 net.cpp:386] relu4_2 -> conv4_2 (in-place)
I0119 01:28:16.869349 12148 net.cpp:141] Setting up relu4_2
I0119 01:28:16.869356 12148 net.cpp:148] Top shape: 32 512 28 28 (12845056)
I0119 01:28:16.869362 12148 net.cpp:156] Memory required for data: 3493855616
I0119 01:28:16.869367 12148 layer_factory.hpp:77] Creating layer conv4_3
I0119 01:28:16.869379 12148 net.cpp:91] Creating Layer conv4_3
I0119 01:28:16.869385 12148 net.cpp:425] conv4_3 <- conv4_2
I0119 01:28:16.869390 12148 net.cpp:399] conv4_3 -> conv4_3
I0119 01:28:16.882177 12148 net.cpp:141] Setting up conv4_3
I0119 01:28:16.882210 12148 net.cpp:148] Top shape: 32 512 28 28 (12845056)
I0119 01:28:16.882216 12148 net.cpp:156] Memory required for data: 3545235840
I0119 01:28:16.882227 12148 layer_factory.hpp:77] Creating layer relu4_3
I0119 01:28:16.882241 12148 net.cpp:91] Creating Layer relu4_3
I0119 01:28:16.882261 12148 net.cpp:425] relu4_3 <- conv4_3
I0119 01:28:16.882272 12148 net.cpp:386] relu4_3 -> conv4_3 (in-place)
I0119 01:28:16.882279 12148 net.cpp:141] Setting up relu4_3
I0119 01:28:16.882283 12148 net.cpp:148] Top shape: 32 512 28 28 (12845056)
I0119 01:28:16.882285 12148 net.cpp:156] Memory required for data: 3596616064
I0119 01:28:16.882288 12148 layer_factory.hpp:77] Creating layer rgb_pool4
I0119 01:28:16.882294 12148 net.cpp:91] Creating Layer rgb_pool4
I0119 01:28:16.882297 12148 net.cpp:425] rgb_pool4 <- conv4_3
I0119 01:28:16.882299 12148 net.cpp:399] rgb_pool4 -> rgb_pool4
I0119 01:28:16.882335 12148 net.cpp:141] Setting up rgb_pool4
I0119 01:28:16.882339 12148 net.cpp:148] Top shape: 32 512 14 14 (3211264)
I0119 01:28:16.882341 12148 net.cpp:156] Memory required for data: 3609461120
I0119 01:28:16.882344 12148 layer_factory.hpp:77] Creating layer conv5_1
I0119 01:28:16.882351 12148 net.cpp:91] Creating Layer conv5_1
I0119 01:28:16.882354 12148 net.cpp:425] conv5_1 <- rgb_pool4
I0119 01:28:16.882357 12148 net.cpp:399] conv5_1 -> conv5_1
I0119 01:28:16.896003 12148 net.cpp:141] Setting up conv5_1
I0119 01:28:16.896044 12148 net.cpp:148] Top shape: 32 512 14 14 (3211264)
I0119 01:28:16.896055 12148 net.cpp:156] Memory required for data: 3622306176
I0119 01:28:16.896075 12148 layer_factory.hpp:77] Creating layer relu5_1
I0119 01:28:16.896091 12148 net.cpp:91] Creating Layer relu5_1
I0119 01:28:16.896102 12148 net.cpp:425] relu5_1 <- conv5_1
I0119 01:28:16.896114 12148 net.cpp:386] relu5_1 -> conv5_1 (in-place)
I0119 01:28:16.896128 12148 net.cpp:141] Setting up relu5_1
I0119 01:28:16.896139 12148 net.cpp:148] Top shape: 32 512 14 14 (3211264)
I0119 01:28:16.896147 12148 net.cpp:156] Memory required for data: 3635151232
I0119 01:28:16.896154 12148 layer_factory.hpp:77] Creating layer conv5_2
I0119 01:28:16.896168 12148 net.cpp:91] Creating Layer conv5_2
I0119 01:28:16.896175 12148 net.cpp:425] conv5_2 <- conv5_1
I0119 01:28:16.896186 12148 net.cpp:399] conv5_2 -> conv5_2
I0119 01:28:16.909518 12148 net.cpp:141] Setting up conv5_2
I0119 01:28:16.909553 12148 net.cpp:148] Top shape: 32 512 14 14 (3211264)
I0119 01:28:16.909560 12148 net.cpp:156] Memory required for data: 3647996288
I0119 01:28:16.909574 12148 layer_factory.hpp:77] Creating layer relu5_2
I0119 01:28:16.909584 12148 net.cpp:91] Creating Layer relu5_2
I0119 01:28:16.909590 12148 net.cpp:425] relu5_2 <- conv5_2
I0119 01:28:16.909597 12148 net.cpp:386] relu5_2 -> conv5_2 (in-place)
I0119 01:28:16.909605 12148 net.cpp:141] Setting up relu5_2
I0119 01:28:16.909611 12148 net.cpp:148] Top shape: 32 512 14 14 (3211264)
I0119 01:28:16.909617 12148 net.cpp:156] Memory required for data: 3660841344
I0119 01:28:16.909621 12148 layer_factory.hpp:77] Creating layer conv5_3
I0119 01:28:16.909632 12148 net.cpp:91] Creating Layer conv5_3
I0119 01:28:16.909637 12148 net.cpp:425] conv5_3 <- conv5_2
I0119 01:28:16.909642 12148 net.cpp:399] conv5_3 -> conv5_3
I0119 01:28:16.921931 12148 net.cpp:141] Setting up conv5_3
I0119 01:28:16.921962 12148 net.cpp:148] Top shape: 32 512 14 14 (3211264)
I0119 01:28:16.921967 12148 net.cpp:156] Memory required for data: 3673686400
I0119 01:28:16.921978 12148 layer_factory.hpp:77] Creating layer relu5_3
I0119 01:28:16.921988 12148 net.cpp:91] Creating Layer relu5_3
I0119 01:28:16.921994 12148 net.cpp:425] relu5_3 <- conv5_3
I0119 01:28:16.922003 12148 net.cpp:386] relu5_3 -> conv5_3 (in-place)
I0119 01:28:16.922010 12148 net.cpp:141] Setting up relu5_3
I0119 01:28:16.922016 12148 net.cpp:148] Top shape: 32 512 14 14 (3211264)
I0119 01:28:16.922021 12148 net.cpp:156] Memory required for data: 3686531456
I0119 01:28:16.922026 12148 layer_factory.hpp:77] Creating layer rgb_pool5
I0119 01:28:16.922037 12148 net.cpp:91] Creating Layer rgb_pool5
I0119 01:28:16.922041 12148 net.cpp:425] rgb_pool5 <- conv5_3
I0119 01:28:16.922049 12148 net.cpp:399] rgb_pool5 -> rgb_pool5
I0119 01:28:16.922077 12148 net.cpp:141] Setting up rgb_pool5
I0119 01:28:16.922083 12148 net.cpp:148] Top shape: 32 512 7 7 (802816)
I0119 01:28:16.922088 12148 net.cpp:156] Memory required for data: 3689742720
I0119 01:28:16.922093 12148 layer_factory.hpp:77] Creating layer rgb_fc6
I0119 01:28:16.922107 12148 net.cpp:91] Creating Layer rgb_fc6
I0119 01:28:16.922112 12148 net.cpp:425] rgb_fc6 <- rgb_pool5
I0119 01:28:16.922118 12148 net.cpp:399] rgb_fc6 -> rgb_fc6
I0119 01:28:17.460182 12148 net.cpp:141] Setting up rgb_fc6
I0119 01:28:17.460216 12148 net.cpp:148] Top shape: 32 4096 (131072)
I0119 01:28:17.460222 12148 net.cpp:156] Memory required for data: 3690267008
I0119 01:28:17.460234 12148 layer_factory.hpp:77] Creating layer rgb_relu6
I0119 01:28:17.460247 12148 net.cpp:91] Creating Layer rgb_relu6
I0119 01:28:17.460255 12148 net.cpp:425] rgb_relu6 <- rgb_fc6
I0119 01:28:17.460263 12148 net.cpp:386] rgb_relu6 -> rgb_fc6 (in-place)
I0119 01:28:17.460274 12148 net.cpp:141] Setting up rgb_relu6
I0119 01:28:17.460280 12148 net.cpp:148] Top shape: 32 4096 (131072)
I0119 01:28:17.460284 12148 net.cpp:156] Memory required for data: 3690791296
I0119 01:28:17.460289 12148 layer_factory.hpp:77] Creating layer rgb_drop6
I0119 01:28:17.460304 12148 net.cpp:91] Creating Layer rgb_drop6
I0119 01:28:17.460307 12148 net.cpp:425] rgb_drop6 <- rgb_fc6
I0119 01:28:17.460314 12148 net.cpp:386] rgb_drop6 -> rgb_fc6 (in-place)
I0119 01:28:17.460340 12148 net.cpp:141] Setting up rgb_drop6
I0119 01:28:17.460346 12148 net.cpp:148] Top shape: 32 4096 (131072)
I0119 01:28:17.460350 12148 net.cpp:156] Memory required for data: 3691315584
I0119 01:28:17.460355 12148 layer_factory.hpp:77] Creating layer rgb_fc7
I0119 01:28:17.460362 12148 net.cpp:91] Creating Layer rgb_fc7
I0119 01:28:17.460366 12148 net.cpp:425] rgb_fc7 <- rgb_fc6
I0119 01:28:17.460373 12148 net.cpp:399] rgb_fc7 -> rgb_fc7
I0119 01:28:17.549801 12148 net.cpp:141] Setting up rgb_fc7
I0119 01:28:17.549834 12148 net.cpp:148] Top shape: 32 4096 (131072)
I0119 01:28:17.549840 12148 net.cpp:156] Memory required for data: 3691839872
I0119 01:28:17.549852 12148 layer_factory.hpp:77] Creating layer rgb_relu7
I0119 01:28:17.549865 12148 net.cpp:91] Creating Layer rgb_relu7
I0119 01:28:17.549871 12148 net.cpp:425] rgb_relu7 <- rgb_fc7
I0119 01:28:17.549881 12148 net.cpp:386] rgb_relu7 -> rgb_fc7 (in-place)
I0119 01:28:17.549891 12148 net.cpp:141] Setting up rgb_relu7
I0119 01:28:17.549897 12148 net.cpp:148] Top shape: 32 4096 (131072)
I0119 01:28:17.549903 12148 net.cpp:156] Memory required for data: 3692364160
I0119 01:28:17.549908 12148 layer_factory.hpp:77] Creating layer rgb_drop7
I0119 01:28:17.549916 12148 net.cpp:91] Creating Layer rgb_drop7
I0119 01:28:17.549922 12148 net.cpp:425] rgb_drop7 <- rgb_fc7
I0119 01:28:17.549928 12148 net.cpp:386] rgb_drop7 -> rgb_fc7 (in-place)
I0119 01:28:17.549953 12148 net.cpp:141] Setting up rgb_drop7
I0119 01:28:17.549962 12148 net.cpp:148] Top shape: 32 4096 (131072)
I0119 01:28:17.549965 12148 net.cpp:156] Memory required for data: 3692888448
I0119 01:28:17.549970 12148 layer_factory.hpp:77] Creating layer conv1
I0119 01:28:17.549981 12148 net.cpp:91] Creating Layer conv1
I0119 01:28:17.549986 12148 net.cpp:425] conv1 <- depth
I0119 01:28:17.549994 12148 net.cpp:399] conv1 -> conv1
I0119 01:28:17.550165 12148 net.cpp:141] Setting up conv1
I0119 01:28:17.550174 12148 net.cpp:148] Top shape: 32 128 112 112 (51380224)
I0119 01:28:17.550179 12148 net.cpp:156] Memory required for data: 3898409344
I0119 01:28:17.550185 12148 layer_factory.hpp:77] Creating layer relu1
I0119 01:28:17.550191 12148 net.cpp:91] Creating Layer relu1
I0119 01:28:17.550197 12148 net.cpp:425] relu1 <- conv1
I0119 01:28:17.550204 12148 net.cpp:386] relu1 -> conv1 (in-place)
I0119 01:28:17.550209 12148 net.cpp:141] Setting up relu1
I0119 01:28:17.550215 12148 net.cpp:148] Top shape: 32 128 112 112 (51380224)
I0119 01:28:17.550218 12148 net.cpp:156] Memory required for data: 4103930240
I0119 01:28:17.550223 12148 layer_factory.hpp:77] Creating layer depth_pool1
I0119 01:28:17.550230 12148 net.cpp:91] Creating Layer depth_pool1
I0119 01:28:17.550235 12148 net.cpp:425] depth_pool1 <- conv1
I0119 01:28:17.550241 12148 net.cpp:399] depth_pool1 -> depth_pool1
I0119 01:28:17.550268 12148 net.cpp:141] Setting up depth_pool1
I0119 01:28:17.550274 12148 net.cpp:148] Top shape: 32 128 56 56 (12845056)
I0119 01:28:17.550278 12148 net.cpp:156] Memory required for data: 4155310464
I0119 01:28:17.550283 12148 layer_factory.hpp:77] Creating layer norm1
I0119 01:28:17.550292 12148 net.cpp:91] Creating Layer norm1
I0119 01:28:17.550297 12148 net.cpp:425] norm1 <- depth_pool1
I0119 01:28:17.550302 12148 net.cpp:399] norm1 -> norm1
I0119 01:28:17.550325 12148 net.cpp:141] Setting up norm1
I0119 01:28:17.550331 12148 net.cpp:148] Top shape: 32 128 56 56 (12845056)
I0119 01:28:17.550336 12148 net.cpp:156] Memory required for data: 4206690688
I0119 01:28:17.550340 12148 layer_factory.hpp:77] Creating layer conv2
I0119 01:28:17.550349 12148 net.cpp:91] Creating Layer conv2
I0119 01:28:17.550354 12148 net.cpp:425] conv2 <- norm1
I0119 01:28:17.550389 12148 net.cpp:399] conv2 -> conv2
I0119 01:28:17.556052 12148 net.cpp:141] Setting up conv2
I0119 01:28:17.556072 12148 net.cpp:148] Top shape: 32 256 56 56 (25690112)
I0119 01:28:17.556077 12148 net.cpp:156] Memory required for data: 4309451136
I0119 01:28:17.556093 12148 layer_factory.hpp:77] Creating layer relu2
I0119 01:28:17.556102 12148 net.cpp:91] Creating Layer relu2
I0119 01:28:17.556107 12148 net.cpp:425] relu2 <- conv2
I0119 01:28:17.556113 12148 net.cpp:386] relu2 -> conv2 (in-place)
I0119 01:28:17.556120 12148 net.cpp:141] Setting up relu2
I0119 01:28:17.556125 12148 net.cpp:148] Top shape: 32 256 56 56 (25690112)
I0119 01:28:17.556128 12148 net.cpp:156] Memory required for data: 4412211584
I0119 01:28:17.556131 12148 layer_factory.hpp:77] Creating layer depth_pool2
I0119 01:28:17.556138 12148 net.cpp:91] Creating Layer depth_pool2
I0119 01:28:17.556143 12148 net.cpp:425] depth_pool2 <- conv2
I0119 01:28:17.556147 12148 net.cpp:399] depth_pool2 -> depth_pool2
I0119 01:28:17.556181 12148 net.cpp:141] Setting up depth_pool2
I0119 01:28:17.556187 12148 net.cpp:148] Top shape: 32 256 28 28 (6422528)
I0119 01:28:17.556190 12148 net.cpp:156] Memory required for data: 4437901696
I0119 01:28:17.556193 12148 layer_factory.hpp:77] Creating layer norm2
I0119 01:28:17.556200 12148 net.cpp:91] Creating Layer norm2
I0119 01:28:17.556205 12148 net.cpp:425] norm2 <- depth_pool2
I0119 01:28:17.556208 12148 net.cpp:399] norm2 -> norm2
I0119 01:28:17.556238 12148 net.cpp:141] Setting up norm2
I0119 01:28:17.556243 12148 net.cpp:148] Top shape: 32 256 28 28 (6422528)
I0119 01:28:17.556246 12148 net.cpp:156] Memory required for data: 4463591808
I0119 01:28:17.556251 12148 layer_factory.hpp:77] Creating layer conv3
I0119 01:28:17.556260 12148 net.cpp:91] Creating Layer conv3
I0119 01:28:17.556264 12148 net.cpp:425] conv3 <- norm2
I0119 01:28:17.556269 12148 net.cpp:399] conv3 -> conv3
I0119 01:28:17.559365 12148 net.cpp:141] Setting up conv3
I0119 01:28:17.559382 12148 net.cpp:148] Top shape: 32 384 28 28 (9633792)
I0119 01:28:17.559389 12148 net.cpp:156] Memory required for data: 4502126976
I0119 01:28:17.559412 12148 layer_factory.hpp:77] Creating layer relu3
I0119 01:28:17.559432 12148 net.cpp:91] Creating Layer relu3
I0119 01:28:17.559448 12148 net.cpp:425] relu3 <- conv3
I0119 01:28:17.559465 12148 net.cpp:386] relu3 -> conv3 (in-place)
I0119 01:28:17.559485 12148 net.cpp:141] Setting up relu3
I0119 01:28:17.559495 12148 net.cpp:148] Top shape: 32 384 28 28 (9633792)
I0119 01:28:17.559504 12148 net.cpp:156] Memory required for data: 4540662144
I0119 01:28:17.559512 12148 layer_factory.hpp:77] Creating layer depth_pool3
I0119 01:28:17.559527 12148 net.cpp:91] Creating Layer depth_pool3
I0119 01:28:17.559545 12148 net.cpp:425] depth_pool3 <- conv3
I0119 01:28:17.559563 12148 net.cpp:399] depth_pool3 -> depth_pool3
I0119 01:28:17.559607 12148 net.cpp:141] Setting up depth_pool3
I0119 01:28:17.559617 12148 net.cpp:148] Top shape: 32 384 14 14 (2408448)
I0119 01:28:17.559624 12148 net.cpp:156] Memory required for data: 4550295936
I0119 01:28:17.559631 12148 layer_factory.hpp:77] Creating layer conv4
I0119 01:28:17.559646 12148 net.cpp:91] Creating Layer conv4
I0119 01:28:17.559654 12148 net.cpp:425] conv4 <- depth_pool3
I0119 01:28:17.559666 12148 net.cpp:399] conv4 -> conv4
I0119 01:28:17.573114 12148 net.cpp:141] Setting up conv4
I0119 01:28:17.573160 12148 net.cpp:148] Top shape: 32 512 14 14 (3211264)
I0119 01:28:17.573168 12148 net.cpp:156] Memory required for data: 4563140992
I0119 01:28:17.573184 12148 layer_factory.hpp:77] Creating layer relu4
I0119 01:28:17.573197 12148 net.cpp:91] Creating Layer relu4
I0119 01:28:17.573205 12148 net.cpp:425] relu4 <- conv4
I0119 01:28:17.573217 12148 net.cpp:386] relu4 -> conv4 (in-place)
I0119 01:28:17.573230 12148 net.cpp:141] Setting up relu4
I0119 01:28:17.573238 12148 net.cpp:148] Top shape: 32 512 14 14 (3211264)
I0119 01:28:17.573246 12148 net.cpp:156] Memory required for data: 4575986048
I0119 01:28:17.573253 12148 layer_factory.hpp:77] Creating layer conv5
I0119 01:28:17.573266 12148 net.cpp:91] Creating Layer conv5
I0119 01:28:17.573273 12148 net.cpp:425] conv5 <- conv4
I0119 01:28:17.573283 12148 net.cpp:399] conv5 -> conv5
I0119 01:28:17.589100 12148 net.cpp:141] Setting up conv5
I0119 01:28:17.589136 12148 net.cpp:148] Top shape: 32 512 14 14 (3211264)
I0119 01:28:17.589144 12148 net.cpp:156] Memory required for data: 4588831104
I0119 01:28:17.589159 12148 layer_factory.hpp:77] Creating layer relu5
I0119 01:28:17.589174 12148 net.cpp:91] Creating Layer relu5
I0119 01:28:17.589182 12148 net.cpp:425] relu5 <- conv5
I0119 01:28:17.589192 12148 net.cpp:386] relu5 -> conv5 (in-place)
I0119 01:28:17.589206 12148 net.cpp:141] Setting up relu5
I0119 01:28:17.589216 12148 net.cpp:148] Top shape: 32 512 14 14 (3211264)
I0119 01:28:17.589223 12148 net.cpp:156] Memory required for data: 4601676160
I0119 01:28:17.589231 12148 layer_factory.hpp:77] Creating layer depth_pool5
I0119 01:28:17.589241 12148 net.cpp:91] Creating Layer depth_pool5
I0119 01:28:17.589247 12148 net.cpp:425] depth_pool5 <- conv5
I0119 01:28:17.589258 12148 net.cpp:399] depth_pool5 -> depth_pool5
I0119 01:28:17.589319 12148 net.cpp:141] Setting up depth_pool5
I0119 01:28:17.589331 12148 net.cpp:148] Top shape: 32 512 7 7 (802816)
I0119 01:28:17.589339 12148 net.cpp:156] Memory required for data: 4604887424
I0119 01:28:17.589345 12148 layer_factory.hpp:77] Creating layer depth_fc6
I0119 01:28:17.589357 12148 net.cpp:91] Creating Layer depth_fc6
I0119 01:28:17.589365 12148 net.cpp:425] depth_fc6 <- depth_pool5
I0119 01:28:17.589373 12148 net.cpp:399] depth_fc6 -> depth_fc6
I0119 01:28:18.136754 12148 net.cpp:141] Setting up depth_fc6
I0119 01:28:18.136790 12148 net.cpp:148] Top shape: 32 4096 (131072)
I0119 01:28:18.136796 12148 net.cpp:156] Memory required for data: 4605411712
I0119 01:28:18.136807 12148 layer_factory.hpp:77] Creating layer depth_relu6
I0119 01:28:18.136822 12148 net.cpp:91] Creating Layer depth_relu6
I0119 01:28:18.136831 12148 net.cpp:425] depth_relu6 <- depth_fc6
I0119 01:28:18.136840 12148 net.cpp:386] depth_relu6 -> depth_fc6 (in-place)
I0119 01:28:18.136850 12148 net.cpp:141] Setting up depth_relu6
I0119 01:28:18.136857 12148 net.cpp:148] Top shape: 32 4096 (131072)
I0119 01:28:18.136862 12148 net.cpp:156] Memory required for data: 4605936000
I0119 01:28:18.136867 12148 layer_factory.hpp:77] Creating layer depth_drop6
I0119 01:28:18.136874 12148 net.cpp:91] Creating Layer depth_drop6
I0119 01:28:18.136879 12148 net.cpp:425] depth_drop6 <- depth_fc6
I0119 01:28:18.136885 12148 net.cpp:386] depth_drop6 -> depth_fc6 (in-place)
I0119 01:28:18.136911 12148 net.cpp:141] Setting up depth_drop6
I0119 01:28:18.136919 12148 net.cpp:148] Top shape: 32 4096 (131072)
I0119 01:28:18.136922 12148 net.cpp:156] Memory required for data: 4606460288
I0119 01:28:18.136925 12148 layer_factory.hpp:77] Creating layer depth_fc7
I0119 01:28:18.136934 12148 net.cpp:91] Creating Layer depth_fc7
I0119 01:28:18.136939 12148 net.cpp:425] depth_fc7 <- depth_fc6
I0119 01:28:18.136945 12148 net.cpp:399] depth_fc7 -> depth_fc7
I0119 01:28:18.227412 12148 net.cpp:141] Setting up depth_fc7
I0119 01:28:18.227448 12148 net.cpp:148] Top shape: 32 4096 (131072)
I0119 01:28:18.227454 12148 net.cpp:156] Memory required for data: 4606984576
I0119 01:28:18.227464 12148 layer_factory.hpp:77] Creating layer depth_relu7
I0119 01:28:18.227478 12148 net.cpp:91] Creating Layer depth_relu7
I0119 01:28:18.227485 12148 net.cpp:425] depth_relu7 <- depth_fc7
I0119 01:28:18.227494 12148 net.cpp:386] depth_relu7 -> depth_fc7 (in-place)
I0119 01:28:18.227504 12148 net.cpp:141] Setting up depth_relu7
I0119 01:28:18.227509 12148 net.cpp:148] Top shape: 32 4096 (131072)
I0119 01:28:18.227514 12148 net.cpp:156] Memory required for data: 4607508864
I0119 01:28:18.227519 12148 layer_factory.hpp:77] Creating layer depth_drop7
I0119 01:28:18.227526 12148 net.cpp:91] Creating Layer depth_drop7
I0119 01:28:18.227532 12148 net.cpp:425] depth_drop7 <- depth_fc7
I0119 01:28:18.227537 12148 net.cpp:386] depth_drop7 -> depth_fc7 (in-place)
I0119 01:28:18.227563 12148 net.cpp:141] Setting up depth_drop7
I0119 01:28:18.227571 12148 net.cpp:148] Top shape: 32 4096 (131072)
I0119 01:28:18.227576 12148 net.cpp:156] Memory required for data: 4608033152
I0119 01:28:18.227581 12148 layer_factory.hpp:77] Creating layer concat
I0119 01:28:18.227596 12148 net.cpp:91] Creating Layer concat
I0119 01:28:18.227602 12148 net.cpp:425] concat <- rgb_fc7
I0119 01:28:18.227607 12148 net.cpp:425] concat <- depth_fc7
I0119 01:28:18.227613 12148 net.cpp:399] concat -> concat
I0119 01:28:18.227635 12148 net.cpp:141] Setting up concat
I0119 01:28:18.227643 12148 net.cpp:148] Top shape: 32 8192 (262144)
I0119 01:28:18.227646 12148 net.cpp:156] Memory required for data: 4609081728
I0119 01:28:18.227651 12148 layer_factory.hpp:77] Creating layer rgbd_fc8
I0119 01:28:18.227659 12148 net.cpp:91] Creating Layer rgbd_fc8
I0119 01:28:18.227664 12148 net.cpp:425] rgbd_fc8 <- concat
I0119 01:28:18.227671 12148 net.cpp:399] rgbd_fc8 -> rgbd_fc8
I0119 01:28:18.228021 12148 net.cpp:141] Setting up rgbd_fc8
I0119 01:28:18.228039 12148 net.cpp:148] Top shape: 32 6 (192)
I0119 01:28:18.228045 12148 net.cpp:156] Memory required for data: 4609082496
I0119 01:28:18.228056 12148 layer_factory.hpp:77] Creating layer rgbd_fc8_rgbd_fc8_0_split
I0119 01:28:18.228067 12148 net.cpp:91] Creating Layer rgbd_fc8_rgbd_fc8_0_split
I0119 01:28:18.228075 12148 net.cpp:425] rgbd_fc8_rgbd_fc8_0_split <- rgbd_fc8
I0119 01:28:18.228086 12148 net.cpp:399] rgbd_fc8_rgbd_fc8_0_split -> rgbd_fc8_rgbd_fc8_0_split_0
I0119 01:28:18.228096 12148 net.cpp:399] rgbd_fc8_rgbd_fc8_0_split -> rgbd_fc8_rgbd_fc8_0_split_1
I0119 01:28:18.228137 12148 net.cpp:141] Setting up rgbd_fc8_rgbd_fc8_0_split
I0119 01:28:18.228147 12148 net.cpp:148] Top shape: 32 6 (192)
I0119 01:28:18.228154 12148 net.cpp:148] Top shape: 32 6 (192)
I0119 01:28:18.228162 12148 net.cpp:156] Memory required for data: 4609084032
I0119 01:28:18.228168 12148 layer_factory.hpp:77] Creating layer accuracy
I0119 01:28:18.228185 12148 net.cpp:91] Creating Layer accuracy
I0119 01:28:18.228194 12148 net.cpp:425] accuracy <- rgbd_fc8_rgbd_fc8_0_split_0
I0119 01:28:18.228202 12148 net.cpp:425] accuracy <- label_data_2_split_0
I0119 01:28:18.228211 12148 net.cpp:399] accuracy -> accuracy
…
I0119 13:25:00.705225 21544 solver.cpp:181] Creating test net (#0) specified by test_net file: test.prototxt
I0119 13:25:00.705479 21544 net.cpp:49] Initializing net from parameters: 
state {
  phase: TEST
}
layer {
  name: "data"
  type: "Python"
  top: "rgb"
  top: "depth"
  top: "label"
  python_param {
    module: "data_layers.rgbd_data_layer"
    layer: "RGBDDataLayer"
    param_str: "{\'img_size\': (224, 224), \'split\': \'test\', \'dataset_dir\': \'/home/kevin/dataset/rgbd\', \'seed\': 1337, \'batch_size\': 8, \'mean\': (104.00698793, 116.66876762, 122.67891434)}"
  }
}
layer {
  name: "conv1_1"
  type: "Convolution"
  bottom: "rgb"
  top: "conv1_1"
  param {
    name: "conv1_1_w"
    lr_mult: 1
    decay_mult: 1
  }
  param {
    name: "conv1_1_b"
    lr_mult: 2
    decay_mult: 0
  }
  convolution_param {
    num_output: 64
    pad: 1
    kernel_size: 3
    group: 1
    stride: 1
    weight_filler {
      type: "xavier"
    }
  }
}
layer {
  name: "relu1_1"
  type: "ReLU"
  bottom: "conv1_1"
  top: "conv1_1"
}
layer {
  name: "conv1_2"
  type: "Convolution"
  bottom: "conv1_1"
  top: "conv1_2"
  param {
    name: "conv1_2_w"
    lr_mult: 1
    decay_mult: 1
  }
  param {
    name: "conv1_2_b"
    lr_mult: 2
    decay_mult: 0
  }
  convolution_param {
    num_output: 64
    pad: 1
    kernel_size: 3
    group: 1
    stride: 1
    weight_filler {
      type: "xavier"
    }
  }
}
layer {
  name: "relu1_2"
  type: "ReLU"
  bottom: "conv1_2"
  top: "conv1_2"
}
layer {
  name: "rgb_pool1"
  type: "Pooling"
  bottom: "conv1_2"
  top: "rgb_pool1"
  pooling_param {
    pool: MAX
    kernel_size: 2
    stride: 2
  }
}
layer {
  name: "conv2_1"
  type: "Convolution"
  bottom: "rgb_pool1"
  top: "conv2_1"
  param {
    name: "conv2_1_w"
    lr_mult: 1
    decay_mult: 1
  }
  param {
    name: "conv2_1_b"
    lr_mult: 2
    decay_mult: 0
  }
  convolution_param {
    num_output: 128
    pad: 1
    kernel_size: 3
    group: 1
    stride: 1
    weight_filler {
      type: "xavier"
    }
  }
}
layer {
  name: "relu2_1"
  type: "ReLU"
  bottom: "conv2_1"
  top: "conv2_1"
}
layer {
  name: "conv2_2"
  type: "Convolution"
  bottom: "conv2_1"
  top: "conv2_2"
  param {
    name: "conv2_2_w"
    lr_mult: 1
    decay_mult: 1
  }
  param {
    name: "conv2_2_b"
    lr_mult: 2
    decay_mult: 0
  }
  convolution_param {
    num_output: 128
    pad: 1
    kernel_size: 3
    group: 1
    stride: 1
    weight_filler {
      type: "xavier"
    }
  }
}
layer {
  name: "relu2_2"
  type: "ReLU"
  bottom: "conv2_2"
  top: "conv2_2"
}
layer {
  name: "rgb_pool2"
  type: "Pooling"
  bottom: "conv2_2"
  top: "rgb_pool2"
  pooling_param {
    pool: MAX
    kernel_size: 2
    stride: 2
  }
}
layer {
  name: "conv3_1"
  type: "Convolution"
  bottom: "rgb_pool2"
  top: "conv3_1"
  param {
    name: "conv3_1_w"
    lr_mult: 1
    decay_mult: 1
  }
  param {
    name: "conv3_1_b"
    lr_mult: 2
    decay_mult: 0
  }
  convolution_param {
    num_output: 256
    pad: 1
    kernel_size: 3
    group: 1
    stride: 1
    weight_filler {
      type: "xavier"
    }
  }
}
layer {
  name: "relu3_1"
  type: "ReLU"
  bottom: "conv3_1"
  top: "conv3_1"
}
layer {
  name: "conv3_2"
  type: "Convolution"
  bottom: "conv3_1"
  top: "conv3_2"
  param {
    name: "conv3_2_w"
    lr_mult: 1
    decay_mult: 1
  }
  param {
    name: "conv3_2_b"
    lr_mult: 2
    decay_mult: 0
  }
  convolution_param {
    num_output: 256
    pad: 1
    kernel_size: 3
    group: 1
    stride: 1
    weight_filler {
      type: "xavier"
    }
  }
}
layer {
  name: "relu3_2"
  type: "ReLU"
  bottom: "conv3_2"
  top: "conv3_2"
}
layer {
  name: "conv3_3"
  type: "Convolution"
  bottom: "conv3_2"
  top: "conv3_3"
  param {
    name: "conv3_3_w"
    lr_mult: 1
    decay_mult: 1
  }
  param {
    name: "conv3_3_b"
    lr_mult: 2
    decay_mult: 0
  }
  convolution_param {
    num_output: 256
    pad: 1
    kernel_size: 3
    group: 1
    stride: 1
    weight_filler {
      type: "xavier"
    }
  }
}
layer {
  name: "relu3_3"
  type: "ReLU"
  bottom: "conv3_3"
  top: "conv3_3"
}
layer {
  name: "rgb_pool3"
  type: "Pooling"
  bottom: "conv3_3"
  top: "rgb_pool3"
  pooling_param {
    pool: MAX
    kernel_size: 2
    stride: 2
  }
}
layer {
  name: "conv4_1"
  type: "Convolution"
  bottom: "rgb_pool3"
  top: "conv4_1"
  param {
    name: "conv4_1_w"
    lr_mult: 1
    decay_mult: 1
  }
  param {
    name: "conv4_1_b"
    lr_mult: 2
    decay_mult: 0
  }
  convolution_param {
    num_output: 512
    pad: 1
    kernel_size: 3
    group: 1
    stride: 1
    weight_filler {
      type: "xavier"
    }
  }
}
layer {
  name: "relu4_1"
  type: "ReLU"
  bottom: "conv4_1"
  top: "conv4_1"
}
layer {
  name: "conv4_2"
  type: "Convolution"
  bottom: "conv4_1"
  top: "conv4_2"
  param {
    name: "conv4_2_w"
    lr_mult: 1
    decay_mult: 1
  }
  param {
    name: "conv4_2_b"
    lr_mult: 2
    decay_mult: 0
  }
  convolution_param {
    num_output: 512
    pad: 1
    kernel_size: 3
    group: 1
    stride: 1
    weight_filler {
      type: "xavier"
    }
  }
}
layer {
  name: "relu4_2"
  type: "ReLU"
  bottom: "conv4_2"
  top: "conv4_2"
}
layer {
  name: "conv4_3"
  type: "Convolution"
  bottom: "conv4_2"
  top: "conv4_3"
  param {
    name: "conv4_3_w"
    lr_mult: 1
    decay_mult: 1
  }
  param {
    name: "conv4_3_b"
    lr_mult: 2
    decay_mult: 0
  }
  convolution_param {
    num_output: 512
    pad: 1
    kernel_size: 3
    group: 1
    stride: 1
    weight_filler {
      type: "xavier"
    }
  }
}
layer {
  name: "relu4_3"
  type: "ReLU"
  bottom: "conv4_3"
  top: "conv4_3"
}
layer {
  name: "rgb_pool4"
  type: "Pooling"
  bottom: "conv4_3"
  top: "rgb_pool4"
  pooling_param {
    pool: MAX
    kernel_size: 2
    stride: 2
  }
}
layer {
  name: "conv5_1"
  type: "Convolution"
  bottom: "rgb_pool4"
  top: "conv5_1"
  param {
    name: "conv5_1_w"
    lr_mult: 1
    decay_mult: 1
  }
  param {
    name: "conv5_1_b"
    lr_mult: 2
    decay_mult: 0
  }
  convolution_param {
    num_output: 512
    pad: 1
    kernel_size: 3
    group: 1
    stride: 1
    weight_filler {
      type: "xavier"
    }
  }
}
layer {
  name: "relu5_1"
  type: "ReLU"
  bottom: "conv5_1"
  top: "conv5_1"
}
layer {
  name: "conv5_2"
  type: "Convolution"
  bottom: "conv5_1"
  top: "conv5_2"
  param {
    name: "conv5_2_w"
    lr_mult: 1
    decay_mult: 1
  }
  param {
    name: "conv5_2_b"
    lr_mult: 2
    decay_mult: 0
  }
  convolution_param {
    num_output: 512
    pad: 1
    kernel_size: 3
    group: 1
    stride: 1
    weight_filler {
      type: "xavier"
    }
  }
}
layer {
  name: "relu5_2"
  type: "ReLU"
  bottom: "conv5_2"
  top: "conv5_2"
}
layer {
  name: "conv5_3"
  type: "Convolution"
  bottom: "conv5_2"
  top: "conv5_3"
  param {
    name: "conv5_3_w"
    lr_mult: 1
    decay_mult: 1
  }
  param {
    name: "conv5_3_b"
    lr_mult: 2
    decay_mult: 0
  }
  convolution_param {
    num_output: 512
    pad: 1
    kernel_size: 3
    group: 1
    stride: 1
    weight_filler {
      type: "xavier"
    }
  }
}
layer {
  name: "relu5_3"
  type: "ReLU"
  bottom: "conv5_3"
  top: "conv5_3"
}
layer {
  name: "rgb_pool5"
  type: "Pooling"
  bottom: "conv5_3"
  top: "rgb_pool5"
  pooling_param {
    pool: MAX
    kernel_size: 2
    stride: 2
  }
}
layer {
  name: "rgb_fc6"
  type: "InnerProduct"
  bottom: "rgb_pool5"
  top: "rgb_fc6"
  param {
    lr_mult: 1
    decay_mult: 1
  }
  param {
    lr_mult: 2
    decay_mult: 0
  }
  inner_product_param {
    num_output: 4096
    weight_filler {
      type: "xavier"
    }
  }
}
layer {
  name: "rgb_relu6"
  type: "ReLU"
  bottom: "rgb_fc6"
  top: "rgb_fc6"
}
layer {
  name: "rgb_drop6"
  type: "Dropout"
  bottom: "rgb_fc6"
  top: "rgb_fc6"
  dropout_param {
    dropout_ratio: 0.9
  }
}
layer {
  name: "rgb_fc7"
  type: "InnerProduct"
  bottom: "rgb_fc6"
  top: "rgb_fc7"
  param {
    lr_mult: 1
    decay_mult: 1
  }
  param {
    lr_mult: 2
    decay_mult: 0
  }
  inner_product_param {
    num_output: 4096
    weight_filler {
      type: "xavier"
    }
  }
}
layer {
  name: "rgb_relu7"
  type: "ReLU"
  bottom: "rgb_fc7"
  top: "rgb_fc7"
}
layer {
  name: "rgb_drop7"
  type: "Dropout"
  bottom: "rgb_fc7"
  top: "rgb_fc7"
  dropout_param {
    dropout_ratio: 0.9
  }
}
layer {
  name: "conv1"
  type: "Convolution"
  bottom: "depth"
  top: "conv1"
  param {
    name: "conv1_w"
    lr_mult: 1
    decay_mult: 1
  }
  param {
    name: "conv1_b"
    lr_mult: 2
    decay_mult: 0
  }
  convolution_param {
    num_output: 128
    pad: 2
    kernel_size: 5
    group: 1
    stride: 2
    weight_filler {
      type: "xavier"
    }
  }
}
layer {
  name: "relu1"
  type: "ReLU"
  bottom: "conv1"
  top: "conv1"
}
layer {
  name: "depth_pool1"
  type: "Pooling"
  bottom: "conv1"
  top: "depth_pool1"
  pooling_param {
    pool: MAX
    kernel_size: 3
    stride: 2
  }
}
layer {
  name: "norm1"
  type: "LRN"
  bottom: "depth_pool1"
  top: "norm1"
  lrn_param {
    local_size: 5
    alpha: 0.0005
    beta: 0.75
    k: 2
  }
}
layer {
  name: "conv2"
  type: "Convolution"
  bottom: "norm1"
  top: "conv2"
  param {
    name: "conv2_w"
    lr_mult: 1
    decay_mult: 1
  }
  param {
    name: "conv2_b"
    lr_mult: 2
    decay_mult: 0
  }
  convolution_param {
    num_output: 256
    pad: 2
    kernel_size: 5
    group: 1
    stride: 1
    weight_filler {
      type: "xavier"
    }
  }
}
layer {
  name: "relu2"
  type: "ReLU"
  bottom: "conv2"
  top: "conv2"
}
layer {
  name: "depth_pool2"
  type: "Pooling"
  bottom: "conv2"
  top: "depth_pool2"
  pooling_param {
    pool: MAX
    kernel_size: 3
    stride: 2
  }
}
layer {
  name: "norm2"
  type: "LRN"
  bottom: "depth_pool2"
  top: "norm2"
  lrn_param {
    local_size: 5
    alpha: 0.0005
    beta: 0.75
    k: 2
  }
}
layer {
  name: "conv3"
  type: "Convolution"
  bottom: "norm2"
  top: "conv3"
  param {
    name: "conv3_w"
    lr_mult: 1
    decay_mult: 1
  }
  param {
    name: "conv3_b"
    lr_mult: 2
    decay_mult: 0
  }
  convolution_param {
    num_output: 384
    pad: 1
    kernel_size: 3
    group: 2
    stride: 1
    weight_filler {
      type: "xavier"
    }
  }
}
layer {
  name: "relu3"
  type: "ReLU"
  bottom: "conv3"
  top: "conv3"
}
layer {
  name: "depth_pool3"
  type: "Pooling"
  bottom: "conv3"
  top: "depth_pool3"
  pooling_param {
    pool: MAX
    kernel_size: 3
    stride: 2
  }
}
layer {
  name: "conv4"
  type: "Convolution"
  bottom: "depth_pool3"
  top: "conv4"
  param {
    name: "conv4_w"
    lr_mult: 1
    decay_mult: 1
  }
  param {
    name: "conv4_b"
    lr_mult: 2
    decay_mult: 0
  }
  convolution_param {
    num_output: 512
    pad: 1
    kernel_size: 3
    group: 1
    stride: 1
    weight_filler {
      type: "xavier"
    }
  }
}
layer {
  name: "relu4"
  type: "ReLU"
  bottom: "conv4"
  top: "conv4"
}
layer {
  name: "conv5"
  type: "Convolution"
  bottom: "conv4"
  top: "conv5"
  param {
    name: "conv5_w"
    lr_mult: 1
    decay_mult: 1
  }
  param {
    name: "conv5_b"
    lr_mult: 2
    decay_mult: 0
  }
  convolution_param {
    num_output: 512
    pad: 1
    kernel_size: 3
    group: 1
    stride: 1
    weight_filler {
      type: "xavier"
    }
  }
}
layer {
  name: "relu5"
  type: "ReLU"
  bottom: "conv5"
  top: "conv5"
}
layer {
  name: "depth_pool5"
  type: "Pooling"
  bottom: "conv5"
  top: "depth_pool5"
  pooling_param {
    pool: MAX
    kernel_size: 3
    stride: 2
  }
}
layer {
  name: "depth_fc6"
  type: "InnerProduct"
  bottom: "depth_pool5"
  top: "depth_fc6"
  param {
    lr_mult: 1
    decay_mult: 1
  }
  param {
    lr_mult: 2
    decay_mult: 0
  }
  inner_product_param {
    num_output: 4096
    weight_filler {
      type: "xavier"
    }
  }
}
layer {
  name: "depth_relu6"
  type: "ReLU"
  bottom: "depth_fc6"
  top: "depth_fc6"
}
layer {
  name: "depth_drop6"
  type: "Dropout"
  bottom: "depth_fc6"
  top: "depth_fc6"
  dropout_param {
    dropout_ratio: 0.9
  }
}
layer {
  name: "depth_fc7"
  type: "InnerProduct"
  bottom: "depth_fc6"
  top: "depth_fc7"
  param {
    lr_mult: 1
    decay_mult: 1
  }
  param {
    lr_mult: 2
    decay_mult: 0
  }
  inner_product_param {
    num_output: 4096
    weight_filler {
      type: "xavier"
    }
  }
}
layer {
  name: "depth_relu7"
  type: "ReLU"
  bottom: "depth_fc7"
  top: "depth_fc7"
}
layer {
  name: "depth_drop7"
  type: "Dropout"
  bottom: "depth_fc7"
  top: "depth_fc7"
  dropout_param {
    dropout_ratio: 0.9
  }
}
layer {
  name: "concat"
  type: "Concat"
  bottom: "rgb_fc7"
  bottom: "depth_fc7"
  top: "concat"
  concat_param {
    axis: 1
  }
}
layer {
  name: "rgbd_fc8"
  type: "InnerProduct"
  bottom: "concat"
  top: "rgbd_fc8"
  param {
    lr_mult: 1
    decay_mult: 1
  }
  param {
    lr_mult: 2
    decay_mult: 0
  }
  inner_product_param {
    num_output: 6
    weight_filler {
      type: "xavier"
    }
  }
}
layer {
  name: "accuracy"
  type: "Accuracy"
  bottom: "rgbd_fc8"
  bottom: "label"
  top: "accuracy"
}
layer {
  name: "loss"
  type: "SoftmaxWithLoss"
  bottom: "rgbd_fc8"
  bottom: "label"
  top: "loss"
}
I0119 13:25:00.707494 21544 layer_factory.hpp:77] Creating layer data
I0119 13:25:00.707546 21544 net.cpp:91] Creating Layer data
I0119 13:25:00.707554 21544 net.cpp:399] data -> rgb
I0119 13:25:00.707562 21544 net.cpp:399] data -> depth
I0119 13:25:00.707569 21544 net.cpp:399] data -> label
{'img_size': (224, 224), 'batch_size': 8, 'seed': 1337, 'split': 'test', 'dataset_dir': '/home/kevin/dataset/rgbd', 'mean': (104.00698793, 116.66876762, 122.67891434)}
I0119 13:25:00.735358 21544 net.cpp:141] Setting up data
I0119 13:25:00.735388 21544 net.cpp:148] Top shape: 8 3 224 224 (1204224)
I0119 13:25:00.735394 21544 net.cpp:148] Top shape: 8 1 224 224 (401408)
I0119 13:25:00.735399 21544 net.cpp:148] Top shape: 8 1 (8)
I0119 13:25:00.735406 21544 net.cpp:156] Memory required for data: 6422560
I0119 13:25:00.735424 21544 layer_factory.hpp:77] Creating layer label_data_2_split
I0119 13:25:00.735437 21544 net.cpp:91] Creating Layer label_data_2_split
I0119 13:25:00.735445 21544 net.cpp:425] label_data_2_split <- label
I0119 13:25:00.735453 21544 net.cpp:399] label_data_2_split -> label_data_2_split_0
I0119 13:25:00.735463 21544 net.cpp:399] label_data_2_split -> label_data_2_split_1
I0119 13:25:00.735509 21544 net.cpp:141] Setting up label_data_2_split
I0119 13:25:00.735517 21544 net.cpp:148] Top shape: 8 1 (8)
I0119 13:25:00.735532 21544 net.cpp:148] Top shape: 8 1 (8)
I0119 13:25:00.735538 21544 net.cpp:156] Memory required for data: 6422624
I0119 13:25:00.735543 21544 layer_factory.hpp:77] Creating layer conv1_1
I0119 13:25:00.735554 21544 net.cpp:91] Creating Layer conv1_1
I0119 13:25:00.735559 21544 net.cpp:425] conv1_1 <- rgb
I0119 13:25:00.735566 21544 net.cpp:399] conv1_1 -> conv1_1
I0119 13:25:00.735761 21544 net.cpp:141] Setting up conv1_1
I0119 13:25:00.735770 21544 net.cpp:148] Top shape: 8 64 224 224 (25690112)
I0119 13:25:00.735785 21544 net.cpp:156] Memory required for data: 109183072
I0119 13:25:00.735795 21544 layer_factory.hpp:77] Creating layer relu1_1
I0119 13:25:00.735801 21544 net.cpp:91] Creating Layer relu1_1
I0119 13:25:00.735806 21544 net.cpp:425] relu1_1 <- conv1_1
I0119 13:25:00.735812 21544 net.cpp:386] relu1_1 -> conv1_1 (in-place)
I0119 13:25:00.735818 21544 net.cpp:141] Setting up relu1_1
I0119 13:25:00.735824 21544 net.cpp:148] Top shape: 8 64 224 224 (25690112)
I0119 13:25:00.735828 21544 net.cpp:156] Memory required for data: 211943520
I0119 13:25:00.735833 21544 layer_factory.hpp:77] Creating layer conv1_2
I0119 13:25:00.735841 21544 net.cpp:91] Creating Layer conv1_2
I0119 13:25:00.735846 21544 net.cpp:425] conv1_2 <- conv1_1
I0119 13:25:00.735852 21544 net.cpp:399] conv1_2 -> conv1_2
I0119 13:25:00.736495 21544 net.cpp:141] Setting up conv1_2
I0119 13:25:00.736510 21544 net.cpp:148] Top shape: 8 64 224 224 (25690112)
I0119 13:25:00.736515 21544 net.cpp:156] Memory required for data: 314703968
I0119 13:25:00.736523 21544 layer_factory.hpp:77] Creating layer relu1_2
I0119 13:25:00.736531 21544 net.cpp:91] Creating Layer relu1_2
I0119 13:25:00.736536 21544 net.cpp:425] relu1_2 <- conv1_2
I0119 13:25:00.736541 21544 net.cpp:386] relu1_2 -> conv1_2 (in-place)
I0119 13:25:00.736548 21544 net.cpp:141] Setting up relu1_2
I0119 13:25:00.736554 21544 net.cpp:148] Top shape: 8 64 224 224 (25690112)
I0119 13:25:00.736558 21544 net.cpp:156] Memory required for data: 417464416
I0119 13:25:00.736563 21544 layer_factory.hpp:77] Creating layer rgb_pool1
I0119 13:25:00.736570 21544 net.cpp:91] Creating Layer rgb_pool1
I0119 13:25:00.736575 21544 net.cpp:425] rgb_pool1 <- conv1_2
I0119 13:25:00.736582 21544 net.cpp:399] rgb_pool1 -> rgb_pool1
I0119 13:25:00.736606 21544 net.cpp:141] Setting up rgb_pool1
I0119 13:25:00.736611 21544 net.cpp:148] Top shape: 8 64 112 112 (6422528)
I0119 13:25:00.736616 21544 net.cpp:156] Memory required for data: 443154528
I0119 13:25:00.736620 21544 layer_factory.hpp:77] Creating layer conv2_1
I0119 13:25:00.736629 21544 net.cpp:91] Creating Layer conv2_1
I0119 13:25:00.736634 21544 net.cpp:425] conv2_1 <- rgb_pool1
I0119 13:25:00.736639 21544 net.cpp:399] conv2_1 -> conv2_1
I0119 13:25:00.737367 21544 net.cpp:141] Setting up conv2_1
I0119 13:25:00.737380 21544 net.cpp:148] Top shape: 8 128 112 112 (12845056)
I0119 13:25:00.737385 21544 net.cpp:156] Memory required for data: 494534752
I0119 13:25:00.737392 21544 layer_factory.hpp:77] Creating layer relu2_1
I0119 13:25:00.737401 21544 net.cpp:91] Creating Layer relu2_1
I0119 13:25:00.737404 21544 net.cpp:425] relu2_1 <- conv2_1
I0119 13:25:00.737411 21544 net.cpp:386] relu2_1 -> conv2_1 (in-place)
I0119 13:25:00.737417 21544 net.cpp:141] Setting up relu2_1
I0119 13:25:00.737422 21544 net.cpp:148] Top shape: 8 128 112 112 (12845056)
I0119 13:25:00.737426 21544 net.cpp:156] Memory required for data: 545914976
I0119 13:25:00.737432 21544 layer_factory.hpp:77] Creating layer conv2_2
I0119 13:25:00.737439 21544 net.cpp:91] Creating Layer conv2_2
I0119 13:25:00.737443 21544 net.cpp:425] conv2_2 <- conv2_1
I0119 13:25:00.737449 21544 net.cpp:399] conv2_2 -> conv2_2
I0119 13:25:00.738188 21544 net.cpp:141] Setting up conv2_2
I0119 13:25:00.738196 21544 net.cpp:148] Top shape: 8 128 112 112 (12845056)
I0119 13:25:00.738201 21544 net.cpp:156] Memory required for data: 597295200
I0119 13:25:00.738207 21544 layer_factory.hpp:77] Creating layer relu2_2
I0119 13:25:00.738214 21544 net.cpp:91] Creating Layer relu2_2
I0119 13:25:00.738219 21544 net.cpp:425] relu2_2 <- conv2_2
I0119 13:25:00.738224 21544 net.cpp:386] relu2_2 -> conv2_2 (in-place)
I0119 13:25:00.738230 21544 net.cpp:141] Setting up relu2_2
I0119 13:25:00.738235 21544 net.cpp:148] Top shape: 8 128 112 112 (12845056)
I0119 13:25:00.738240 21544 net.cpp:156] Memory required for data: 648675424
I0119 13:25:00.738245 21544 layer_factory.hpp:77] Creating layer rgb_pool2
I0119 13:25:00.738251 21544 net.cpp:91] Creating Layer rgb_pool2
I0119 13:25:00.738255 21544 net.cpp:425] rgb_pool2 <- conv2_2
I0119 13:25:00.738261 21544 net.cpp:399] rgb_pool2 -> rgb_pool2
I0119 13:25:00.738286 21544 net.cpp:141] Setting up rgb_pool2
I0119 13:25:00.738291 21544 net.cpp:148] Top shape: 8 128 56 56 (3211264)
I0119 13:25:00.738296 21544 net.cpp:156] Memory required for data: 661520480
I0119 13:25:00.738301 21544 layer_factory.hpp:77] Creating layer conv3_1
I0119 13:25:00.738308 21544 net.cpp:91] Creating Layer conv3_1
I0119 13:25:00.738313 21544 net.cpp:425] conv3_1 <- rgb_pool2
I0119 13:25:00.738319 21544 net.cpp:399] conv3_1 -> conv3_1
I0119 13:25:00.739956 21544 net.cpp:141] Setting up conv3_1
I0119 13:25:00.739969 21544 net.cpp:148] Top shape: 8 256 56 56 (6422528)
I0119 13:25:00.739974 21544 net.cpp:156] Memory required for data: 687210592
I0119 13:25:00.739982 21544 layer_factory.hpp:77] Creating layer relu3_1
I0119 13:25:00.739989 21544 net.cpp:91] Creating Layer relu3_1
I0119 13:25:00.739995 21544 net.cpp:425] relu3_1 <- conv3_1
I0119 13:25:00.740000 21544 net.cpp:386] relu3_1 -> conv3_1 (in-place)
I0119 13:25:00.740006 21544 net.cpp:141] Setting up relu3_1
I0119 13:25:00.740011 21544 net.cpp:148] Top shape: 8 256 56 56 (6422528)
I0119 13:25:00.740016 21544 net.cpp:156] Memory required for data: 712900704
I0119 13:25:00.740020 21544 layer_factory.hpp:77] Creating layer conv3_2
I0119 13:25:00.740028 21544 net.cpp:91] Creating Layer conv3_2
I0119 13:25:00.740033 21544 net.cpp:425] conv3_2 <- conv3_1
I0119 13:25:00.740039 21544 net.cpp:399] conv3_2 -> conv3_2
I0119 13:25:00.743073 21544 net.cpp:141] Setting up conv3_2
I0119 13:25:00.743093 21544 net.cpp:148] Top shape: 8 256 56 56 (6422528)
I0119 13:25:00.743099 21544 net.cpp:156] Memory required for data: 738590816
I0119 13:25:00.743108 21544 layer_factory.hpp:77] Creating layer relu3_2
I0119 13:25:00.743114 21544 net.cpp:91] Creating Layer relu3_2
I0119 13:25:00.743119 21544 net.cpp:425] relu3_2 <- conv3_2
I0119 13:25:00.743124 21544 net.cpp:386] relu3_2 -> conv3_2 (in-place)
I0119 13:25:00.743134 21544 net.cpp:141] Setting up relu3_2
I0119 13:25:00.743139 21544 net.cpp:148] Top shape: 8 256 56 56 (6422528)
I0119 13:25:00.743144 21544 net.cpp:156] Memory required for data: 764280928
I0119 13:25:00.743149 21544 layer_factory.hpp:77] Creating layer conv3_3
I0119 13:25:00.743158 21544 net.cpp:91] Creating Layer conv3_3
I0119 13:25:00.743163 21544 net.cpp:425] conv3_3 <- conv3_2
I0119 13:25:00.743178 21544 net.cpp:399] conv3_3 -> conv3_3
I0119 13:25:00.746214 21544 net.cpp:141] Setting up conv3_3
I0119 13:25:00.746240 21544 net.cpp:148] Top shape: 8 256 56 56 (6422528)
I0119 13:25:00.746248 21544 net.cpp:156] Memory required for data: 789971040
I0119 13:25:00.746263 21544 layer_factory.hpp:77] Creating layer relu3_3
I0119 13:25:00.746270 21544 net.cpp:91] Creating Layer relu3_3
I0119 13:25:00.746276 21544 net.cpp:425] relu3_3 <- conv3_3
I0119 13:25:00.746282 21544 net.cpp:386] relu3_3 -> conv3_3 (in-place)
I0119 13:25:00.746289 21544 net.cpp:141] Setting up relu3_3
I0119 13:25:00.746295 21544 net.cpp:148] Top shape: 8 256 56 56 (6422528)
I0119 13:25:00.746299 21544 net.cpp:156] Memory required for data: 815661152
I0119 13:25:00.746304 21544 layer_factory.hpp:77] Creating layer rgb_pool3
I0119 13:25:00.746311 21544 net.cpp:91] Creating Layer rgb_pool3
I0119 13:25:00.746316 21544 net.cpp:425] rgb_pool3 <- conv3_3
I0119 13:25:00.746322 21544 net.cpp:399] rgb_pool3 -> rgb_pool3
I0119 13:25:00.746357 21544 net.cpp:141] Setting up rgb_pool3
I0119 13:25:00.746371 21544 net.cpp:148] Top shape: 8 256 28 28 (1605632)
I0119 13:25:00.746376 21544 net.cpp:156] Memory required for data: 822083680
I0119 13:25:00.746379 21544 layer_factory.hpp:77] Creating layer conv4_1
I0119 13:25:00.746387 21544 net.cpp:91] Creating Layer conv4_1
I0119 13:25:00.746392 21544 net.cpp:425] conv4_1 <- rgb_pool3
I0119 13:25:00.746398 21544 net.cpp:399] conv4_1 -> conv4_1
I0119 13:25:00.752261 21544 net.cpp:141] Setting up conv4_1
I0119 13:25:00.752296 21544 net.cpp:148] Top shape: 8 512 28 28 (3211264)
I0119 13:25:00.752300 21544 net.cpp:156] Memory required for data: 834928736
I0119 13:25:00.752310 21544 layer_factory.hpp:77] Creating layer relu4_1
I0119 13:25:00.752318 21544 net.cpp:91] Creating Layer relu4_1
I0119 13:25:00.752323 21544 net.cpp:425] relu4_1 <- conv4_1
I0119 13:25:00.752329 21544 net.cpp:386] relu4_1 -> conv4_1 (in-place)
I0119 13:25:00.752337 21544 net.cpp:141] Setting up relu4_1
I0119 13:25:00.752342 21544 net.cpp:148] Top shape: 8 512 28 28 (3211264)
I0119 13:25:00.752347 21544 net.cpp:156] Memory required for data: 847773792
I0119 13:25:00.752351 21544 layer_factory.hpp:77] Creating layer conv4_2
I0119 13:25:00.752360 21544 net.cpp:91] Creating Layer conv4_2
I0119 13:25:00.752364 21544 net.cpp:425] conv4_2 <- conv4_1
I0119 13:25:00.752370 21544 net.cpp:399] conv4_2 -> conv4_2
I0119 13:25:00.764523 21544 net.cpp:141] Setting up conv4_2
I0119 13:25:00.764559 21544 net.cpp:148] Top shape: 8 512 28 28 (3211264)
I0119 13:25:00.764564 21544 net.cpp:156] Memory required for data: 860618848
I0119 13:25:00.764577 21544 layer_factory.hpp:77] Creating layer relu4_2
I0119 13:25:00.764597 21544 net.cpp:91] Creating Layer relu4_2
I0119 13:25:00.764611 21544 net.cpp:425] relu4_2 <- conv4_2
I0119 13:25:00.764617 21544 net.cpp:386] relu4_2 -> conv4_2 (in-place)
I0119 13:25:00.764626 21544 net.cpp:141] Setting up relu4_2
I0119 13:25:00.764631 21544 net.cpp:148] Top shape: 8 512 28 28 (3211264)
I0119 13:25:00.764634 21544 net.cpp:156] Memory required for data: 873463904
I0119 13:25:00.764639 21544 layer_factory.hpp:77] Creating layer conv4_3
I0119 13:25:00.764647 21544 net.cpp:91] Creating Layer conv4_3
I0119 13:25:00.764652 21544 net.cpp:425] conv4_3 <- conv4_2
I0119 13:25:00.764659 21544 net.cpp:399] conv4_3 -> conv4_3
I0119 13:25:00.777434 21544 net.cpp:141] Setting up conv4_3
I0119 13:25:00.777472 21544 net.cpp:148] Top shape: 8 512 28 28 (3211264)
I0119 13:25:00.777482 21544 net.cpp:156] Memory required for data: 886308960
I0119 13:25:00.777495 21544 layer_factory.hpp:77] Creating layer relu4_3
I0119 13:25:00.777511 21544 net.cpp:91] Creating Layer relu4_3
I0119 13:25:00.777525 21544 net.cpp:425] relu4_3 <- conv4_3
I0119 13:25:00.777536 21544 net.cpp:386] relu4_3 -> conv4_3 (in-place)
I0119 13:25:00.777549 21544 net.cpp:141] Setting up relu4_3
I0119 13:25:00.777560 21544 net.cpp:148] Top shape: 8 512 28 28 (3211264)
I0119 13:25:00.777567 21544 net.cpp:156] Memory required for data: 899154016
I0119 13:25:00.777575 21544 layer_factory.hpp:77] Creating layer rgb_pool4
I0119 13:25:00.777585 21544 net.cpp:91] Creating Layer rgb_pool4
I0119 13:25:00.777591 21544 net.cpp:425] rgb_pool4 <- conv4_3
I0119 13:25:00.777601 21544 net.cpp:399] rgb_pool4 -> rgb_pool4
I0119 13:25:00.777640 21544 net.cpp:141] Setting up rgb_pool4
I0119 13:25:00.777652 21544 net.cpp:148] Top shape: 8 512 14 14 (802816)
I0119 13:25:00.777659 21544 net.cpp:156] Memory required for data: 902365280
I0119 13:25:00.777667 21544 layer_factory.hpp:77] Creating layer conv5_1
I0119 13:25:00.777680 21544 net.cpp:91] Creating Layer conv5_1
I0119 13:25:00.777688 21544 net.cpp:425] conv5_1 <- rgb_pool4
I0119 13:25:00.777698 21544 net.cpp:399] conv5_1 -> conv5_1
I0119 13:25:00.790514 21544 net.cpp:141] Setting up conv5_1
I0119 13:25:00.790552 21544 net.cpp:148] Top shape: 8 512 14 14 (802816)
I0119 13:25:00.790556 21544 net.cpp:156] Memory required for data: 905576544
I0119 13:25:00.790565 21544 layer_factory.hpp:77] Creating layer relu5_1
I0119 13:25:00.790575 21544 net.cpp:91] Creating Layer relu5_1
I0119 13:25:00.790581 21544 net.cpp:425] relu5_1 <- conv5_1
I0119 13:25:00.790587 21544 net.cpp:386] relu5_1 -> conv5_1 (in-place)
I0119 13:25:00.790596 21544 net.cpp:141] Setting up relu5_1
I0119 13:25:00.790601 21544 net.cpp:148] Top shape: 8 512 14 14 (802816)
I0119 13:25:00.790604 21544 net.cpp:156] Memory required for data: 908787808
I0119 13:25:00.790608 21544 layer_factory.hpp:77] Creating layer conv5_2
I0119 13:25:00.790629 21544 net.cpp:91] Creating Layer conv5_2
I0119 13:25:00.790633 21544 net.cpp:425] conv5_2 <- conv5_1
I0119 13:25:00.790649 21544 net.cpp:399] conv5_2 -> conv5_2
I0119 13:25:00.802850 21544 net.cpp:141] Setting up conv5_2
I0119 13:25:00.802887 21544 net.cpp:148] Top shape: 8 512 14 14 (802816)
I0119 13:25:00.802892 21544 net.cpp:156] Memory required for data: 911999072
I0119 13:25:00.802902 21544 layer_factory.hpp:77] Creating layer relu5_2
I0119 13:25:00.802922 21544 net.cpp:91] Creating Layer relu5_2
I0119 13:25:00.802928 21544 net.cpp:425] relu5_2 <- conv5_2
I0119 13:25:00.802934 21544 net.cpp:386] relu5_2 -> conv5_2 (in-place)
I0119 13:25:00.802942 21544 net.cpp:141] Setting up relu5_2
I0119 13:25:00.802947 21544 net.cpp:148] Top shape: 8 512 14 14 (802816)
I0119 13:25:00.802953 21544 net.cpp:156] Memory required for data: 915210336
I0119 13:25:00.802956 21544 layer_factory.hpp:77] Creating layer conv5_3
I0119 13:25:00.802964 21544 net.cpp:91] Creating Layer conv5_3
I0119 13:25:00.802969 21544 net.cpp:425] conv5_3 <- conv5_2
I0119 13:25:00.802975 21544 net.cpp:399] conv5_3 -> conv5_3
I0119 13:25:00.814940 21544 net.cpp:141] Setting up conv5_3
I0119 13:25:00.814987 21544 net.cpp:148] Top shape: 8 512 14 14 (802816)
I0119 13:25:00.814991 21544 net.cpp:156] Memory required for data: 918421600
I0119 13:25:00.815001 21544 layer_factory.hpp:77] Creating layer relu5_3
I0119 13:25:00.815013 21544 net.cpp:91] Creating Layer relu5_3
I0119 13:25:00.815018 21544 net.cpp:425] relu5_3 <- conv5_3
I0119 13:25:00.815026 21544 net.cpp:386] relu5_3 -> conv5_3 (in-place)
I0119 13:25:00.815034 21544 net.cpp:141] Setting up relu5_3
I0119 13:25:00.815039 21544 net.cpp:148] Top shape: 8 512 14 14 (802816)
I0119 13:25:00.815044 21544 net.cpp:156] Memory required for data: 921632864
I0119 13:25:00.815049 21544 layer_factory.hpp:77] Creating layer rgb_pool5
I0119 13:25:00.815058 21544 net.cpp:91] Creating Layer rgb_pool5
I0119 13:25:00.815062 21544 net.cpp:425] rgb_pool5 <- conv5_3
I0119 13:25:00.815078 21544 net.cpp:399] rgb_pool5 -> rgb_pool5
I0119 13:25:00.815115 21544 net.cpp:141] Setting up rgb_pool5
I0119 13:25:00.815124 21544 net.cpp:148] Top shape: 8 512 7 7 (200704)
I0119 13:25:00.815127 21544 net.cpp:156] Memory required for data: 922435680
I0119 13:25:00.815134 21544 layer_factory.hpp:77] Creating layer rgb_fc6
I0119 13:25:00.815141 21544 net.cpp:91] Creating Layer rgb_fc6
I0119 13:25:00.815146 21544 net.cpp:425] rgb_fc6 <- rgb_pool5
I0119 13:25:00.815152 21544 net.cpp:399] rgb_fc6 -> rgb_fc6
I0119 13:25:01.327836 21544 net.cpp:141] Setting up rgb_fc6
I0119 13:25:01.327877 21544 net.cpp:148] Top shape: 8 4096 (32768)
I0119 13:25:01.327883 21544 net.cpp:156] Memory required for data: 922566752
I0119 13:25:01.327891 21544 layer_factory.hpp:77] Creating layer rgb_relu6
I0119 13:25:01.327913 21544 net.cpp:91] Creating Layer rgb_relu6
I0119 13:25:01.327919 21544 net.cpp:425] rgb_relu6 <- rgb_fc6
I0119 13:25:01.327927 21544 net.cpp:386] rgb_relu6 -> rgb_fc6 (in-place)
I0119 13:25:01.327936 21544 net.cpp:141] Setting up rgb_relu6
I0119 13:25:01.327941 21544 net.cpp:148] Top shape: 8 4096 (32768)
I0119 13:25:01.327945 21544 net.cpp:156] Memory required for data: 922697824
I0119 13:25:01.327950 21544 layer_factory.hpp:77] Creating layer rgb_drop6
I0119 13:25:01.327956 21544 net.cpp:91] Creating Layer rgb_drop6
I0119 13:25:01.327961 21544 net.cpp:425] rgb_drop6 <- rgb_fc6
I0119 13:25:01.327968 21544 net.cpp:386] rgb_drop6 -> rgb_fc6 (in-place)
I0119 13:25:01.327988 21544 net.cpp:141] Setting up rgb_drop6
I0119 13:25:01.328003 21544 net.cpp:148] Top shape: 8 4096 (32768)
I0119 13:25:01.328008 21544 net.cpp:156] Memory required for data: 922828896
I0119 13:25:01.328022 21544 layer_factory.hpp:77] Creating layer rgb_fc7
I0119 13:25:01.328030 21544 net.cpp:91] Creating Layer rgb_fc7
I0119 13:25:01.328034 21544 net.cpp:425] rgb_fc7 <- rgb_fc6
I0119 13:25:01.328040 21544 net.cpp:399] rgb_fc7 -> rgb_fc7
I0119 13:25:01.410671 21544 net.cpp:141] Setting up rgb_fc7
I0119 13:25:01.410709 21544 net.cpp:148] Top shape: 8 4096 (32768)
I0119 13:25:01.410714 21544 net.cpp:156] Memory required for data: 922959968
I0119 13:25:01.410723 21544 layer_factory.hpp:77] Creating layer rgb_relu7
I0119 13:25:01.410744 21544 net.cpp:91] Creating Layer rgb_relu7
I0119 13:25:01.410750 21544 net.cpp:425] rgb_relu7 <- rgb_fc7
I0119 13:25:01.410758 21544 net.cpp:386] rgb_relu7 -> rgb_fc7 (in-place)
I0119 13:25:01.410766 21544 net.cpp:141] Setting up rgb_relu7
I0119 13:25:01.410771 21544 net.cpp:148] Top shape: 8 4096 (32768)
I0119 13:25:01.410776 21544 net.cpp:156] Memory required for data: 923091040
I0119 13:25:01.410781 21544 layer_factory.hpp:77] Creating layer rgb_drop7
I0119 13:25:01.410789 21544 net.cpp:91] Creating Layer rgb_drop7
I0119 13:25:01.410794 21544 net.cpp:425] rgb_drop7 <- rgb_fc7
I0119 13:25:01.410799 21544 net.cpp:386] rgb_drop7 -> rgb_fc7 (in-place)
I0119 13:25:01.410821 21544 net.cpp:141] Setting up rgb_drop7
I0119 13:25:01.410836 21544 net.cpp:148] Top shape: 8 4096 (32768)
I0119 13:25:01.410851 21544 net.cpp:156] Memory required for data: 923222112
I0119 13:25:01.410853 21544 layer_factory.hpp:77] Creating layer conv1
I0119 13:25:01.410871 21544 net.cpp:91] Creating Layer conv1
I0119 13:25:01.410887 21544 net.cpp:425] conv1 <- depth
I0119 13:25:01.410894 21544 net.cpp:399] conv1 -> conv1
I0119 13:25:01.411064 21544 net.cpp:141] Setting up conv1
I0119 13:25:01.411072 21544 net.cpp:148] Top shape: 8 128 112 112 (12845056)
I0119 13:25:01.411085 21544 net.cpp:156] Memory required for data: 974602336
I0119 13:25:01.411092 21544 layer_factory.hpp:77] Creating layer relu1
I0119 13:25:01.411099 21544 net.cpp:91] Creating Layer relu1
I0119 13:25:01.411103 21544 net.cpp:425] relu1 <- conv1
I0119 13:25:01.411109 21544 net.cpp:386] relu1 -> conv1 (in-place)
I0119 13:25:01.411115 21544 net.cpp:141] Setting up relu1
I0119 13:25:01.411120 21544 net.cpp:148] Top shape: 8 128 112 112 (12845056)
I0119 13:25:01.411124 21544 net.cpp:156] Memory required for data: 1025982560
I0119 13:25:01.411128 21544 layer_factory.hpp:77] Creating layer depth_pool1
I0119 13:25:01.411144 21544 net.cpp:91] Creating Layer depth_pool1
I0119 13:25:01.411147 21544 net.cpp:425] depth_pool1 <- conv1
I0119 13:25:01.411161 21544 net.cpp:399] depth_pool1 -> depth_pool1
I0119 13:25:01.411188 21544 net.cpp:141] Setting up depth_pool1
I0119 13:25:01.411195 21544 net.cpp:148] Top shape: 8 128 56 56 (3211264)
I0119 13:25:01.411200 21544 net.cpp:156] Memory required for data: 1038827616
I0119 13:25:01.411204 21544 layer_factory.hpp:77] Creating layer norm1
I0119 13:25:01.411211 21544 net.cpp:91] Creating Layer norm1
I0119 13:25:01.411216 21544 net.cpp:425] norm1 <- depth_pool1
I0119 13:25:01.411221 21544 net.cpp:399] norm1 -> norm1
I0119 13:25:01.411244 21544 net.cpp:141] Setting up norm1
I0119 13:25:01.411252 21544 net.cpp:148] Top shape: 8 128 56 56 (3211264)
I0119 13:25:01.411255 21544 net.cpp:156] Memory required for data: 1051672672
I0119 13:25:01.411259 21544 layer_factory.hpp:77] Creating layer conv2
I0119 13:25:01.411267 21544 net.cpp:91] Creating Layer conv2
I0119 13:25:01.411272 21544 net.cpp:425] conv2 <- norm1
I0119 13:25:01.411278 21544 net.cpp:399] conv2 -> conv2
I0119 13:25:01.415477 21544 net.cpp:141] Setting up conv2
I0119 13:25:01.415501 21544 net.cpp:148] Top shape: 8 256 56 56 (6422528)
I0119 13:25:01.415505 21544 net.cpp:156] Memory required for data: 1077362784
I0119 13:25:01.415529 21544 layer_factory.hpp:77] Creating layer relu2
I0119 13:25:01.415539 21544 net.cpp:91] Creating Layer relu2
I0119 13:25:01.415545 21544 net.cpp:425] relu2 <- conv2
I0119 13:25:01.415552 21544 net.cpp:386] relu2 -> conv2 (in-place)
I0119 13:25:01.415560 21544 net.cpp:141] Setting up relu2
I0119 13:25:01.415566 21544 net.cpp:148] Top shape: 8 256 56 56 (6422528)
I0119 13:25:01.415570 21544 net.cpp:156] Memory required for data: 1103052896
I0119 13:25:01.415575 21544 layer_factory.hpp:77] Creating layer depth_pool2
I0119 13:25:01.415581 21544 net.cpp:91] Creating Layer depth_pool2
I0119 13:25:01.415585 21544 net.cpp:425] depth_pool2 <- conv2
I0119 13:25:01.415592 21544 net.cpp:399] depth_pool2 -> depth_pool2
I0119 13:25:01.415619 21544 net.cpp:141] Setting up depth_pool2
I0119 13:25:01.415627 21544 net.cpp:148] Top shape: 8 256 28 28 (1605632)
I0119 13:25:01.415630 21544 net.cpp:156] Memory required for data: 1109475424
I0119 13:25:01.415635 21544 layer_factory.hpp:77] Creating layer norm2
I0119 13:25:01.415642 21544 net.cpp:91] Creating Layer norm2
I0119 13:25:01.415647 21544 net.cpp:425] norm2 <- depth_pool2
I0119 13:25:01.415652 21544 net.cpp:399] norm2 -> norm2
I0119 13:25:01.415675 21544 net.cpp:141] Setting up norm2
I0119 13:25:01.415681 21544 net.cpp:148] Top shape: 8 256 28 28 (1605632)
I0119 13:25:01.415686 21544 net.cpp:156] Memory required for data: 1115897952
I0119 13:25:01.415690 21544 layer_factory.hpp:77] Creating layer conv3
I0119 13:25:01.415699 21544 net.cpp:91] Creating Layer conv3
I0119 13:25:01.415704 21544 net.cpp:425] conv3 <- norm2
I0119 13:25:01.415710 21544 net.cpp:399] conv3 -> conv3
I0119 13:25:01.418043 21544 net.cpp:141] Setting up conv3
I0119 13:25:01.418076 21544 net.cpp:148] Top shape: 8 384 28 28 (2408448)
I0119 13:25:01.418079 21544 net.cpp:156] Memory required for data: 1125531744
I0119 13:25:01.418087 21544 layer_factory.hpp:77] Creating layer relu3
I0119 13:25:01.418097 21544 net.cpp:91] Creating Layer relu3
I0119 13:25:01.418102 21544 net.cpp:425] relu3 <- conv3
I0119 13:25:01.418107 21544 net.cpp:386] relu3 -> conv3 (in-place)
I0119 13:25:01.418114 21544 net.cpp:141] Setting up relu3
I0119 13:25:01.418119 21544 net.cpp:148] Top shape: 8 384 28 28 (2408448)
I0119 13:25:01.418123 21544 net.cpp:156] Memory required for data: 1135165536
I0119 13:25:01.418128 21544 layer_factory.hpp:77] Creating layer depth_pool3
I0119 13:25:01.418133 21544 net.cpp:91] Creating Layer depth_pool3
I0119 13:25:01.418138 21544 net.cpp:425] depth_pool3 <- conv3
I0119 13:25:01.418143 21544 net.cpp:399] depth_pool3 -> depth_pool3
I0119 13:25:01.418171 21544 net.cpp:141] Setting up depth_pool3
I0119 13:25:01.418189 21544 net.cpp:148] Top shape: 8 384 14 14 (602112)
I0119 13:25:01.418191 21544 net.cpp:156] Memory required for data: 1137573984
I0119 13:25:01.418205 21544 layer_factory.hpp:77] Creating layer conv4
I0119 13:25:01.418213 21544 net.cpp:91] Creating Layer conv4
I0119 13:25:01.418217 21544 net.cpp:425] conv4 <- depth_pool3
I0119 13:25:01.418225 21544 net.cpp:399] conv4 -> conv4
I0119 13:25:01.426942 21544 net.cpp:141] Setting up conv4
I0119 13:25:01.426980 21544 net.cpp:148] Top shape: 8 512 14 14 (802816)
I0119 13:25:01.426985 21544 net.cpp:156] Memory required for data: 1140785248
I0119 13:25:01.426993 21544 layer_factory.hpp:77] Creating layer relu4
I0119 13:25:01.427013 21544 net.cpp:91] Creating Layer relu4
I0119 13:25:01.427019 21544 net.cpp:425] relu4 <- conv4
I0119 13:25:01.427027 21544 net.cpp:386] relu4 -> conv4 (in-place)
I0119 13:25:01.427037 21544 net.cpp:141] Setting up relu4
I0119 13:25:01.427042 21544 net.cpp:148] Top shape: 8 512 14 14 (802816)
I0119 13:25:01.427047 21544 net.cpp:156] Memory required for data: 1143996512
I0119 13:25:01.427050 21544 layer_factory.hpp:77] Creating layer conv5
I0119 13:25:01.427059 21544 net.cpp:91] Creating Layer conv5
I0119 13:25:01.427064 21544 net.cpp:425] conv5 <- conv4
I0119 13:25:01.427072 21544 net.cpp:399] conv5 -> conv5
I0119 13:25:01.440502 21544 net.cpp:141] Setting up conv5
I0119 13:25:01.440542 21544 net.cpp:148] Top shape: 8 512 14 14 (802816)
I0119 13:25:01.440547 21544 net.cpp:156] Memory required for data: 1147207776
I0119 13:25:01.440557 21544 layer_factory.hpp:77] Creating layer relu5
I0119 13:25:01.440579 21544 net.cpp:91] Creating Layer relu5
I0119 13:25:01.440585 21544 net.cpp:425] relu5 <- conv5
I0119 13:25:01.440593 21544 net.cpp:386] relu5 -> conv5 (in-place)
I0119 13:25:01.440603 21544 net.cpp:141] Setting up relu5
I0119 13:25:01.440608 21544 net.cpp:148] Top shape: 8 512 14 14 (802816)
I0119 13:25:01.440613 21544 net.cpp:156] Memory required for data: 1150419040
I0119 13:25:01.440619 21544 layer_factory.hpp:77] Creating layer depth_pool5
I0119 13:25:01.440625 21544 net.cpp:91] Creating Layer depth_pool5
I0119 13:25:01.440630 21544 net.cpp:425] depth_pool5 <- conv5
I0119 13:25:01.440645 21544 net.cpp:399] depth_pool5 -> depth_pool5
I0119 13:25:01.440699 21544 net.cpp:141] Setting up depth_pool5
I0119 13:25:01.440706 21544 net.cpp:148] Top shape: 8 512 7 7 (200704)
I0119 13:25:01.440721 21544 net.cpp:156] Memory required for data: 1151221856
I0119 13:25:01.440724 21544 layer_factory.hpp:77] Creating layer depth_fc6
I0119 13:25:01.440734 21544 net.cpp:91] Creating Layer depth_fc6
I0119 13:25:01.440739 21544 net.cpp:425] depth_fc6 <- depth_pool5
I0119 13:25:01.440744 21544 net.cpp:399] depth_fc6 -> depth_fc6
I0119 13:25:01.952726 21544 net.cpp:141] Setting up depth_fc6
I0119 13:25:01.952775 21544 net.cpp:148] Top shape: 8 4096 (32768)
I0119 13:25:01.952782 21544 net.cpp:156] Memory required for data: 1151352928
I0119 13:25:01.952806 21544 layer_factory.hpp:77] Creating layer depth_relu6
I0119 13:25:01.952827 21544 net.cpp:91] Creating Layer depth_relu6
I0119 13:25:01.952836 21544 net.cpp:425] depth_relu6 <- depth_fc6
I0119 13:25:01.952853 21544 net.cpp:386] depth_relu6 -> depth_fc6 (in-place)
I0119 13:25:01.952863 21544 net.cpp:141] Setting up depth_relu6
I0119 13:25:01.952870 21544 net.cpp:148] Top shape: 8 4096 (32768)
I0119 13:25:01.952877 21544 net.cpp:156] Memory required for data: 1151484000
I0119 13:25:01.952880 21544 layer_factory.hpp:77] Creating layer depth_drop6
I0119 13:25:01.952891 21544 net.cpp:91] Creating Layer depth_drop6
I0119 13:25:01.952898 21544 net.cpp:425] depth_drop6 <- depth_fc6
I0119 13:25:01.952903 21544 net.cpp:386] depth_drop6 -> depth_fc6 (in-place)
I0119 13:25:01.952945 21544 net.cpp:141] Setting up depth_drop6
I0119 13:25:01.952955 21544 net.cpp:148] Top shape: 8 4096 (32768)
I0119 13:25:01.952958 21544 net.cpp:156] Memory required for data: 1151615072
I0119 13:25:01.952962 21544 layer_factory.hpp:77] Creating layer depth_fc7
I0119 13:25:01.952980 21544 net.cpp:91] Creating Layer depth_fc7
I0119 13:25:01.952985 21544 net.cpp:425] depth_fc7 <- depth_fc6
I0119 13:25:01.952991 21544 net.cpp:399] depth_fc7 -> depth_fc7
I0119 13:25:02.039939 21544 net.cpp:141] Setting up depth_fc7
I0119 13:25:02.039981 21544 net.cpp:148] Top shape: 8 4096 (32768)
I0119 13:25:02.039985 21544 net.cpp:156] Memory required for data: 1151746144
I0119 13:25:02.039995 21544 layer_factory.hpp:77] Creating layer depth_relu7
I0119 13:25:02.040009 21544 net.cpp:91] Creating Layer depth_relu7
I0119 13:25:02.040014 21544 net.cpp:425] depth_relu7 <- depth_fc7
I0119 13:25:02.040022 21544 net.cpp:386] depth_relu7 -> depth_fc7 (in-place)
I0119 13:25:02.040030 21544 net.cpp:141] Setting up depth_relu7
I0119 13:25:02.040036 21544 net.cpp:148] Top shape: 8 4096 (32768)
I0119 13:25:02.040041 21544 net.cpp:156] Memory required for data: 1151877216
I0119 13:25:02.040045 21544 layer_factory.hpp:77] Creating layer depth_drop7
I0119 13:25:02.040053 21544 net.cpp:91] Creating Layer depth_drop7
I0119 13:25:02.040057 21544 net.cpp:425] depth_drop7 <- depth_fc7
I0119 13:25:02.040065 21544 net.cpp:386] depth_drop7 -> depth_fc7 (in-place)
I0119 13:25:02.040086 21544 net.cpp:141] Setting up depth_drop7
I0119 13:25:02.040102 21544 net.cpp:148] Top shape: 8 4096 (32768)
I0119 13:25:02.040105 21544 net.cpp:156] Memory required for data: 1152008288
I0119 13:25:02.040108 21544 layer_factory.hpp:77] Creating layer concat
I0119 13:25:02.040125 21544 net.cpp:91] Creating Layer concat
I0119 13:25:02.040129 21544 net.cpp:425] concat <- rgb_fc7
I0119 13:25:02.040135 21544 net.cpp:425] concat <- depth_fc7
I0119 13:25:02.040141 21544 net.cpp:399] concat -> concat
I0119 13:25:02.040159 21544 net.cpp:141] Setting up concat
I0119 13:25:02.040166 21544 net.cpp:148] Top shape: 8 8192 (65536)
I0119 13:25:02.040170 21544 net.cpp:156] Memory required for data: 1152270432
I0119 13:25:02.040174 21544 layer_factory.hpp:77] Creating layer rgbd_fc8
I0119 13:25:02.040182 21544 net.cpp:91] Creating Layer rgbd_fc8
I0119 13:25:02.040187 21544 net.cpp:425] rgbd_fc8 <- concat
I0119 13:25:02.040194 21544 net.cpp:399] rgbd_fc8 -> rgbd_fc8
I0119 13:25:02.040506 21544 net.cpp:141] Setting up rgbd_fc8
I0119 13:25:02.040514 21544 net.cpp:148] Top shape: 8 6 (48)
I0119 13:25:02.040518 21544 net.cpp:156] Memory required for data: 1152270624
I0119 13:25:02.040525 21544 layer_factory.hpp:77] Creating layer rgbd_fc8_rgbd_fc8_0_split
I0119 13:25:02.040532 21544 net.cpp:91] Creating Layer rgbd_fc8_rgbd_fc8_0_split
I0119 13:25:02.040537 21544 net.cpp:425] rgbd_fc8_rgbd_fc8_0_split <- rgbd_fc8
I0119 13:25:02.040542 21544 net.cpp:399] rgbd_fc8_rgbd_fc8_0_split -> rgbd_fc8_rgbd_fc8_0_split_0
I0119 13:25:02.040549 21544 net.cpp:399] rgbd_fc8_rgbd_fc8_0_split -> rgbd_fc8_rgbd_fc8_0_split_1
I0119 13:25:02.040572 21544 net.cpp:141] Setting up rgbd_fc8_rgbd_fc8_0_split
I0119 13:25:02.040580 21544 net.cpp:148] Top shape: 8 6 (48)
I0119 13:25:02.040585 21544 net.cpp:148] Top shape: 8 6 (48)
I0119 13:25:02.040588 21544 net.cpp:156] Memory required for data: 1152271008
I0119 13:25:02.040593 21544 layer_factory.hpp:77] Creating layer accuracy
I0119 13:25:02.040606 21544 net.cpp:91] Creating Layer accuracy
I0119 13:25:02.040611 21544 net.cpp:425] accuracy <- rgbd_fc8_rgbd_fc8_0_split_0
I0119 13:25:02.040616 21544 net.cpp:425] accuracy <- label_data_2_split_0
I0119 13:25:02.040621 21544 net.cpp:399] accuracy -> accuracy
…
