…
I0131 15:32:13.835806  1964 net.cpp:49] Initializing net from parameters: 
state {
  phase: TRAIN
}
layer {
  name: "data"
  type: "Python"
  top: "rgb"
  top: "depth"
  top: "label"
  python_param {
    module: "data_layers.washington_data_layer"
    layer: "WashingtonDataLayer"
    param_str: "{\'img_size\': (224, 224), \'split\': \'train\', \'dataset_dir\': \'/home/kevin/dataset/washington_rgbd_dataset\', \'randomize\': True, \'mean\': (104.00698793, 116.66876762, 122.67891434), \'seed\': 1337, \'batch_size\': 64, \'crop_size\': (224, 224, 224, 224)}"
  }
}
layer {
  name: "conv1_1"
  type: "Convolution"
  bottom: "rgb"
  top: "conv1_1"
  param {
    name: "conv1_1_w"
    lr_mult: 0
    decay_mult: 1
  }
  param {
    name: "conv1_1_b"
    lr_mult: 0
    decay_mult: 0
  }
  convolution_param {
    num_output: 64
    pad: 1
    kernel_size: 3
    group: 1
    stride: 1
    weight_filler {
      type: "xavier"
    }
  }
}
layer {
  name: "relu1_1"
  type: "ReLU"
  bottom: "conv1_1"
  top: "conv1_1"
}
layer {
  name: "conv1_2"
  type: "Convolution"
  bottom: "conv1_1"
  top: "conv1_2"
  param {
    name: "conv1_2_w"
    lr_mult: 0
    decay_mult: 1
  }
  param {
    name: "conv1_2_b"
    lr_mult: 0
    decay_mult: 0
  }
  convolution_param {
    num_output: 64
    pad: 1
    kernel_size: 3
    group: 1
    stride: 1
    weight_filler {
      type: "xavier"
    }
  }
}
layer {
  name: "relu1_2"
  type: "ReLU"
  bottom: "conv1_2"
  top: "conv1_2"
}
layer {
  name: "rgb_pool1"
  type: "Pooling"
  bottom: "conv1_2"
  top: "rgb_pool1"
  pooling_param {
    pool: MAX
    kernel_size: 2
    stride: 2
  }
}
layer {
  name: "conv2_1"
  type: "Convolution"
  bottom: "rgb_pool1"
  top: "conv2_1"
  param {
    name: "conv2_1_w"
    lr_mult: 0
    decay_mult: 1
  }
  param {
    name: "conv2_1_b"
    lr_mult: 0
    decay_mult: 0
  }
  convolution_param {
    num_output: 128
    pad: 1
    kernel_size: 3
    group: 1
    stride: 1
    weight_filler {
      type: "xavier"
    }
  }
}
layer {
  name: "relu2_1"
  type: "ReLU"
  bottom: "conv2_1"
  top: "conv2_1"
}
layer {
  name: "conv2_2"
  type: "Convolution"
  bottom: "conv2_1"
  top: "conv2_2"
  param {
    name: "conv2_2_w"
    lr_mult: 0
    decay_mult: 1
  }
  param {
    name: "conv2_2_b"
    lr_mult: 0
    decay_mult: 0
  }
  convolution_param {
    num_output: 128
    pad: 1
    kernel_size: 3
    group: 1
    stride: 1
    weight_filler {
      type: "xavier"
    }
  }
}
layer {
  name: "relu2_2"
  type: "ReLU"
  bottom: "conv2_2"
  top: "conv2_2"
}
layer {
  name: "rgb_pool2"
  type: "Pooling"
  bottom: "conv2_2"
  top: "rgb_pool2"
  pooling_param {
    pool: MAX
    kernel_size: 2
    stride: 2
  }
}
layer {
  name: "conv3_1"
  type: "Convolution"
  bottom: "rgb_pool2"
  top: "conv3_1"
  param {
    name: "conv3_1_w"
    lr_mult: 0
    decay_mult: 1
  }
  param {
    name: "conv3_1_b"
    lr_mult: 0
    decay_mult: 0
  }
  convolution_param {
    num_output: 256
    pad: 1
    kernel_size: 3
    group: 1
    stride: 1
    weight_filler {
      type: "xavier"
    }
  }
}
layer {
  name: "relu3_1"
  type: "ReLU"
  bottom: "conv3_1"
  top: "conv3_1"
}
layer {
  name: "conv3_2"
  type: "Convolution"
  bottom: "conv3_1"
  top: "conv3_2"
  param {
    name: "conv3_2_w"
    lr_mult: 0
    decay_mult: 1
  }
  param {
    name: "conv3_2_b"
    lr_mult: 0
    decay_mult: 0
  }
  convolution_param {
    num_output: 256
    pad: 1
    kernel_size: 3
    group: 1
    stride: 1
    weight_filler {
      type: "xavier"
    }
  }
}
layer {
  name: "relu3_2"
  type: "ReLU"
  bottom: "conv3_2"
  top: "conv3_2"
}
layer {
  name: "conv3_3"
  type: "Convolution"
  bottom: "conv3_2"
  top: "conv3_3"
  param {
    name: "conv3_3_w"
    lr_mult: 0
    decay_mult: 1
  }
  param {
    name: "conv3_3_b"
    lr_mult: 0
    decay_mult: 0
  }
  convolution_param {
    num_output: 256
    pad: 1
    kernel_size: 3
    group: 1
    stride: 1
    weight_filler {
      type: "xavier"
    }
  }
}
layer {
  name: "relu3_3"
  type: "ReLU"
  bottom: "conv3_3"
  top: "conv3_3"
}
layer {
  name: "rgb_pool3"
  type: "Pooling"
  bottom: "conv3_3"
  top: "rgb_pool3"
  pooling_param {
    pool: MAX
    kernel_size: 2
    stride: 2
  }
}
layer {
  name: "conv4_1"
  type: "Convolution"
  bottom: "rgb_pool3"
  top: "conv4_1"
  param {
    name: "conv4_1_w"
    lr_mult: 0
    decay_mult: 1
  }
  param {
    name: "conv4_1_b"
    lr_mult: 0
    decay_mult: 0
  }
  convolution_param {
    num_output: 512
    pad: 1
    kernel_size: 3
    group: 1
    stride: 1
    weight_filler {
      type: "xavier"
    }
  }
}
layer {
  name: "relu4_1"
  type: "ReLU"
  bottom: "conv4_1"
  top: "conv4_1"
}
layer {
  name: "conv4_2"
  type: "Convolution"
  bottom: "conv4_1"
  top: "conv4_2"
  param {
    name: "conv4_2_w"
    lr_mult: 0
    decay_mult: 1
  }
  param {
    name: "conv4_2_b"
    lr_mult: 0
    decay_mult: 0
  }
  convolution_param {
    num_output: 512
    pad: 1
    kernel_size: 3
    group: 1
    stride: 1
    weight_filler {
      type: "xavier"
    }
  }
}
layer {
  name: "relu4_2"
  type: "ReLU"
  bottom: "conv4_2"
  top: "conv4_2"
}
layer {
  name: "conv4_3"
  type: "Convolution"
  bottom: "conv4_2"
  top: "conv4_3"
  param {
    name: "conv4_3_w"
    lr_mult: 0
    decay_mult: 1
  }
  param {
    name: "conv4_3_b"
    lr_mult: 0
    decay_mult: 0
  }
  convolution_param {
    num_output: 512
    pad: 1
    kernel_size: 3
    group: 1
    stride: 1
    weight_filler {
      type: "xavier"
    }
  }
}
layer {
  name: "relu4_3"
  type: "ReLU"
  bottom: "conv4_3"
  top: "conv4_3"
}
layer {
  name: "rgb_pool4"
  type: "Pooling"
  bottom: "conv4_3"
  top: "rgb_pool4"
  pooling_param {
    pool: MAX
    kernel_size: 2
    stride: 2
  }
}
layer {
  name: "conv5_1"
  type: "Convolution"
  bottom: "rgb_pool4"
  top: "conv5_1"
  param {
    name: "conv5_1_w"
    lr_mult: 0
    decay_mult: 1
  }
  param {
    name: "conv5_1_b"
    lr_mult: 0
    decay_mult: 0
  }
  convolution_param {
    num_output: 512
    pad: 1
    kernel_size: 3
    group: 1
    stride: 1
    weight_filler {
      type: "xavier"
    }
  }
}
layer {
  name: "relu5_1"
  type: "ReLU"
  bottom: "conv5_1"
  top: "conv5_1"
}
layer {
  name: "conv5_2"
  type: "Convolution"
  bottom: "conv5_1"
  top: "conv5_2"
  param {
    name: "conv5_2_w"
    lr_mult: 0
    decay_mult: 1
  }
  param {
    name: "conv5_2_b"
    lr_mult: 0
    decay_mult: 0
  }
  convolution_param {
    num_output: 512
    pad: 1
    kernel_size: 3
    group: 1
    stride: 1
    weight_filler {
      type: "xavier"
    }
  }
}
layer {
  name: "relu5_2"
  type: "ReLU"
  bottom: "conv5_2"
  top: "conv5_2"
}
layer {
  name: "conv5_3"
  type: "Convolution"
  bottom: "conv5_2"
  top: "conv5_3"
  param {
    name: "conv5_3_w"
    lr_mult: 0
    decay_mult: 1
  }
  param {
    name: "conv5_3_b"
    lr_mult: 0
    decay_mult: 0
  }
  convolution_param {
    num_output: 512
    pad: 1
    kernel_size: 3
    group: 1
    stride: 1
    weight_filler {
      type: "xavier"
    }
  }
}
layer {
  name: "relu5_3"
  type: "ReLU"
  bottom: "conv5_3"
  top: "conv5_3"
}
layer {
  name: "rgb_pool5"
  type: "Pooling"
  bottom: "conv5_3"
  top: "rgb_pool5"
  pooling_param {
    pool: MAX
    kernel_size: 2
    stride: 2
  }
}
layer {
  name: "rgb_fc6"
  type: "InnerProduct"
  bottom: "rgb_pool5"
  top: "rgb_fc6"
  param {
    lr_mult: 0
    decay_mult: 1
  }
  param {
    lr_mult: 0
    decay_mult: 0
  }
  inner_product_param {
    num_output: 4096
    weight_filler {
      type: "xavier"
    }
  }
}
layer {
  name: "rgb_relu6"
  type: "ReLU"
  bottom: "rgb_fc6"
  top: "rgb_fc6"
}
layer {
  name: "rgb_drop6"
  type: "Dropout"
  bottom: "rgb_fc6"
  top: "rgb_fc6"
  dropout_param {
    dropout_ratio: 0.5
  }
}
layer {
  name: "rgb_fc7"
  type: "InnerProduct"
  bottom: "rgb_fc6"
  top: "rgb_fc7"
  param {
    lr_mult: 0
    decay_mult: 1
  }
  param {
    lr_mult: 0
    decay_mult: 0
  }
  inner_product_param {
    num_output: 4096
    weight_filler {
      type: "xavier"
    }
  }
}
layer {
  name: "rgb_relu7"
  type: "ReLU"
  bottom: "rgb_fc7"
  top: "rgb_fc7"
}
layer {
  name: "rgb_drop7"
  type: "Dropout"
  bottom: "rgb_fc7"
  top: "rgb_fc7"
  dropout_param {
    dropout_ratio: 0.5
  }
}
layer {
  name: "rgb_fc8"
  type: "InnerProduct"
  bottom: "rgb_fc7"
  top: "rgb_fc8"
  param {
    lr_mult: 0
    decay_mult: 1
  }
  param {
    lr_mult: 0
    decay_mult: 0
  }
  inner_product_param {
    num_output: 51
    weight_filler {
      type: "xavier"
    }
  }
}
layer {
  name: "conv1"
  type: "Convolution"
  bottom: "depth"
  top: "conv1"
  param {
    name: "conv1_w"
    lr_mult: 1
    decay_mult: 1
  }
  param {
    name: "conv1_b"
    lr_mult: 2
    decay_mult: 0
  }
  convolution_param {
    num_output: 128
    pad: 2
    kernel_size: 5
    group: 1
    stride: 2
    weight_filler {
      type: "xavier"
    }
  }
}
layer {
  name: "relu1"
  type: "ReLU"
  bottom: "conv1"
  top: "conv1"
}
layer {
  name: "depth_pool1"
  type: "Pooling"
  bottom: "conv1"
  top: "depth_pool1"
  pooling_param {
    pool: MAX
    kernel_size: 3
    stride: 2
  }
}
layer {
  name: "norm1"
  type: "LRN"
  bottom: "depth_pool1"
  top: "norm1"
  lrn_param {
    local_size: 5
    alpha: 0.0005
    beta: 0.75
    k: 2
  }
}
layer {
  name: "conv2"
  type: "Convolution"
  bottom: "norm1"
  top: "conv2"
  param {
    name: "conv2_w"
    lr_mult: 1
    decay_mult: 1
  }
  param {
    name: "conv2_b"
    lr_mult: 2
    decay_mult: 0
  }
  convolution_param {
    num_output: 256
    pad: 2
    kernel_size: 5
    group: 1
    stride: 1
    weight_filler {
      type: "xavier"
    }
  }
}
layer {
  name: "relu2"
  type: "ReLU"
  bottom: "conv2"
  top: "conv2"
}
layer {
  name: "depth_pool2"
  type: "Pooling"
  bottom: "conv2"
  top: "depth_pool2"
  pooling_param {
    pool: MAX
    kernel_size: 3
    stride: 2
  }
}
layer {
  name: "norm2"
  type: "LRN"
  bottom: "depth_pool2"
  top: "norm2"
  lrn_param {
    local_size: 5
    alpha: 0.0005
    beta: 0.75
    k: 2
  }
}
layer {
  name: "conv3"
  type: "Convolution"
  bottom: "norm2"
  top: "conv3"
  param {
    name: "conv3_w"
    lr_mult: 1
    decay_mult: 1
  }
  param {
    name: "conv3_b"
    lr_mult: 2
    decay_mult: 0
  }
  convolution_param {
    num_output: 384
    pad: 1
    kernel_size: 3
    group: 2
    stride: 1
    weight_filler {
      type: "xavier"
    }
  }
}
layer {
  name: "relu3"
  type: "ReLU"
  bottom: "conv3"
  top: "conv3"
}
layer {
  name: "depth_pool3"
  type: "Pooling"
  bottom: "conv3"
  top: "depth_pool3"
  pooling_param {
    pool: MAX
    kernel_size: 3
    stride: 2
  }
}
layer {
  name: "conv4"
  type: "Convolution"
  bottom: "depth_pool3"
  top: "conv4"
  param {
    name: "conv4_w"
    lr_mult: 1
    decay_mult: 1
  }
  param {
    name: "conv4_b"
    lr_mult: 2
    decay_mult: 0
  }
  convolution_param {
    num_output: 512
    pad: 1
    kernel_size: 3
    group: 1
    stride: 1
    weight_filler {
      type: "xavier"
    }
  }
}
layer {
  name: "relu4"
  type: "ReLU"
  bottom: "conv4"
  top: "conv4"
}
layer {
  name: "conv5"
  type: "Convolution"
  bottom: "conv4"
  top: "conv5"
  param {
    name: "conv5_w"
    lr_mult: 1
    decay_mult: 1
  }
  param {
    name: "conv5_b"
    lr_mult: 2
    decay_mult: 0
  }
  convolution_param {
    num_output: 512
    pad: 1
    kernel_size: 3
    group: 1
    stride: 1
    weight_filler {
      type: "xavier"
    }
  }
}
layer {
  name: "relu5"
  type: "ReLU"
  bottom: "conv5"
  top: "conv5"
}
layer {
  name: "depth_pool5"
  type: "Pooling"
  bottom: "conv5"
  top: "depth_pool5"
  pooling_param {
    pool: MAX
    kernel_size: 3
    stride: 2
  }
}
layer {
  name: "depth_fc6"
  type: "InnerProduct"
  bottom: "depth_pool5"
  top: "depth_fc6"
  param {
    lr_mult: 1
    decay_mult: 1
  }
  param {
    lr_mult: 2
    decay_mult: 0
  }
  inner_product_param {
    num_output: 4096
    weight_filler {
      type: "xavier"
    }
  }
}
layer {
  name: "depth_relu6"
  type: "ReLU"
  bottom: "depth_fc6"
  top: "depth_fc6"
}
layer {
  name: "depth_drop6"
  type: "Dropout"
  bottom: "depth_fc6"
  top: "depth_fc6"
  dropout_param {
    dropout_ratio: 0.5
  }
}
layer {
  name: "depth_fc7"
  type: "InnerProduct"
  bottom: "depth_fc6"
  top: "depth_fc7"
  param {
    lr_mult: 1
    decay_mult: 1
  }
  param {
    lr_mult: 2
    decay_mult: 0
  }
  inner_product_param {
    num_output: 4096
    weight_filler {
      type: "xavier"
    }
  }
}
layer {
  name: "depth_relu7"
  type: "ReLU"
  bottom: "depth_fc7"
  top: "depth_fc7"
}
layer {
  name: "depth_drop7"
  type: "Dropout"
  bottom: "depth_fc7"
  top: "depth_fc7"
  dropout_param {
    dropout_ratio: 0.5
  }
}
layer {
  name: "depth_fc8"
  type: "InnerProduct"
  bottom: "depth_fc7"
  top: "depth_fc8"
  param {
    lr_mult: 1
    decay_mult: 1
  }
  param {
    lr_mult: 2
    decay_mult: 0
  }
  inner_product_param {
    num_output: 51
    weight_filler {
      type: "xavier"
    }
  }
}
layer {
  name: "rgb_accuracy"
  type: "Accuracy"
  bottom: "rgb_fc8"
  bottom: "label"
  top: "rgb_accuracy"
}
layer {
  name: "rgb_loss"
  type: "SoftmaxWithLoss"
  bottom: "rgb_fc8"
  bottom: "label"
  top: "rgb_loss"
}
layer {
  name: "depth_accuracy"
  type: "Accuracy"
  bottom: "depth_fc8"
  bottom: "label"
  top: "depth_accuracy"
}
layer {
  name: "depth_loss"
  type: "SoftmaxWithLoss"
  bottom: "depth_fc8"
  bottom: "label"
  top: "depth_loss"
}
I0131 15:32:13.839015  1964 layer_factory.hpp:77] Creating layer data
I0131 15:32:14.350272  1964 net.cpp:91] Creating Layer data
I0131 15:32:14.350291  1964 net.cpp:399] data -> rgb
I0131 15:32:14.350304  1964 net.cpp:399] data -> depth
I0131 15:32:14.350308  1964 net.cpp:399] data -> label
{'img_size': (224, 224), 'split': 'train', 'dataset_dir': '/home/kevin/dataset/washington_rgbd_dataset', 'crop_size': (224, 224, 224, 224), 'randomize': True, 'seed': 1337, 'batch_size': 64, 'mean': (104.00698793, 116.66876762, 122.67891434)}
I0131 15:32:14.860587  1964 net.cpp:141] Setting up data
I0131 15:32:14.860620  1964 net.cpp:148] Top shape: 64 3 224 224 (9633792)
I0131 15:32:14.860632  1964 net.cpp:148] Top shape: 64 1 224 224 (3211264)
I0131 15:32:14.860640  1964 net.cpp:148] Top shape: 64 1 (64)
I0131 15:32:14.860646  1964 net.cpp:156] Memory required for data: 51380480
I0131 15:32:14.860656  1964 layer_factory.hpp:77] Creating layer label_data_2_split
I0131 15:32:14.860677  1964 net.cpp:91] Creating Layer label_data_2_split
I0131 15:32:14.860687  1964 net.cpp:425] label_data_2_split <- label
I0131 15:32:14.860698  1964 net.cpp:399] label_data_2_split -> label_data_2_split_0
I0131 15:32:14.860710  1964 net.cpp:399] label_data_2_split -> label_data_2_split_1
I0131 15:32:14.860721  1964 net.cpp:399] label_data_2_split -> label_data_2_split_2
I0131 15:32:14.860733  1964 net.cpp:399] label_data_2_split -> label_data_2_split_3
I0131 15:32:14.860793  1964 net.cpp:141] Setting up label_data_2_split
I0131 15:32:14.860805  1964 net.cpp:148] Top shape: 64 1 (64)
I0131 15:32:14.860816  1964 net.cpp:148] Top shape: 64 1 (64)
I0131 15:32:14.860823  1964 net.cpp:148] Top shape: 64 1 (64)
I0131 15:32:14.860831  1964 net.cpp:148] Top shape: 64 1 (64)
I0131 15:32:14.860836  1964 net.cpp:156] Memory required for data: 51381504
I0131 15:32:14.860844  1964 layer_factory.hpp:77] Creating layer conv1_1
I0131 15:32:14.860867  1964 net.cpp:91] Creating Layer conv1_1
I0131 15:32:14.860875  1964 net.cpp:425] conv1_1 <- rgb
I0131 15:32:14.860887  1964 net.cpp:399] conv1_1 -> conv1_1
I0131 15:32:14.861872  1964 net.cpp:141] Setting up conv1_1
I0131 15:32:14.861888  1964 net.cpp:148] Top shape: 64 64 224 224 (205520896)
I0131 15:32:14.861896  1964 net.cpp:156] Memory required for data: 873465088
I0131 15:32:14.861910  1964 layer_factory.hpp:77] Creating layer relu1_1
I0131 15:32:14.861923  1964 net.cpp:91] Creating Layer relu1_1
I0131 15:32:14.861932  1964 net.cpp:425] relu1_1 <- conv1_1
I0131 15:32:14.861941  1964 net.cpp:386] relu1_1 -> conv1_1 (in-place)
I0131 15:32:14.861953  1964 net.cpp:141] Setting up relu1_1
I0131 15:32:14.861963  1964 net.cpp:148] Top shape: 64 64 224 224 (205520896)
I0131 15:32:14.861970  1964 net.cpp:156] Memory required for data: 1695548672
I0131 15:32:14.861977  1964 layer_factory.hpp:77] Creating layer conv1_2
I0131 15:32:14.861992  1964 net.cpp:91] Creating Layer conv1_2
I0131 15:32:14.862000  1964 net.cpp:425] conv1_2 <- conv1_1
I0131 15:32:14.862011  1964 net.cpp:399] conv1_2 -> conv1_2
I0131 15:32:14.862335  1964 net.cpp:141] Setting up conv1_2
I0131 15:32:14.862349  1964 net.cpp:148] Top shape: 64 64 224 224 (205520896)
I0131 15:32:14.862356  1964 net.cpp:156] Memory required for data: 2517632256
I0131 15:32:14.862367  1964 layer_factory.hpp:77] Creating layer relu1_2
I0131 15:32:14.862378  1964 net.cpp:91] Creating Layer relu1_2
I0131 15:32:14.862386  1964 net.cpp:425] relu1_2 <- conv1_2
I0131 15:32:14.862396  1964 net.cpp:386] relu1_2 -> conv1_2 (in-place)
I0131 15:32:14.862406  1964 net.cpp:141] Setting up relu1_2
I0131 15:32:14.862414  1964 net.cpp:148] Top shape: 64 64 224 224 (205520896)
I0131 15:32:14.862422  1964 net.cpp:156] Memory required for data: 3339715840
I0131 15:32:14.862431  1964 layer_factory.hpp:77] Creating layer rgb_pool1
I0131 15:32:14.862442  1964 net.cpp:91] Creating Layer rgb_pool1
I0131 15:32:14.862449  1964 net.cpp:425] rgb_pool1 <- conv1_2
I0131 15:32:14.862459  1964 net.cpp:399] rgb_pool1 -> rgb_pool1
I0131 15:32:14.862501  1964 net.cpp:141] Setting up rgb_pool1
I0131 15:32:14.862514  1964 net.cpp:148] Top shape: 64 64 112 112 (51380224)
I0131 15:32:14.862521  1964 net.cpp:156] Memory required for data: 3545236736
I0131 15:32:14.862529  1964 layer_factory.hpp:77] Creating layer conv2_1
I0131 15:32:14.862541  1964 net.cpp:91] Creating Layer conv2_1
I0131 15:32:14.862550  1964 net.cpp:425] conv2_1 <- rgb_pool1
I0131 15:32:14.862561  1964 net.cpp:399] conv2_1 -> conv2_1
I0131 15:32:14.863538  1964 net.cpp:141] Setting up conv2_1
I0131 15:32:14.863554  1964 net.cpp:148] Top shape: 64 128 112 112 (102760448)
I0131 15:32:14.863562  1964 net.cpp:156] Memory required for data: 3956278528
I0131 15:32:14.863574  1964 layer_factory.hpp:77] Creating layer relu2_1
I0131 15:32:14.863585  1964 net.cpp:91] Creating Layer relu2_1
I0131 15:32:14.863595  1964 net.cpp:425] relu2_1 <- conv2_1
I0131 15:32:14.863605  1964 net.cpp:386] relu2_1 -> conv2_1 (in-place)
I0131 15:32:14.863616  1964 net.cpp:141] Setting up relu2_1
I0131 15:32:14.863626  1964 net.cpp:148] Top shape: 64 128 112 112 (102760448)
I0131 15:32:14.863634  1964 net.cpp:156] Memory required for data: 4367320320
I0131 15:32:14.863641  1964 layer_factory.hpp:77] Creating layer conv2_2
I0131 15:32:14.863654  1964 net.cpp:91] Creating Layer conv2_2
I0131 15:32:14.863663  1964 net.cpp:425] conv2_2 <- conv2_1
I0131 15:32:14.863674  1964 net.cpp:399] conv2_2 -> conv2_2
I0131 15:32:14.864444  1964 net.cpp:141] Setting up conv2_2
I0131 15:32:14.864456  1964 net.cpp:148] Top shape: 64 128 112 112 (102760448)
I0131 15:32:14.864464  1964 net.cpp:156] Memory required for data: 4778362112
I0131 15:32:14.864475  1964 layer_factory.hpp:77] Creating layer relu2_2
I0131 15:32:14.864483  1964 net.cpp:91] Creating Layer relu2_2
I0131 15:32:14.864491  1964 net.cpp:425] relu2_2 <- conv2_2
I0131 15:32:14.864502  1964 net.cpp:386] relu2_2 -> conv2_2 (in-place)
I0131 15:32:14.864513  1964 net.cpp:141] Setting up relu2_2
I0131 15:32:14.864522  1964 net.cpp:148] Top shape: 64 128 112 112 (102760448)
I0131 15:32:14.864531  1964 net.cpp:156] Memory required for data: 5189403904
I0131 15:32:14.864538  1964 layer_factory.hpp:77] Creating layer rgb_pool2
I0131 15:32:14.864550  1964 net.cpp:91] Creating Layer rgb_pool2
I0131 15:32:14.864558  1964 net.cpp:425] rgb_pool2 <- conv2_2
I0131 15:32:14.864568  1964 net.cpp:399] rgb_pool2 -> rgb_pool2
I0131 15:32:14.864606  1964 net.cpp:141] Setting up rgb_pool2
I0131 15:32:14.864617  1964 net.cpp:148] Top shape: 64 128 56 56 (25690112)
I0131 15:32:14.864625  1964 net.cpp:156] Memory required for data: 5292164352
I0131 15:32:14.864632  1964 layer_factory.hpp:77] Creating layer conv3_1
I0131 15:32:14.864647  1964 net.cpp:91] Creating Layer conv3_1
I0131 15:32:14.864655  1964 net.cpp:425] conv3_1 <- rgb_pool2
I0131 15:32:14.864666  1964 net.cpp:399] conv3_1 -> conv3_1
I0131 15:32:14.866319  1964 net.cpp:141] Setting up conv3_1
I0131 15:32:14.866333  1964 net.cpp:148] Top shape: 64 256 56 56 (51380224)
I0131 15:32:14.866341  1964 net.cpp:156] Memory required for data: 5497685248
I0131 15:32:14.866354  1964 layer_factory.hpp:77] Creating layer relu3_1
I0131 15:32:14.866364  1964 net.cpp:91] Creating Layer relu3_1
I0131 15:32:14.866372  1964 net.cpp:425] relu3_1 <- conv3_1
I0131 15:32:14.866384  1964 net.cpp:386] relu3_1 -> conv3_1 (in-place)
I0131 15:32:14.866395  1964 net.cpp:141] Setting up relu3_1
I0131 15:32:14.866405  1964 net.cpp:148] Top shape: 64 256 56 56 (51380224)
I0131 15:32:14.866413  1964 net.cpp:156] Memory required for data: 5703206144
I0131 15:32:14.866420  1964 layer_factory.hpp:77] Creating layer conv3_2
I0131 15:32:14.866433  1964 net.cpp:91] Creating Layer conv3_2
I0131 15:32:14.866441  1964 net.cpp:425] conv3_2 <- conv3_1
I0131 15:32:14.866451  1964 net.cpp:399] conv3_2 -> conv3_2
I0131 15:32:14.869850  1964 net.cpp:141] Setting up conv3_2
I0131 15:32:14.870527  1964 net.cpp:148] Top shape: 64 256 56 56 (51380224)
I0131 15:32:14.870539  1964 net.cpp:156] Memory required for data: 5908727040
I0131 15:32:14.870553  1964 layer_factory.hpp:77] Creating layer relu3_2
I0131 15:32:14.870565  1964 net.cpp:91] Creating Layer relu3_2
I0131 15:32:14.870574  1964 net.cpp:425] relu3_2 <- conv3_2
I0131 15:32:14.870585  1964 net.cpp:386] relu3_2 -> conv3_2 (in-place)
I0131 15:32:14.870597  1964 net.cpp:141] Setting up relu3_2
I0131 15:32:14.870607  1964 net.cpp:148] Top shape: 64 256 56 56 (51380224)
I0131 15:32:14.870615  1964 net.cpp:156] Memory required for data: 6114247936
I0131 15:32:14.870622  1964 layer_factory.hpp:77] Creating layer conv3_3
I0131 15:32:14.870640  1964 net.cpp:91] Creating Layer conv3_3
I0131 15:32:14.870649  1964 net.cpp:425] conv3_3 <- conv3_2
I0131 15:32:14.870659  1964 net.cpp:399] conv3_3 -> conv3_3
I0131 15:32:14.874303  1964 net.cpp:141] Setting up conv3_3
I0131 15:32:14.874369  1964 net.cpp:148] Top shape: 64 256 56 56 (51380224)
I0131 15:32:14.874379  1964 net.cpp:156] Memory required for data: 6319768832
I0131 15:32:14.874392  1964 layer_factory.hpp:77] Creating layer relu3_3
I0131 15:32:14.874404  1964 net.cpp:91] Creating Layer relu3_3
I0131 15:32:14.874413  1964 net.cpp:425] relu3_3 <- conv3_3
I0131 15:32:14.874444  1964 net.cpp:386] relu3_3 -> conv3_3 (in-place)
I0131 15:32:14.874476  1964 net.cpp:141] Setting up relu3_3
I0131 15:32:14.875393  1964 net.cpp:148] Top shape: 64 256 56 56 (51380224)
I0131 15:32:14.875404  1964 net.cpp:156] Memory required for data: 6525289728
I0131 15:32:14.875454  1964 layer_factory.hpp:77] Creating layer rgb_pool3
I0131 15:32:14.875466  1964 net.cpp:91] Creating Layer rgb_pool3
I0131 15:32:14.875474  1964 net.cpp:425] rgb_pool3 <- conv3_3
I0131 15:32:14.875486  1964 net.cpp:399] rgb_pool3 -> rgb_pool3
I0131 15:32:14.875543  1964 net.cpp:141] Setting up rgb_pool3
I0131 15:32:14.875557  1964 net.cpp:148] Top shape: 64 256 28 28 (12845056)
I0131 15:32:14.875564  1964 net.cpp:156] Memory required for data: 6576669952
I0131 15:32:14.875572  1964 layer_factory.hpp:77] Creating layer conv4_1
I0131 15:32:14.875587  1964 net.cpp:91] Creating Layer conv4_1
I0131 15:32:14.875597  1964 net.cpp:425] conv4_1 <- rgb_pool3
I0131 15:32:14.875607  1964 net.cpp:399] conv4_1 -> conv4_1
I0131 15:32:14.882288  1964 net.cpp:141] Setting up conv4_1
I0131 15:32:14.882316  1964 net.cpp:148] Top shape: 64 512 28 28 (25690112)
I0131 15:32:14.882324  1964 net.cpp:156] Memory required for data: 6679430400
I0131 15:32:14.882338  1964 layer_factory.hpp:77] Creating layer relu4_1
I0131 15:32:14.882350  1964 net.cpp:91] Creating Layer relu4_1
I0131 15:32:14.882359  1964 net.cpp:425] relu4_1 <- conv4_1
I0131 15:32:14.882369  1964 net.cpp:386] relu4_1 -> conv4_1 (in-place)
I0131 15:32:14.882383  1964 net.cpp:141] Setting up relu4_1
I0131 15:32:14.882392  1964 net.cpp:148] Top shape: 64 512 28 28 (25690112)
I0131 15:32:14.882400  1964 net.cpp:156] Memory required for data: 6782190848
I0131 15:32:14.882407  1964 layer_factory.hpp:77] Creating layer conv4_2
I0131 15:32:14.882424  1964 net.cpp:91] Creating Layer conv4_2
I0131 15:32:14.882432  1964 net.cpp:425] conv4_2 <- conv4_1
I0131 15:32:14.882443  1964 net.cpp:399] conv4_2 -> conv4_2
I0131 15:32:14.898818  1964 net.cpp:141] Setting up conv4_2
I0131 15:32:14.898849  1964 net.cpp:148] Top shape: 64 512 28 28 (25690112)
I0131 15:32:14.898859  1964 net.cpp:156] Memory required for data: 6884951296
I0131 15:32:14.898877  1964 layer_factory.hpp:77] Creating layer relu4_2
I0131 15:32:14.898892  1964 net.cpp:91] Creating Layer relu4_2
I0131 15:32:14.898901  1964 net.cpp:425] relu4_2 <- conv4_2
I0131 15:32:14.898912  1964 net.cpp:386] relu4_2 -> conv4_2 (in-place)
I0131 15:32:14.898924  1964 net.cpp:141] Setting up relu4_2
I0131 15:32:14.898934  1964 net.cpp:148] Top shape: 64 512 28 28 (25690112)
I0131 15:32:14.898941  1964 net.cpp:156] Memory required for data: 6987711744
I0131 15:32:14.898948  1964 layer_factory.hpp:77] Creating layer conv4_3
I0131 15:32:14.898964  1964 net.cpp:91] Creating Layer conv4_3
I0131 15:32:14.898973  1964 net.cpp:425] conv4_3 <- conv4_2
I0131 15:32:14.898984  1964 net.cpp:399] conv4_3 -> conv4_3
I0131 15:32:14.913974  1964 net.cpp:141] Setting up conv4_3
I0131 15:32:14.914006  1964 net.cpp:148] Top shape: 64 512 28 28 (25690112)
I0131 15:32:14.914014  1964 net.cpp:156] Memory required for data: 7090472192
I0131 15:32:14.914028  1964 layer_factory.hpp:77] Creating layer relu4_3
I0131 15:32:14.914041  1964 net.cpp:91] Creating Layer relu4_3
I0131 15:32:14.914049  1964 net.cpp:425] relu4_3 <- conv4_3
I0131 15:32:14.914062  1964 net.cpp:386] relu4_3 -> conv4_3 (in-place)
I0131 15:32:14.914075  1964 net.cpp:141] Setting up relu4_3
I0131 15:32:14.914083  1964 net.cpp:148] Top shape: 64 512 28 28 (25690112)
I0131 15:32:14.914093  1964 net.cpp:156] Memory required for data: 7193232640
I0131 15:32:14.914099  1964 layer_factory.hpp:77] Creating layer rgb_pool4
I0131 15:32:14.914109  1964 net.cpp:91] Creating Layer rgb_pool4
I0131 15:32:14.914116  1964 net.cpp:425] rgb_pool4 <- conv4_3
I0131 15:32:14.914129  1964 net.cpp:399] rgb_pool4 -> rgb_pool4
I0131 15:32:14.914170  1964 net.cpp:141] Setting up rgb_pool4
I0131 15:32:14.914180  1964 net.cpp:148] Top shape: 64 512 14 14 (6422528)
I0131 15:32:14.914188  1964 net.cpp:156] Memory required for data: 7218922752
I0131 15:32:14.914196  1964 layer_factory.hpp:77] Creating layer conv5_1
I0131 15:32:14.914212  1964 net.cpp:91] Creating Layer conv5_1
I0131 15:32:14.914222  1964 net.cpp:425] conv5_1 <- rgb_pool4
I0131 15:32:14.914235  1964 net.cpp:399] conv5_1 -> conv5_1
I0131 15:32:14.927800  1964 net.cpp:141] Setting up conv5_1
I0131 15:32:14.927831  1964 net.cpp:148] Top shape: 64 512 14 14 (6422528)
I0131 15:32:14.927839  1964 net.cpp:156] Memory required for data: 7244612864
I0131 15:32:14.927852  1964 layer_factory.hpp:77] Creating layer relu5_1
I0131 15:32:14.927867  1964 net.cpp:91] Creating Layer relu5_1
I0131 15:32:14.927875  1964 net.cpp:425] relu5_1 <- conv5_1
I0131 15:32:14.927886  1964 net.cpp:386] relu5_1 -> conv5_1 (in-place)
I0131 15:32:14.927898  1964 net.cpp:141] Setting up relu5_1
I0131 15:32:14.927906  1964 net.cpp:148] Top shape: 64 512 14 14 (6422528)
I0131 15:32:14.927914  1964 net.cpp:156] Memory required for data: 7270302976
I0131 15:32:14.927922  1964 layer_factory.hpp:77] Creating layer conv5_2
I0131 15:32:14.927938  1964 net.cpp:91] Creating Layer conv5_2
I0131 15:32:14.927948  1964 net.cpp:425] conv5_2 <- conv5_1
I0131 15:32:14.927961  1964 net.cpp:399] conv5_2 -> conv5_2
I0131 15:32:14.940614  1964 net.cpp:141] Setting up conv5_2
I0131 15:32:14.940646  1964 net.cpp:148] Top shape: 64 512 14 14 (6422528)
I0131 15:32:14.940655  1964 net.cpp:156] Memory required for data: 7295993088
I0131 15:32:14.940670  1964 layer_factory.hpp:77] Creating layer relu5_2
I0131 15:32:14.940686  1964 net.cpp:91] Creating Layer relu5_2
I0131 15:32:14.940696  1964 net.cpp:425] relu5_2 <- conv5_2
I0131 15:32:14.940711  1964 net.cpp:386] relu5_2 -> conv5_2 (in-place)
I0131 15:32:14.940726  1964 net.cpp:141] Setting up relu5_2
I0131 15:32:14.940737  1964 net.cpp:148] Top shape: 64 512 14 14 (6422528)
I0131 15:32:14.940744  1964 net.cpp:156] Memory required for data: 7321683200
I0131 15:32:14.940753  1964 layer_factory.hpp:77] Creating layer conv5_3
I0131 15:32:14.940770  1964 net.cpp:91] Creating Layer conv5_3
I0131 15:32:14.940780  1964 net.cpp:425] conv5_3 <- conv5_2
I0131 15:32:14.940791  1964 net.cpp:399] conv5_3 -> conv5_3
I0131 15:32:14.953565  1964 net.cpp:141] Setting up conv5_3
I0131 15:32:14.953603  1964 net.cpp:148] Top shape: 64 512 14 14 (6422528)
I0131 15:32:14.953614  1964 net.cpp:156] Memory required for data: 7347373312
I0131 15:32:14.953632  1964 layer_factory.hpp:77] Creating layer relu5_3
I0131 15:32:14.953646  1964 net.cpp:91] Creating Layer relu5_3
I0131 15:32:14.953656  1964 net.cpp:425] relu5_3 <- conv5_3
I0131 15:32:14.953668  1964 net.cpp:386] relu5_3 -> conv5_3 (in-place)
I0131 15:32:14.953682  1964 net.cpp:141] Setting up relu5_3
I0131 15:32:14.953693  1964 net.cpp:148] Top shape: 64 512 14 14 (6422528)
I0131 15:32:14.953701  1964 net.cpp:156] Memory required for data: 7373063424
I0131 15:32:14.953709  1964 layer_factory.hpp:77] Creating layer rgb_pool5
I0131 15:32:14.953727  1964 net.cpp:91] Creating Layer rgb_pool5
I0131 15:32:14.953737  1964 net.cpp:425] rgb_pool5 <- conv5_3
I0131 15:32:14.953747  1964 net.cpp:399] rgb_pool5 -> rgb_pool5
I0131 15:32:14.953800  1964 net.cpp:141] Setting up rgb_pool5
I0131 15:32:14.953814  1964 net.cpp:148] Top shape: 64 512 7 7 (1605632)
I0131 15:32:14.953822  1964 net.cpp:156] Memory required for data: 7379485952
I0131 15:32:14.953830  1964 layer_factory.hpp:77] Creating layer rgb_fc6
I0131 15:32:14.953853  1964 net.cpp:91] Creating Layer rgb_fc6
I0131 15:32:14.953862  1964 net.cpp:425] rgb_fc6 <- rgb_pool5
I0131 15:32:14.953873  1964 net.cpp:399] rgb_fc6 -> rgb_fc6
I0131 15:32:15.524613  1964 net.cpp:141] Setting up rgb_fc6
I0131 15:32:15.524647  1964 net.cpp:148] Top shape: 64 4096 (262144)
I0131 15:32:15.524657  1964 net.cpp:156] Memory required for data: 7380534528
I0131 15:32:15.524674  1964 layer_factory.hpp:77] Creating layer rgb_relu6
I0131 15:32:15.524691  1964 net.cpp:91] Creating Layer rgb_relu6
I0131 15:32:15.524703  1964 net.cpp:425] rgb_relu6 <- rgb_fc6
I0131 15:32:15.524714  1964 net.cpp:386] rgb_relu6 -> rgb_fc6 (in-place)
I0131 15:32:15.524729  1964 net.cpp:141] Setting up rgb_relu6
I0131 15:32:15.524739  1964 net.cpp:148] Top shape: 64 4096 (262144)
I0131 15:32:15.524746  1964 net.cpp:156] Memory required for data: 7381583104
I0131 15:32:15.524755  1964 layer_factory.hpp:77] Creating layer rgb_drop6
I0131 15:32:15.524772  1964 net.cpp:91] Creating Layer rgb_drop6
I0131 15:32:15.524781  1964 net.cpp:425] rgb_drop6 <- rgb_fc6
I0131 15:32:15.524791  1964 net.cpp:386] rgb_drop6 -> rgb_fc6 (in-place)
I0131 15:32:15.524826  1964 net.cpp:141] Setting up rgb_drop6
I0131 15:32:15.524838  1964 net.cpp:148] Top shape: 64 4096 (262144)
I0131 15:32:15.524847  1964 net.cpp:156] Memory required for data: 7382631680
I0131 15:32:15.524857  1964 layer_factory.hpp:77] Creating layer rgb_fc7
I0131 15:32:15.524871  1964 net.cpp:91] Creating Layer rgb_fc7
I0131 15:32:15.524880  1964 net.cpp:425] rgb_fc7 <- rgb_fc6
I0131 15:32:15.524891  1964 net.cpp:399] rgb_fc7 -> rgb_fc7
I0131 15:32:15.618865  1964 net.cpp:141] Setting up rgb_fc7
I0131 15:32:15.618903  1964 net.cpp:148] Top shape: 64 4096 (262144)
I0131 15:32:15.618913  1964 net.cpp:156] Memory required for data: 7383680256
I0131 15:32:15.618929  1964 layer_factory.hpp:77] Creating layer rgb_relu7
I0131 15:32:15.618947  1964 net.cpp:91] Creating Layer rgb_relu7
I0131 15:32:15.618958  1964 net.cpp:425] rgb_relu7 <- rgb_fc7
I0131 15:32:15.618973  1964 net.cpp:386] rgb_relu7 -> rgb_fc7 (in-place)
I0131 15:32:15.618989  1964 net.cpp:141] Setting up rgb_relu7
I0131 15:32:15.618999  1964 net.cpp:148] Top shape: 64 4096 (262144)
I0131 15:32:15.619006  1964 net.cpp:156] Memory required for data: 7384728832
I0131 15:32:15.619014  1964 layer_factory.hpp:77] Creating layer rgb_drop7
I0131 15:32:15.619025  1964 net.cpp:91] Creating Layer rgb_drop7
I0131 15:32:15.619034  1964 net.cpp:425] rgb_drop7 <- rgb_fc7
I0131 15:32:15.619042  1964 net.cpp:386] rgb_drop7 -> rgb_fc7 (in-place)
I0131 15:32:15.619076  1964 net.cpp:141] Setting up rgb_drop7
I0131 15:32:15.619087  1964 net.cpp:148] Top shape: 64 4096 (262144)
I0131 15:32:15.619094  1964 net.cpp:156] Memory required for data: 7385777408
I0131 15:32:15.619102  1964 layer_factory.hpp:77] Creating layer rgb_fc8
I0131 15:32:15.619115  1964 net.cpp:91] Creating Layer rgb_fc8
I0131 15:32:15.619123  1964 net.cpp:425] rgb_fc8 <- rgb_fc7
I0131 15:32:15.619134  1964 net.cpp:399] rgb_fc8 -> rgb_fc8
I0131 15:32:15.621321  1964 net.cpp:141] Setting up rgb_fc8
I0131 15:32:15.621343  1964 net.cpp:148] Top shape: 64 51 (3264)
I0131 15:32:15.621351  1964 net.cpp:156] Memory required for data: 7385790464
I0131 15:32:15.621363  1964 layer_factory.hpp:77] Creating layer rgb_fc8_rgb_fc8_0_split
I0131 15:32:15.621376  1964 net.cpp:91] Creating Layer rgb_fc8_rgb_fc8_0_split
I0131 15:32:15.621383  1964 net.cpp:425] rgb_fc8_rgb_fc8_0_split <- rgb_fc8
I0131 15:32:15.621393  1964 net.cpp:399] rgb_fc8_rgb_fc8_0_split -> rgb_fc8_rgb_fc8_0_split_0
I0131 15:32:15.621405  1964 net.cpp:399] rgb_fc8_rgb_fc8_0_split -> rgb_fc8_rgb_fc8_0_split_1
I0131 15:32:15.621443  1964 net.cpp:141] Setting up rgb_fc8_rgb_fc8_0_split
I0131 15:32:15.621454  1964 net.cpp:148] Top shape: 64 51 (3264)
I0131 15:32:15.621461  1964 net.cpp:148] Top shape: 64 51 (3264)
I0131 15:32:15.621469  1964 net.cpp:156] Memory required for data: 7385816576
I0131 15:32:15.621477  1964 layer_factory.hpp:77] Creating layer conv1
I0131 15:32:15.621492  1964 net.cpp:91] Creating Layer conv1
I0131 15:32:15.621500  1964 net.cpp:425] conv1 <- depth
I0131 15:32:15.621510  1964 net.cpp:399] conv1 -> conv1
I0131 15:32:15.621721  1964 net.cpp:141] Setting up conv1
I0131 15:32:15.621737  1964 net.cpp:148] Top shape: 64 128 112 112 (102760448)
I0131 15:32:15.621744  1964 net.cpp:156] Memory required for data: 7796858368
I0131 15:32:15.621762  1964 layer_factory.hpp:77] Creating layer relu1
I0131 15:32:15.621778  1964 net.cpp:91] Creating Layer relu1
I0131 15:32:15.621785  1964 net.cpp:425] relu1 <- conv1
I0131 15:32:15.621794  1964 net.cpp:386] relu1 -> conv1 (in-place)
I0131 15:32:15.621804  1964 net.cpp:141] Setting up relu1
I0131 15:32:15.621814  1964 net.cpp:148] Top shape: 64 128 112 112 (102760448)
I0131 15:32:15.621822  1964 net.cpp:156] Memory required for data: 8207900160
I0131 15:32:15.621831  1964 layer_factory.hpp:77] Creating layer depth_pool1
I0131 15:32:15.621843  1964 net.cpp:91] Creating Layer depth_pool1
I0131 15:32:15.621852  1964 net.cpp:425] depth_pool1 <- conv1
I0131 15:32:15.621865  1964 net.cpp:399] depth_pool1 -> depth_pool1
I0131 15:32:15.621912  1964 net.cpp:141] Setting up depth_pool1
I0131 15:32:15.621923  1964 net.cpp:148] Top shape: 64 128 56 56 (25690112)
I0131 15:32:15.621932  1964 net.cpp:156] Memory required for data: 8310660608
I0131 15:32:15.621939  1964 layer_factory.hpp:77] Creating layer norm1
I0131 15:32:15.621953  1964 net.cpp:91] Creating Layer norm1
I0131 15:32:15.621960  1964 net.cpp:425] norm1 <- depth_pool1
I0131 15:32:15.621969  1964 net.cpp:399] norm1 -> norm1
I0131 15:32:15.622005  1964 net.cpp:141] Setting up norm1
I0131 15:32:15.622015  1964 net.cpp:148] Top shape: 64 128 56 56 (25690112)
I0131 15:32:15.622023  1964 net.cpp:156] Memory required for data: 8413421056
I0131 15:32:15.622030  1964 layer_factory.hpp:77] Creating layer conv2
I0131 15:32:15.622045  1964 net.cpp:91] Creating Layer conv2
I0131 15:32:15.622051  1964 net.cpp:425] conv2 <- norm1
I0131 15:32:15.622059  1964 net.cpp:399] conv2 -> conv2
I0131 15:32:15.627938  1964 net.cpp:141] Setting up conv2
I0131 15:32:15.627962  1964 net.cpp:148] Top shape: 64 256 56 56 (51380224)
I0131 15:32:15.627970  1964 net.cpp:156] Memory required for data: 8618941952
I0131 15:32:15.627981  1964 layer_factory.hpp:77] Creating layer relu2
I0131 15:32:15.627995  1964 net.cpp:91] Creating Layer relu2
I0131 15:32:15.628001  1964 net.cpp:425] relu2 <- conv2
I0131 15:32:15.628010  1964 net.cpp:386] relu2 -> conv2 (in-place)
I0131 15:32:15.628021  1964 net.cpp:141] Setting up relu2
I0131 15:32:15.628031  1964 net.cpp:148] Top shape: 64 256 56 56 (51380224)
I0131 15:32:15.628038  1964 net.cpp:156] Memory required for data: 8824462848
I0131 15:32:15.628044  1964 layer_factory.hpp:77] Creating layer depth_pool2
I0131 15:32:15.628056  1964 net.cpp:91] Creating Layer depth_pool2
I0131 15:32:15.628062  1964 net.cpp:425] depth_pool2 <- conv2
I0131 15:32:15.628070  1964 net.cpp:399] depth_pool2 -> depth_pool2
I0131 15:32:15.628110  1964 net.cpp:141] Setting up depth_pool2
I0131 15:32:15.628123  1964 net.cpp:148] Top shape: 64 256 28 28 (12845056)
I0131 15:32:15.628129  1964 net.cpp:156] Memory required for data: 8875843072
I0131 15:32:15.628137  1964 layer_factory.hpp:77] Creating layer norm2
I0131 15:32:15.628147  1964 net.cpp:91] Creating Layer norm2
I0131 15:32:15.628155  1964 net.cpp:425] norm2 <- depth_pool2
I0131 15:32:15.628166  1964 net.cpp:399] norm2 -> norm2
I0131 15:32:15.628201  1964 net.cpp:141] Setting up norm2
I0131 15:32:15.628211  1964 net.cpp:148] Top shape: 64 256 28 28 (12845056)
I0131 15:32:15.628218  1964 net.cpp:156] Memory required for data: 8927223296
I0131 15:32:15.628226  1964 layer_factory.hpp:77] Creating layer conv3
I0131 15:32:15.628242  1964 net.cpp:91] Creating Layer conv3
I0131 15:32:15.628252  1964 net.cpp:425] conv3 <- norm2
I0131 15:32:15.628262  1964 net.cpp:399] conv3 -> conv3
I0131 15:32:15.631849  1964 net.cpp:141] Setting up conv3
I0131 15:32:15.631875  1964 net.cpp:148] Top shape: 64 384 28 28 (19267584)
I0131 15:32:15.631886  1964 net.cpp:156] Memory required for data: 9004293632
I0131 15:32:15.631897  1964 layer_factory.hpp:77] Creating layer relu3
I0131 15:32:15.631911  1964 net.cpp:91] Creating Layer relu3
I0131 15:32:15.631919  1964 net.cpp:425] relu3 <- conv3
I0131 15:32:15.631929  1964 net.cpp:386] relu3 -> conv3 (in-place)
I0131 15:32:15.631940  1964 net.cpp:141] Setting up relu3
I0131 15:32:15.631949  1964 net.cpp:148] Top shape: 64 384 28 28 (19267584)
I0131 15:32:15.631956  1964 net.cpp:156] Memory required for data: 9081363968
I0131 15:32:15.631964  1964 layer_factory.hpp:77] Creating layer depth_pool3
I0131 15:32:15.631974  1964 net.cpp:91] Creating Layer depth_pool3
I0131 15:32:15.631983  1964 net.cpp:425] depth_pool3 <- conv3
I0131 15:32:15.631994  1964 net.cpp:399] depth_pool3 -> depth_pool3
I0131 15:32:15.632040  1964 net.cpp:141] Setting up depth_pool3
I0131 15:32:15.632055  1964 net.cpp:148] Top shape: 64 384 14 14 (4816896)
I0131 15:32:15.632062  1964 net.cpp:156] Memory required for data: 9100631552
I0131 15:32:15.632071  1964 layer_factory.hpp:77] Creating layer conv4
I0131 15:32:15.632087  1964 net.cpp:91] Creating Layer conv4
I0131 15:32:15.632097  1964 net.cpp:425] conv4 <- depth_pool3
I0131 15:32:15.632108  1964 net.cpp:399] conv4 -> conv4
I0131 15:32:15.643049  1964 net.cpp:141] Setting up conv4
I0131 15:32:15.643082  1964 net.cpp:148] Top shape: 64 512 14 14 (6422528)
I0131 15:32:15.643091  1964 net.cpp:156] Memory required for data: 9126321664
I0131 15:32:15.643110  1964 layer_factory.hpp:77] Creating layer relu4
I0131 15:32:15.643126  1964 net.cpp:91] Creating Layer relu4
I0131 15:32:15.643136  1964 net.cpp:425] relu4 <- conv4
I0131 15:32:15.643151  1964 net.cpp:386] relu4 -> conv4 (in-place)
I0131 15:32:15.643165  1964 net.cpp:141] Setting up relu4
I0131 15:32:15.643177  1964 net.cpp:148] Top shape: 64 512 14 14 (6422528)
I0131 15:32:15.643184  1964 net.cpp:156] Memory required for data: 9152011776
I0131 15:32:15.643193  1964 layer_factory.hpp:77] Creating layer conv5
I0131 15:32:15.643210  1964 net.cpp:91] Creating Layer conv5
I0131 15:32:15.643218  1964 net.cpp:425] conv5 <- conv4
I0131 15:32:15.643229  1964 net.cpp:399] conv5 -> conv5
I0131 15:32:15.657152  1964 net.cpp:141] Setting up conv5
I0131 15:32:15.657196  1964 net.cpp:148] Top shape: 64 512 14 14 (6422528)
I0131 15:32:15.657207  1964 net.cpp:156] Memory required for data: 9177701888
I0131 15:32:15.657225  1964 layer_factory.hpp:77] Creating layer relu5
I0131 15:32:15.657241  1964 net.cpp:91] Creating Layer relu5
I0131 15:32:15.657251  1964 net.cpp:425] relu5 <- conv5
I0131 15:32:15.657263  1964 net.cpp:386] relu5 -> conv5 (in-place)
I0131 15:32:15.657277  1964 net.cpp:141] Setting up relu5
I0131 15:32:15.657287  1964 net.cpp:148] Top shape: 64 512 14 14 (6422528)
I0131 15:32:15.657294  1964 net.cpp:156] Memory required for data: 9203392000
I0131 15:32:15.657302  1964 layer_factory.hpp:77] Creating layer depth_pool5
I0131 15:32:15.657316  1964 net.cpp:91] Creating Layer depth_pool5
I0131 15:32:15.657326  1964 net.cpp:425] depth_pool5 <- conv5
I0131 15:32:15.657336  1964 net.cpp:399] depth_pool5 -> depth_pool5
I0131 15:32:15.657403  1964 net.cpp:141] Setting up depth_pool5
I0131 15:32:15.657414  1964 net.cpp:148] Top shape: 64 512 7 7 (1605632)
I0131 15:32:15.657421  1964 net.cpp:156] Memory required for data: 9209814528
I0131 15:32:15.657429  1964 layer_factory.hpp:77] Creating layer depth_fc6
I0131 15:32:15.657440  1964 net.cpp:91] Creating Layer depth_fc6
I0131 15:32:15.657449  1964 net.cpp:425] depth_fc6 <- depth_pool5
I0131 15:32:15.657464  1964 net.cpp:399] depth_fc6 -> depth_fc6
I0131 15:32:16.215565  1964 net.cpp:141] Setting up depth_fc6
I0131 15:32:16.215597  1964 net.cpp:148] Top shape: 64 4096 (262144)
I0131 15:32:16.215602  1964 net.cpp:156] Memory required for data: 9210863104
I0131 15:32:16.215612  1964 layer_factory.hpp:77] Creating layer depth_relu6
I0131 15:32:16.215627  1964 net.cpp:91] Creating Layer depth_relu6
I0131 15:32:16.215636  1964 net.cpp:425] depth_relu6 <- depth_fc6
I0131 15:32:16.215648  1964 net.cpp:386] depth_relu6 -> depth_fc6 (in-place)
I0131 15:32:16.215663  1964 net.cpp:141] Setting up depth_relu6
I0131 15:32:16.215668  1964 net.cpp:148] Top shape: 64 4096 (262144)
I0131 15:32:16.215672  1964 net.cpp:156] Memory required for data: 9211911680
I0131 15:32:16.215677  1964 layer_factory.hpp:77] Creating layer depth_drop6
I0131 15:32:16.215682  1964 net.cpp:91] Creating Layer depth_drop6
I0131 15:32:16.215692  1964 net.cpp:425] depth_drop6 <- depth_fc6
I0131 15:32:16.215701  1964 net.cpp:386] depth_drop6 -> depth_fc6 (in-place)
I0131 15:32:16.215726  1964 net.cpp:141] Setting up depth_drop6
I0131 15:32:16.215736  1964 net.cpp:148] Top shape: 64 4096 (262144)
I0131 15:32:16.215741  1964 net.cpp:156] Memory required for data: 9212960256
I0131 15:32:16.215745  1964 layer_factory.hpp:77] Creating layer depth_fc7
I0131 15:32:16.215755  1964 net.cpp:91] Creating Layer depth_fc7
I0131 15:32:16.215762  1964 net.cpp:425] depth_fc7 <- depth_fc6
I0131 15:32:16.215768  1964 net.cpp:399] depth_fc7 -> depth_fc7
I0131 15:32:16.302182  1964 net.cpp:141] Setting up depth_fc7
I0131 15:32:16.302214  1964 net.cpp:148] Top shape: 64 4096 (262144)
I0131 15:32:16.302222  1964 net.cpp:156] Memory required for data: 9214008832
I0131 15:32:16.302232  1964 layer_factory.hpp:77] Creating layer depth_relu7
I0131 15:32:16.302249  1964 net.cpp:91] Creating Layer depth_relu7
I0131 15:32:16.302258  1964 net.cpp:425] depth_relu7 <- depth_fc7
I0131 15:32:16.302264  1964 net.cpp:386] depth_relu7 -> depth_fc7 (in-place)
I0131 15:32:16.302273  1964 net.cpp:141] Setting up depth_relu7
I0131 15:32:16.302279  1964 net.cpp:148] Top shape: 64 4096 (262144)
I0131 15:32:16.302284  1964 net.cpp:156] Memory required for data: 9215057408
I0131 15:32:16.302289  1964 layer_factory.hpp:77] Creating layer depth_drop7
I0131 15:32:16.302302  1964 net.cpp:91] Creating Layer depth_drop7
I0131 15:32:16.302312  1964 net.cpp:425] depth_drop7 <- depth_fc7
I0131 15:32:16.302320  1964 net.cpp:386] depth_drop7 -> depth_fc7 (in-place)
I0131 15:32:16.302353  1964 net.cpp:141] Setting up depth_drop7
I0131 15:32:16.302362  1964 net.cpp:148] Top shape: 64 4096 (262144)
I0131 15:32:16.302366  1964 net.cpp:156] Memory required for data: 9216105984
I0131 15:32:16.302371  1964 layer_factory.hpp:77] Creating layer depth_fc8
I0131 15:32:16.302379  1964 net.cpp:91] Creating Layer depth_fc8
I0131 15:32:16.302384  1964 net.cpp:425] depth_fc8 <- depth_fc7
I0131 15:32:16.302395  1964 net.cpp:399] depth_fc8 -> depth_fc8
I0131 15:32:16.303683  1964 net.cpp:141] Setting up depth_fc8
I0131 15:32:16.303699  1964 net.cpp:148] Top shape: 64 51 (3264)
I0131 15:32:16.303702  1964 net.cpp:156] Memory required for data: 9216119040
I0131 15:32:16.303710  1964 layer_factory.hpp:77] Creating layer depth_fc8_depth_fc8_0_split
I0131 15:32:16.303728  1964 net.cpp:91] Creating Layer depth_fc8_depth_fc8_0_split
I0131 15:32:16.303736  1964 net.cpp:425] depth_fc8_depth_fc8_0_split <- depth_fc8
I0131 15:32:16.303745  1964 net.cpp:399] depth_fc8_depth_fc8_0_split -> depth_fc8_depth_fc8_0_split_0
I0131 15:32:16.303753  1964 net.cpp:399] depth_fc8_depth_fc8_0_split -> depth_fc8_depth_fc8_0_split_1
I0131 15:32:16.303789  1964 net.cpp:141] Setting up depth_fc8_depth_fc8_0_split
I0131 15:32:16.303797  1964 net.cpp:148] Top shape: 64 51 (3264)
I0131 15:32:16.303802  1964 net.cpp:148] Top shape: 64 51 (3264)
I0131 15:32:16.303807  1964 net.cpp:156] Memory required for data: 9216145152
I0131 15:32:16.303812  1964 layer_factory.hpp:77] Creating layer rgb_accuracy
I0131 15:32:16.303820  1964 net.cpp:91] Creating Layer rgb_accuracy
I0131 15:32:16.303828  1964 net.cpp:425] rgb_accuracy <- rgb_fc8_rgb_fc8_0_split_0
I0131 15:32:16.303836  1964 net.cpp:425] rgb_accuracy <- label_data_2_split_0
…
I0131 15:32:16.321939  1964 net.cpp:49] Initializing net from parameters: 
state {
  phase: TEST
}
layer {
  name: "data"
  type: "Python"
  top: "rgb"
  top: "depth"
  top: "label"
  python_param {
    module: "data_layers.washington_data_layer"
    layer: "WashingtonDataLayer"
    param_str: "{\'img_size\': (224, 224), \'split\': \'test\', \'dataset_dir\': \'/home/kevin/dataset/washington_rgbd_dataset\', \'randomize\': False, \'mean\': (104.00698793, 116.66876762, 122.67891434), \'seed\': 1337, \'batch_size\': 1, \'crop_size\': (224, 224, 224, 224)}"
  }
}
layer {
  name: "conv1_1"
  type: "Convolution"
  bottom: "rgb"
  top: "conv1_1"
  param {
    name: "conv1_1_w"
    lr_mult: 0
    decay_mult: 1
  }
  param {
    name: "conv1_1_b"
    lr_mult: 0
    decay_mult: 0
  }
  convolution_param {
    num_output: 64
    pad: 1
    kernel_size: 3
    group: 1
    stride: 1
    weight_filler {
      type: "xavier"
    }
  }
}
layer {
  name: "relu1_1"
  type: "ReLU"
  bottom: "conv1_1"
  top: "conv1_1"
}
layer {
  name: "conv1_2"
  type: "Convolution"
  bottom: "conv1_1"
  top: "conv1_2"
  param {
    name: "conv1_2_w"
    lr_mult: 0
    decay_mult: 1
  }
  param {
    name: "conv1_2_b"
    lr_mult: 0
    decay_mult: 0
  }
  convolution_param {
    num_output: 64
    pad: 1
    kernel_size: 3
    group: 1
    stride: 1
    weight_filler {
      type: "xavier"
    }
  }
}
layer {
  name: "relu1_2"
  type: "ReLU"
  bottom: "conv1_2"
  top: "conv1_2"
}
layer {
  name: "rgb_pool1"
  type: "Pooling"
  bottom: "conv1_2"
  top: "rgb_pool1"
  pooling_param {
    pool: MAX
    kernel_size: 2
    stride: 2
  }
}
layer {
  name: "conv2_1"
  type: "Convolution"
  bottom: "rgb_pool1"
  top: "conv2_1"
  param {
    name: "conv2_1_w"
    lr_mult: 0
    decay_mult: 1
  }
  param {
    name: "conv2_1_b"
    lr_mult: 0
    decay_mult: 0
  }
  convolution_param {
    num_output: 128
    pad: 1
    kernel_size: 3
    group: 1
    stride: 1
    weight_filler {
      type: "xavier"
    }
  }
}
layer {
  name: "relu2_1"
  type: "ReLU"
  bottom: "conv2_1"
  top: "conv2_1"
}
layer {
  name: "conv2_2"
  type: "Convolution"
  bottom: "conv2_1"
  top: "conv2_2"
  param {
    name: "conv2_2_w"
    lr_mult: 0
    decay_mult: 1
  }
  param {
    name: "conv2_2_b"
    lr_mult: 0
    decay_mult: 0
  }
  convolution_param {
    num_output: 128
    pad: 1
    kernel_size: 3
    group: 1
    stride: 1
    weight_filler {
      type: "xavier"
    }
  }
}
layer {
  name: "relu2_2"
  type: "ReLU"
  bottom: "conv2_2"
  top: "conv2_2"
}
layer {
  name: "rgb_pool2"
  type: "Pooling"
  bottom: "conv2_2"
  top: "rgb_pool2"
  pooling_param {
    pool: MAX
    kernel_size: 2
    stride: 2
  }
}
layer {
  name: "conv3_1"
  type: "Convolution"
  bottom: "rgb_pool2"
  top: "conv3_1"
  param {
    name: "conv3_1_w"
    lr_mult: 0
    decay_mult: 1
  }
  param {
    name: "conv3_1_b"
    lr_mult: 0
    decay_mult: 0
  }
  convolution_param {
    num_output: 256
    pad: 1
    kernel_size: 3
    group: 1
    stride: 1
    weight_filler {
      type: "xavier"
    }
  }
}
layer {
  name: "relu3_1"
  type: "ReLU"
  bottom: "conv3_1"
  top: "conv3_1"
}
layer {
  name: "conv3_2"
  type: "Convolution"
  bottom: "conv3_1"
  top: "conv3_2"
  param {
    name: "conv3_2_w"
    lr_mult: 0
    decay_mult: 1
  }
  param {
    name: "conv3_2_b"
    lr_mult: 0
    decay_mult: 0
  }
  convolution_param {
    num_output: 256
    pad: 1
    kernel_size: 3
    group: 1
    stride: 1
    weight_filler {
      type: "xavier"
    }
  }
}
layer {
  name: "relu3_2"
  type: "ReLU"
  bottom: "conv3_2"
  top: "conv3_2"
}
layer {
  name: "conv3_3"
  type: "Convolution"
  bottom: "conv3_2"
  top: "conv3_3"
  param {
    name: "conv3_3_w"
    lr_mult: 0
    decay_mult: 1
  }
  param {
    name: "conv3_3_b"
    lr_mult: 0
    decay_mult: 0
  }
  convolution_param {
    num_output: 256
    pad: 1
    kernel_size: 3
    group: 1
    stride: 1
    weight_filler {
      type: "xavier"
    }
  }
}
layer {
  name: "relu3_3"
  type: "ReLU"
  bottom: "conv3_3"
  top: "conv3_3"
}
layer {
  name: "rgb_pool3"
  type: "Pooling"
  bottom: "conv3_3"
  top: "rgb_pool3"
  pooling_param {
    pool: MAX
    kernel_size: 2
    stride: 2
  }
}
layer {
  name: "conv4_1"
  type: "Convolution"
  bottom: "rgb_pool3"
  top: "conv4_1"
  param {
    name: "conv4_1_w"
    lr_mult: 0
    decay_mult: 1
  }
  param {
    name: "conv4_1_b"
    lr_mult: 0
    decay_mult: 0
  }
  convolution_param {
    num_output: 512
    pad: 1
    kernel_size: 3
    group: 1
    stride: 1
    weight_filler {
      type: "xavier"
    }
  }
}
layer {
  name: "relu4_1"
  type: "ReLU"
  bottom: "conv4_1"
  top: "conv4_1"
}
layer {
  name: "conv4_2"
  type: "Convolution"
  bottom: "conv4_1"
  top: "conv4_2"
  param {
    name: "conv4_2_w"
    lr_mult: 0
    decay_mult: 1
  }
  param {
    name: "conv4_2_b"
    lr_mult: 0
    decay_mult: 0
  }
  convolution_param {
    num_output: 512
    pad: 1
    kernel_size: 3
    group: 1
    stride: 1
    weight_filler {
      type: "xavier"
    }
  }
}
layer {
  name: "relu4_2"
  type: "ReLU"
  bottom: "conv4_2"
  top: "conv4_2"
}
layer {
  name: "conv4_3"
  type: "Convolution"
  bottom: "conv4_2"
  top: "conv4_3"
  param {
    name: "conv4_3_w"
    lr_mult: 0
    decay_mult: 1
  }
  param {
    name: "conv4_3_b"
    lr_mult: 0
    decay_mult: 0
  }
  convolution_param {
    num_output: 512
    pad: 1
    kernel_size: 3
    group: 1
    stride: 1
    weight_filler {
      type: "xavier"
    }
  }
}
layer {
  name: "relu4_3"
  type: "ReLU"
  bottom: "conv4_3"
  top: "conv4_3"
}
layer {
  name: "rgb_pool4"
  type: "Pooling"
  bottom: "conv4_3"
  top: "rgb_pool4"
  pooling_param {
    pool: MAX
    kernel_size: 2
    stride: 2
  }
}
layer {
  name: "conv5_1"
  type: "Convolution"
  bottom: "rgb_pool4"
  top: "conv5_1"
  param {
    name: "conv5_1_w"
    lr_mult: 0
    decay_mult: 1
  }
  param {
    name: "conv5_1_b"
    lr_mult: 0
    decay_mult: 0
  }
  convolution_param {
    num_output: 512
    pad: 1
    kernel_size: 3
    group: 1
    stride: 1
    weight_filler {
      type: "xavier"
    }
  }
}
layer {
  name: "relu5_1"
  type: "ReLU"
  bottom: "conv5_1"
  top: "conv5_1"
}
layer {
  name: "conv5_2"
  type: "Convolution"
  bottom: "conv5_1"
  top: "conv5_2"
  param {
    name: "conv5_2_w"
    lr_mult: 0
    decay_mult: 1
  }
  param {
    name: "conv5_2_b"
    lr_mult: 0
    decay_mult: 0
  }
  convolution_param {
    num_output: 512
    pad: 1
    kernel_size: 3
    group: 1
    stride: 1
    weight_filler {
      type: "xavier"
    }
  }
}
layer {
  name: "relu5_2"
  type: "ReLU"
  bottom: "conv5_2"
  top: "conv5_2"
}
layer {
  name: "conv5_3"
  type: "Convolution"
  bottom: "conv5_2"
  top: "conv5_3"
  param {
    name: "conv5_3_w"
    lr_mult: 0
    decay_mult: 1
  }
  param {
    name: "conv5_3_b"
    lr_mult: 0
    decay_mult: 0
  }
  convolution_param {
    num_output: 512
    pad: 1
    kernel_size: 3
    group: 1
    stride: 1
    weight_filler {
      type: "xavier"
    }
  }
}
layer {
  name: "relu5_3"
  type: "ReLU"
  bottom: "conv5_3"
  top: "conv5_3"
}
layer {
  name: "rgb_pool5"
  type: "Pooling"
  bottom: "conv5_3"
  top: "rgb_pool5"
  pooling_param {
    pool: MAX
    kernel_size: 2
    stride: 2
  }
}
layer {
  name: "rgb_fc6"
  type: "InnerProduct"
  bottom: "rgb_pool5"
  top: "rgb_fc6"
  param {
    lr_mult: 0
    decay_mult: 1
  }
  param {
    lr_mult: 0
    decay_mult: 0
  }
  inner_product_param {
    num_output: 4096
    weight_filler {
      type: "xavier"
    }
  }
}
layer {
  name: "rgb_relu6"
  type: "ReLU"
  bottom: "rgb_fc6"
  top: "rgb_fc6"
}
layer {
  name: "rgb_drop6"
  type: "Dropout"
  bottom: "rgb_fc6"
  top: "rgb_fc6"
  dropout_param {
    dropout_ratio: 0.5
  }
}
layer {
  name: "rgb_fc7"
  type: "InnerProduct"
  bottom: "rgb_fc6"
  top: "rgb_fc7"
  param {
    lr_mult: 0
    decay_mult: 1
  }
  param {
    lr_mult: 0
    decay_mult: 0
  }
  inner_product_param {
    num_output: 4096
    weight_filler {
      type: "xavier"
    }
  }
}
layer {
  name: "rgb_relu7"
  type: "ReLU"
  bottom: "rgb_fc7"
  top: "rgb_fc7"
}
layer {
  name: "rgb_drop7"
  type: "Dropout"
  bottom: "rgb_fc7"
  top: "rgb_fc7"
  dropout_param {
    dropout_ratio: 0.5
  }
}
layer {
  name: "rgb_fc8"
  type: "InnerProduct"
  bottom: "rgb_fc7"
  top: "rgb_fc8"
  param {
    lr_mult: 0
    decay_mult: 1
  }
  param {
    lr_mult: 0
    decay_mult: 0
  }
  inner_product_param {
    num_output: 51
    weight_filler {
      type: "xavier"
    }
  }
}
layer {
  name: "conv1"
  type: "Convolution"
  bottom: "depth"
  top: "conv1"
  param {
    name: "conv1_w"
    lr_mult: 1
    decay_mult: 1
  }
  param {
    name: "conv1_b"
    lr_mult: 2
    decay_mult: 0
  }
  convolution_param {
    num_output: 128
    pad: 2
    kernel_size: 5
    group: 1
    stride: 2
    weight_filler {
      type: "xavier"
    }
  }
}
layer {
  name: "relu1"
  type: "ReLU"
  bottom: "conv1"
  top: "conv1"
}
layer {
  name: "depth_pool1"
  type: "Pooling"
  bottom: "conv1"
  top: "depth_pool1"
  pooling_param {
    pool: MAX
    kernel_size: 3
    stride: 2
  }
}
layer {
  name: "norm1"
  type: "LRN"
  bottom: "depth_pool1"
  top: "norm1"
  lrn_param {
    local_size: 5
    alpha: 0.0005
    beta: 0.75
    k: 2
  }
}
layer {
  name: "conv2"
  type: "Convolution"
  bottom: "norm1"
  top: "conv2"
  param {
    name: "conv2_w"
    lr_mult: 1
    decay_mult: 1
  }
  param {
    name: "conv2_b"
    lr_mult: 2
    decay_mult: 0
  }
  convolution_param {
    num_output: 256
    pad: 2
    kernel_size: 5
    group: 1
    stride: 1
    weight_filler {
      type: "xavier"
    }
  }
}
layer {
  name: "relu2"
  type: "ReLU"
  bottom: "conv2"
  top: "conv2"
}
layer {
  name: "depth_pool2"
  type: "Pooling"
  bottom: "conv2"
  top: "depth_pool2"
  pooling_param {
    pool: MAX
    kernel_size: 3
    stride: 2
  }
}
layer {
  name: "norm2"
  type: "LRN"
  bottom: "depth_pool2"
  top: "norm2"
  lrn_param {
    local_size: 5
    alpha: 0.0005
    beta: 0.75
    k: 2
  }
}
layer {
  name: "conv3"
  type: "Convolution"
  bottom: "norm2"
  top: "conv3"
  param {
    name: "conv3_w"
    lr_mult: 1
    decay_mult: 1
  }
  param {
    name: "conv3_b"
    lr_mult: 2
    decay_mult: 0
  }
  convolution_param {
    num_output: 384
    pad: 1
    kernel_size: 3
    group: 2
    stride: 1
    weight_filler {
      type: "xavier"
    }
  }
}
layer {
  name: "relu3"
  type: "ReLU"
  bottom: "conv3"
  top: "conv3"
}
layer {
  name: "depth_pool3"
  type: "Pooling"
  bottom: "conv3"
  top: "depth_pool3"
  pooling_param {
    pool: MAX
    kernel_size: 3
    stride: 2
  }
}
layer {
  name: "conv4"
  type: "Convolution"
  bottom: "depth_pool3"
  top: "conv4"
  param {
    name: "conv4_w"
    lr_mult: 1
    decay_mult: 1
  }
  param {
    name: "conv4_b"
    lr_mult: 2
    decay_mult: 0
  }
  convolution_param {
    num_output: 512
    pad: 1
    kernel_size: 3
    group: 1
    stride: 1
    weight_filler {
      type: "xavier"
    }
  }
}
layer {
  name: "relu4"
  type: "ReLU"
  bottom: "conv4"
  top: "conv4"
}
layer {
  name: "conv5"
  type: "Convolution"
  bottom: "conv4"
  top: "conv5"
  param {
    name: "conv5_w"
    lr_mult: 1
    decay_mult: 1
  }
  param {
    name: "conv5_b"
    lr_mult: 2
    decay_mult: 0
  }
  convolution_param {
    num_output: 512
    pad: 1
    kernel_size: 3
    group: 1
    stride: 1
    weight_filler {
      type: "xavier"
    }
  }
}
layer {
  name: "relu5"
  type: "ReLU"
  bottom: "conv5"
  top: "conv5"
}
layer {
  name: "depth_pool5"
  type: "Pooling"
  bottom: "conv5"
  top: "depth_pool5"
  pooling_param {
    pool: MAX
    kernel_size: 3
    stride: 2
  }
}
layer {
  name: "depth_fc6"
  type: "InnerProduct"
  bottom: "depth_pool5"
  top: "depth_fc6"
  param {
    lr_mult: 1
    decay_mult: 1
  }
  param {
    lr_mult: 2
    decay_mult: 0
  }
  inner_product_param {
    num_output: 4096
    weight_filler {
      type: "xavier"
    }
  }
}
layer {
  name: "depth_relu6"
  type: "ReLU"
  bottom: "depth_fc6"
  top: "depth_fc6"
}
layer {
  name: "depth_drop6"
  type: "Dropout"
  bottom: "depth_fc6"
  top: "depth_fc6"
  dropout_param {
    dropout_ratio: 0.5
  }
}
layer {
  name: "depth_fc7"
  type: "InnerProduct"
  bottom: "depth_fc6"
  top: "depth_fc7"
  param {
    lr_mult: 1
    decay_mult: 1
  }
  param {
    lr_mult: 2
    decay_mult: 0
  }
  inner_product_param {
    num_output: 4096
    weight_filler {
      type: "xavier"
    }
  }
}
layer {
  name: "depth_relu7"
  type: "ReLU"
  bottom: "depth_fc7"
  top: "depth_fc7"
}
layer {
  name: "depth_drop7"
  type: "Dropout"
  bottom: "depth_fc7"
  top: "depth_fc7"
  dropout_param {
    dropout_ratio: 0.5
  }
}
layer {
  name: "depth_fc8"
  type: "InnerProduct"
  bottom: "depth_fc7"
  top: "depth_fc8"
  param {
    lr_mult: 1
    decay_mult: 1
  }
  param {
    lr_mult: 2
    decay_mult: 0
  }
  inner_product_param {
    num_output: 51
    weight_filler {
      type: "xavier"
    }
  }
}
layer {
  name: "rgb_accuracy"
  type: "Accuracy"
  bottom: "rgb_fc8"
  bottom: "label"
  top: "rgb_accuracy"
}
layer {
  name: "rgb_loss"
  type: "SoftmaxWithLoss"
  bottom: "rgb_fc8"
  bottom: "label"
  top: "rgb_loss"
}
layer {
  name: "depth_accuracy"
  type: "Accuracy"
  bottom: "depth_fc8"
  bottom: "label"
  top: "depth_accuracy"
}
layer {
  name: "depth_loss"
  type: "SoftmaxWithLoss"
  bottom: "depth_fc8"
  bottom: "label"
  top: "depth_loss"
}
I0131 15:32:16.323874  1964 layer_factory.hpp:77] Creating layer data
I0131 15:32:16.323928  1964 net.cpp:91] Creating Layer data
I0131 15:32:16.323936  1964 net.cpp:399] data -> rgb
I0131 15:32:16.323946  1964 net.cpp:399] data -> depth
I0131 15:32:16.323952  1964 net.cpp:399] data -> label
{'img_size': (224, 224), 'split': 'test', 'dataset_dir': '/home/kevin/dataset/washington_rgbd_dataset', 'crop_size': (224, 224, 224, 224), 'randomize': False, 'seed': 1337, 'batch_size': 1, 'mean': (104.00698793, 116.66876762, 122.67891434)}
I0131 15:32:16.327035  1964 net.cpp:141] Setting up data
I0131 15:32:16.327059  1964 net.cpp:148] Top shape: 1 3 224 224 (150528)
I0131 15:32:16.327065  1964 net.cpp:148] Top shape: 1 1 224 224 (50176)
I0131 15:32:16.327070  1964 net.cpp:148] Top shape: 1 1 (1)
I0131 15:32:16.327075  1964 net.cpp:156] Memory required for data: 802820
I0131 15:32:16.327081  1964 layer_factory.hpp:77] Creating layer label_data_2_split
I0131 15:32:16.327093  1964 net.cpp:91] Creating Layer label_data_2_split
I0131 15:32:16.327101  1964 net.cpp:425] label_data_2_split <- label
I0131 15:32:16.327111  1964 net.cpp:399] label_data_2_split -> label_data_2_split_0
I0131 15:32:16.327121  1964 net.cpp:399] label_data_2_split -> label_data_2_split_1
I0131 15:32:16.327131  1964 net.cpp:399] label_data_2_split -> label_data_2_split_2
I0131 15:32:16.327142  1964 net.cpp:399] label_data_2_split -> label_data_2_split_3
I0131 15:32:16.327203  1964 net.cpp:141] Setting up label_data_2_split
I0131 15:32:16.327211  1964 net.cpp:148] Top shape: 1 1 (1)
I0131 15:32:16.327216  1964 net.cpp:148] Top shape: 1 1 (1)
I0131 15:32:16.327220  1964 net.cpp:148] Top shape: 1 1 (1)
I0131 15:32:16.327225  1964 net.cpp:148] Top shape: 1 1 (1)
I0131 15:32:16.327229  1964 net.cpp:156] Memory required for data: 802836
I0131 15:32:16.327235  1964 layer_factory.hpp:77] Creating layer conv1_1
I0131 15:32:16.327246  1964 net.cpp:91] Creating Layer conv1_1
I0131 15:32:16.327255  1964 net.cpp:425] conv1_1 <- rgb
I0131 15:32:16.327261  1964 net.cpp:399] conv1_1 -> conv1_1
I0131 15:32:16.327468  1964 net.cpp:141] Setting up conv1_1
I0131 15:32:16.327479  1964 net.cpp:148] Top shape: 1 64 224 224 (3211264)
I0131 15:32:16.327484  1964 net.cpp:156] Memory required for data: 13647892
I0131 15:32:16.327492  1964 layer_factory.hpp:77] Creating layer relu1_1
I0131 15:32:16.327502  1964 net.cpp:91] Creating Layer relu1_1
I0131 15:32:16.327510  1964 net.cpp:425] relu1_1 <- conv1_1
I0131 15:32:16.327517  1964 net.cpp:386] relu1_1 -> conv1_1 (in-place)
I0131 15:32:16.327527  1964 net.cpp:141] Setting up relu1_1
I0131 15:32:16.327534  1964 net.cpp:148] Top shape: 1 64 224 224 (3211264)
I0131 15:32:16.327540  1964 net.cpp:156] Memory required for data: 26492948
I0131 15:32:16.327548  1964 layer_factory.hpp:77] Creating layer conv1_2
I0131 15:32:16.327556  1964 net.cpp:91] Creating Layer conv1_2
I0131 15:32:16.327563  1964 net.cpp:425] conv1_2 <- conv1_1
I0131 15:32:16.327569  1964 net.cpp:399] conv1_2 -> conv1_2
I0131 15:32:16.328229  1964 net.cpp:141] Setting up conv1_2
I0131 15:32:16.328243  1964 net.cpp:148] Top shape: 1 64 224 224 (3211264)
I0131 15:32:16.328248  1964 net.cpp:156] Memory required for data: 39338004
I0131 15:32:16.328256  1964 layer_factory.hpp:77] Creating layer relu1_2
I0131 15:32:16.328263  1964 net.cpp:91] Creating Layer relu1_2
I0131 15:32:16.328272  1964 net.cpp:425] relu1_2 <- conv1_2
I0131 15:32:16.328280  1964 net.cpp:386] relu1_2 -> conv1_2 (in-place)
I0131 15:32:16.328289  1964 net.cpp:141] Setting up relu1_2
I0131 15:32:16.328299  1964 net.cpp:148] Top shape: 1 64 224 224 (3211264)
I0131 15:32:16.328305  1964 net.cpp:156] Memory required for data: 52183060
I0131 15:32:16.328310  1964 layer_factory.hpp:77] Creating layer rgb_pool1
I0131 15:32:16.328320  1964 net.cpp:91] Creating Layer rgb_pool1
I0131 15:32:16.328327  1964 net.cpp:425] rgb_pool1 <- conv1_2
I0131 15:32:16.328335  1964 net.cpp:399] rgb_pool1 -> rgb_pool1
I0131 15:32:16.328372  1964 net.cpp:141] Setting up rgb_pool1
I0131 15:32:16.328380  1964 net.cpp:148] Top shape: 1 64 112 112 (802816)
I0131 15:32:16.328385  1964 net.cpp:156] Memory required for data: 55394324
I0131 15:32:16.328389  1964 layer_factory.hpp:77] Creating layer conv2_1
I0131 15:32:16.328397  1964 net.cpp:91] Creating Layer conv2_1
I0131 15:32:16.328403  1964 net.cpp:425] conv2_1 <- rgb_pool1
I0131 15:32:16.328413  1964 net.cpp:399] conv2_1 -> conv2_1
I0131 15:32:16.329172  1964 net.cpp:141] Setting up conv2_1
I0131 15:32:16.329185  1964 net.cpp:148] Top shape: 1 128 112 112 (1605632)
I0131 15:32:16.329190  1964 net.cpp:156] Memory required for data: 61816852
I0131 15:32:16.329197  1964 layer_factory.hpp:77] Creating layer relu2_1
I0131 15:32:16.329205  1964 net.cpp:91] Creating Layer relu2_1
I0131 15:32:16.329210  1964 net.cpp:425] relu2_1 <- conv2_1
I0131 15:32:16.329217  1964 net.cpp:386] relu2_1 -> conv2_1 (in-place)
I0131 15:32:16.329227  1964 net.cpp:141] Setting up relu2_1
I0131 15:32:16.329236  1964 net.cpp:148] Top shape: 1 128 112 112 (1605632)
I0131 15:32:16.329241  1964 net.cpp:156] Memory required for data: 68239380
I0131 15:32:16.329246  1964 layer_factory.hpp:77] Creating layer conv2_2
I0131 15:32:16.329255  1964 net.cpp:91] Creating Layer conv2_2
I0131 15:32:16.329262  1964 net.cpp:425] conv2_2 <- conv2_1
I0131 15:32:16.329272  1964 net.cpp:399] conv2_2 -> conv2_2
I0131 15:32:16.330041  1964 net.cpp:141] Setting up conv2_2
I0131 15:32:16.330052  1964 net.cpp:148] Top shape: 1 128 112 112 (1605632)
I0131 15:32:16.330059  1964 net.cpp:156] Memory required for data: 74661908
I0131 15:32:16.330063  1964 layer_factory.hpp:77] Creating layer relu2_2
I0131 15:32:16.330070  1964 net.cpp:91] Creating Layer relu2_2
I0131 15:32:16.330075  1964 net.cpp:425] relu2_2 <- conv2_2
I0131 15:32:16.330082  1964 net.cpp:386] relu2_2 -> conv2_2 (in-place)
I0131 15:32:16.330094  1964 net.cpp:141] Setting up relu2_2
I0131 15:32:16.330101  1964 net.cpp:148] Top shape: 1 128 112 112 (1605632)
I0131 15:32:16.330108  1964 net.cpp:156] Memory required for data: 81084436
I0131 15:32:16.330116  1964 layer_factory.hpp:77] Creating layer rgb_pool2
I0131 15:32:16.330124  1964 net.cpp:91] Creating Layer rgb_pool2
I0131 15:32:16.330132  1964 net.cpp:425] rgb_pool2 <- conv2_2
I0131 15:32:16.330142  1964 net.cpp:399] rgb_pool2 -> rgb_pool2
I0131 15:32:16.330179  1964 net.cpp:141] Setting up rgb_pool2
I0131 15:32:16.330188  1964 net.cpp:148] Top shape: 1 128 56 56 (401408)
I0131 15:32:16.330193  1964 net.cpp:156] Memory required for data: 82690068
I0131 15:32:16.330196  1964 layer_factory.hpp:77] Creating layer conv3_1
I0131 15:32:16.330205  1964 net.cpp:91] Creating Layer conv3_1
I0131 15:32:16.330214  1964 net.cpp:425] conv3_1 <- rgb_pool2
I0131 15:32:16.330221  1964 net.cpp:399] conv3_1 -> conv3_1
I0131 15:32:16.332028  1964 net.cpp:141] Setting up conv3_1
I0131 15:32:16.332041  1964 net.cpp:148] Top shape: 1 256 56 56 (802816)
I0131 15:32:16.332042  1964 net.cpp:156] Memory required for data: 85901332
I0131 15:32:16.332049  1964 layer_factory.hpp:77] Creating layer relu3_1
I0131 15:32:16.332054  1964 net.cpp:91] Creating Layer relu3_1
I0131 15:32:16.332056  1964 net.cpp:425] relu3_1 <- conv3_1
I0131 15:32:16.332059  1964 net.cpp:386] relu3_1 -> conv3_1 (in-place)
I0131 15:32:16.332064  1964 net.cpp:141] Setting up relu3_1
I0131 15:32:16.332067  1964 net.cpp:148] Top shape: 1 256 56 56 (802816)
I0131 15:32:16.332068  1964 net.cpp:156] Memory required for data: 89112596
I0131 15:32:16.332070  1964 layer_factory.hpp:77] Creating layer conv3_2
I0131 15:32:16.332077  1964 net.cpp:91] Creating Layer conv3_2
I0131 15:32:16.332078  1964 net.cpp:425] conv3_2 <- conv3_1
I0131 15:32:16.332082  1964 net.cpp:399] conv3_2 -> conv3_2
I0131 15:32:16.335105  1964 net.cpp:141] Setting up conv3_2
I0131 15:32:16.335114  1964 net.cpp:148] Top shape: 1 256 56 56 (802816)
I0131 15:32:16.335115  1964 net.cpp:156] Memory required for data: 92323860
I0131 15:32:16.335119  1964 layer_factory.hpp:77] Creating layer relu3_2
I0131 15:32:16.335124  1964 net.cpp:91] Creating Layer relu3_2
I0131 15:32:16.335125  1964 net.cpp:425] relu3_2 <- conv3_2
I0131 15:32:16.335129  1964 net.cpp:386] relu3_2 -> conv3_2 (in-place)
I0131 15:32:16.335132  1964 net.cpp:141] Setting up relu3_2
I0131 15:32:16.335135  1964 net.cpp:148] Top shape: 1 256 56 56 (802816)
I0131 15:32:16.335137  1964 net.cpp:156] Memory required for data: 95535124
I0131 15:32:16.335139  1964 layer_factory.hpp:77] Creating layer conv3_3
I0131 15:32:16.335146  1964 net.cpp:91] Creating Layer conv3_3
I0131 15:32:16.335149  1964 net.cpp:425] conv3_3 <- conv3_2
I0131 15:32:16.335151  1964 net.cpp:399] conv3_3 -> conv3_3
I0131 15:32:16.338147  1964 net.cpp:141] Setting up conv3_3
I0131 15:32:16.338156  1964 net.cpp:148] Top shape: 1 256 56 56 (802816)
I0131 15:32:16.338158  1964 net.cpp:156] Memory required for data: 98746388
I0131 15:32:16.338162  1964 layer_factory.hpp:77] Creating layer relu3_3
I0131 15:32:16.338166  1964 net.cpp:91] Creating Layer relu3_3
I0131 15:32:16.338170  1964 net.cpp:425] relu3_3 <- conv3_3
I0131 15:32:16.338172  1964 net.cpp:386] relu3_3 -> conv3_3 (in-place)
I0131 15:32:16.338176  1964 net.cpp:141] Setting up relu3_3
I0131 15:32:16.338178  1964 net.cpp:148] Top shape: 1 256 56 56 (802816)
I0131 15:32:16.338181  1964 net.cpp:156] Memory required for data: 101957652
I0131 15:32:16.338183  1964 layer_factory.hpp:77] Creating layer rgb_pool3
I0131 15:32:16.338187  1964 net.cpp:91] Creating Layer rgb_pool3
I0131 15:32:16.338189  1964 net.cpp:425] rgb_pool3 <- conv3_3
I0131 15:32:16.338192  1964 net.cpp:399] rgb_pool3 -> rgb_pool3
I0131 15:32:16.338217  1964 net.cpp:141] Setting up rgb_pool3
I0131 15:32:16.338220  1964 net.cpp:148] Top shape: 1 256 28 28 (200704)
I0131 15:32:16.338222  1964 net.cpp:156] Memory required for data: 102760468
I0131 15:32:16.338224  1964 layer_factory.hpp:77] Creating layer conv4_1
I0131 15:32:16.338229  1964 net.cpp:91] Creating Layer conv4_1
I0131 15:32:16.338232  1964 net.cpp:425] conv4_1 <- rgb_pool3
I0131 15:32:16.338235  1964 net.cpp:399] conv4_1 -> conv4_1
I0131 15:32:16.345851  1964 net.cpp:141] Setting up conv4_1
I0131 15:32:16.345880  1964 net.cpp:148] Top shape: 1 512 28 28 (401408)
I0131 15:32:16.345885  1964 net.cpp:156] Memory required for data: 104366100
I0131 15:32:16.345895  1964 layer_factory.hpp:77] Creating layer relu4_1
I0131 15:32:16.345904  1964 net.cpp:91] Creating Layer relu4_1
I0131 15:32:16.345911  1964 net.cpp:425] relu4_1 <- conv4_1
I0131 15:32:16.345916  1964 net.cpp:386] relu4_1 -> conv4_1 (in-place)
I0131 15:32:16.345926  1964 net.cpp:141] Setting up relu4_1
I0131 15:32:16.345929  1964 net.cpp:148] Top shape: 1 512 28 28 (401408)
I0131 15:32:16.345935  1964 net.cpp:156] Memory required for data: 105971732
I0131 15:32:16.345939  1964 layer_factory.hpp:77] Creating layer conv4_2
I0131 15:32:16.345948  1964 net.cpp:91] Creating Layer conv4_2
I0131 15:32:16.345953  1964 net.cpp:425] conv4_2 <- conv4_1
I0131 15:32:16.345958  1964 net.cpp:399] conv4_2 -> conv4_2
I0131 15:32:16.358041  1964 net.cpp:141] Setting up conv4_2
I0131 15:32:16.358072  1964 net.cpp:148] Top shape: 1 512 28 28 (401408)
I0131 15:32:16.358077  1964 net.cpp:156] Memory required for data: 107577364
I0131 15:32:16.358091  1964 layer_factory.hpp:77] Creating layer relu4_2
I0131 15:32:16.358100  1964 net.cpp:91] Creating Layer relu4_2
I0131 15:32:16.358106  1964 net.cpp:425] relu4_2 <- conv4_2
I0131 15:32:16.358114  1964 net.cpp:386] relu4_2 -> conv4_2 (in-place)
I0131 15:32:16.358122  1964 net.cpp:141] Setting up relu4_2
I0131 15:32:16.358126  1964 net.cpp:148] Top shape: 1 512 28 28 (401408)
I0131 15:32:16.358130  1964 net.cpp:156] Memory required for data: 109182996
I0131 15:32:16.358134  1964 layer_factory.hpp:77] Creating layer conv4_3
I0131 15:32:16.358142  1964 net.cpp:91] Creating Layer conv4_3
I0131 15:32:16.358147  1964 net.cpp:425] conv4_3 <- conv4_2
I0131 15:32:16.358153  1964 net.cpp:399] conv4_3 -> conv4_3
I0131 15:32:16.370874  1964 net.cpp:141] Setting up conv4_3
I0131 15:32:16.370903  1964 net.cpp:148] Top shape: 1 512 28 28 (401408)
I0131 15:32:16.370910  1964 net.cpp:156] Memory required for data: 110788628
I0131 15:32:16.370920  1964 layer_factory.hpp:77] Creating layer relu4_3
I0131 15:32:16.370931  1964 net.cpp:91] Creating Layer relu4_3
I0131 15:32:16.370937  1964 net.cpp:425] relu4_3 <- conv4_3
I0131 15:32:16.370944  1964 net.cpp:386] relu4_3 -> conv4_3 (in-place)
I0131 15:32:16.370954  1964 net.cpp:141] Setting up relu4_3
I0131 15:32:16.370959  1964 net.cpp:148] Top shape: 1 512 28 28 (401408)
I0131 15:32:16.370962  1964 net.cpp:156] Memory required for data: 112394260
I0131 15:32:16.370966  1964 layer_factory.hpp:77] Creating layer rgb_pool4
I0131 15:32:16.370973  1964 net.cpp:91] Creating Layer rgb_pool4
I0131 15:32:16.370978  1964 net.cpp:425] rgb_pool4 <- conv4_3
I0131 15:32:16.370983  1964 net.cpp:399] rgb_pool4 -> rgb_pool4
I0131 15:32:16.371008  1964 net.cpp:141] Setting up rgb_pool4
I0131 15:32:16.371016  1964 net.cpp:148] Top shape: 1 512 14 14 (100352)
I0131 15:32:16.371021  1964 net.cpp:156] Memory required for data: 112795668
I0131 15:32:16.371026  1964 layer_factory.hpp:77] Creating layer conv5_1
I0131 15:32:16.371034  1964 net.cpp:91] Creating Layer conv5_1
I0131 15:32:16.371039  1964 net.cpp:425] conv5_1 <- rgb_pool4
I0131 15:32:16.371045  1964 net.cpp:399] conv5_1 -> conv5_1
I0131 15:32:16.386006  1964 net.cpp:141] Setting up conv5_1
I0131 15:32:16.386036  1964 net.cpp:148] Top shape: 1 512 14 14 (100352)
I0131 15:32:16.386041  1964 net.cpp:156] Memory required for data: 113197076
I0131 15:32:16.386050  1964 layer_factory.hpp:77] Creating layer relu5_1
I0131 15:32:16.386066  1964 net.cpp:91] Creating Layer relu5_1
I0131 15:32:16.386073  1964 net.cpp:425] relu5_1 <- conv5_1
I0131 15:32:16.386080  1964 net.cpp:386] relu5_1 -> conv5_1 (in-place)
I0131 15:32:16.386088  1964 net.cpp:141] Setting up relu5_1
I0131 15:32:16.386093  1964 net.cpp:148] Top shape: 1 512 14 14 (100352)
I0131 15:32:16.386096  1964 net.cpp:156] Memory required for data: 113598484
I0131 15:32:16.386101  1964 layer_factory.hpp:77] Creating layer conv5_2
I0131 15:32:16.386111  1964 net.cpp:91] Creating Layer conv5_2
I0131 15:32:16.386116  1964 net.cpp:425] conv5_2 <- conv5_1
I0131 15:32:16.386122  1964 net.cpp:399] conv5_2 -> conv5_2
I0131 15:32:16.398767  1964 net.cpp:141] Setting up conv5_2
I0131 15:32:16.398798  1964 net.cpp:148] Top shape: 1 512 14 14 (100352)
I0131 15:32:16.398803  1964 net.cpp:156] Memory required for data: 113999892
I0131 15:32:16.398813  1964 layer_factory.hpp:77] Creating layer relu5_2
I0131 15:32:16.398823  1964 net.cpp:91] Creating Layer relu5_2
I0131 15:32:16.398829  1964 net.cpp:425] relu5_2 <- conv5_2
I0131 15:32:16.398835  1964 net.cpp:386] relu5_2 -> conv5_2 (in-place)
I0131 15:32:16.398844  1964 net.cpp:141] Setting up relu5_2
I0131 15:32:16.398849  1964 net.cpp:148] Top shape: 1 512 14 14 (100352)
I0131 15:32:16.398854  1964 net.cpp:156] Memory required for data: 114401300
I0131 15:32:16.398857  1964 layer_factory.hpp:77] Creating layer conv5_3
I0131 15:32:16.398866  1964 net.cpp:91] Creating Layer conv5_3
I0131 15:32:16.398870  1964 net.cpp:425] conv5_3 <- conv5_2
I0131 15:32:16.398875  1964 net.cpp:399] conv5_3 -> conv5_3
I0131 15:32:16.411703  1964 net.cpp:141] Setting up conv5_3
I0131 15:32:16.411756  1964 net.cpp:148] Top shape: 1 512 14 14 (100352)
I0131 15:32:16.411761  1964 net.cpp:156] Memory required for data: 114802708
I0131 15:32:16.411775  1964 layer_factory.hpp:77] Creating layer relu5_3
I0131 15:32:16.411790  1964 net.cpp:91] Creating Layer relu5_3
I0131 15:32:16.411798  1964 net.cpp:425] relu5_3 <- conv5_3
I0131 15:32:16.411804  1964 net.cpp:386] relu5_3 -> conv5_3 (in-place)
I0131 15:32:16.411815  1964 net.cpp:141] Setting up relu5_3
I0131 15:32:16.411821  1964 net.cpp:148] Top shape: 1 512 14 14 (100352)
I0131 15:32:16.411828  1964 net.cpp:156] Memory required for data: 115204116
I0131 15:32:16.411831  1964 layer_factory.hpp:77] Creating layer rgb_pool5
I0131 15:32:16.411845  1964 net.cpp:91] Creating Layer rgb_pool5
I0131 15:32:16.411849  1964 net.cpp:425] rgb_pool5 <- conv5_3
I0131 15:32:16.411856  1964 net.cpp:399] rgb_pool5 -> rgb_pool5
I0131 15:32:16.411900  1964 net.cpp:141] Setting up rgb_pool5
I0131 15:32:16.411912  1964 net.cpp:148] Top shape: 1 512 7 7 (25088)
I0131 15:32:16.411921  1964 net.cpp:156] Memory required for data: 115304468
I0131 15:32:16.411928  1964 layer_factory.hpp:77] Creating layer rgb_fc6
I0131 15:32:16.411942  1964 net.cpp:91] Creating Layer rgb_fc6
I0131 15:32:16.411952  1964 net.cpp:425] rgb_fc6 <- rgb_pool5
I0131 15:32:16.411963  1964 net.cpp:399] rgb_fc6 -> rgb_fc6
I0131 15:32:17.001854  1964 net.cpp:141] Setting up rgb_fc6
I0131 15:32:17.001886  1964 net.cpp:148] Top shape: 1 4096 (4096)
I0131 15:32:17.001891  1964 net.cpp:156] Memory required for data: 115320852
I0131 15:32:17.001901  1964 layer_factory.hpp:77] Creating layer rgb_relu6
I0131 15:32:17.001914  1964 net.cpp:91] Creating Layer rgb_relu6
I0131 15:32:17.001920  1964 net.cpp:425] rgb_relu6 <- rgb_fc6
I0131 15:32:17.001931  1964 net.cpp:386] rgb_relu6 -> rgb_fc6 (in-place)
I0131 15:32:17.001962  1964 net.cpp:141] Setting up rgb_relu6
I0131 15:32:17.001971  1964 net.cpp:148] Top shape: 1 4096 (4096)
I0131 15:32:17.001977  1964 net.cpp:156] Memory required for data: 115337236
I0131 15:32:17.001984  1964 layer_factory.hpp:77] Creating layer rgb_drop6
I0131 15:32:17.001994  1964 net.cpp:91] Creating Layer rgb_drop6
I0131 15:32:17.002002  1964 net.cpp:425] rgb_drop6 <- rgb_fc6
I0131 15:32:17.002012  1964 net.cpp:386] rgb_drop6 -> rgb_fc6 (in-place)
I0131 15:32:17.002040  1964 net.cpp:141] Setting up rgb_drop6
I0131 15:32:17.002053  1964 net.cpp:148] Top shape: 1 4096 (4096)
I0131 15:32:17.002058  1964 net.cpp:156] Memory required for data: 115353620
I0131 15:32:17.002061  1964 layer_factory.hpp:77] Creating layer rgb_fc7
I0131 15:32:17.002069  1964 net.cpp:91] Creating Layer rgb_fc7
I0131 15:32:17.002074  1964 net.cpp:425] rgb_fc7 <- rgb_fc6
I0131 15:32:17.002079  1964 net.cpp:399] rgb_fc7 -> rgb_fc7
I0131 15:32:17.092404  1964 net.cpp:141] Setting up rgb_fc7
I0131 15:32:17.092440  1964 net.cpp:148] Top shape: 1 4096 (4096)
I0131 15:32:17.092445  1964 net.cpp:156] Memory required for data: 115370004
I0131 15:32:17.092455  1964 layer_factory.hpp:77] Creating layer rgb_relu7
I0131 15:32:17.092468  1964 net.cpp:91] Creating Layer rgb_relu7
I0131 15:32:17.092474  1964 net.cpp:425] rgb_relu7 <- rgb_fc7
I0131 15:32:17.092481  1964 net.cpp:386] rgb_relu7 -> rgb_fc7 (in-place)
I0131 15:32:17.092491  1964 net.cpp:141] Setting up rgb_relu7
I0131 15:32:17.092497  1964 net.cpp:148] Top shape: 1 4096 (4096)
I0131 15:32:17.092500  1964 net.cpp:156] Memory required for data: 115386388
I0131 15:32:17.092504  1964 layer_factory.hpp:77] Creating layer rgb_drop7
I0131 15:32:17.092511  1964 net.cpp:91] Creating Layer rgb_drop7
I0131 15:32:17.092516  1964 net.cpp:425] rgb_drop7 <- rgb_fc7
I0131 15:32:17.092520  1964 net.cpp:386] rgb_drop7 -> rgb_fc7 (in-place)
I0131 15:32:17.092537  1964 net.cpp:141] Setting up rgb_drop7
I0131 15:32:17.092542  1964 net.cpp:148] Top shape: 1 4096 (4096)
I0131 15:32:17.092547  1964 net.cpp:156] Memory required for data: 115402772
I0131 15:32:17.092551  1964 layer_factory.hpp:77] Creating layer rgb_fc8
I0131 15:32:17.092558  1964 net.cpp:91] Creating Layer rgb_fc8
I0131 15:32:17.092562  1964 net.cpp:425] rgb_fc8 <- rgb_fc7
I0131 15:32:17.092567  1964 net.cpp:399] rgb_fc8 -> rgb_fc8
I0131 15:32:17.093809  1964 net.cpp:141] Setting up rgb_fc8
I0131 15:32:17.093822  1964 net.cpp:148] Top shape: 1 51 (51)
I0131 15:32:17.093827  1964 net.cpp:156] Memory required for data: 115402976
I0131 15:32:17.093835  1964 layer_factory.hpp:77] Creating layer rgb_fc8_rgb_fc8_0_split
I0131 15:32:17.093842  1964 net.cpp:91] Creating Layer rgb_fc8_rgb_fc8_0_split
I0131 15:32:17.093847  1964 net.cpp:425] rgb_fc8_rgb_fc8_0_split <- rgb_fc8
I0131 15:32:17.093853  1964 net.cpp:399] rgb_fc8_rgb_fc8_0_split -> rgb_fc8_rgb_fc8_0_split_0
I0131 15:32:17.093860  1964 net.cpp:399] rgb_fc8_rgb_fc8_0_split -> rgb_fc8_rgb_fc8_0_split_1
I0131 15:32:17.093885  1964 net.cpp:141] Setting up rgb_fc8_rgb_fc8_0_split
I0131 15:32:17.093893  1964 net.cpp:148] Top shape: 1 51 (51)
I0131 15:32:17.093897  1964 net.cpp:148] Top shape: 1 51 (51)
I0131 15:32:17.093902  1964 net.cpp:156] Memory required for data: 115403384
I0131 15:32:17.093906  1964 layer_factory.hpp:77] Creating layer conv1
I0131 15:32:17.093915  1964 net.cpp:91] Creating Layer conv1
I0131 15:32:17.093920  1964 net.cpp:425] conv1 <- depth
I0131 15:32:17.093926  1964 net.cpp:399] conv1 -> conv1
I0131 15:32:17.094095  1964 net.cpp:141] Setting up conv1
I0131 15:32:17.094105  1964 net.cpp:148] Top shape: 1 128 112 112 (1605632)
I0131 15:32:17.094111  1964 net.cpp:156] Memory required for data: 121825912
I0131 15:32:17.094123  1964 layer_factory.hpp:77] Creating layer relu1
I0131 15:32:17.094130  1964 net.cpp:91] Creating Layer relu1
I0131 15:32:17.094135  1964 net.cpp:425] relu1 <- conv1
I0131 15:32:17.094139  1964 net.cpp:386] relu1 -> conv1 (in-place)
I0131 15:32:17.094146  1964 net.cpp:141] Setting up relu1
I0131 15:32:17.094152  1964 net.cpp:148] Top shape: 1 128 112 112 (1605632)
I0131 15:32:17.094156  1964 net.cpp:156] Memory required for data: 128248440
I0131 15:32:17.094161  1964 layer_factory.hpp:77] Creating layer depth_pool1
I0131 15:32:17.094166  1964 net.cpp:91] Creating Layer depth_pool1
I0131 15:32:17.094172  1964 net.cpp:425] depth_pool1 <- conv1
I0131 15:32:17.094177  1964 net.cpp:399] depth_pool1 -> depth_pool1
I0131 15:32:17.094203  1964 net.cpp:141] Setting up depth_pool1
I0131 15:32:17.094210  1964 net.cpp:148] Top shape: 1 128 56 56 (401408)
I0131 15:32:17.094215  1964 net.cpp:156] Memory required for data: 129854072
I0131 15:32:17.094219  1964 layer_factory.hpp:77] Creating layer norm1
I0131 15:32:17.094225  1964 net.cpp:91] Creating Layer norm1
I0131 15:32:17.094229  1964 net.cpp:425] norm1 <- depth_pool1
I0131 15:32:17.094244  1964 net.cpp:399] norm1 -> norm1
I0131 15:32:17.094280  1964 net.cpp:141] Setting up norm1
I0131 15:32:17.094288  1964 net.cpp:148] Top shape: 1 128 56 56 (401408)
I0131 15:32:17.094292  1964 net.cpp:156] Memory required for data: 131459704
I0131 15:32:17.094297  1964 layer_factory.hpp:77] Creating layer conv2
I0131 15:32:17.094305  1964 net.cpp:91] Creating Layer conv2
I0131 15:32:17.094310  1964 net.cpp:425] conv2 <- norm1
I0131 15:32:17.094317  1964 net.cpp:399] conv2 -> conv2
I0131 15:32:17.098479  1964 net.cpp:141] Setting up conv2
I0131 15:32:17.098511  1964 net.cpp:148] Top shape: 1 256 56 56 (802816)
I0131 15:32:17.098520  1964 net.cpp:156] Memory required for data: 134670968
I0131 15:32:17.098529  1964 layer_factory.hpp:77] Creating layer relu2
I0131 15:32:17.098541  1964 net.cpp:91] Creating Layer relu2
I0131 15:32:17.098546  1964 net.cpp:425] relu2 <- conv2
I0131 15:32:17.098551  1964 net.cpp:386] relu2 -> conv2 (in-place)
I0131 15:32:17.098559  1964 net.cpp:141] Setting up relu2
I0131 15:32:17.098564  1964 net.cpp:148] Top shape: 1 256 56 56 (802816)
I0131 15:32:17.098569  1964 net.cpp:156] Memory required for data: 137882232
I0131 15:32:17.098573  1964 layer_factory.hpp:77] Creating layer depth_pool2
I0131 15:32:17.098580  1964 net.cpp:91] Creating Layer depth_pool2
I0131 15:32:17.098585  1964 net.cpp:425] depth_pool2 <- conv2
I0131 15:32:17.098592  1964 net.cpp:399] depth_pool2 -> depth_pool2
I0131 15:32:17.098618  1964 net.cpp:141] Setting up depth_pool2
I0131 15:32:17.098624  1964 net.cpp:148] Top shape: 1 256 28 28 (200704)
I0131 15:32:17.098629  1964 net.cpp:156] Memory required for data: 138685048
I0131 15:32:17.098634  1964 layer_factory.hpp:77] Creating layer norm2
I0131 15:32:17.098641  1964 net.cpp:91] Creating Layer norm2
I0131 15:32:17.098645  1964 net.cpp:425] norm2 <- depth_pool2
I0131 15:32:17.098650  1964 net.cpp:399] norm2 -> norm2
I0131 15:32:17.098675  1964 net.cpp:141] Setting up norm2
I0131 15:32:17.098680  1964 net.cpp:148] Top shape: 1 256 28 28 (200704)
I0131 15:32:17.098685  1964 net.cpp:156] Memory required for data: 139487864
I0131 15:32:17.098690  1964 layer_factory.hpp:77] Creating layer conv3
I0131 15:32:17.098697  1964 net.cpp:91] Creating Layer conv3
I0131 15:32:17.098701  1964 net.cpp:425] conv3 <- norm2
I0131 15:32:17.098708  1964 net.cpp:399] conv3 -> conv3
I0131 15:32:17.101586  1964 net.cpp:141] Setting up conv3
I0131 15:32:17.101616  1964 net.cpp:148] Top shape: 1 384 28 28 (301056)
I0131 15:32:17.101624  1964 net.cpp:156] Memory required for data: 140692088
I0131 15:32:17.101635  1964 layer_factory.hpp:77] Creating layer relu3
I0131 15:32:17.101645  1964 net.cpp:91] Creating Layer relu3
I0131 15:32:17.101651  1964 net.cpp:425] relu3 <- conv3
I0131 15:32:17.101658  1964 net.cpp:386] relu3 -> conv3 (in-place)
I0131 15:32:17.101665  1964 net.cpp:141] Setting up relu3
I0131 15:32:17.101671  1964 net.cpp:148] Top shape: 1 384 28 28 (301056)
I0131 15:32:17.101675  1964 net.cpp:156] Memory required for data: 141896312
I0131 15:32:17.101680  1964 layer_factory.hpp:77] Creating layer depth_pool3
I0131 15:32:17.101687  1964 net.cpp:91] Creating Layer depth_pool3
I0131 15:32:17.101692  1964 net.cpp:425] depth_pool3 <- conv3
I0131 15:32:17.101698  1964 net.cpp:399] depth_pool3 -> depth_pool3
I0131 15:32:17.101725  1964 net.cpp:141] Setting up depth_pool3
I0131 15:32:17.101732  1964 net.cpp:148] Top shape: 1 384 14 14 (75264)
I0131 15:32:17.101737  1964 net.cpp:156] Memory required for data: 142197368
I0131 15:32:17.101742  1964 layer_factory.hpp:77] Creating layer conv4
I0131 15:32:17.101752  1964 net.cpp:91] Creating Layer conv4
I0131 15:32:17.101757  1964 net.cpp:425] conv4 <- depth_pool3
I0131 15:32:17.101763  1964 net.cpp:399] conv4 -> conv4
I0131 15:32:17.111802  1964 net.cpp:141] Setting up conv4
I0131 15:32:17.111842  1964 net.cpp:148] Top shape: 1 512 14 14 (100352)
I0131 15:32:17.111850  1964 net.cpp:156] Memory required for data: 142598776
I0131 15:32:17.111865  1964 layer_factory.hpp:77] Creating layer relu4
I0131 15:32:17.111881  1964 net.cpp:91] Creating Layer relu4
I0131 15:32:17.111889  1964 net.cpp:425] relu4 <- conv4
I0131 15:32:17.111902  1964 net.cpp:386] relu4 -> conv4 (in-place)
I0131 15:32:17.111917  1964 net.cpp:141] Setting up relu4
I0131 15:32:17.111925  1964 net.cpp:148] Top shape: 1 512 14 14 (100352)
I0131 15:32:17.111933  1964 net.cpp:156] Memory required for data: 143000184
I0131 15:32:17.111943  1964 layer_factory.hpp:77] Creating layer conv5
I0131 15:32:17.111958  1964 net.cpp:91] Creating Layer conv5
I0131 15:32:17.111966  1964 net.cpp:425] conv5 <- conv4
I0131 15:32:17.111977  1964 net.cpp:399] conv5 -> conv5
I0131 15:32:17.127714  1964 net.cpp:141] Setting up conv5
I0131 15:32:17.127748  1964 net.cpp:148] Top shape: 1 512 14 14 (100352)
I0131 15:32:17.127751  1964 net.cpp:156] Memory required for data: 143401592
I0131 15:32:17.127763  1964 layer_factory.hpp:77] Creating layer relu5
I0131 15:32:17.127773  1964 net.cpp:91] Creating Layer relu5
I0131 15:32:17.127779  1964 net.cpp:425] relu5 <- conv5
I0131 15:32:17.127786  1964 net.cpp:386] relu5 -> conv5 (in-place)
I0131 15:32:17.127794  1964 net.cpp:141] Setting up relu5
I0131 15:32:17.127799  1964 net.cpp:148] Top shape: 1 512 14 14 (100352)
I0131 15:32:17.127804  1964 net.cpp:156] Memory required for data: 143803000
I0131 15:32:17.127807  1964 layer_factory.hpp:77] Creating layer depth_pool5
I0131 15:32:17.127815  1964 net.cpp:91] Creating Layer depth_pool5
I0131 15:32:17.127820  1964 net.cpp:425] depth_pool5 <- conv5
I0131 15:32:17.127825  1964 net.cpp:399] depth_pool5 -> depth_pool5
I0131 15:32:17.127854  1964 net.cpp:141] Setting up depth_pool5
I0131 15:32:17.127861  1964 net.cpp:148] Top shape: 1 512 7 7 (25088)
I0131 15:32:17.127864  1964 net.cpp:156] Memory required for data: 143903352
I0131 15:32:17.127868  1964 layer_factory.hpp:77] Creating layer depth_fc6
I0131 15:32:17.127876  1964 net.cpp:91] Creating Layer depth_fc6
I0131 15:32:17.127882  1964 net.cpp:425] depth_fc6 <- depth_pool5
I0131 15:32:17.127887  1964 net.cpp:399] depth_fc6 -> depth_fc6
I0131 15:32:17.705727  1964 net.cpp:141] Setting up depth_fc6
I0131 15:32:17.705772  1964 net.cpp:148] Top shape: 1 4096 (4096)
I0131 15:32:17.705785  1964 net.cpp:156] Memory required for data: 143919736
I0131 15:32:17.705802  1964 layer_factory.hpp:77] Creating layer depth_relu6
I0131 15:32:17.705819  1964 net.cpp:91] Creating Layer depth_relu6
I0131 15:32:17.705831  1964 net.cpp:425] depth_relu6 <- depth_fc6
I0131 15:32:17.705844  1964 net.cpp:386] depth_relu6 -> depth_fc6 (in-place)
I0131 15:32:17.705860  1964 net.cpp:141] Setting up depth_relu6
I0131 15:32:17.705871  1964 net.cpp:148] Top shape: 1 4096 (4096)
I0131 15:32:17.705880  1964 net.cpp:156] Memory required for data: 143936120
I0131 15:32:17.705888  1964 layer_factory.hpp:77] Creating layer depth_drop6
I0131 15:32:17.705900  1964 net.cpp:91] Creating Layer depth_drop6
I0131 15:32:17.705909  1964 net.cpp:425] depth_drop6 <- depth_fc6
I0131 15:32:17.705919  1964 net.cpp:386] depth_drop6 -> depth_fc6 (in-place)
I0131 15:32:17.705960  1964 net.cpp:141] Setting up depth_drop6
I0131 15:32:17.705971  1964 net.cpp:148] Top shape: 1 4096 (4096)
I0131 15:32:17.705981  1964 net.cpp:156] Memory required for data: 143952504
I0131 15:32:17.705989  1964 layer_factory.hpp:77] Creating layer depth_fc7
I0131 15:32:17.706003  1964 net.cpp:91] Creating Layer depth_fc7
I0131 15:32:17.706012  1964 net.cpp:425] depth_fc7 <- depth_fc6
I0131 15:32:17.706023  1964 net.cpp:399] depth_fc7 -> depth_fc7
I0131 15:32:17.819306  1964 net.cpp:141] Setting up depth_fc7
I0131 15:32:17.819345  1964 net.cpp:148] Top shape: 1 4096 (4096)
I0131 15:32:17.819355  1964 net.cpp:156] Memory required for data: 143968888
I0131 15:32:17.819372  1964 layer_factory.hpp:77] Creating layer depth_relu7
I0131 15:32:17.819387  1964 net.cpp:91] Creating Layer depth_relu7
I0131 15:32:17.819397  1964 net.cpp:425] depth_relu7 <- depth_fc7
I0131 15:32:17.819409  1964 net.cpp:386] depth_relu7 -> depth_fc7 (in-place)
I0131 15:32:17.819423  1964 net.cpp:141] Setting up depth_relu7
I0131 15:32:17.819433  1964 net.cpp:148] Top shape: 1 4096 (4096)
I0131 15:32:17.819442  1964 net.cpp:156] Memory required for data: 143985272
I0131 15:32:17.819449  1964 layer_factory.hpp:77] Creating layer depth_drop7
I0131 15:32:17.819460  1964 net.cpp:91] Creating Layer depth_drop7
I0131 15:32:17.819468  1964 net.cpp:425] depth_drop7 <- depth_fc7
I0131 15:32:17.819478  1964 net.cpp:386] depth_drop7 -> depth_fc7 (in-place)
I0131 15:32:17.819514  1964 net.cpp:141] Setting up depth_drop7
I0131 15:32:17.819526  1964 net.cpp:148] Top shape: 1 4096 (4096)
I0131 15:32:17.819535  1964 net.cpp:156] Memory required for data: 144001656
I0131 15:32:17.819541  1964 layer_factory.hpp:77] Creating layer depth_fc8
I0131 15:32:17.819553  1964 net.cpp:91] Creating Layer depth_fc8
I0131 15:32:17.819561  1964 net.cpp:425] depth_fc8 <- depth_fc7
I0131 15:32:17.819571  1964 net.cpp:399] depth_fc8 -> depth_fc8
I0131 15:32:17.821424  1964 net.cpp:141] Setting up depth_fc8
I0131 15:32:17.821451  1964 net.cpp:148] Top shape: 1 51 (51)
I0131 15:32:17.821462  1964 net.cpp:156] Memory required for data: 144001860
I0131 15:32:17.821475  1964 layer_factory.hpp:77] Creating layer depth_fc8_depth_fc8_0_split
I0131 15:32:17.821496  1964 net.cpp:91] Creating Layer depth_fc8_depth_fc8_0_split
I0131 15:32:17.821506  1964 net.cpp:425] depth_fc8_depth_fc8_0_split <- depth_fc8
I0131 15:32:17.821517  1964 net.cpp:399] depth_fc8_depth_fc8_0_split -> depth_fc8_depth_fc8_0_split_0
I0131 15:32:17.821532  1964 net.cpp:399] depth_fc8_depth_fc8_0_split -> depth_fc8_depth_fc8_0_split_1
I0131 15:32:17.821583  1964 net.cpp:141] Setting up depth_fc8_depth_fc8_0_split
I0131 15:32:17.821599  1964 net.cpp:148] Top shape: 1 51 (51)
I0131 15:32:17.821609  1964 net.cpp:148] Top shape: 1 51 (51)
I0131 15:32:17.821615  1964 net.cpp:156] Memory required for data: 144002268
I0131 15:32:17.821625  1964 layer_factory.hpp:77] Creating layer rgb_accuracy
I0131 15:32:17.821637  1964 net.cpp:91] Creating Layer rgb_accuracy
I0131 15:32:17.821647  1964 net.cpp:425] rgb_accuracy <- rgb_fc8_rgb_fc8_0_split_0
I0131 15:32:17.821657  1964 net.cpp:425] rgb_accuracy <- label_data_2_split_0
I0131 15:32:17.821668  1964 net.cpp:399] rgb_accuracy -> rgb_accuracy
…
