…
I1105 05:14:42.539762  9049 solver.cpp:81] Creating training net from train_net file: train.prototxt
I1105 05:14:42.540446  9049 net.cpp:49] Initializing net from parameters: 
state {
  phase: TRAIN
}
layer {
  name: "img"
  type: "Python"
  top: "img"
  top: "label"
  python_param {
    module: "data_layers.model_net_layer"
    layer: "ModelNetDataLayer"
    param_str: "{\'img_size\': (250, 250), \'dtype\': \'frame\', \'batch_size\': 128, \'seed\': 1337, \'split\': \'train\', \'dataset_dir\': \'/home/kevin/dataset/processed_data\', \'mean\': 2}"
  }
}
layer {
  name: "conv1"
  type: "Convolution"
  bottom: "img"
  top: "conv1"
  param {
    name: "conv1_w"
    lr_mult: 1
    decay_mult: 1
  }
  param {
    name: "conv1_b"
    lr_mult: 2
    decay_mult: 0
  }
  convolution_param {
    num_output: 96
    pad: 0
    kernel_size: 11
    group: 1
    stride: 4
    weight_filler {
      type: "xavier"
    }
  }
}
layer {
  name: "relu1"
  type: "ReLU"
  bottom: "conv1"
  top: "conv1"
}
layer {
  name: "pool1"
  type: "Pooling"
  bottom: "conv1"
  top: "pool1"
  pooling_param {
    pool: MAX
    kernel_size: 3
    stride: 2
  }
}
layer {
  name: "norm1"
  type: "LRN"
  bottom: "pool1"
  top: "norm1"
  lrn_param {
    local_size: 5
    alpha: 0.0005
    beta: 0.75
    k: 2
  }
}
layer {
  name: "conv2"
  type: "Convolution"
  bottom: "norm1"
  top: "conv2"
  param {
    name: "conv2_w"
    lr_mult: 1
    decay_mult: 1
  }
  param {
    name: "conv2_b"
    lr_mult: 2
    decay_mult: 0
  }
  convolution_param {
    num_output: 256
    pad: 2
    kernel_size: 5
    group: 2
    stride: 1
    weight_filler {
      type: "xavier"
    }
  }
}
layer {
  name: "relu2"
  type: "ReLU"
  bottom: "conv2"
  top: "conv2"
}
layer {
  name: "pool2"
  type: "Pooling"
  bottom: "conv2"
  top: "pool2"
  pooling_param {
    pool: MAX
    kernel_size: 3
    stride: 2
  }
}
layer {
  name: "norm2"
  type: "LRN"
  bottom: "pool2"
  top: "norm2"
  lrn_param {
    local_size: 5
    alpha: 0.0005
    beta: 0.75
    k: 2
  }
}
layer {
  name: "conv3"
  type: "Convolution"
  bottom: "norm2"
  top: "conv3"
  param {
    name: "conv3_w"
    lr_mult: 1
    decay_mult: 1
  }
  param {
    name: "conv3_b"
    lr_mult: 2
    decay_mult: 0
  }
  convolution_param {
    num_output: 384
    pad: 1
    kernel_size: 3
    group: 2
    stride: 1
    weight_filler {
      type: "xavier"
    }
  }
}
layer {
  name: "relu3"
  type: "ReLU"
  bottom: "conv3"
  top: "conv3"
}
layer {
  name: "conv4"
  type: "Convolution"
  bottom: "conv3"
  top: "conv4"
  param {
    name: "conv4_w"
    lr_mult: 1
    decay_mult: 1
  }
  param {
    name: "conv4_b"
    lr_mult: 2
    decay_mult: 0
  }
  convolution_param {
    num_output: 256
    pad: 1
    kernel_size: 3
    group: 2
    stride: 1
    weight_filler {
      type: "xavier"
    }
  }
}
layer {
  name: "relu4"
  type: "ReLU"
  bottom: "conv4"
  top: "conv4"
}
layer {
  name: "pool5"
  type: "Pooling"
  bottom: "conv4"
  top: "pool5"
  pooling_param {
    pool: MAX
    kernel_size: 3
    stride: 2
  }
}
layer {
  name: "fc6"
  type: "InnerProduct"
  bottom: "pool5"
  top: "fc6"
  param {
    lr_mult: 1
    decay_mult: 1
  }
  param {
    lr_mult: 2
    decay_mult: 0
  }
  inner_product_param {
    num_output: 4096
    weight_filler {
      type: "xavier"
    }
  }
}
layer {
  name: "relu6"
  type: "ReLU"
  bottom: "fc6"
  top: "fc6"
}
layer {
  name: "drop6"
  type: "Dropout"
  bottom: "fc6"
  top: "fc6"
  dropout_param {
    dropout_ratio: 0.5
  }
}
layer {
  name: "fc7"
  type: "InnerProduct"
  bottom: "fc6"
  top: "fc7"
  param {
    lr_mult: 1
    decay_mult: 1
  }
  param {
    lr_mult: 2
    decay_mult: 0
  }
  inner_product_param {
    num_output: 4096
    weight_filler {
      type: "xavier"
    }
  }
}
layer {
  name: "relu7"
  type: "ReLU"
  bottom: "fc7"
  top: "fc7"
}
layer {
  name: "drop7"
  type: "Dropout"
  bottom: "fc7"
  top: "fc7"
  dropout_param {
    dropout_ratio: 0.5
  }
}
layer {
  name: "fc8"
  type: "InnerProduct"
  bottom: "fc7"
  top: "fc8"
  param {
    lr_mult: 1
    decay_mult: 1
  }
  param {
    lr_mult: 2
    decay_mult: 0
  }
  inner_product_param {
    num_output: 40
    weight_filler {
      type: "xavier"
    }
  }
}
layer {
  name: "accuracy"
  type: "Accuracy"
  bottom: "fc8"
  bottom: "label"
  top: "accuracy"
}
layer {
  name: "loss"
  type: "SoftmaxWithLoss"
  bottom: "fc8"
  bottom: "label"
  top: "loss"
}
I1105 05:14:42.541759  9049 layer_factory.hpp:77] Creating layer img
I1105 05:14:42.547471  9049 net.cpp:91] Creating Layer img
I1105 05:14:42.547498  9049 net.cpp:399] img -> img
I1105 05:14:42.547521  9049 net.cpp:399] img -> label
{'img_size': (250, 250), 'dtype': 'frame', 'batch_size': 128, 'seed': 1337, 'split': 'train', 'dataset_dir': '/home/kevin/dataset/processed_data', 'mean': 2}
I1105 05:14:57.278877  9049 net.cpp:141] Setting up img
I1105 05:14:57.278918  9049 net.cpp:148] Top shape: 128 1 250 250 (8000000)
I1105 05:14:57.278924  9049 net.cpp:148] Top shape: 128 1 (128)
I1105 05:14:57.278928  9049 net.cpp:156] Memory required for data: 32000512
I1105 05:14:57.278947  9049 layer_factory.hpp:77] Creating layer label_img_1_split
I1105 05:14:57.278972  9049 net.cpp:91] Creating Layer label_img_1_split
I1105 05:14:57.278980  9049 net.cpp:425] label_img_1_split <- label
I1105 05:14:57.278997  9049 net.cpp:399] label_img_1_split -> label_img_1_split_0
I1105 05:14:57.279007  9049 net.cpp:399] label_img_1_split -> label_img_1_split_1
I1105 05:14:57.279043  9049 net.cpp:141] Setting up label_img_1_split
I1105 05:14:57.279049  9049 net.cpp:148] Top shape: 128 1 (128)
I1105 05:14:57.279063  9049 net.cpp:148] Top shape: 128 1 (128)
I1105 05:14:57.279068  9049 net.cpp:156] Memory required for data: 32001536
I1105 05:14:57.279072  9049 layer_factory.hpp:77] Creating layer conv1
I1105 05:14:57.279083  9049 net.cpp:91] Creating Layer conv1
I1105 05:14:57.279088  9049 net.cpp:425] conv1 <- img
I1105 05:14:57.279093  9049 net.cpp:399] conv1 -> conv1
I1105 05:14:57.280072  9049 net.cpp:141] Setting up conv1
I1105 05:14:57.280094  9049 net.cpp:148] Top shape: 128 96 60 60 (44236800)
I1105 05:14:57.280099  9049 net.cpp:156] Memory required for data: 208948736
I1105 05:14:57.280108  9049 layer_factory.hpp:77] Creating layer relu1
I1105 05:14:57.280125  9049 net.cpp:91] Creating Layer relu1
I1105 05:14:57.280130  9049 net.cpp:425] relu1 <- conv1
I1105 05:14:57.280135  9049 net.cpp:386] relu1 -> conv1 (in-place)
I1105 05:14:57.280143  9049 net.cpp:141] Setting up relu1
I1105 05:14:57.280148  9049 net.cpp:148] Top shape: 128 96 60 60 (44236800)
I1105 05:14:57.280153  9049 net.cpp:156] Memory required for data: 385895936
I1105 05:14:57.280156  9049 layer_factory.hpp:77] Creating layer pool1
I1105 05:14:57.280164  9049 net.cpp:91] Creating Layer pool1
I1105 05:14:57.280169  9049 net.cpp:425] pool1 <- conv1
I1105 05:14:57.280175  9049 net.cpp:399] pool1 -> pool1
I1105 05:14:57.280205  9049 net.cpp:141] Setting up pool1
I1105 05:14:57.280211  9049 net.cpp:148] Top shape: 128 96 30 30 (11059200)
I1105 05:14:57.280217  9049 net.cpp:156] Memory required for data: 430132736
I1105 05:14:57.280222  9049 layer_factory.hpp:77] Creating layer norm1
I1105 05:14:57.280230  9049 net.cpp:91] Creating Layer norm1
I1105 05:14:57.280235  9049 net.cpp:425] norm1 <- pool1
I1105 05:14:57.280239  9049 net.cpp:399] norm1 -> norm1
I1105 05:14:57.280262  9049 net.cpp:141] Setting up norm1
I1105 05:14:57.280268  9049 net.cpp:148] Top shape: 128 96 30 30 (11059200)
I1105 05:14:57.280273  9049 net.cpp:156] Memory required for data: 474369536
I1105 05:14:57.280277  9049 layer_factory.hpp:77] Creating layer conv2
I1105 05:14:57.280287  9049 net.cpp:91] Creating Layer conv2
I1105 05:14:57.280290  9049 net.cpp:425] conv2 <- norm1
I1105 05:14:57.280297  9049 net.cpp:399] conv2 -> conv2
I1105 05:14:57.282135  9049 net.cpp:141] Setting up conv2
I1105 05:14:57.282150  9049 net.cpp:148] Top shape: 128 256 30 30 (29491200)
I1105 05:14:57.282155  9049 net.cpp:156] Memory required for data: 592334336
I1105 05:14:57.282162  9049 layer_factory.hpp:77] Creating layer relu2
I1105 05:14:57.282171  9049 net.cpp:91] Creating Layer relu2
I1105 05:14:57.282176  9049 net.cpp:425] relu2 <- conv2
I1105 05:14:57.282181  9049 net.cpp:386] relu2 -> conv2 (in-place)
I1105 05:14:57.282186  9049 net.cpp:141] Setting up relu2
I1105 05:14:57.282192  9049 net.cpp:148] Top shape: 128 256 30 30 (29491200)
I1105 05:14:57.282197  9049 net.cpp:156] Memory required for data: 710299136
I1105 05:14:57.282202  9049 layer_factory.hpp:77] Creating layer pool2
I1105 05:14:57.282208  9049 net.cpp:91] Creating Layer pool2
I1105 05:14:57.282213  9049 net.cpp:425] pool2 <- conv2
I1105 05:14:57.282218  9049 net.cpp:399] pool2 -> pool2
I1105 05:14:57.282243  9049 net.cpp:141] Setting up pool2
I1105 05:14:57.282250  9049 net.cpp:148] Top shape: 128 256 15 15 (7372800)
I1105 05:14:57.282254  9049 net.cpp:156] Memory required for data: 739790336
I1105 05:14:57.282259  9049 layer_factory.hpp:77] Creating layer norm2
I1105 05:14:57.282266  9049 net.cpp:91] Creating Layer norm2
I1105 05:14:57.282270  9049 net.cpp:425] norm2 <- pool2
I1105 05:14:57.282276  9049 net.cpp:399] norm2 -> norm2
I1105 05:14:57.282296  9049 net.cpp:141] Setting up norm2
I1105 05:14:57.282302  9049 net.cpp:148] Top shape: 128 256 15 15 (7372800)
I1105 05:14:57.282306  9049 net.cpp:156] Memory required for data: 769281536
I1105 05:14:57.282311  9049 layer_factory.hpp:77] Creating layer conv3
I1105 05:14:57.282320  9049 net.cpp:91] Creating Layer conv3
I1105 05:14:57.282325  9049 net.cpp:425] conv3 <- norm2
I1105 05:14:57.282330  9049 net.cpp:399] conv3 -> conv3
I1105 05:14:57.284555  9049 net.cpp:141] Setting up conv3
I1105 05:14:57.284569  9049 net.cpp:148] Top shape: 128 384 15 15 (11059200)
I1105 05:14:57.284574  9049 net.cpp:156] Memory required for data: 813518336
I1105 05:14:57.284581  9049 layer_factory.hpp:77] Creating layer relu3
I1105 05:14:57.284587  9049 net.cpp:91] Creating Layer relu3
I1105 05:14:57.284592  9049 net.cpp:425] relu3 <- conv3
I1105 05:14:57.284598  9049 net.cpp:386] relu3 -> conv3 (in-place)
I1105 05:14:57.284605  9049 net.cpp:141] Setting up relu3
I1105 05:14:57.284610  9049 net.cpp:148] Top shape: 128 384 15 15 (11059200)
I1105 05:14:57.284615  9049 net.cpp:156] Memory required for data: 857755136
I1105 05:14:57.284620  9049 layer_factory.hpp:77] Creating layer conv4
I1105 05:14:57.284627  9049 net.cpp:91] Creating Layer conv4
I1105 05:14:57.284632  9049 net.cpp:425] conv4 <- conv3
I1105 05:14:57.284637  9049 net.cpp:399] conv4 -> conv4
I1105 05:14:57.287078  9049 net.cpp:141] Setting up conv4
I1105 05:14:57.287101  9049 net.cpp:148] Top shape: 128 256 15 15 (7372800)
I1105 05:14:57.287108  9049 net.cpp:156] Memory required for data: 887246336
I1105 05:14:57.287117  9049 layer_factory.hpp:77] Creating layer relu4
I1105 05:14:57.287125  9049 net.cpp:91] Creating Layer relu4
I1105 05:14:57.287132  9049 net.cpp:425] relu4 <- conv4
I1105 05:14:57.287138  9049 net.cpp:386] relu4 -> conv4 (in-place)
I1105 05:14:57.287145  9049 net.cpp:141] Setting up relu4
I1105 05:14:57.287150  9049 net.cpp:148] Top shape: 128 256 15 15 (7372800)
I1105 05:14:57.287155  9049 net.cpp:156] Memory required for data: 916737536
I1105 05:14:57.287160  9049 layer_factory.hpp:77] Creating layer pool5
I1105 05:14:57.287168  9049 net.cpp:91] Creating Layer pool5
I1105 05:14:57.287173  9049 net.cpp:425] pool5 <- conv4
I1105 05:14:57.287178  9049 net.cpp:399] pool5 -> pool5
I1105 05:14:57.287204  9049 net.cpp:141] Setting up pool5
I1105 05:14:57.287209  9049 net.cpp:148] Top shape: 128 256 7 7 (1605632)
I1105 05:14:57.287214  9049 net.cpp:156] Memory required for data: 923160064
I1105 05:14:57.287219  9049 layer_factory.hpp:77] Creating layer fc6
I1105 05:14:57.287226  9049 net.cpp:91] Creating Layer fc6
I1105 05:14:57.287231  9049 net.cpp:425] fc6 <- pool5
I1105 05:14:57.287237  9049 net.cpp:399] fc6 -> fc6
I1105 05:14:57.636991  9049 net.cpp:141] Setting up fc6
I1105 05:14:57.637032  9049 net.cpp:148] Top shape: 128 4096 (524288)
I1105 05:14:57.637043  9049 net.cpp:156] Memory required for data: 925257216
I1105 05:14:57.637064  9049 layer_factory.hpp:77] Creating layer relu6
I1105 05:14:57.637081  9049 net.cpp:91] Creating Layer relu6
I1105 05:14:57.637090  9049 net.cpp:425] relu6 <- fc6
I1105 05:14:57.637101  9049 net.cpp:386] relu6 -> fc6 (in-place)
I1105 05:14:57.637116  9049 net.cpp:141] Setting up relu6
I1105 05:14:57.637126  9049 net.cpp:148] Top shape: 128 4096 (524288)
I1105 05:14:57.637135  9049 net.cpp:156] Memory required for data: 927354368
I1105 05:14:57.637140  9049 layer_factory.hpp:77] Creating layer drop6
I1105 05:14:57.637161  9049 net.cpp:91] Creating Layer drop6
I1105 05:14:57.637168  9049 net.cpp:425] drop6 <- fc6
I1105 05:14:57.637178  9049 net.cpp:386] drop6 -> fc6 (in-place)
I1105 05:14:57.637204  9049 net.cpp:141] Setting up drop6
I1105 05:14:57.637215  9049 net.cpp:148] Top shape: 128 4096 (524288)
I1105 05:14:57.637223  9049 net.cpp:156] Memory required for data: 929451520
I1105 05:14:57.637231  9049 layer_factory.hpp:77] Creating layer fc7
I1105 05:14:57.637243  9049 net.cpp:91] Creating Layer fc7
I1105 05:14:57.637249  9049 net.cpp:425] fc7 <- fc6
I1105 05:14:57.637260  9049 net.cpp:399] fc7 -> fc7
I1105 05:14:57.731420  9049 net.cpp:141] Setting up fc7
I1105 05:14:57.731509  9049 net.cpp:148] Top shape: 128 4096 (524288)
I1105 05:14:57.731528  9049 net.cpp:156] Memory required for data: 931548672
I1105 05:14:57.731550  9049 layer_factory.hpp:77] Creating layer relu7
I1105 05:14:57.731570  9049 net.cpp:91] Creating Layer relu7
I1105 05:14:57.731582  9049 net.cpp:425] relu7 <- fc7
I1105 05:14:57.731595  9049 net.cpp:386] relu7 -> fc7 (in-place)
I1105 05:14:57.731608  9049 net.cpp:141] Setting up relu7
I1105 05:14:57.731617  9049 net.cpp:148] Top shape: 128 4096 (524288)
I1105 05:14:57.731624  9049 net.cpp:156] Memory required for data: 933645824
I1105 05:14:57.731632  9049 layer_factory.hpp:77] Creating layer drop7
I1105 05:14:57.731643  9049 net.cpp:91] Creating Layer drop7
I1105 05:14:57.731649  9049 net.cpp:425] drop7 <- fc7
I1105 05:14:57.731657  9049 net.cpp:386] drop7 -> fc7 (in-place)
I1105 05:14:57.731704  9049 net.cpp:141] Setting up drop7
I1105 05:14:57.731714  9049 net.cpp:148] Top shape: 128 4096 (524288)
I1105 05:14:57.731719  9049 net.cpp:156] Memory required for data: 935742976
I1105 05:14:57.731722  9049 layer_factory.hpp:77] Creating layer fc8
I1105 05:14:57.731734  9049 net.cpp:91] Creating Layer fc8
I1105 05:14:57.731739  9049 net.cpp:425] fc8 <- fc7
I1105 05:14:57.731753  9049 net.cpp:399] fc8 -> fc8
I1105 05:14:57.733044  9049 net.cpp:141] Setting up fc8
I1105 05:14:57.733084  9049 net.cpp:148] Top shape: 128 40 (5120)
I1105 05:14:57.733106  9049 net.cpp:156] Memory required for data: 935763456
I1105 05:14:57.733122  9049 layer_factory.hpp:77] Creating layer fc8_fc8_0_split
I1105 05:14:57.733137  9049 net.cpp:91] Creating Layer fc8_fc8_0_split
I1105 05:14:57.733146  9049 net.cpp:425] fc8_fc8_0_split <- fc8
I1105 05:14:57.733157  9049 net.cpp:399] fc8_fc8_0_split -> fc8_fc8_0_split_0
I1105 05:14:57.733173  9049 net.cpp:399] fc8_fc8_0_split -> fc8_fc8_0_split_1
I1105 05:14:57.733213  9049 net.cpp:141] Setting up fc8_fc8_0_split
I1105 05:14:57.733224  9049 net.cpp:148] Top shape: 128 40 (5120)
I1105 05:14:57.733230  9049 net.cpp:148] Top shape: 128 40 (5120)
I1105 05:14:57.733235  9049 net.cpp:156] Memory required for data: 935804416
I1105 05:14:57.733242  9049 layer_factory.hpp:77] Creating layer accuracy
I1105 05:14:57.733250  9049 net.cpp:91] Creating Layer accuracy
I1105 05:14:57.733256  9049 net.cpp:425] accuracy <- fc8_fc8_0_split_0
I1105 05:14:57.733263  9049 net.cpp:425] accuracy <- label_img_1_split_0
I1105 05:14:57.733270  9049 net.cpp:399] accuracy -> accuracy
…
I1105 05:14:57.734076  9049 solver.cpp:181] Creating test net (#0) specified by test_net file: test.prototxt
I1105 05:14:57.734246  9049 net.cpp:49] Initializing net from parameters: 
state {
  phase: TEST
}
layer {
  name: "img"
  type: "Python"
  top: "img"
  top: "label"
  python_param {
    module: "data_layers.model_net_layer"
    layer: "ModelNetDataLayer"
    param_str: "{\'img_size\': (250, 250), \'dtype\': \'object\', \'batch_size\': 128, \'seed\': 1337, \'split\': \'test\', \'dataset_dir\': \'/home/kevin/dataset/processed_data\', \'mean\': 2}"
  }
}
layer {
  name: "conv1"
  type: "Convolution"
  bottom: "img"
  top: "conv1"
  param {
    name: "conv1_w"
    lr_mult: 1
    decay_mult: 1
  }
  param {
    name: "conv1_b"
    lr_mult: 2
    decay_mult: 0
  }
  convolution_param {
    num_output: 96
    pad: 0
    kernel_size: 11
    group: 1
    stride: 4
    weight_filler {
      type: "xavier"
    }
  }
}
layer {
  name: "relu1"
  type: "ReLU"
  bottom: "conv1"
  top: "conv1"
}
layer {
  name: "pool1"
  type: "Pooling"
  bottom: "conv1"
  top: "pool1"
  pooling_param {
    pool: MAX
    kernel_size: 3
    stride: 2
  }
}
layer {
  name: "norm1"
  type: "LRN"
  bottom: "pool1"
  top: "norm1"
  lrn_param {
    local_size: 5
    alpha: 0.0005
    beta: 0.75
    k: 2
  }
}
layer {
  name: "conv2"
  type: "Convolution"
  bottom: "norm1"
  top: "conv2"
  param {
    name: "conv2_w"
    lr_mult: 1
    decay_mult: 1
  }
  param {
    name: "conv2_b"
    lr_mult: 2
    decay_mult: 0
  }
  convolution_param {
    num_output: 256
    pad: 2
    kernel_size: 5
    group: 2
    stride: 1
    weight_filler {
      type: "xavier"
    }
  }
}
layer {
  name: "relu2"
  type: "ReLU"
  bottom: "conv2"
  top: "conv2"
}
layer {
  name: "pool2"
  type: "Pooling"
  bottom: "conv2"
  top: "pool2"
  pooling_param {
    pool: MAX
    kernel_size: 3
    stride: 2
  }
}
layer {
  name: "norm2"
  type: "LRN"
  bottom: "pool2"
  top: "norm2"
  lrn_param {
    local_size: 5
    alpha: 0.0005
    beta: 0.75
    k: 2
  }
}
layer {
  name: "conv3"
  type: "Convolution"
  bottom: "norm2"
  top: "conv3"
  param {
    name: "conv3_w"
    lr_mult: 1
    decay_mult: 1
  }
  param {
    name: "conv3_b"
    lr_mult: 2
    decay_mult: 0
  }
  convolution_param {
    num_output: 384
    pad: 1
    kernel_size: 3
    group: 2
    stride: 1
    weight_filler {
      type: "xavier"
    }
  }
}
layer {
  name: "relu3"
  type: "ReLU"
  bottom: "conv3"
  top: "conv3"
}
layer {
  name: "conv4"
  type: "Convolution"
  bottom: "conv3"
  top: "conv4"
  param {
    name: "conv4_w"
    lr_mult: 1
    decay_mult: 1
  }
  param {
    name: "conv4_b"
    lr_mult: 2
    decay_mult: 0
  }
  convolution_param {
    num_output: 256
    pad: 1
    kernel_size: 3
    group: 2
    stride: 1
    weight_filler {
      type: "xavier"
    }
  }
}
layer {
  name: "relu4"
  type: "ReLU"
  bottom: "conv4"
  top: "conv4"
}
layer {
  name: "pool5"
  type: "Pooling"
  bottom: "conv4"
  top: "pool5"
  pooling_param {
    pool: MAX
    kernel_size: 3
    stride: 2
  }
}
layer {
  name: "fc6"
  type: "InnerProduct"
  bottom: "pool5"
  top: "fc6"
  param {
    lr_mult: 1
    decay_mult: 1
  }
  param {
    lr_mult: 2
    decay_mult: 0
  }
  inner_product_param {
    num_output: 4096
    weight_filler {
      type: "xavier"
    }
  }
}
layer {
  name: "relu6"
  type: "ReLU"
  bottom: "fc6"
  top: "fc6"
}
layer {
  name: "drop6"
  type: "Dropout"
  bottom: "fc6"
  top: "fc6"
  dropout_param {
    dropout_ratio: 0.5
  }
}
layer {
  name: "fc7"
  type: "InnerProduct"
  bottom: "fc6"
  top: "fc7"
  param {
    lr_mult: 1
    decay_mult: 1
  }
  param {
    lr_mult: 2
    decay_mult: 0
  }
  inner_product_param {
    num_output: 4096
    weight_filler {
      type: "xavier"
    }
  }
}
layer {
  name: "relu7"
  type: "ReLU"
  bottom: "fc7"
  top: "fc7"
}
layer {
  name: "drop7"
  type: "Dropout"
  bottom: "fc7"
  top: "fc7"
  dropout_param {
    dropout_ratio: 0.5
  }
}
layer {
  name: "fc8"
  type: "InnerProduct"
  bottom: "fc7"
  top: "fc8"
  param {
    lr_mult: 1
    decay_mult: 1
  }
  param {
    lr_mult: 2
    decay_mult: 0
  }
  inner_product_param {
    num_output: 40
    weight_filler {
      type: "xavier"
    }
  }
}
layer {
  name: "accuracy"
  type: "Accuracy"
  bottom: "fc8"
  bottom: "label"
  top: "accuracy"
}
layer {
  name: "loss"
  type: "SoftmaxWithLoss"
  bottom: "fc8"
  bottom: "label"
  top: "loss"
}
I1105 05:14:57.734988  9049 layer_factory.hpp:77] Creating layer img
I1105 05:14:57.735051  9049 net.cpp:91] Creating Layer img
I1105 05:14:57.735062  9049 net.cpp:399] img -> img
I1105 05:14:57.735074  9049 net.cpp:399] img -> label
{'img_size': (250, 250), 'dtype': 'object', 'batch_size': 128, 'seed': 1337, 'split': 'test', 'dataset_dir': '/home/kevin/dataset/processed_data', 'mean': 2}
I1105 05:14:57.892788  9049 net.cpp:141] Setting up img
I1105 05:14:57.892827  9049 net.cpp:148] Top shape: 24 1 250 250 (1500000)
I1105 05:14:57.892839  9049 net.cpp:148] Top shape: 24 1 (24)
I1105 05:14:57.892846  9049 net.cpp:156] Memory required for data: 6000096
I1105 05:14:57.892858  9049 layer_factory.hpp:77] Creating layer label_img_1_split
I1105 05:14:57.892874  9049 net.cpp:91] Creating Layer label_img_1_split
I1105 05:14:57.892884  9049 net.cpp:425] label_img_1_split <- label
I1105 05:14:57.892894  9049 net.cpp:399] label_img_1_split -> label_img_1_split_0
I1105 05:14:57.892910  9049 net.cpp:399] label_img_1_split -> label_img_1_split_1
I1105 05:14:57.892947  9049 net.cpp:141] Setting up label_img_1_split
I1105 05:14:57.892959  9049 net.cpp:148] Top shape: 24 1 (24)
I1105 05:14:57.892967  9049 net.cpp:148] Top shape: 24 1 (24)
I1105 05:14:57.892974  9049 net.cpp:156] Memory required for data: 6000288
I1105 05:14:57.892982  9049 layer_factory.hpp:77] Creating layer conv1
I1105 05:14:57.892998  9049 net.cpp:91] Creating Layer conv1
I1105 05:14:57.893007  9049 net.cpp:425] conv1 <- img
I1105 05:14:57.893016  9049 net.cpp:399] conv1 -> conv1
I1105 05:14:57.893280  9049 net.cpp:141] Setting up conv1
I1105 05:14:57.893295  9049 net.cpp:148] Top shape: 24 96 60 60 (8294400)
I1105 05:14:57.893301  9049 net.cpp:156] Memory required for data: 39177888
I1105 05:14:57.893316  9049 layer_factory.hpp:77] Creating layer relu1
I1105 05:14:57.893326  9049 net.cpp:91] Creating Layer relu1
I1105 05:14:57.893333  9049 net.cpp:425] relu1 <- conv1
I1105 05:14:57.893342  9049 net.cpp:386] relu1 -> conv1 (in-place)
I1105 05:14:57.893352  9049 net.cpp:141] Setting up relu1
I1105 05:14:57.893360  9049 net.cpp:148] Top shape: 24 96 60 60 (8294400)
I1105 05:14:57.893368  9049 net.cpp:156] Memory required for data: 72355488
I1105 05:14:57.893375  9049 layer_factory.hpp:77] Creating layer pool1
I1105 05:14:57.893386  9049 net.cpp:91] Creating Layer pool1
I1105 05:14:57.893394  9049 net.cpp:425] pool1 <- conv1
I1105 05:14:57.893404  9049 net.cpp:399] pool1 -> pool1
I1105 05:14:57.893438  9049 net.cpp:141] Setting up pool1
I1105 05:14:57.893450  9049 net.cpp:148] Top shape: 24 96 30 30 (2073600)
I1105 05:14:57.893457  9049 net.cpp:156] Memory required for data: 80649888
I1105 05:14:57.893465  9049 layer_factory.hpp:77] Creating layer norm1
I1105 05:14:57.893476  9049 net.cpp:91] Creating Layer norm1
I1105 05:14:57.893482  9049 net.cpp:425] norm1 <- pool1
I1105 05:14:57.893491  9049 net.cpp:399] norm1 -> norm1
I1105 05:14:57.893523  9049 net.cpp:141] Setting up norm1
I1105 05:14:57.893533  9049 net.cpp:148] Top shape: 24 96 30 30 (2073600)
I1105 05:14:57.893540  9049 net.cpp:156] Memory required for data: 88944288
I1105 05:14:57.893548  9049 layer_factory.hpp:77] Creating layer conv2
I1105 05:14:57.893560  9049 net.cpp:91] Creating Layer conv2
I1105 05:14:57.893568  9049 net.cpp:425] conv2 <- norm1
I1105 05:14:57.893579  9049 net.cpp:399] conv2 -> conv2
I1105 05:14:57.895932  9049 net.cpp:141] Setting up conv2
I1105 05:14:57.895951  9049 net.cpp:148] Top shape: 24 256 30 30 (5529600)
I1105 05:14:57.895961  9049 net.cpp:156] Memory required for data: 111062688
I1105 05:14:57.895972  9049 layer_factory.hpp:77] Creating layer relu2
I1105 05:14:57.895982  9049 net.cpp:91] Creating Layer relu2
I1105 05:14:57.895990  9049 net.cpp:425] relu2 <- conv2
I1105 05:14:57.895999  9049 net.cpp:386] relu2 -> conv2 (in-place)
I1105 05:14:57.896008  9049 net.cpp:141] Setting up relu2
I1105 05:14:57.896018  9049 net.cpp:148] Top shape: 24 256 30 30 (5529600)
I1105 05:14:57.896025  9049 net.cpp:156] Memory required for data: 133181088
I1105 05:14:57.896034  9049 layer_factory.hpp:77] Creating layer pool2
I1105 05:14:57.896044  9049 net.cpp:91] Creating Layer pool2
I1105 05:14:57.896051  9049 net.cpp:425] pool2 <- conv2
I1105 05:14:57.896060  9049 net.cpp:399] pool2 -> pool2
I1105 05:14:57.896097  9049 net.cpp:141] Setting up pool2
I1105 05:14:57.896108  9049 net.cpp:148] Top shape: 24 256 15 15 (1382400)
I1105 05:14:57.896116  9049 net.cpp:156] Memory required for data: 138710688
I1105 05:14:57.896123  9049 layer_factory.hpp:77] Creating layer norm2
I1105 05:14:57.896133  9049 net.cpp:91] Creating Layer norm2
I1105 05:14:57.896142  9049 net.cpp:425] norm2 <- pool2
I1105 05:14:57.896150  9049 net.cpp:399] norm2 -> norm2
I1105 05:14:57.896183  9049 net.cpp:141] Setting up norm2
I1105 05:14:57.896193  9049 net.cpp:148] Top shape: 24 256 15 15 (1382400)
I1105 05:14:57.896200  9049 net.cpp:156] Memory required for data: 144240288
I1105 05:14:57.896208  9049 layer_factory.hpp:77] Creating layer conv3
I1105 05:14:57.896219  9049 net.cpp:91] Creating Layer conv3
I1105 05:14:57.896226  9049 net.cpp:425] conv3 <- norm2
I1105 05:14:57.896236  9049 net.cpp:399] conv3 -> conv3
I1105 05:14:57.899391  9049 net.cpp:141] Setting up conv3
I1105 05:14:57.899412  9049 net.cpp:148] Top shape: 24 384 15 15 (2073600)
I1105 05:14:57.899420  9049 net.cpp:156] Memory required for data: 152534688
I1105 05:14:57.899433  9049 layer_factory.hpp:77] Creating layer relu3
I1105 05:14:57.899443  9049 net.cpp:91] Creating Layer relu3
I1105 05:14:57.899451  9049 net.cpp:425] relu3 <- conv3
I1105 05:14:57.899461  9049 net.cpp:386] relu3 -> conv3 (in-place)
I1105 05:14:57.899471  9049 net.cpp:141] Setting up relu3
I1105 05:14:57.899479  9049 net.cpp:148] Top shape: 24 384 15 15 (2073600)
I1105 05:14:57.899492  9049 net.cpp:156] Memory required for data: 160829088
I1105 05:14:57.899499  9049 layer_factory.hpp:77] Creating layer conv4
I1105 05:14:57.899513  9049 net.cpp:91] Creating Layer conv4
I1105 05:14:57.899520  9049 net.cpp:425] conv4 <- conv3
I1105 05:14:57.899530  9049 net.cpp:399] conv4 -> conv4
I1105 05:14:57.902691  9049 net.cpp:141] Setting up conv4
I1105 05:14:57.902710  9049 net.cpp:148] Top shape: 24 256 15 15 (1382400)
I1105 05:14:57.902719  9049 net.cpp:156] Memory required for data: 166358688
I1105 05:14:57.902729  9049 layer_factory.hpp:77] Creating layer relu4
I1105 05:14:57.902740  9049 net.cpp:91] Creating Layer relu4
I1105 05:14:57.902747  9049 net.cpp:425] relu4 <- conv4
I1105 05:14:57.902756  9049 net.cpp:386] relu4 -> conv4 (in-place)
I1105 05:14:57.902766  9049 net.cpp:141] Setting up relu4
I1105 05:14:57.902776  9049 net.cpp:148] Top shape: 24 256 15 15 (1382400)
I1105 05:14:57.902783  9049 net.cpp:156] Memory required for data: 171888288
I1105 05:14:57.902791  9049 layer_factory.hpp:77] Creating layer pool5
I1105 05:14:57.902801  9049 net.cpp:91] Creating Layer pool5
I1105 05:14:57.902808  9049 net.cpp:425] pool5 <- conv4
I1105 05:14:57.902817  9049 net.cpp:399] pool5 -> pool5
I1105 05:14:57.902855  9049 net.cpp:141] Setting up pool5
I1105 05:14:57.902866  9049 net.cpp:148] Top shape: 24 256 7 7 (301056)
I1105 05:14:57.902873  9049 net.cpp:156] Memory required for data: 173092512
I1105 05:14:57.902880  9049 layer_factory.hpp:77] Creating layer fc6
I1105 05:14:57.902892  9049 net.cpp:91] Creating Layer fc6
I1105 05:14:57.902899  9049 net.cpp:425] fc6 <- pool5
I1105 05:14:57.902909  9049 net.cpp:399] fc6 -> fc6
I1105 05:14:58.256240  9049 net.cpp:141] Setting up fc6
I1105 05:14:58.256280  9049 net.cpp:148] Top shape: 24 4096 (98304)
I1105 05:14:58.256301  9049 net.cpp:156] Memory required for data: 173485728
I1105 05:14:58.256321  9049 layer_factory.hpp:77] Creating layer relu6
I1105 05:14:58.256340  9049 net.cpp:91] Creating Layer relu6
I1105 05:14:58.256350  9049 net.cpp:425] relu6 <- fc6
I1105 05:14:58.256361  9049 net.cpp:386] relu6 -> fc6 (in-place)
I1105 05:14:58.256374  9049 net.cpp:141] Setting up relu6
I1105 05:14:58.256383  9049 net.cpp:148] Top shape: 24 4096 (98304)
I1105 05:14:58.256392  9049 net.cpp:156] Memory required for data: 173878944
I1105 05:14:58.256399  9049 layer_factory.hpp:77] Creating layer drop6
I1105 05:14:58.256412  9049 net.cpp:91] Creating Layer drop6
I1105 05:14:58.256418  9049 net.cpp:425] drop6 <- fc6
I1105 05:14:58.256428  9049 net.cpp:386] drop6 -> fc6 (in-place)
I1105 05:14:58.256458  9049 net.cpp:141] Setting up drop6
I1105 05:14:58.256467  9049 net.cpp:148] Top shape: 24 4096 (98304)
I1105 05:14:58.256474  9049 net.cpp:156] Memory required for data: 174272160
I1105 05:14:58.256482  9049 layer_factory.hpp:77] Creating layer fc7
I1105 05:14:58.256494  9049 net.cpp:91] Creating Layer fc7
I1105 05:14:58.256501  9049 net.cpp:425] fc7 <- fc6
I1105 05:14:58.256511  9049 net.cpp:399] fc7 -> fc7
I1105 05:14:58.360131  9049 net.cpp:141] Setting up fc7
I1105 05:14:58.360174  9049 net.cpp:148] Top shape: 24 4096 (98304)
I1105 05:14:58.360182  9049 net.cpp:156] Memory required for data: 174665376
I1105 05:14:58.360204  9049 layer_factory.hpp:77] Creating layer relu7
I1105 05:14:58.360215  9049 net.cpp:91] Creating Layer relu7
I1105 05:14:58.360224  9049 net.cpp:425] relu7 <- fc7
I1105 05:14:58.360230  9049 net.cpp:386] relu7 -> fc7 (in-place)
I1105 05:14:58.360241  9049 net.cpp:141] Setting up relu7
I1105 05:14:58.360247  9049 net.cpp:148] Top shape: 24 4096 (98304)
I1105 05:14:58.360251  9049 net.cpp:156] Memory required for data: 175058592
I1105 05:14:58.360257  9049 layer_factory.hpp:77] Creating layer drop7
I1105 05:14:58.360265  9049 net.cpp:91] Creating Layer drop7
I1105 05:14:58.360271  9049 net.cpp:425] drop7 <- fc7
I1105 05:14:58.360277  9049 net.cpp:386] drop7 -> fc7 (in-place)
I1105 05:14:58.360313  9049 net.cpp:141] Setting up drop7
I1105 05:14:58.360319  9049 net.cpp:148] Top shape: 24 4096 (98304)
I1105 05:14:58.360332  9049 net.cpp:156] Memory required for data: 175451808
I1105 05:14:58.360337  9049 layer_factory.hpp:77] Creating layer fc8
I1105 05:14:58.360353  9049 net.cpp:91] Creating Layer fc8
I1105 05:14:58.360357  9049 net.cpp:425] fc8 <- fc7
I1105 05:14:58.360365  9049 net.cpp:399] fc8 -> fc8
I1105 05:14:58.361484  9049 net.cpp:141] Setting up fc8
I1105 05:14:58.361505  9049 net.cpp:148] Top shape: 24 40 (960)
I1105 05:14:58.361510  9049 net.cpp:156] Memory required for data: 175455648
I1105 05:14:58.361516  9049 layer_factory.hpp:77] Creating layer fc8_fc8_0_split
I1105 05:14:58.361536  9049 net.cpp:91] Creating Layer fc8_fc8_0_split
I1105 05:14:58.361541  9049 net.cpp:425] fc8_fc8_0_split <- fc8
I1105 05:14:58.361548  9049 net.cpp:399] fc8_fc8_0_split -> fc8_fc8_0_split_0
I1105 05:14:58.361557  9049 net.cpp:399] fc8_fc8_0_split -> fc8_fc8_0_split_1
I1105 05:14:58.361593  9049 net.cpp:141] Setting up fc8_fc8_0_split
I1105 05:14:58.361598  9049 net.cpp:148] Top shape: 24 40 (960)
I1105 05:14:58.361613  9049 net.cpp:148] Top shape: 24 40 (960)
I1105 05:14:58.361616  9049 net.cpp:156] Memory required for data: 175463328
I1105 05:14:58.361620  9049 layer_factory.hpp:77] Creating layer accuracy
I1105 05:14:58.361626  9049 net.cpp:91] Creating Layer accuracy
I1105 05:14:58.361631  9049 net.cpp:425] accuracy <- fc8_fc8_0_split_0
I1105 05:14:58.361637  9049 net.cpp:425] accuracy <- label_img_1_split_0
I1105 05:14:58.361642  9049 net.cpp:399] accuracy -> accuracy
…
I1105 12:47:45.772614 23994 solver.cpp:181] Creating test net (#0) specified by test_net file: test.prototxt
I1105 12:47:45.772734 23994 net.cpp:49] Initializing net from parameters: 
state {
  phase: TEST
}
layer {
  name: "img"
  type: "Python"
  top: "img"
  top: "label"
  python_param {
    module: "data_layers.model_net_layer"
    layer: "ModelNetDataLayer"
    param_str: "{\'img_size\': (250, 250), \'dtype\': \'object\', \'batch_size\': 128, \'seed\': 1337, \'split\': \'test\', \'dataset_dir\': \'/home/kevin/dataset/processed_data\', \'mean\': 2}"
  }
}
layer {
  name: "conv1"
  type: "Convolution"
  bottom: "img"
  top: "conv1"
  param {
    name: "conv1_w"
    lr_mult: 1
    decay_mult: 1
  }
  param {
    name: "conv1_b"
    lr_mult: 2
    decay_mult: 0
  }
  convolution_param {
    num_output: 96
    pad: 0
    kernel_size: 11
    group: 1
    stride: 4
    weight_filler {
      type: "xavier"
    }
  }
}
layer {
  name: "relu1"
  type: "ReLU"
  bottom: "conv1"
  top: "conv1"
}
layer {
  name: "pool1"
  type: "Pooling"
  bottom: "conv1"
  top: "pool1"
  pooling_param {
    pool: MAX
    kernel_size: 3
    stride: 2
  }
}
layer {
  name: "norm1"
  type: "LRN"
  bottom: "pool1"
  top: "norm1"
  lrn_param {
    local_size: 5
    alpha: 0.0005
    beta: 0.75
    k: 2
  }
}
layer {
  name: "conv2"
  type: "Convolution"
  bottom: "norm1"
  top: "conv2"
  param {
    name: "conv2_w"
    lr_mult: 1
    decay_mult: 1
  }
  param {
    name: "conv2_b"
    lr_mult: 2
    decay_mult: 0
  }
  convolution_param {
    num_output: 256
    pad: 2
    kernel_size: 5
    group: 2
    stride: 1
    weight_filler {
      type: "xavier"
    }
  }
}
layer {
  name: "relu2"
  type: "ReLU"
  bottom: "conv2"
  top: "conv2"
}
layer {
  name: "pool2"
  type: "Pooling"
  bottom: "conv2"
  top: "pool2"
  pooling_param {
    pool: MAX
    kernel_size: 3
    stride: 2
  }
}
layer {
  name: "norm2"
  type: "LRN"
  bottom: "pool2"
  top: "norm2"
  lrn_param {
    local_size: 5
    alpha: 0.0005
    beta: 0.75
    k: 2
  }
}
layer {
  name: "conv3"
  type: "Convolution"
  bottom: "norm2"
  top: "conv3"
  param {
    name: "conv3_w"
    lr_mult: 1
    decay_mult: 1
  }
  param {
    name: "conv3_b"
    lr_mult: 2
    decay_mult: 0
  }
  convolution_param {
    num_output: 384
    pad: 1
    kernel_size: 3
    group: 2
    stride: 1
    weight_filler {
      type: "xavier"
    }
  }
}
layer {
  name: "relu3"
  type: "ReLU"
  bottom: "conv3"
  top: "conv3"
}
layer {
  name: "conv4"
  type: "Convolution"
  bottom: "conv3"
  top: "conv4"
  param {
    name: "conv4_w"
    lr_mult: 1
    decay_mult: 1
  }
  param {
    name: "conv4_b"
    lr_mult: 2
    decay_mult: 0
  }
  convolution_param {
    num_output: 256
    pad: 1
    kernel_size: 3
    group: 2
    stride: 1
    weight_filler {
      type: "xavier"
    }
  }
}
layer {
  name: "relu4"
  type: "ReLU"
  bottom: "conv4"
  top: "conv4"
}
layer {
  name: "pool5"
  type: "Pooling"
  bottom: "conv4"
  top: "pool5"
  pooling_param {
    pool: MAX
    kernel_size: 3
    stride: 2
  }
}
layer {
  name: "fc6"
  type: "InnerProduct"
  bottom: "pool5"
  top: "fc6"
  param {
    lr_mult: 1
    decay_mult: 1
  }
  param {
    lr_mult: 2
    decay_mult: 0
  }
  inner_product_param {
    num_output: 4096
    weight_filler {
      type: "xavier"
    }
  }
}
layer {
  name: "relu6"
  type: "ReLU"
  bottom: "fc6"
  top: "fc6"
}
layer {
  name: "drop6"
  type: "Dropout"
  bottom: "fc6"
  top: "fc6"
  dropout_param {
    dropout_ratio: 0.5
  }
}
layer {
  name: "fc7"
  type: "InnerProduct"
  bottom: "fc6"
  top: "fc7"
  param {
    lr_mult: 1
    decay_mult: 1
  }
  param {
    lr_mult: 2
    decay_mult: 0
  }
  inner_product_param {
    num_output: 4096
    weight_filler {
      type: "xavier"
    }
  }
}
layer {
  name: "relu7"
  type: "ReLU"
  bottom: "fc7"
  top: "fc7"
}
layer {
  name: "drop7"
  type: "Dropout"
  bottom: "fc7"
  top: "fc7"
  dropout_param {
    dropout_ratio: 0.5
  }
}
layer {
  name: "fc8"
  type: "InnerProduct"
  bottom: "fc7"
  top: "fc8"
  param {
    lr_mult: 1
    decay_mult: 1
  }
  param {
    lr_mult: 2
    decay_mult: 0
  }
  inner_product_param {
    num_output: 40
    weight_filler {
      type: "xavier"
    }
  }
}
layer {
  name: "accuracy"
  type: "Accuracy"
  bottom: "fc8"
  bottom: "label"
  top: "accuracy"
}
layer {
  name: "loss"
  type: "SoftmaxWithLoss"
  bottom: "fc8"
  bottom: "label"
  top: "loss"
}
I1105 12:47:45.773365 23994 layer_factory.hpp:77] Creating layer img
I1105 12:47:45.773406 23994 net.cpp:91] Creating Layer img
I1105 12:47:45.773413 23994 net.cpp:399] img -> img
I1105 12:47:45.773422 23994 net.cpp:399] img -> label
Traceback (most recent call last):
  File "./solve.py", line 20, in <module>
    solver = caffe.SGDSolver('solver.prototxt')
  File "/home/kevin/caffeplus/python_layer/data_layers/model_net_layer.py", line 14, in setup
…
I1106 04:09:14.217525 16758 solver.cpp:81] Creating training net from train_net file: train.prototxt
I1106 04:09:14.231990 16758 net.cpp:49] Initializing net from parameters: 
state {
  phase: TRAIN
}
layer {
  name: "img"
  type: "Python"
  top: "img"
  top: "label"
  python_param {
    module: "data_layers.model_net_layer"
    layer: "ModelNetDataLayer"
    param_str: "{\'img_size\': (250, 250), \'dtype\': \'frame\', \'batch_size\': 256, \'seed\': 1337, \'split\': \'train\', \'dataset_dir\': \'/home/kevin/dataset/processed_data\', \'mean\': 2}"
  }
}
layer {
  name: "conv1"
  type: "Convolution"
  bottom: "img"
  top: "conv1"
  param {
    name: "conv1_w"
    lr_mult: 1
    decay_mult: 1
  }
  param {
    name: "conv1_b"
    lr_mult: 2
    decay_mult: 0
  }
  convolution_param {
    num_output: 96
    pad: 0
    kernel_size: 11
    group: 1
    stride: 4
    weight_filler {
      type: "xavier"
    }
  }
}
layer {
  name: "relu1"
  type: "ReLU"
  bottom: "conv1"
  top: "conv1"
}
layer {
  name: "pool1"
  type: "Pooling"
  bottom: "conv1"
  top: "pool1"
  pooling_param {
    pool: MAX
    kernel_size: 3
    stride: 2
  }
}
layer {
  name: "norm1"
  type: "LRN"
  bottom: "pool1"
  top: "norm1"
  lrn_param {
    local_size: 5
    alpha: 0.0005
    beta: 0.75
    k: 2
  }
}
layer {
  name: "conv2"
  type: "Convolution"
  bottom: "norm1"
  top: "conv2"
  param {
    name: "conv2_w"
    lr_mult: 1
    decay_mult: 1
  }
  param {
    name: "conv2_b"
    lr_mult: 2
    decay_mult: 0
  }
  convolution_param {
    num_output: 256
    pad: 2
    kernel_size: 5
    group: 2
    stride: 1
    weight_filler {
      type: "xavier"
    }
  }
}
layer {
  name: "relu2"
  type: "ReLU"
  bottom: "conv2"
  top: "conv2"
}
layer {
  name: "pool2"
  type: "Pooling"
  bottom: "conv2"
  top: "pool2"
  pooling_param {
    pool: MAX
    kernel_size: 3
    stride: 2
  }
}
layer {
  name: "norm2"
  type: "LRN"
  bottom: "pool2"
  top: "norm2"
  lrn_param {
    local_size: 5
    alpha: 0.0005
    beta: 0.75
    k: 2
  }
}
layer {
  name: "conv3"
  type: "Convolution"
  bottom: "norm2"
  top: "conv3"
  param {
    name: "conv3_w"
    lr_mult: 1
    decay_mult: 1
  }
  param {
    name: "conv3_b"
    lr_mult: 2
    decay_mult: 0
  }
  convolution_param {
    num_output: 384
    pad: 1
    kernel_size: 3
    group: 2
    stride: 1
    weight_filler {
      type: "xavier"
    }
  }
}
layer {
  name: "relu3"
  type: "ReLU"
  bottom: "conv3"
  top: "conv3"
}
layer {
  name: "conv4"
  type: "Convolution"
  bottom: "conv3"
  top: "conv4"
  param {
    name: "conv4_w"
    lr_mult: 1
    decay_mult: 1
  }
  param {
    name: "conv4_b"
    lr_mult: 2
    decay_mult: 0
  }
  convolution_param {
    num_output: 256
    pad: 1
    kernel_size: 3
    group: 2
    stride: 1
    weight_filler {
      type: "xavier"
    }
  }
}
layer {
  name: "relu4"
  type: "ReLU"
  bottom: "conv4"
  top: "conv4"
}
layer {
  name: "pool5"
  type: "Pooling"
  bottom: "conv4"
  top: "pool5"
  pooling_param {
    pool: MAX
    kernel_size: 3
    stride: 2
  }
}
layer {
  name: "fc6"
  type: "InnerProduct"
  bottom: "pool5"
  top: "fc6"
  param {
    lr_mult: 1
    decay_mult: 1
  }
  param {
    lr_mult: 2
    decay_mult: 0
  }
  inner_product_param {
    num_output: 4096
    weight_filler {
      type: "xavier"
    }
  }
}
layer {
  name: "relu6"
  type: "ReLU"
  bottom: "fc6"
  top: "fc6"
}
layer {
  name: "drop6"
  type: "Dropout"
  bottom: "fc6"
  top: "fc6"
  dropout_param {
    dropout_ratio: 0.5
  }
}
layer {
  name: "fc7"
  type: "InnerProduct"
  bottom: "fc6"
  top: "fc7"
  param {
    lr_mult: 1
    decay_mult: 1
  }
  param {
    lr_mult: 2
    decay_mult: 0
  }
  inner_product_param {
    num_output: 4096
    weight_filler {
      type: "xavier"
    }
  }
}
layer {
  name: "relu7"
  type: "ReLU"
  bottom: "fc7"
  top: "fc7"
}
layer {
  name: "drop7"
  type: "Dropout"
  bottom: "fc7"
  top: "fc7"
  dropout_param {
    dropout_ratio: 0.5
  }
}
layer {
  name: "fc8"
  type: "InnerProduct"
  bottom: "fc7"
  top: "fc8"
  param {
    lr_mult: 1
    decay_mult: 1
  }
  param {
    lr_mult: 2
    decay_mult: 0
  }
  inner_product_param {
    num_output: 40
    weight_filler {
      type: "xavier"
    }
  }
}
layer {
  name: "accuracy"
  type: "Accuracy"
  bottom: "fc8"
  bottom: "label"
  top: "accuracy"
}
layer {
  name: "loss"
  type: "SoftmaxWithLoss"
  bottom: "fc8"
  bottom: "label"
  top: "loss"
}
I1106 04:09:14.237421 16758 layer_factory.hpp:77] Creating layer img
I1106 04:09:14.595166 16758 net.cpp:91] Creating Layer img
I1106 04:09:14.595226 16758 net.cpp:399] img -> img
I1106 04:09:14.595263 16758 net.cpp:399] img -> label
{'img_size': (250, 250), 'dtype': 'frame', 'batch_size': 256, 'seed': 1337, 'split': 'train', 'dataset_dir': '/home/kevin/dataset/processed_data', 'mean': 2}
I1106 04:09:44.356123 16758 net.cpp:141] Setting up img
I1106 04:09:44.356151 16758 net.cpp:148] Top shape: 256 1 250 250 (16000000)
I1106 04:09:44.356158 16758 net.cpp:148] Top shape: 256 1 (256)
I1106 04:09:44.356161 16758 net.cpp:156] Memory required for data: 64001024
I1106 04:09:44.356168 16758 layer_factory.hpp:77] Creating layer label_img_1_split
I1106 04:09:44.356184 16758 net.cpp:91] Creating Layer label_img_1_split
I1106 04:09:44.356189 16758 net.cpp:425] label_img_1_split <- label
I1106 04:09:44.356196 16758 net.cpp:399] label_img_1_split -> label_img_1_split_0
I1106 04:09:44.356206 16758 net.cpp:399] label_img_1_split -> label_img_1_split_1
I1106 04:09:44.356245 16758 net.cpp:141] Setting up label_img_1_split
I1106 04:09:44.356251 16758 net.cpp:148] Top shape: 256 1 (256)
I1106 04:09:44.356254 16758 net.cpp:148] Top shape: 256 1 (256)
I1106 04:09:44.356258 16758 net.cpp:156] Memory required for data: 64003072
I1106 04:09:44.356261 16758 layer_factory.hpp:77] Creating layer conv1
I1106 04:09:44.356273 16758 net.cpp:91] Creating Layer conv1
I1106 04:09:44.356277 16758 net.cpp:425] conv1 <- img
I1106 04:09:44.356283 16758 net.cpp:399] conv1 -> conv1
I1106 04:09:44.371728 16758 net.cpp:141] Setting up conv1
I1106 04:09:44.371752 16758 net.cpp:148] Top shape: 256 96 60 60 (88473600)
I1106 04:09:44.371757 16758 net.cpp:156] Memory required for data: 417897472
I1106 04:09:44.371770 16758 layer_factory.hpp:77] Creating layer relu1
I1106 04:09:44.371779 16758 net.cpp:91] Creating Layer relu1
I1106 04:09:44.371783 16758 net.cpp:425] relu1 <- conv1
I1106 04:09:44.371788 16758 net.cpp:386] relu1 -> conv1 (in-place)
I1106 04:09:44.371800 16758 net.cpp:141] Setting up relu1
I1106 04:09:44.371805 16758 net.cpp:148] Top shape: 256 96 60 60 (88473600)
I1106 04:09:44.371809 16758 net.cpp:156] Memory required for data: 771791872
I1106 04:09:44.371812 16758 layer_factory.hpp:77] Creating layer pool1
I1106 04:09:44.371820 16758 net.cpp:91] Creating Layer pool1
I1106 04:09:44.371824 16758 net.cpp:425] pool1 <- conv1
I1106 04:09:44.371829 16758 net.cpp:399] pool1 -> pool1
I1106 04:09:44.371867 16758 net.cpp:141] Setting up pool1
I1106 04:09:44.371873 16758 net.cpp:148] Top shape: 256 96 30 30 (22118400)
I1106 04:09:44.371876 16758 net.cpp:156] Memory required for data: 860265472
I1106 04:09:44.371879 16758 layer_factory.hpp:77] Creating layer norm1
I1106 04:09:44.371887 16758 net.cpp:91] Creating Layer norm1
I1106 04:09:44.371891 16758 net.cpp:425] norm1 <- pool1
I1106 04:09:44.371896 16758 net.cpp:399] norm1 -> norm1
I1106 04:09:44.371923 16758 net.cpp:141] Setting up norm1
I1106 04:09:44.371928 16758 net.cpp:148] Top shape: 256 96 30 30 (22118400)
I1106 04:09:44.371932 16758 net.cpp:156] Memory required for data: 948739072
I1106 04:09:44.371935 16758 layer_factory.hpp:77] Creating layer conv2
I1106 04:09:44.371944 16758 net.cpp:91] Creating Layer conv2
I1106 04:09:44.371948 16758 net.cpp:425] conv2 <- norm1
I1106 04:09:44.371953 16758 net.cpp:399] conv2 -> conv2
I1106 04:09:44.374692 16758 net.cpp:141] Setting up conv2
I1106 04:09:44.374703 16758 net.cpp:148] Top shape: 256 256 30 30 (58982400)
I1106 04:09:44.374707 16758 net.cpp:156] Memory required for data: 1184668672
I1106 04:09:44.374716 16758 layer_factory.hpp:77] Creating layer relu2
I1106 04:09:44.374722 16758 net.cpp:91] Creating Layer relu2
I1106 04:09:44.374727 16758 net.cpp:425] relu2 <- conv2
I1106 04:09:44.374732 16758 net.cpp:386] relu2 -> conv2 (in-place)
I1106 04:09:44.374737 16758 net.cpp:141] Setting up relu2
I1106 04:09:44.374742 16758 net.cpp:148] Top shape: 256 256 30 30 (58982400)
I1106 04:09:44.374745 16758 net.cpp:156] Memory required for data: 1420598272
I1106 04:09:44.374748 16758 layer_factory.hpp:77] Creating layer pool2
I1106 04:09:44.374755 16758 net.cpp:91] Creating Layer pool2
I1106 04:09:44.374758 16758 net.cpp:425] pool2 <- conv2
I1106 04:09:44.374763 16758 net.cpp:399] pool2 -> pool2
I1106 04:09:44.374797 16758 net.cpp:141] Setting up pool2
I1106 04:09:44.374804 16758 net.cpp:148] Top shape: 256 256 15 15 (14745600)
I1106 04:09:44.374807 16758 net.cpp:156] Memory required for data: 1479580672
I1106 04:09:44.374810 16758 layer_factory.hpp:77] Creating layer norm2
I1106 04:09:44.374816 16758 net.cpp:91] Creating Layer norm2
I1106 04:09:44.374819 16758 net.cpp:425] norm2 <- pool2
I1106 04:09:44.374825 16758 net.cpp:399] norm2 -> norm2
I1106 04:09:44.374851 16758 net.cpp:141] Setting up norm2
I1106 04:09:44.374856 16758 net.cpp:148] Top shape: 256 256 15 15 (14745600)
I1106 04:09:44.374860 16758 net.cpp:156] Memory required for data: 1538563072
I1106 04:09:44.374863 16758 layer_factory.hpp:77] Creating layer conv3
I1106 04:09:44.374871 16758 net.cpp:91] Creating Layer conv3
I1106 04:09:44.374874 16758 net.cpp:425] conv3 <- norm2
I1106 04:09:44.374881 16758 net.cpp:399] conv3 -> conv3
I1106 04:09:44.378144 16758 net.cpp:141] Setting up conv3
I1106 04:09:44.378154 16758 net.cpp:148] Top shape: 256 384 15 15 (22118400)
I1106 04:09:44.378159 16758 net.cpp:156] Memory required for data: 1627036672
I1106 04:09:44.378166 16758 layer_factory.hpp:77] Creating layer relu3
I1106 04:09:44.378172 16758 net.cpp:91] Creating Layer relu3
I1106 04:09:44.378176 16758 net.cpp:425] relu3 <- conv3
I1106 04:09:44.378181 16758 net.cpp:386] relu3 -> conv3 (in-place)
I1106 04:09:44.378187 16758 net.cpp:141] Setting up relu3
I1106 04:09:44.378192 16758 net.cpp:148] Top shape: 256 384 15 15 (22118400)
I1106 04:09:44.378196 16758 net.cpp:156] Memory required for data: 1715510272
I1106 04:09:44.378199 16758 layer_factory.hpp:77] Creating layer conv4
I1106 04:09:44.378207 16758 net.cpp:91] Creating Layer conv4
I1106 04:09:44.378211 16758 net.cpp:425] conv4 <- conv3
I1106 04:09:44.378216 16758 net.cpp:399] conv4 -> conv4
I1106 04:09:44.381542 16758 net.cpp:141] Setting up conv4
I1106 04:09:44.381580 16758 net.cpp:148] Top shape: 256 256 15 15 (14745600)
I1106 04:09:44.381585 16758 net.cpp:156] Memory required for data: 1774492672
I1106 04:09:44.381598 16758 layer_factory.hpp:77] Creating layer relu4
I1106 04:09:44.381613 16758 net.cpp:91] Creating Layer relu4
I1106 04:09:44.381618 16758 net.cpp:425] relu4 <- conv4
I1106 04:09:44.381626 16758 net.cpp:386] relu4 -> conv4 (in-place)
I1106 04:09:44.381636 16758 net.cpp:141] Setting up relu4
I1106 04:09:44.381641 16758 net.cpp:148] Top shape: 256 256 15 15 (14745600)
I1106 04:09:44.381644 16758 net.cpp:156] Memory required for data: 1833475072
I1106 04:09:44.381649 16758 layer_factory.hpp:77] Creating layer pool5
I1106 04:09:44.381657 16758 net.cpp:91] Creating Layer pool5
I1106 04:09:44.381660 16758 net.cpp:425] pool5 <- conv4
I1106 04:09:44.381665 16758 net.cpp:399] pool5 -> pool5
I1106 04:09:44.381707 16758 net.cpp:141] Setting up pool5
I1106 04:09:44.381713 16758 net.cpp:148] Top shape: 256 256 7 7 (3211264)
I1106 04:09:44.381716 16758 net.cpp:156] Memory required for data: 1846320128
I1106 04:09:44.381721 16758 layer_factory.hpp:77] Creating layer fc6
I1106 04:09:44.381742 16758 net.cpp:91] Creating Layer fc6
I1106 04:09:44.381747 16758 net.cpp:425] fc6 <- pool5
I1106 04:09:44.381752 16758 net.cpp:399] fc6 -> fc6
I1106 04:09:44.708454 16758 net.cpp:141] Setting up fc6
I1106 04:09:44.708492 16758 net.cpp:148] Top shape: 256 4096 (1048576)
I1106 04:09:44.708503 16758 net.cpp:156] Memory required for data: 1850514432
I1106 04:09:44.708523 16758 layer_factory.hpp:77] Creating layer relu6
I1106 04:09:44.708539 16758 net.cpp:91] Creating Layer relu6
I1106 04:09:44.708549 16758 net.cpp:425] relu6 <- fc6
I1106 04:09:44.708559 16758 net.cpp:386] relu6 -> fc6 (in-place)
I1106 04:09:44.708571 16758 net.cpp:141] Setting up relu6
I1106 04:09:44.708580 16758 net.cpp:148] Top shape: 256 4096 (1048576)
I1106 04:09:44.708587 16758 net.cpp:156] Memory required for data: 1854708736
I1106 04:09:44.708595 16758 layer_factory.hpp:77] Creating layer drop6
I1106 04:09:44.708611 16758 net.cpp:91] Creating Layer drop6
I1106 04:09:44.708618 16758 net.cpp:425] drop6 <- fc6
I1106 04:09:44.708626 16758 net.cpp:386] drop6 -> fc6 (in-place)
I1106 04:09:44.708647 16758 net.cpp:141] Setting up drop6
I1106 04:09:44.708654 16758 net.cpp:148] Top shape: 256 4096 (1048576)
I1106 04:09:44.708662 16758 net.cpp:156] Memory required for data: 1858903040
I1106 04:09:44.708668 16758 layer_factory.hpp:77] Creating layer fc7
I1106 04:09:44.708678 16758 net.cpp:91] Creating Layer fc7
I1106 04:09:44.708684 16758 net.cpp:425] fc7 <- fc6
I1106 04:09:44.708693 16758 net.cpp:399] fc7 -> fc7
I1106 04:09:44.799295 16758 net.cpp:141] Setting up fc7
I1106 04:09:44.799337 16758 net.cpp:148] Top shape: 256 4096 (1048576)
I1106 04:09:44.799342 16758 net.cpp:156] Memory required for data: 1863097344
I1106 04:09:44.799351 16758 layer_factory.hpp:77] Creating layer relu7
I1106 04:09:44.799362 16758 net.cpp:91] Creating Layer relu7
I1106 04:09:44.799368 16758 net.cpp:425] relu7 <- fc7
I1106 04:09:44.799376 16758 net.cpp:386] relu7 -> fc7 (in-place)
I1106 04:09:44.799384 16758 net.cpp:141] Setting up relu7
I1106 04:09:44.799391 16758 net.cpp:148] Top shape: 256 4096 (1048576)
I1106 04:09:44.799396 16758 net.cpp:156] Memory required for data: 1867291648
I1106 04:09:44.799401 16758 layer_factory.hpp:77] Creating layer drop7
I1106 04:09:44.799408 16758 net.cpp:91] Creating Layer drop7
I1106 04:09:44.799412 16758 net.cpp:425] drop7 <- fc7
I1106 04:09:44.799419 16758 net.cpp:386] drop7 -> fc7 (in-place)
I1106 04:09:44.799432 16758 net.cpp:141] Setting up drop7
I1106 04:09:44.799438 16758 net.cpp:148] Top shape: 256 4096 (1048576)
I1106 04:09:44.799443 16758 net.cpp:156] Memory required for data: 1871485952
I1106 04:09:44.799448 16758 layer_factory.hpp:77] Creating layer fc8
I1106 04:09:44.799454 16758 net.cpp:91] Creating Layer fc8
I1106 04:09:44.799458 16758 net.cpp:425] fc8 <- fc7
I1106 04:09:44.799463 16758 net.cpp:399] fc8 -> fc8
I1106 04:09:44.800544 16758 net.cpp:141] Setting up fc8
I1106 04:09:44.800565 16758 net.cpp:148] Top shape: 256 40 (10240)
I1106 04:09:44.800570 16758 net.cpp:156] Memory required for data: 1871526912
I1106 04:09:44.800575 16758 layer_factory.hpp:77] Creating layer fc8_fc8_0_split
I1106 04:09:44.800582 16758 net.cpp:91] Creating Layer fc8_fc8_0_split
I1106 04:09:44.800587 16758 net.cpp:425] fc8_fc8_0_split <- fc8
I1106 04:09:44.800595 16758 net.cpp:399] fc8_fc8_0_split -> fc8_fc8_0_split_0
I1106 04:09:44.800603 16758 net.cpp:399] fc8_fc8_0_split -> fc8_fc8_0_split_1
I1106 04:09:44.800623 16758 net.cpp:141] Setting up fc8_fc8_0_split
I1106 04:09:44.800631 16758 net.cpp:148] Top shape: 256 40 (10240)
I1106 04:09:44.800635 16758 net.cpp:148] Top shape: 256 40 (10240)
I1106 04:09:44.800639 16758 net.cpp:156] Memory required for data: 1871608832
I1106 04:09:44.800644 16758 layer_factory.hpp:77] Creating layer accuracy
I1106 04:09:44.800657 16758 net.cpp:91] Creating Layer accuracy
I1106 04:09:44.800660 16758 net.cpp:425] accuracy <- fc8_fc8_0_split_0
I1106 04:09:44.800667 16758 net.cpp:425] accuracy <- label_img_1_split_0
I1106 04:09:44.800671 16758 net.cpp:399] accuracy -> accuracy
…
I1108 11:58:18.016142 10077 solver.cpp:81] Creating training net from train_net file: train.prototxt
I1108 11:58:18.059451 10077 net.cpp:49] Initializing net from parameters: 
state {
  phase: TRAIN
}
layer {
  name: "img"
  type: "Python"
  top: "img"
  top: "label"
  python_param {
    module: "data_layers.model_net_layer"
    layer: "ModelNetDataLayer"
    param_str: "{\'img_size\': (250, 250), \'split\': \'train\', \'dataset_dir\': \'/home/kevin/dataset/processed_data\', \'variable\': \'depth_map\', \'dtype\': \'frame\', \'seed\': 1337, \'batch_size\': 128, \'mean\': 2}"
  }
}
layer {
  name: "conv1"
  type: "Convolution"
  bottom: "img"
  top: "conv1"
  param {
    name: "conv1_w"
    lr_mult: 1
    decay_mult: 1
  }
  param {
    name: "conv1_b"
    lr_mult: 2
    decay_mult: 0
  }
  convolution_param {
    num_output: 128
    pad: 2
    kernel_size: 5
    group: 1
    stride: 2
    weight_filler {
      type: "xavier"
    }
  }
}
layer {
  name: "relu1"
  type: "ReLU"
  bottom: "conv1"
  top: "conv1"
}
layer {
  name: "pool1"
  type: "Pooling"
  bottom: "conv1"
  top: "pool1"
  pooling_param {
    pool: MAX
    kernel_size: 3
    stride: 2
  }
}
layer {
  name: "norm1"
  type: "LRN"
  bottom: "pool1"
  top: "norm1"
  lrn_param {
    local_size: 5
    alpha: 0.0005
    beta: 0.75
    k: 2
  }
}
layer {
  name: "conv2"
  type: "Convolution"
  bottom: "norm1"
  top: "conv2"
  param {
    name: "conv2_w"
    lr_mult: 1
    decay_mult: 1
  }
  param {
    name: "conv2_b"
    lr_mult: 2
    decay_mult: 0
  }
  convolution_param {
    num_output: 256
    pad: 2
    kernel_size: 5
    group: 1
    stride: 2
    weight_filler {
      type: "xavier"
    }
  }
}
layer {
  name: "relu2"
  type: "ReLU"
  bottom: "conv2"
  top: "conv2"
}
layer {
  name: "pool2"
  type: "Pooling"
  bottom: "conv2"
  top: "pool2"
  pooling_param {
    pool: MAX
    kernel_size: 3
    stride: 2
  }
}
layer {
  name: "norm2"
  type: "LRN"
  bottom: "pool2"
  top: "norm2"
  lrn_param {
    local_size: 5
    alpha: 0.0005
    beta: 0.75
    k: 2
  }
}
layer {
  name: "conv3"
  type: "Convolution"
  bottom: "norm2"
  top: "conv3"
  param {
    name: "conv3_w"
    lr_mult: 1
    decay_mult: 1
  }
  param {
    name: "conv3_b"
    lr_mult: 2
    decay_mult: 0
  }
  convolution_param {
    num_output: 256
    pad: 1
    kernel_size: 3
    group: 2
    stride: 1
    weight_filler {
      type: "xavier"
    }
  }
}
layer {
  name: "relu3"
  type: "ReLU"
  bottom: "conv3"
  top: "conv3"
}
layer {
  name: "pool3"
  type: "Pooling"
  bottom: "conv3"
  top: "pool3"
  pooling_param {
    pool: MAX
    kernel_size: 3
    stride: 2
  }
}
layer {
  name: "conv4"
  type: "Convolution"
  bottom: "pool3"
  top: "conv4"
  param {
    name: "conv4_w"
    lr_mult: 1
    decay_mult: 1
  }
  param {
    name: "conv4_b"
    lr_mult: 2
    decay_mult: 0
  }
  convolution_param {
    num_output: 512
    pad: 1
    kernel_size: 3
    group: 2
    stride: 1
    weight_filler {
      type: "xavier"
    }
  }
}
layer {
  name: "relu4"
  type: "ReLU"
  bottom: "conv4"
  top: "conv4"
}
layer {
  name: "conv5"
  type: "Convolution"
  bottom: "conv4"
  top: "conv5"
  param {
    name: "conv5_w"
    lr_mult: 1
    decay_mult: 1
  }
  param {
    name: "conv5_b"
    lr_mult: 2
    decay_mult: 0
  }
  convolution_param {
    num_output: 512
    pad: 1
    kernel_size: 3
    group: 2
    stride: 1
    weight_filler {
      type: "xavier"
    }
  }
}
layer {
  name: "relu5"
  type: "ReLU"
  bottom: "conv5"
  top: "conv5"
}
layer {
  name: "pool5"
  type: "Pooling"
  bottom: "conv5"
  top: "pool5"
  pooling_param {
    pool: MAX
    kernel_size: 3
    stride: 2
  }
}
layer {
  name: "fc6"
  type: "InnerProduct"
  bottom: "pool5"
  top: "fc6"
  param {
    lr_mult: 1
    decay_mult: 1
  }
  param {
    lr_mult: 2
    decay_mult: 0
  }
  inner_product_param {
    num_output: 4096
    weight_filler {
      type: "xavier"
    }
  }
}
layer {
  name: "relu6"
  type: "ReLU"
  bottom: "fc6"
  top: "fc6"
}
layer {
  name: "drop6"
  type: "Dropout"
  bottom: "fc6"
  top: "fc6"
  dropout_param {
    dropout_ratio: 0.5
  }
}
layer {
  name: "fc7"
  type: "InnerProduct"
  bottom: "fc6"
  top: "fc7"
  param {
    lr_mult: 1
    decay_mult: 1
  }
  param {
    lr_mult: 2
    decay_mult: 0
  }
  inner_product_param {
    num_output: 4096
    weight_filler {
      type: "xavier"
    }
  }
}
layer {
  name: "relu7"
  type: "ReLU"
  bottom: "fc7"
  top: "fc7"
}
layer {
  name: "drop7"
  type: "Dropout"
  bottom: "fc7"
  top: "fc7"
  dropout_param {
    dropout_ratio: 0.5
  }
}
layer {
  name: "fc8"
  type: "InnerProduct"
  bottom: "fc7"
  top: "fc8"
  param {
    lr_mult: 1
    decay_mult: 1
  }
  param {
    lr_mult: 2
    decay_mult: 0
  }
  inner_product_param {
    num_output: 40
    weight_filler {
      type: "xavier"
    }
  }
}
layer {
  name: "accuracy"
  type: "Accuracy"
  bottom: "fc8"
  bottom: "label"
  top: "accuracy"
}
layer {
  name: "loss"
  type: "SoftmaxWithLoss"
  bottom: "fc8"
  bottom: "label"
  top: "loss"
}
I1108 11:58:18.059653 10077 layer_factory.hpp:77] Creating layer img
I1108 11:58:23.827811 10077 net.cpp:91] Creating Layer img
I1108 11:58:23.827832 10077 net.cpp:399] img -> img
I1108 11:58:23.827841 10077 net.cpp:399] img -> label
{'img_size': (250, 250), 'split': 'train', 'dataset_dir': '/home/kevin/dataset/processed_data', 'variable': 'depth_map', 'dtype': 'frame', 'seed': 1337, 'batch_size': 128, 'mean': 2}
I1108 11:59:14.539696 10077 net.cpp:141] Setting up img
I1108 11:59:14.539721 10077 net.cpp:148] Top shape: 128 1 250 250 (8000000)
I1108 11:59:14.539726 10077 net.cpp:148] Top shape: 128 1 (128)
I1108 11:59:14.539727 10077 net.cpp:156] Memory required for data: 32000512
I1108 11:59:14.539733 10077 layer_factory.hpp:77] Creating layer label_img_1_split
I1108 11:59:14.539747 10077 net.cpp:91] Creating Layer label_img_1_split
I1108 11:59:14.539750 10077 net.cpp:425] label_img_1_split <- label
I1108 11:59:14.539757 10077 net.cpp:399] label_img_1_split -> label_img_1_split_0
I1108 11:59:14.539763 10077 net.cpp:399] label_img_1_split -> label_img_1_split_1
I1108 11:59:14.576545 10077 net.cpp:141] Setting up label_img_1_split
I1108 11:59:14.576589 10077 net.cpp:148] Top shape: 128 1 (128)
I1108 11:59:14.576597 10077 net.cpp:148] Top shape: 128 1 (128)
I1108 11:59:14.576603 10077 net.cpp:156] Memory required for data: 32001536
I1108 11:59:14.576611 10077 layer_factory.hpp:77] Creating layer conv1
I1108 11:59:14.576639 10077 net.cpp:91] Creating Layer conv1
I1108 11:59:14.576647 10077 net.cpp:425] conv1 <- img
I1108 11:59:14.576656 10077 net.cpp:399] conv1 -> conv1
I1108 11:59:14.660717 10077 net.cpp:141] Setting up conv1
I1108 11:59:14.660748 10077 net.cpp:148] Top shape: 128 128 125 125 (256000000)
I1108 11:59:14.660753 10077 net.cpp:156] Memory required for data: 1056001536
I1108 11:59:14.660768 10077 layer_factory.hpp:77] Creating layer relu1
I1108 11:59:14.660779 10077 net.cpp:91] Creating Layer relu1
I1108 11:59:14.660784 10077 net.cpp:425] relu1 <- conv1
I1108 11:59:14.660789 10077 net.cpp:386] relu1 -> conv1 (in-place)
I1108 11:59:14.660796 10077 net.cpp:141] Setting up relu1
I1108 11:59:14.660800 10077 net.cpp:148] Top shape: 128 128 125 125 (256000000)
I1108 11:59:14.660802 10077 net.cpp:156] Memory required for data: 2080001536
I1108 11:59:14.660805 10077 layer_factory.hpp:77] Creating layer pool1
I1108 11:59:14.660812 10077 net.cpp:91] Creating Layer pool1
I1108 11:59:14.660815 10077 net.cpp:425] pool1 <- conv1
I1108 11:59:14.660818 10077 net.cpp:399] pool1 -> pool1
I1108 11:59:14.702098 10077 net.cpp:141] Setting up pool1
I1108 11:59:14.702122 10077 net.cpp:148] Top shape: 128 128 62 62 (62980096)
I1108 11:59:14.702126 10077 net.cpp:156] Memory required for data: 2331921920
I1108 11:59:14.702129 10077 layer_factory.hpp:77] Creating layer norm1
I1108 11:59:14.702149 10077 net.cpp:91] Creating Layer norm1
I1108 11:59:14.702153 10077 net.cpp:425] norm1 <- pool1
I1108 11:59:14.702167 10077 net.cpp:399] norm1 -> norm1
I1108 11:59:14.702199 10077 net.cpp:141] Setting up norm1
I1108 11:59:14.702203 10077 net.cpp:148] Top shape: 128 128 62 62 (62980096)
I1108 11:59:14.702205 10077 net.cpp:156] Memory required for data: 2583842304
I1108 11:59:14.702208 10077 layer_factory.hpp:77] Creating layer conv2
I1108 11:59:14.702216 10077 net.cpp:91] Creating Layer conv2
I1108 11:59:14.702219 10077 net.cpp:425] conv2 <- norm1
I1108 11:59:14.702222 10077 net.cpp:399] conv2 -> conv2
I1108 11:59:14.706794 10077 net.cpp:141] Setting up conv2
I1108 11:59:14.706804 10077 net.cpp:148] Top shape: 128 256 31 31 (31490048)
I1108 11:59:14.706806 10077 net.cpp:156] Memory required for data: 2709802496
I1108 11:59:14.706815 10077 layer_factory.hpp:77] Creating layer relu2
I1108 11:59:14.706820 10077 net.cpp:91] Creating Layer relu2
I1108 11:59:14.706822 10077 net.cpp:425] relu2 <- conv2
I1108 11:59:14.706826 10077 net.cpp:386] relu2 -> conv2 (in-place)
I1108 11:59:14.706831 10077 net.cpp:141] Setting up relu2
I1108 11:59:14.706835 10077 net.cpp:148] Top shape: 128 256 31 31 (31490048)
I1108 11:59:14.706836 10077 net.cpp:156] Memory required for data: 2835762688
I1108 11:59:14.706838 10077 layer_factory.hpp:77] Creating layer pool2
I1108 11:59:14.706843 10077 net.cpp:91] Creating Layer pool2
I1108 11:59:14.706845 10077 net.cpp:425] pool2 <- conv2
I1108 11:59:14.706848 10077 net.cpp:399] pool2 -> pool2
I1108 11:59:14.706872 10077 net.cpp:141] Setting up pool2
I1108 11:59:14.706876 10077 net.cpp:148] Top shape: 128 256 15 15 (7372800)
I1108 11:59:14.706878 10077 net.cpp:156] Memory required for data: 2865253888
I1108 11:59:14.706881 10077 layer_factory.hpp:77] Creating layer norm2
I1108 11:59:14.706884 10077 net.cpp:91] Creating Layer norm2
I1108 11:59:14.706887 10077 net.cpp:425] norm2 <- pool2
I1108 11:59:14.706889 10077 net.cpp:399] norm2 -> norm2
I1108 11:59:14.706907 10077 net.cpp:141] Setting up norm2
I1108 11:59:14.706909 10077 net.cpp:148] Top shape: 128 256 15 15 (7372800)
I1108 11:59:14.706912 10077 net.cpp:156] Memory required for data: 2894745088
I1108 11:59:14.706913 10077 layer_factory.hpp:77] Creating layer conv3
I1108 11:59:14.706919 10077 net.cpp:91] Creating Layer conv3
I1108 11:59:14.706921 10077 net.cpp:425] conv3 <- norm2
I1108 11:59:14.706924 10077 net.cpp:399] conv3 -> conv3
I1108 11:59:14.708567 10077 net.cpp:141] Setting up conv3
I1108 11:59:14.708575 10077 net.cpp:148] Top shape: 128 256 15 15 (7372800)
I1108 11:59:14.708577 10077 net.cpp:156] Memory required for data: 2924236288
I1108 11:59:14.708583 10077 layer_factory.hpp:77] Creating layer relu3
I1108 11:59:14.708587 10077 net.cpp:91] Creating Layer relu3
I1108 11:59:14.708590 10077 net.cpp:425] relu3 <- conv3
I1108 11:59:14.708592 10077 net.cpp:386] relu3 -> conv3 (in-place)
I1108 11:59:14.708596 10077 net.cpp:141] Setting up relu3
I1108 11:59:14.708600 10077 net.cpp:148] Top shape: 128 256 15 15 (7372800)
I1108 11:59:14.708601 10077 net.cpp:156] Memory required for data: 2953727488
I1108 11:59:14.708603 10077 layer_factory.hpp:77] Creating layer pool3
I1108 11:59:14.708607 10077 net.cpp:91] Creating Layer pool3
I1108 11:59:14.708609 10077 net.cpp:425] pool3 <- conv3
I1108 11:59:14.708612 10077 net.cpp:399] pool3 -> pool3
I1108 11:59:14.708633 10077 net.cpp:141] Setting up pool3
I1108 11:59:14.708636 10077 net.cpp:148] Top shape: 128 256 7 7 (1605632)
I1108 11:59:14.708638 10077 net.cpp:156] Memory required for data: 2960150016
I1108 11:59:14.708641 10077 layer_factory.hpp:77] Creating layer conv4
I1108 11:59:14.708647 10077 net.cpp:91] Creating Layer conv4
I1108 11:59:14.708648 10077 net.cpp:425] conv4 <- pool3
I1108 11:59:14.708652 10077 net.cpp:399] conv4 -> conv4
I1108 11:59:14.711649 10077 net.cpp:141] Setting up conv4
I1108 11:59:14.711657 10077 net.cpp:148] Top shape: 128 512 7 7 (3211264)
I1108 11:59:14.711658 10077 net.cpp:156] Memory required for data: 2972995072
I1108 11:59:14.711663 10077 layer_factory.hpp:77] Creating layer relu4
I1108 11:59:14.711666 10077 net.cpp:91] Creating Layer relu4
I1108 11:59:14.711669 10077 net.cpp:425] relu4 <- conv4
I1108 11:59:14.711673 10077 net.cpp:386] relu4 -> conv4 (in-place)
I1108 11:59:14.711676 10077 net.cpp:141] Setting up relu4
I1108 11:59:14.711678 10077 net.cpp:148] Top shape: 128 512 7 7 (3211264)
I1108 11:59:14.711680 10077 net.cpp:156] Memory required for data: 2985840128
I1108 11:59:14.711683 10077 layer_factory.hpp:77] Creating layer conv5
I1108 11:59:14.711688 10077 net.cpp:91] Creating Layer conv5
I1108 11:59:14.711690 10077 net.cpp:425] conv5 <- conv4
I1108 11:59:14.711694 10077 net.cpp:399] conv5 -> conv5
I1108 11:59:14.717362 10077 net.cpp:141] Setting up conv5
I1108 11:59:14.717380 10077 net.cpp:148] Top shape: 128 512 7 7 (3211264)
I1108 11:59:14.717384 10077 net.cpp:156] Memory required for data: 2998685184
I1108 11:59:14.717396 10077 layer_factory.hpp:77] Creating layer relu5
I1108 11:59:14.717409 10077 net.cpp:91] Creating Layer relu5
I1108 11:59:14.717417 10077 net.cpp:425] relu5 <- conv5
I1108 11:59:14.717423 10077 net.cpp:386] relu5 -> conv5 (in-place)
I1108 11:59:14.717430 10077 net.cpp:141] Setting up relu5
I1108 11:59:14.717435 10077 net.cpp:148] Top shape: 128 512 7 7 (3211264)
I1108 11:59:14.717442 10077 net.cpp:156] Memory required for data: 3011530240
I1108 11:59:14.717448 10077 layer_factory.hpp:77] Creating layer pool5
I1108 11:59:14.717455 10077 net.cpp:91] Creating Layer pool5
I1108 11:59:14.717459 10077 net.cpp:425] pool5 <- conv5
I1108 11:59:14.717468 10077 net.cpp:399] pool5 -> pool5
I1108 11:59:14.717547 10077 net.cpp:141] Setting up pool5
I1108 11:59:14.717555 10077 net.cpp:148] Top shape: 128 512 3 3 (589824)
I1108 11:59:14.717558 10077 net.cpp:156] Memory required for data: 3013889536
I1108 11:59:14.717562 10077 layer_factory.hpp:77] Creating layer fc6
I1108 11:59:14.777448 10077 net.cpp:91] Creating Layer fc6
I1108 11:59:14.777489 10077 net.cpp:425] fc6 <- pool5
I1108 11:59:14.777511 10077 net.cpp:399] fc6 -> fc6
I1108 11:59:14.893090 10077 net.cpp:141] Setting up fc6
I1108 11:59:14.893208 10077 net.cpp:148] Top shape: 128 4096 (524288)
I1108 11:59:14.893241 10077 net.cpp:156] Memory required for data: 3015986688
I1108 11:59:14.893280 10077 layer_factory.hpp:77] Creating layer relu6
I1108 11:59:14.893308 10077 net.cpp:91] Creating Layer relu6
I1108 11:59:14.893321 10077 net.cpp:425] relu6 <- fc6
I1108 11:59:14.893339 10077 net.cpp:386] relu6 -> fc6 (in-place)
I1108 11:59:14.893360 10077 net.cpp:141] Setting up relu6
I1108 11:59:14.893373 10077 net.cpp:148] Top shape: 128 4096 (524288)
I1108 11:59:14.893383 10077 net.cpp:156] Memory required for data: 3018083840
I1108 11:59:14.893391 10077 layer_factory.hpp:77] Creating layer drop6
I1108 11:59:14.935501 10077 net.cpp:91] Creating Layer drop6
I1108 11:59:14.935537 10077 net.cpp:425] drop6 <- fc6
I1108 11:59:14.935549 10077 net.cpp:386] drop6 -> fc6 (in-place)
I1108 11:59:14.935614 10077 net.cpp:141] Setting up drop6
I1108 11:59:14.935631 10077 net.cpp:148] Top shape: 128 4096 (524288)
I1108 11:59:14.935637 10077 net.cpp:156] Memory required for data: 3020180992
I1108 11:59:14.935643 10077 layer_factory.hpp:77] Creating layer fc7
I1108 11:59:14.935654 10077 net.cpp:91] Creating Layer fc7
I1108 11:59:14.935662 10077 net.cpp:425] fc7 <- fc6
I1108 11:59:14.935670 10077 net.cpp:399] fc7 -> fc7
I1108 11:59:15.038781 10077 net.cpp:141] Setting up fc7
I1108 11:59:15.038816 10077 net.cpp:148] Top shape: 128 4096 (524288)
I1108 11:59:15.038822 10077 net.cpp:156] Memory required for data: 3022278144
I1108 11:59:15.038846 10077 layer_factory.hpp:77] Creating layer relu7
I1108 11:59:15.038867 10077 net.cpp:91] Creating Layer relu7
I1108 11:59:15.038883 10077 net.cpp:425] relu7 <- fc7
I1108 11:59:15.038902 10077 net.cpp:386] relu7 -> fc7 (in-place)
I1108 11:59:15.038910 10077 net.cpp:141] Setting up relu7
I1108 11:59:15.038918 10077 net.cpp:148] Top shape: 128 4096 (524288)
I1108 11:59:15.038923 10077 net.cpp:156] Memory required for data: 3024375296
I1108 11:59:15.038928 10077 layer_factory.hpp:77] Creating layer drop7
I1108 11:59:15.038940 10077 net.cpp:91] Creating Layer drop7
I1108 11:59:15.038950 10077 net.cpp:425] drop7 <- fc7
I1108 11:59:15.038960 10077 net.cpp:386] drop7 -> fc7 (in-place)
I1108 11:59:15.039006 10077 net.cpp:141] Setting up drop7
I1108 11:59:15.039026 10077 net.cpp:148] Top shape: 128 4096 (524288)
I1108 11:59:15.039031 10077 net.cpp:156] Memory required for data: 3026472448
I1108 11:59:15.039049 10077 layer_factory.hpp:77] Creating layer fc8
I1108 11:59:15.039078 10077 net.cpp:91] Creating Layer fc8
I1108 11:59:15.039085 10077 net.cpp:425] fc8 <- fc7
I1108 11:59:15.039094 10077 net.cpp:399] fc8 -> fc8
I1108 11:59:15.040797 10077 net.cpp:141] Setting up fc8
I1108 11:59:15.040825 10077 net.cpp:148] Top shape: 128 40 (5120)
I1108 11:59:15.040835 10077 net.cpp:156] Memory required for data: 3026492928
I1108 11:59:15.040858 10077 layer_factory.hpp:77] Creating layer fc8_fc8_0_split
I1108 11:59:15.040868 10077 net.cpp:91] Creating Layer fc8_fc8_0_split
I1108 11:59:15.040875 10077 net.cpp:425] fc8_fc8_0_split <- fc8
I1108 11:59:15.040892 10077 net.cpp:399] fc8_fc8_0_split -> fc8_fc8_0_split_0
I1108 11:59:15.040902 10077 net.cpp:399] fc8_fc8_0_split -> fc8_fc8_0_split_1
I1108 11:59:15.040957 10077 net.cpp:141] Setting up fc8_fc8_0_split
I1108 11:59:15.040966 10077 net.cpp:148] Top shape: 128 40 (5120)
I1108 11:59:15.040985 10077 net.cpp:148] Top shape: 128 40 (5120)
I1108 11:59:15.040992 10077 net.cpp:156] Memory required for data: 3026533888
I1108 11:59:15.041007 10077 layer_factory.hpp:77] Creating layer accuracy
I1108 11:59:15.041031 10077 net.cpp:91] Creating Layer accuracy
I1108 11:59:15.041049 10077 net.cpp:425] accuracy <- fc8_fc8_0_split_0
I1108 11:59:15.041065 10077 net.cpp:425] accuracy <- label_img_1_split_0
I1108 11:59:15.041084 10077 net.cpp:399] accuracy -> accuracy
…
I1108 11:59:15.042119 10077 solver.cpp:181] Creating test net (#0) specified by test_net file: test.prototxt
I1108 11:59:15.042330 10077 net.cpp:49] Initializing net from parameters: 
state {
  phase: TEST
}
layer {
  name: "img"
  type: "Python"
  top: "img"
  top: "label"
  python_param {
    module: "data_layers.model_net_layer"
    layer: "ModelNetDataLayer"
    param_str: "{\'img_size\': (250, 250), \'split\': \'test\', \'dataset_dir\': \'/home/kevin/dataset/processed_data\', \'variable\': \'depth_map\', \'dtype\': \'object\', \'seed\': 1337, \'batch_size\': 128, \'mean\': 2}"
  }
}
layer {
  name: "conv1"
  type: "Convolution"
  bottom: "img"
  top: "conv1"
  param {
    name: "conv1_w"
    lr_mult: 1
    decay_mult: 1
  }
  param {
    name: "conv1_b"
    lr_mult: 2
    decay_mult: 0
  }
  convolution_param {
    num_output: 128
    pad: 2
    kernel_size: 5
    group: 1
    stride: 2
    weight_filler {
      type: "xavier"
    }
  }
}
layer {
  name: "relu1"
  type: "ReLU"
  bottom: "conv1"
  top: "conv1"
}
layer {
  name: "pool1"
  type: "Pooling"
  bottom: "conv1"
  top: "pool1"
  pooling_param {
    pool: MAX
    kernel_size: 3
    stride: 2
  }
}
layer {
  name: "norm1"
  type: "LRN"
  bottom: "pool1"
  top: "norm1"
  lrn_param {
    local_size: 5
    alpha: 0.0005
    beta: 0.75
    k: 2
  }
}
layer {
  name: "conv2"
  type: "Convolution"
  bottom: "norm1"
  top: "conv2"
  param {
    name: "conv2_w"
    lr_mult: 1
    decay_mult: 1
  }
  param {
    name: "conv2_b"
    lr_mult: 2
    decay_mult: 0
  }
  convolution_param {
    num_output: 256
    pad: 2
    kernel_size: 5
    group: 1
    stride: 2
    weight_filler {
      type: "xavier"
    }
  }
}
layer {
  name: "relu2"
  type: "ReLU"
  bottom: "conv2"
  top: "conv2"
}
layer {
  name: "pool2"
  type: "Pooling"
  bottom: "conv2"
  top: "pool2"
  pooling_param {
    pool: MAX
    kernel_size: 3
    stride: 2
  }
}
layer {
  name: "norm2"
  type: "LRN"
  bottom: "pool2"
  top: "norm2"
  lrn_param {
    local_size: 5
    alpha: 0.0005
    beta: 0.75
    k: 2
  }
}
layer {
  name: "conv3"
  type: "Convolution"
  bottom: "norm2"
  top: "conv3"
  param {
    name: "conv3_w"
    lr_mult: 1
    decay_mult: 1
  }
  param {
    name: "conv3_b"
    lr_mult: 2
    decay_mult: 0
  }
  convolution_param {
    num_output: 256
    pad: 1
    kernel_size: 3
    group: 2
    stride: 1
    weight_filler {
      type: "xavier"
    }
  }
}
layer {
  name: "relu3"
  type: "ReLU"
  bottom: "conv3"
  top: "conv3"
}
layer {
  name: "pool3"
  type: "Pooling"
  bottom: "conv3"
  top: "pool3"
  pooling_param {
    pool: MAX
    kernel_size: 3
    stride: 2
  }
}
layer {
  name: "conv4"
  type: "Convolution"
  bottom: "pool3"
  top: "conv4"
  param {
    name: "conv4_w"
    lr_mult: 1
    decay_mult: 1
  }
  param {
    name: "conv4_b"
    lr_mult: 2
    decay_mult: 0
  }
  convolution_param {
    num_output: 512
    pad: 1
    kernel_size: 3
    group: 2
    stride: 1
    weight_filler {
      type: "xavier"
    }
  }
}
layer {
  name: "relu4"
  type: "ReLU"
  bottom: "conv4"
  top: "conv4"
}
layer {
  name: "conv5"
  type: "Convolution"
  bottom: "conv4"
  top: "conv5"
  param {
    name: "conv5_w"
    lr_mult: 1
    decay_mult: 1
  }
  param {
    name: "conv5_b"
    lr_mult: 2
    decay_mult: 0
  }
  convolution_param {
    num_output: 512
    pad: 1
    kernel_size: 3
    group: 2
    stride: 1
    weight_filler {
      type: "xavier"
    }
  }
}
layer {
  name: "relu5"
  type: "ReLU"
  bottom: "conv5"
  top: "conv5"
}
layer {
  name: "pool5"
  type: "Pooling"
  bottom: "conv5"
  top: "pool5"
  pooling_param {
    pool: MAX
    kernel_size: 3
    stride: 2
  }
}
layer {
  name: "fc6"
  type: "InnerProduct"
  bottom: "pool5"
  top: "fc6"
  param {
    lr_mult: 1
    decay_mult: 1
  }
  param {
    lr_mult: 2
    decay_mult: 0
  }
  inner_product_param {
    num_output: 4096
    weight_filler {
      type: "xavier"
    }
  }
}
layer {
  name: "relu6"
  type: "ReLU"
  bottom: "fc6"
  top: "fc6"
}
layer {
  name: "drop6"
  type: "Dropout"
  bottom: "fc6"
  top: "fc6"
  dropout_param {
    dropout_ratio: 0.5
  }
}
layer {
  name: "fc7"
  type: "InnerProduct"
  bottom: "fc6"
  top: "fc7"
  param {
    lr_mult: 1
    decay_mult: 1
  }
  param {
    lr_mult: 2
    decay_mult: 0
  }
  inner_product_param {
    num_output: 4096
    weight_filler {
      type: "xavier"
    }
  }
}
layer {
  name: "relu7"
  type: "ReLU"
  bottom: "fc7"
  top: "fc7"
}
layer {
  name: "drop7"
  type: "Dropout"
  bottom: "fc7"
  top: "fc7"
  dropout_param {
    dropout_ratio: 0.5
  }
}
layer {
  name: "fc8"
  type: "InnerProduct"
  bottom: "fc7"
  top: "fc8"
  param {
    lr_mult: 1
    decay_mult: 1
  }
  param {
    lr_mult: 2
    decay_mult: 0
  }
  inner_product_param {
    num_output: 40
    weight_filler {
      type: "xavier"
    }
  }
}
layer {
  name: "accuracy"
  type: "Accuracy"
  bottom: "fc8"
  bottom: "label"
  top: "accuracy"
}
layer {
  name: "loss"
  type: "SoftmaxWithLoss"
  bottom: "fc8"
  bottom: "label"
  top: "loss"
}
I1108 11:59:15.043661 10077 layer_factory.hpp:77] Creating layer img
I1108 11:59:15.043717 10077 net.cpp:91] Creating Layer img
I1108 11:59:15.043728 10077 net.cpp:399] img -> img
I1108 11:59:15.043740 10077 net.cpp:399] img -> label
{'img_size': (250, 250), 'split': 'test', 'dataset_dir': '/home/kevin/dataset/processed_data', 'variable': 'depth_map', 'dtype': 'object', 'seed': 1337, 'batch_size': 128, 'mean': 2}
I1108 11:59:15.268915 10077 net.cpp:141] Setting up img
I1108 11:59:15.268946 10077 net.cpp:148] Top shape: 24 1 250 250 (1500000)
I1108 11:59:15.268968 10077 net.cpp:148] Top shape: 24 1 (24)
I1108 11:59:15.268972 10077 net.cpp:156] Memory required for data: 6000096
I1108 11:59:15.268996 10077 layer_factory.hpp:77] Creating layer label_img_1_split
I1108 11:59:15.269011 10077 net.cpp:91] Creating Layer label_img_1_split
I1108 11:59:15.269016 10077 net.cpp:425] label_img_1_split <- label
I1108 11:59:15.269026 10077 net.cpp:399] label_img_1_split -> label_img_1_split_0
I1108 11:59:15.269037 10077 net.cpp:399] label_img_1_split -> label_img_1_split_1
I1108 11:59:15.269093 10077 net.cpp:141] Setting up label_img_1_split
I1108 11:59:15.269100 10077 net.cpp:148] Top shape: 24 1 (24)
I1108 11:59:15.269115 10077 net.cpp:148] Top shape: 24 1 (24)
I1108 11:59:15.269120 10077 net.cpp:156] Memory required for data: 6000288
I1108 11:59:15.269137 10077 layer_factory.hpp:77] Creating layer conv1
I1108 11:59:15.269150 10077 net.cpp:91] Creating Layer conv1
I1108 11:59:15.269156 10077 net.cpp:425] conv1 <- img
I1108 11:59:15.269163 10077 net.cpp:399] conv1 -> conv1
I1108 11:59:15.269384 10077 net.cpp:141] Setting up conv1
I1108 11:59:15.269399 10077 net.cpp:148] Top shape: 24 128 125 125 (48000000)
I1108 11:59:15.269415 10077 net.cpp:156] Memory required for data: 198000288
I1108 11:59:15.269428 10077 layer_factory.hpp:77] Creating layer relu1
I1108 11:59:15.269438 10077 net.cpp:91] Creating Layer relu1
I1108 11:59:15.269444 10077 net.cpp:425] relu1 <- conv1
I1108 11:59:15.269453 10077 net.cpp:386] relu1 -> conv1 (in-place)
I1108 11:59:15.269462 10077 net.cpp:141] Setting up relu1
I1108 11:59:15.269470 10077 net.cpp:148] Top shape: 24 128 125 125 (48000000)
I1108 11:59:15.269476 10077 net.cpp:156] Memory required for data: 390000288
I1108 11:59:15.269484 10077 layer_factory.hpp:77] Creating layer pool1
I1108 11:59:15.269493 10077 net.cpp:91] Creating Layer pool1
I1108 11:59:15.269501 10077 net.cpp:425] pool1 <- conv1
I1108 11:59:15.269510 10077 net.cpp:399] pool1 -> pool1
I1108 11:59:15.269546 10077 net.cpp:141] Setting up pool1
I1108 11:59:15.269556 10077 net.cpp:148] Top shape: 24 128 62 62 (11808768)
I1108 11:59:15.269562 10077 net.cpp:156] Memory required for data: 437235360
I1108 11:59:15.269568 10077 layer_factory.hpp:77] Creating layer norm1
I1108 11:59:15.269578 10077 net.cpp:91] Creating Layer norm1
I1108 11:59:15.269585 10077 net.cpp:425] norm1 <- pool1
I1108 11:59:15.269593 10077 net.cpp:399] norm1 -> norm1
I1108 11:59:15.269621 10077 net.cpp:141] Setting up norm1
I1108 11:59:15.269639 10077 net.cpp:148] Top shape: 24 128 62 62 (11808768)
I1108 11:59:15.269646 10077 net.cpp:156] Memory required for data: 484470432
I1108 11:59:15.269662 10077 layer_factory.hpp:77] Creating layer conv2
I1108 11:59:15.269672 10077 net.cpp:91] Creating Layer conv2
I1108 11:59:15.269680 10077 net.cpp:425] conv2 <- norm1
I1108 11:59:15.269690 10077 net.cpp:399] conv2 -> conv2
I1108 11:59:15.275609 10077 net.cpp:141] Setting up conv2
I1108 11:59:15.275645 10077 net.cpp:148] Top shape: 24 256 31 31 (5904384)
I1108 11:59:15.275667 10077 net.cpp:156] Memory required for data: 508087968
I1108 11:59:15.275684 10077 layer_factory.hpp:77] Creating layer relu2
I1108 11:59:15.275697 10077 net.cpp:91] Creating Layer relu2
I1108 11:59:15.275707 10077 net.cpp:425] relu2 <- conv2
I1108 11:59:15.275717 10077 net.cpp:386] relu2 -> conv2 (in-place)
I1108 11:59:15.275727 10077 net.cpp:141] Setting up relu2
I1108 11:59:15.275735 10077 net.cpp:148] Top shape: 24 256 31 31 (5904384)
I1108 11:59:15.275743 10077 net.cpp:156] Memory required for data: 531705504
I1108 11:59:15.275749 10077 layer_factory.hpp:77] Creating layer pool2
I1108 11:59:15.275760 10077 net.cpp:91] Creating Layer pool2
I1108 11:59:15.275768 10077 net.cpp:425] pool2 <- conv2
I1108 11:59:15.275775 10077 net.cpp:399] pool2 -> pool2
I1108 11:59:15.275813 10077 net.cpp:141] Setting up pool2
I1108 11:59:15.275823 10077 net.cpp:148] Top shape: 24 256 15 15 (1382400)
I1108 11:59:15.275831 10077 net.cpp:156] Memory required for data: 537235104
I1108 11:59:15.275838 10077 layer_factory.hpp:77] Creating layer norm2
I1108 11:59:15.275848 10077 net.cpp:91] Creating Layer norm2
I1108 11:59:15.275856 10077 net.cpp:425] norm2 <- pool2
I1108 11:59:15.275866 10077 net.cpp:399] norm2 -> norm2
I1108 11:59:15.275909 10077 net.cpp:141] Setting up norm2
I1108 11:59:15.275926 10077 net.cpp:148] Top shape: 24 256 15 15 (1382400)
I1108 11:59:15.275940 10077 net.cpp:156] Memory required for data: 542764704
I1108 11:59:15.275949 10077 layer_factory.hpp:77] Creating layer conv3
I1108 11:59:15.275964 10077 net.cpp:91] Creating Layer conv3
I1108 11:59:15.275972 10077 net.cpp:425] conv3 <- norm2
I1108 11:59:15.275982 10077 net.cpp:399] conv3 -> conv3
I1108 11:59:15.278424 10077 net.cpp:141] Setting up conv3
I1108 11:59:15.278465 10077 net.cpp:148] Top shape: 24 256 15 15 (1382400)
I1108 11:59:15.278479 10077 net.cpp:156] Memory required for data: 548294304
I1108 11:59:15.278499 10077 layer_factory.hpp:77] Creating layer relu3
I1108 11:59:15.278513 10077 net.cpp:91] Creating Layer relu3
I1108 11:59:15.278522 10077 net.cpp:425] relu3 <- conv3
I1108 11:59:15.278532 10077 net.cpp:386] relu3 -> conv3 (in-place)
I1108 11:59:15.278544 10077 net.cpp:141] Setting up relu3
I1108 11:59:15.278553 10077 net.cpp:148] Top shape: 24 256 15 15 (1382400)
I1108 11:59:15.278559 10077 net.cpp:156] Memory required for data: 553823904
I1108 11:59:15.278566 10077 layer_factory.hpp:77] Creating layer pool3
I1108 11:59:15.278576 10077 net.cpp:91] Creating Layer pool3
I1108 11:59:15.278584 10077 net.cpp:425] pool3 <- conv3
I1108 11:59:15.278592 10077 net.cpp:399] pool3 -> pool3
I1108 11:59:15.278647 10077 net.cpp:141] Setting up pool3
I1108 11:59:15.278658 10077 net.cpp:148] Top shape: 24 256 7 7 (301056)
I1108 11:59:15.278664 10077 net.cpp:156] Memory required for data: 555028128
I1108 11:59:15.278671 10077 layer_factory.hpp:77] Creating layer conv4
I1108 11:59:15.278686 10077 net.cpp:91] Creating Layer conv4
I1108 11:59:15.278692 10077 net.cpp:425] conv4 <- pool3
I1108 11:59:15.278702 10077 net.cpp:399] conv4 -> conv4
I1108 11:59:15.283146 10077 net.cpp:141] Setting up conv4
I1108 11:59:15.283202 10077 net.cpp:148] Top shape: 24 512 7 7 (602112)
I1108 11:59:15.283211 10077 net.cpp:156] Memory required for data: 557436576
I1108 11:59:15.283246 10077 layer_factory.hpp:77] Creating layer relu4
I1108 11:59:15.283260 10077 net.cpp:91] Creating Layer relu4
I1108 11:59:15.283278 10077 net.cpp:425] relu4 <- conv4
I1108 11:59:15.283288 10077 net.cpp:386] relu4 -> conv4 (in-place)
I1108 11:59:15.283318 10077 net.cpp:141] Setting up relu4
I1108 11:59:15.283326 10077 net.cpp:148] Top shape: 24 512 7 7 (602112)
I1108 11:59:15.283334 10077 net.cpp:156] Memory required for data: 559845024
I1108 11:59:15.283342 10077 layer_factory.hpp:77] Creating layer conv5
I1108 11:59:15.283357 10077 net.cpp:91] Creating Layer conv5
I1108 11:59:15.283365 10077 net.cpp:425] conv5 <- conv4
I1108 11:59:15.283375 10077 net.cpp:399] conv5 -> conv5
I1108 11:59:15.291007 10077 net.cpp:141] Setting up conv5
I1108 11:59:15.291045 10077 net.cpp:148] Top shape: 24 512 7 7 (602112)
I1108 11:59:15.291054 10077 net.cpp:156] Memory required for data: 562253472
I1108 11:59:15.291084 10077 layer_factory.hpp:77] Creating layer relu5
I1108 11:59:15.291111 10077 net.cpp:91] Creating Layer relu5
I1108 11:59:15.291129 10077 net.cpp:425] relu5 <- conv5
I1108 11:59:15.291149 10077 net.cpp:386] relu5 -> conv5 (in-place)
I1108 11:59:15.291160 10077 net.cpp:141] Setting up relu5
I1108 11:59:15.291169 10077 net.cpp:148] Top shape: 24 512 7 7 (602112)
I1108 11:59:15.291177 10077 net.cpp:156] Memory required for data: 564661920
I1108 11:59:15.291193 10077 layer_factory.hpp:77] Creating layer pool5
I1108 11:59:15.291213 10077 net.cpp:91] Creating Layer pool5
I1108 11:59:15.291229 10077 net.cpp:425] pool5 <- conv5
I1108 11:59:15.291247 10077 net.cpp:399] pool5 -> pool5
I1108 11:59:15.291330 10077 net.cpp:141] Setting up pool5
I1108 11:59:15.291340 10077 net.cpp:148] Top shape: 24 512 3 3 (110592)
I1108 11:59:15.291347 10077 net.cpp:156] Memory required for data: 565104288
I1108 11:59:15.291354 10077 layer_factory.hpp:77] Creating layer fc6
I1108 11:59:15.291366 10077 net.cpp:91] Creating Layer fc6
I1108 11:59:15.291373 10077 net.cpp:425] fc6 <- pool5
I1108 11:59:15.291383 10077 net.cpp:399] fc6 -> fc6
I1108 11:59:15.412942 10077 net.cpp:141] Setting up fc6
I1108 11:59:15.413041 10077 net.cpp:148] Top shape: 24 4096 (98304)
I1108 11:59:15.413059 10077 net.cpp:156] Memory required for data: 565497504
I1108 11:59:15.413075 10077 layer_factory.hpp:77] Creating layer relu6
I1108 11:59:15.413101 10077 net.cpp:91] Creating Layer relu6
I1108 11:59:15.413130 10077 net.cpp:425] relu6 <- fc6
I1108 11:59:15.413153 10077 net.cpp:386] relu6 -> fc6 (in-place)
I1108 11:59:15.413167 10077 net.cpp:141] Setting up relu6
I1108 11:59:15.413185 10077 net.cpp:148] Top shape: 24 4096 (98304)
I1108 11:59:15.413192 10077 net.cpp:156] Memory required for data: 565890720
I1108 11:59:15.413198 10077 layer_factory.hpp:77] Creating layer drop6
I1108 11:59:15.413228 10077 net.cpp:91] Creating Layer drop6
I1108 11:59:15.413244 10077 net.cpp:425] drop6 <- fc6
I1108 11:59:15.413264 10077 net.cpp:386] drop6 -> fc6 (in-place)
I1108 11:59:15.413326 10077 net.cpp:141] Setting up drop6
I1108 11:59:15.413347 10077 net.cpp:148] Top shape: 24 4096 (98304)
I1108 11:59:15.413363 10077 net.cpp:156] Memory required for data: 566283936
I1108 11:59:15.413372 10077 layer_factory.hpp:77] Creating layer fc7
I1108 11:59:15.413395 10077 net.cpp:91] Creating Layer fc7
I1108 11:59:15.413403 10077 net.cpp:425] fc7 <- fc6
I1108 11:59:15.413415 10077 net.cpp:399] fc7 -> fc7
I1108 11:59:15.526504 10077 net.cpp:141] Setting up fc7
I1108 11:59:15.526577 10077 net.cpp:148] Top shape: 24 4096 (98304)
I1108 11:59:15.526600 10077 net.cpp:156] Memory required for data: 566677152
I1108 11:59:15.526619 10077 layer_factory.hpp:77] Creating layer relu7
I1108 11:59:15.526659 10077 net.cpp:91] Creating Layer relu7
I1108 11:59:15.526669 10077 net.cpp:425] relu7 <- fc7
I1108 11:59:15.526684 10077 net.cpp:386] relu7 -> fc7 (in-place)
I1108 11:59:15.526700 10077 net.cpp:141] Setting up relu7
I1108 11:59:15.526718 10077 net.cpp:148] Top shape: 24 4096 (98304)
I1108 11:59:15.526724 10077 net.cpp:156] Memory required for data: 567070368
I1108 11:59:15.526741 10077 layer_factory.hpp:77] Creating layer drop7
I1108 11:59:15.526754 10077 net.cpp:91] Creating Layer drop7
I1108 11:59:15.526762 10077 net.cpp:425] drop7 <- fc7
I1108 11:59:15.526772 10077 net.cpp:386] drop7 -> fc7 (in-place)
I1108 11:59:15.526803 10077 net.cpp:141] Setting up drop7
I1108 11:59:15.526823 10077 net.cpp:148] Top shape: 24 4096 (98304)
I1108 11:59:15.526829 10077 net.cpp:156] Memory required for data: 567463584
I1108 11:59:15.526846 10077 layer_factory.hpp:77] Creating layer fc8
I1108 11:59:15.526859 10077 net.cpp:91] Creating Layer fc8
I1108 11:59:15.526867 10077 net.cpp:425] fc8 <- fc7
I1108 11:59:15.526877 10077 net.cpp:399] fc8 -> fc8
I1108 11:59:15.528642 10077 net.cpp:141] Setting up fc8
I1108 11:59:15.528707 10077 net.cpp:148] Top shape: 24 40 (960)
I1108 11:59:15.528715 10077 net.cpp:156] Memory required for data: 567467424
I1108 11:59:15.528745 10077 layer_factory.hpp:77] Creating layer fc8_fc8_0_split
I1108 11:59:15.528762 10077 net.cpp:91] Creating Layer fc8_fc8_0_split
I1108 11:59:15.528772 10077 net.cpp:425] fc8_fc8_0_split <- fc8
I1108 11:59:15.528786 10077 net.cpp:399] fc8_fc8_0_split -> fc8_fc8_0_split_0
I1108 11:59:15.528801 10077 net.cpp:399] fc8_fc8_0_split -> fc8_fc8_0_split_1
I1108 11:59:15.528844 10077 net.cpp:141] Setting up fc8_fc8_0_split
I1108 11:59:15.528857 10077 net.cpp:148] Top shape: 24 40 (960)
I1108 11:59:15.528874 10077 net.cpp:148] Top shape: 24 40 (960)
I1108 11:59:15.528887 10077 net.cpp:156] Memory required for data: 567475104
I1108 11:59:15.528898 10077 layer_factory.hpp:77] Creating layer accuracy
I1108 11:59:15.528914 10077 net.cpp:91] Creating Layer accuracy
I1108 11:59:15.528921 10077 net.cpp:425] accuracy <- fc8_fc8_0_split_0
I1108 11:59:15.528930 10077 net.cpp:425] accuracy <- label_img_1_split_0
I1108 11:59:15.528939 10077 net.cpp:399] accuracy -> accuracy
…
I1108 12:00:43.182170 10107 solver.cpp:81] Creating training net from train_net file: train.prototxt
I1108 12:00:43.182584 10107 net.cpp:49] Initializing net from parameters: 
state {
  phase: TRAIN
}
layer {
  name: "img"
  type: "Python"
  top: "img"
  top: "label"
  python_param {
    module: "data_layers.model_net_layer"
    layer: "ModelNetDataLayer"
    param_str: "{\'img_size\': (250, 250), \'split\': \'train\', \'dataset_dir\': \'/home/kevin/dataset/processed_data\', \'variable\': \'depth_map\', \'dtype\': \'frame\', \'seed\': 1337, \'batch_size\': 128, \'mean\': 2}"
  }
}
layer {
  name: "conv1"
  type: "Convolution"
  bottom: "img"
  top: "conv1"
  param {
    name: "conv1_w"
    lr_mult: 1
    decay_mult: 1
  }
  param {
    name: "conv1_b"
    lr_mult: 2
    decay_mult: 0
  }
  convolution_param {
    num_output: 128
    pad: 2
    kernel_size: 5
    group: 1
    stride: 2
    weight_filler {
      type: "xavier"
    }
  }
}
layer {
  name: "relu1"
  type: "ReLU"
  bottom: "conv1"
  top: "conv1"
}
layer {
  name: "pool1"
  type: "Pooling"
  bottom: "conv1"
  top: "pool1"
  pooling_param {
    pool: MAX
    kernel_size: 3
    stride: 2
  }
}
layer {
  name: "norm1"
  type: "LRN"
  bottom: "pool1"
  top: "norm1"
  lrn_param {
    local_size: 5
    alpha: 0.0005
    beta: 0.75
    k: 2
  }
}
layer {
  name: "conv2"
  type: "Convolution"
  bottom: "norm1"
  top: "conv2"
  param {
    name: "conv2_w"
    lr_mult: 1
    decay_mult: 1
  }
  param {
    name: "conv2_b"
    lr_mult: 2
    decay_mult: 0
  }
  convolution_param {
    num_output: 256
    pad: 2
    kernel_size: 5
    group: 1
    stride: 1
    weight_filler {
      type: "xavier"
    }
  }
}
layer {
  name: "relu2"
  type: "ReLU"
  bottom: "conv2"
  top: "conv2"
}
layer {
  name: "pool2"
  type: "Pooling"
  bottom: "conv2"
  top: "pool2"
  pooling_param {
    pool: MAX
    kernel_size: 3
    stride: 2
  }
}
layer {
  name: "norm2"
  type: "LRN"
  bottom: "pool2"
  top: "norm2"
  lrn_param {
    local_size: 5
    alpha: 0.0005
    beta: 0.75
    k: 2
  }
}
layer {
  name: "conv3"
  type: "Convolution"
  bottom: "norm2"
  top: "conv3"
  param {
    name: "conv3_w"
    lr_mult: 1
    decay_mult: 1
  }
  param {
    name: "conv3_b"
    lr_mult: 2
    decay_mult: 0
  }
  convolution_param {
    num_output: 256
    pad: 1
    kernel_size: 3
    group: 2
    stride: 1
    weight_filler {
      type: "xavier"
    }
  }
}
layer {
  name: "relu3"
  type: "ReLU"
  bottom: "conv3"
  top: "conv3"
}
layer {
  name: "pool3"
  type: "Pooling"
  bottom: "conv3"
  top: "pool3"
  pooling_param {
    pool: MAX
    kernel_size: 3
    stride: 2
  }
}
layer {
  name: "conv4"
  type: "Convolution"
  bottom: "pool3"
  top: "conv4"
  param {
    name: "conv4_w"
    lr_mult: 1
    decay_mult: 1
  }
  param {
    name: "conv4_b"
    lr_mult: 2
    decay_mult: 0
  }
  convolution_param {
    num_output: 512
    pad: 1
    kernel_size: 3
    group: 2
    stride: 1
    weight_filler {
      type: "xavier"
    }
  }
}
layer {
  name: "relu4"
  type: "ReLU"
  bottom: "conv4"
  top: "conv4"
}
layer {
  name: "conv5"
  type: "Convolution"
  bottom: "conv4"
  top: "conv5"
  param {
    name: "conv5_w"
    lr_mult: 1
    decay_mult: 1
  }
  param {
    name: "conv5_b"
    lr_mult: 2
    decay_mult: 0
  }
  convolution_param {
    num_output: 512
    pad: 1
    kernel_size: 3
    group: 2
    stride: 1
    weight_filler {
      type: "xavier"
    }
  }
}
layer {
  name: "relu5"
  type: "ReLU"
  bottom: "conv5"
  top: "conv5"
}
layer {
  name: "pool5"
  type: "Pooling"
  bottom: "conv5"
  top: "pool5"
  pooling_param {
    pool: MAX
    kernel_size: 3
    stride: 2
  }
}
layer {
  name: "fc6"
  type: "InnerProduct"
  bottom: "pool5"
  top: "fc6"
  param {
    lr_mult: 1
    decay_mult: 1
  }
  param {
    lr_mult: 2
    decay_mult: 0
  }
  inner_product_param {
    num_output: 4096
    weight_filler {
      type: "xavier"
    }
  }
}
layer {
  name: "relu6"
  type: "ReLU"
  bottom: "fc6"
  top: "fc6"
}
layer {
  name: "drop6"
  type: "Dropout"
  bottom: "fc6"
  top: "fc6"
  dropout_param {
    dropout_ratio: 0.5
  }
}
layer {
  name: "fc7"
  type: "InnerProduct"
  bottom: "fc6"
  top: "fc7"
  param {
    lr_mult: 1
    decay_mult: 1
  }
  param {
    lr_mult: 2
    decay_mult: 0
  }
  inner_product_param {
    num_output: 4096
    weight_filler {
      type: "xavier"
    }
  }
}
layer {
  name: "relu7"
  type: "ReLU"
  bottom: "fc7"
  top: "fc7"
}
layer {
  name: "drop7"
  type: "Dropout"
  bottom: "fc7"
  top: "fc7"
  dropout_param {
    dropout_ratio: 0.5
  }
}
layer {
  name: "fc8"
  type: "InnerProduct"
  bottom: "fc7"
  top: "fc8"
  param {
    lr_mult: 1
    decay_mult: 1
  }
  param {
    lr_mult: 2
    decay_mult: 0
  }
  inner_product_param {
    num_output: 40
    weight_filler {
      type: "xavier"
    }
  }
}
layer {
  name: "accuracy"
  type: "Accuracy"
  bottom: "fc8"
  bottom: "label"
  top: "accuracy"
}
layer {
  name: "loss"
  type: "SoftmaxWithLoss"
  bottom: "fc8"
  bottom: "label"
  top: "loss"
}
I1108 12:00:43.183308 10107 layer_factory.hpp:77] Creating layer img
I1108 12:00:43.204823 10107 net.cpp:91] Creating Layer img
I1108 12:00:43.204849 10107 net.cpp:399] img -> img
I1108 12:00:43.204864 10107 net.cpp:399] img -> label
{'img_size': (250, 250), 'split': 'train', 'dataset_dir': '/home/kevin/dataset/processed_data', 'variable': 'depth_map', 'dtype': 'frame', 'seed': 1337, 'batch_size': 128, 'mean': 2}
I1108 12:00:54.160889 10107 net.cpp:141] Setting up img
I1108 12:00:54.160934 10107 net.cpp:148] Top shape: 128 1 250 250 (8000000)
I1108 12:00:54.160958 10107 net.cpp:148] Top shape: 128 1 (128)
I1108 12:00:54.160964 10107 net.cpp:156] Memory required for data: 32000512
I1108 12:00:54.160993 10107 layer_factory.hpp:77] Creating layer label_img_1_split
I1108 12:00:54.161011 10107 net.cpp:91] Creating Layer label_img_1_split
I1108 12:00:54.161017 10107 net.cpp:425] label_img_1_split <- label
I1108 12:00:54.161033 10107 net.cpp:399] label_img_1_split -> label_img_1_split_0
I1108 12:00:54.161052 10107 net.cpp:399] label_img_1_split -> label_img_1_split_1
I1108 12:00:54.161113 10107 net.cpp:141] Setting up label_img_1_split
I1108 12:00:54.161129 10107 net.cpp:148] Top shape: 128 1 (128)
I1108 12:00:54.161134 10107 net.cpp:148] Top shape: 128 1 (128)
I1108 12:00:54.161147 10107 net.cpp:156] Memory required for data: 32001536
I1108 12:00:54.161151 10107 layer_factory.hpp:77] Creating layer conv1
I1108 12:00:54.161176 10107 net.cpp:91] Creating Layer conv1
I1108 12:00:54.161181 10107 net.cpp:425] conv1 <- img
I1108 12:00:54.161188 10107 net.cpp:399] conv1 -> conv1
I1108 12:00:54.162164 10107 net.cpp:141] Setting up conv1
I1108 12:00:54.162189 10107 net.cpp:148] Top shape: 128 128 125 125 (256000000)
I1108 12:00:54.162194 10107 net.cpp:156] Memory required for data: 1056001536
I1108 12:00:54.162204 10107 layer_factory.hpp:77] Creating layer relu1
I1108 12:00:54.162214 10107 net.cpp:91] Creating Layer relu1
I1108 12:00:54.162219 10107 net.cpp:425] relu1 <- conv1
I1108 12:00:54.162225 10107 net.cpp:386] relu1 -> conv1 (in-place)
I1108 12:00:54.162232 10107 net.cpp:141] Setting up relu1
I1108 12:00:54.162238 10107 net.cpp:148] Top shape: 128 128 125 125 (256000000)
I1108 12:00:54.162242 10107 net.cpp:156] Memory required for data: 2080001536
I1108 12:00:54.162247 10107 layer_factory.hpp:77] Creating layer pool1
I1108 12:00:54.162263 10107 net.cpp:91] Creating Layer pool1
I1108 12:00:54.162268 10107 net.cpp:425] pool1 <- conv1
I1108 12:00:54.162273 10107 net.cpp:399] pool1 -> pool1
I1108 12:00:54.162314 10107 net.cpp:141] Setting up pool1
I1108 12:00:54.162330 10107 net.cpp:148] Top shape: 128 128 62 62 (62980096)
I1108 12:00:54.162345 10107 net.cpp:156] Memory required for data: 2331921920
I1108 12:00:54.162350 10107 layer_factory.hpp:77] Creating layer norm1
I1108 12:00:54.162358 10107 net.cpp:91] Creating Layer norm1
I1108 12:00:54.162362 10107 net.cpp:425] norm1 <- pool1
I1108 12:00:54.162367 10107 net.cpp:399] norm1 -> norm1
I1108 12:00:54.162411 10107 net.cpp:141] Setting up norm1
I1108 12:00:54.162417 10107 net.cpp:148] Top shape: 128 128 62 62 (62980096)
I1108 12:00:54.162422 10107 net.cpp:156] Memory required for data: 2583842304
I1108 12:00:54.162427 10107 layer_factory.hpp:77] Creating layer conv2
I1108 12:00:54.162436 10107 net.cpp:91] Creating Layer conv2
I1108 12:00:54.162441 10107 net.cpp:425] conv2 <- norm1
I1108 12:00:54.162446 10107 net.cpp:399] conv2 -> conv2
I1108 12:00:54.166590 10107 net.cpp:141] Setting up conv2
I1108 12:00:54.166615 10107 net.cpp:148] Top shape: 128 256 62 62 (125960192)
I1108 12:00:54.166620 10107 net.cpp:156] Memory required for data: 3087683072
I1108 12:00:54.166640 10107 layer_factory.hpp:77] Creating layer relu2
I1108 12:00:54.166646 10107 net.cpp:91] Creating Layer relu2
I1108 12:00:54.166661 10107 net.cpp:425] relu2 <- conv2
I1108 12:00:54.166676 10107 net.cpp:386] relu2 -> conv2 (in-place)
I1108 12:00:54.166682 10107 net.cpp:141] Setting up relu2
I1108 12:00:54.166688 10107 net.cpp:148] Top shape: 128 256 62 62 (125960192)
I1108 12:00:54.166692 10107 net.cpp:156] Memory required for data: 3591523840
I1108 12:00:54.166707 10107 layer_factory.hpp:77] Creating layer pool2
I1108 12:00:54.166723 10107 net.cpp:91] Creating Layer pool2
I1108 12:00:54.166728 10107 net.cpp:425] pool2 <- conv2
I1108 12:00:54.166748 10107 net.cpp:399] pool2 -> pool2
I1108 12:00:54.166795 10107 net.cpp:141] Setting up pool2
I1108 12:00:54.166801 10107 net.cpp:148] Top shape: 128 256 31 31 (31490048)
I1108 12:00:54.166817 10107 net.cpp:156] Memory required for data: 3717484032
I1108 12:00:54.166822 10107 layer_factory.hpp:77] Creating layer norm2
I1108 12:00:54.166839 10107 net.cpp:91] Creating Layer norm2
I1108 12:00:54.166856 10107 net.cpp:425] norm2 <- pool2
I1108 12:00:54.166862 10107 net.cpp:399] norm2 -> norm2
I1108 12:00:54.166901 10107 net.cpp:141] Setting up norm2
I1108 12:00:54.166908 10107 net.cpp:148] Top shape: 128 256 31 31 (31490048)
I1108 12:00:54.166913 10107 net.cpp:156] Memory required for data: 3843444224
I1108 12:00:54.166916 10107 layer_factory.hpp:77] Creating layer conv3
I1108 12:00:54.166925 10107 net.cpp:91] Creating Layer conv3
I1108 12:00:54.166930 10107 net.cpp:425] conv3 <- norm2
I1108 12:00:54.166946 10107 net.cpp:399] conv3 -> conv3
I1108 12:00:54.168814 10107 net.cpp:141] Setting up conv3
I1108 12:00:54.168836 10107 net.cpp:148] Top shape: 128 256 31 31 (31490048)
I1108 12:00:54.168843 10107 net.cpp:156] Memory required for data: 3969404416
I1108 12:00:54.168859 10107 layer_factory.hpp:77] Creating layer relu3
I1108 12:00:54.168869 10107 net.cpp:91] Creating Layer relu3
I1108 12:00:54.168874 10107 net.cpp:425] relu3 <- conv3
I1108 12:00:54.168879 10107 net.cpp:386] relu3 -> conv3 (in-place)
I1108 12:00:54.168886 10107 net.cpp:141] Setting up relu3
I1108 12:00:54.168892 10107 net.cpp:148] Top shape: 128 256 31 31 (31490048)
I1108 12:00:54.168896 10107 net.cpp:156] Memory required for data: 4095364608
I1108 12:00:54.168901 10107 layer_factory.hpp:77] Creating layer pool3
I1108 12:00:54.168908 10107 net.cpp:91] Creating Layer pool3
I1108 12:00:54.168913 10107 net.cpp:425] pool3 <- conv3
I1108 12:00:54.168918 10107 net.cpp:399] pool3 -> pool3
I1108 12:00:54.168943 10107 net.cpp:141] Setting up pool3
I1108 12:00:54.168951 10107 net.cpp:148] Top shape: 128 256 15 15 (7372800)
I1108 12:00:54.168954 10107 net.cpp:156] Memory required for data: 4124855808
I1108 12:00:54.168958 10107 layer_factory.hpp:77] Creating layer conv4
I1108 12:00:54.168967 10107 net.cpp:91] Creating Layer conv4
I1108 12:00:54.168972 10107 net.cpp:425] conv4 <- pool3
I1108 12:00:54.168977 10107 net.cpp:399] conv4 -> conv4
I1108 12:00:54.172019 10107 net.cpp:141] Setting up conv4
I1108 12:00:54.172042 10107 net.cpp:148] Top shape: 128 512 15 15 (14745600)
I1108 12:00:54.172046 10107 net.cpp:156] Memory required for data: 4183838208
I1108 12:00:54.172065 10107 layer_factory.hpp:77] Creating layer relu4
I1108 12:00:54.172072 10107 net.cpp:91] Creating Layer relu4
I1108 12:00:54.172078 10107 net.cpp:425] relu4 <- conv4
I1108 12:00:54.172086 10107 net.cpp:386] relu4 -> conv4 (in-place)
I1108 12:00:54.172092 10107 net.cpp:141] Setting up relu4
I1108 12:00:54.172098 10107 net.cpp:148] Top shape: 128 512 15 15 (14745600)
I1108 12:00:54.172102 10107 net.cpp:156] Memory required for data: 4242820608
I1108 12:00:54.172107 10107 layer_factory.hpp:77] Creating layer conv5
I1108 12:00:54.172116 10107 net.cpp:91] Creating Layer conv5
I1108 12:00:54.172121 10107 net.cpp:425] conv5 <- conv4
I1108 12:00:54.172127 10107 net.cpp:399] conv5 -> conv5
I1108 12:00:54.178102 10107 net.cpp:141] Setting up conv5
I1108 12:00:54.178127 10107 net.cpp:148] Top shape: 128 512 15 15 (14745600)
I1108 12:00:54.178131 10107 net.cpp:156] Memory required for data: 4301803008
I1108 12:00:54.178143 10107 layer_factory.hpp:77] Creating layer relu5
I1108 12:00:54.178153 10107 net.cpp:91] Creating Layer relu5
I1108 12:00:54.178159 10107 net.cpp:425] relu5 <- conv5
I1108 12:00:54.178176 10107 net.cpp:386] relu5 -> conv5 (in-place)
I1108 12:00:54.178195 10107 net.cpp:141] Setting up relu5
I1108 12:00:54.178210 10107 net.cpp:148] Top shape: 128 512 15 15 (14745600)
I1108 12:00:54.178215 10107 net.cpp:156] Memory required for data: 4360785408
I1108 12:00:54.178220 10107 layer_factory.hpp:77] Creating layer pool5
I1108 12:00:54.178236 10107 net.cpp:91] Creating Layer pool5
I1108 12:00:54.178239 10107 net.cpp:425] pool5 <- conv5
I1108 12:00:54.178254 10107 net.cpp:399] pool5 -> pool5
I1108 12:00:54.178313 10107 net.cpp:141] Setting up pool5
I1108 12:00:54.178319 10107 net.cpp:148] Top shape: 128 512 7 7 (3211264)
I1108 12:00:54.178333 10107 net.cpp:156] Memory required for data: 4373630464
I1108 12:00:54.178338 10107 layer_factory.hpp:77] Creating layer fc6
I1108 12:00:54.178355 10107 net.cpp:91] Creating Layer fc6
I1108 12:00:54.178360 10107 net.cpp:425] fc6 <- pool5
I1108 12:00:54.178377 10107 net.cpp:399] fc6 -> fc6
I1108 12:00:54.691803 10107 net.cpp:141] Setting up fc6
I1108 12:00:54.691835 10107 net.cpp:148] Top shape: 128 4096 (524288)
I1108 12:00:54.691841 10107 net.cpp:156] Memory required for data: 4375727616
I1108 12:00:54.691853 10107 layer_factory.hpp:77] Creating layer relu6
I1108 12:00:54.691874 10107 net.cpp:91] Creating Layer relu6
I1108 12:00:54.691884 10107 net.cpp:425] relu6 <- fc6
I1108 12:00:54.691901 10107 net.cpp:386] relu6 -> fc6 (in-place)
I1108 12:00:54.691920 10107 net.cpp:141] Setting up relu6
I1108 12:00:54.691941 10107 net.cpp:148] Top shape: 128 4096 (524288)
I1108 12:00:54.691944 10107 net.cpp:156] Memory required for data: 4377824768
I1108 12:00:54.691959 10107 layer_factory.hpp:77] Creating layer drop6
I1108 12:00:54.691984 10107 net.cpp:91] Creating Layer drop6
I1108 12:00:54.691999 10107 net.cpp:425] drop6 <- fc6
I1108 12:00:54.692014 10107 net.cpp:386] drop6 -> fc6 (in-place)
I1108 12:00:54.692034 10107 net.cpp:141] Setting up drop6
I1108 12:00:54.692050 10107 net.cpp:148] Top shape: 128 4096 (524288)
I1108 12:00:54.692064 10107 net.cpp:156] Memory required for data: 4379921920
I1108 12:00:54.692067 10107 layer_factory.hpp:77] Creating layer fc7
I1108 12:00:54.692085 10107 net.cpp:91] Creating Layer fc7
I1108 12:00:54.692090 10107 net.cpp:425] fc7 <- fc6
I1108 12:00:54.692108 10107 net.cpp:399] fc7 -> fc7
I1108 12:00:54.791052 10107 net.cpp:141] Setting up fc7
I1108 12:00:54.791085 10107 net.cpp:148] Top shape: 128 4096 (524288)
I1108 12:00:54.791092 10107 net.cpp:156] Memory required for data: 4382019072
I1108 12:00:54.791103 10107 layer_factory.hpp:77] Creating layer relu7
I1108 12:00:54.791115 10107 net.cpp:91] Creating Layer relu7
I1108 12:00:54.791133 10107 net.cpp:425] relu7 <- fc7
I1108 12:00:54.791141 10107 net.cpp:386] relu7 -> fc7 (in-place)
I1108 12:00:54.791162 10107 net.cpp:141] Setting up relu7
I1108 12:00:54.791177 10107 net.cpp:148] Top shape: 128 4096 (524288)
I1108 12:00:54.791182 10107 net.cpp:156] Memory required for data: 4384116224
I1108 12:00:54.791198 10107 layer_factory.hpp:77] Creating layer drop7
I1108 12:00:54.791205 10107 net.cpp:91] Creating Layer drop7
I1108 12:00:54.791210 10107 net.cpp:425] drop7 <- fc7
I1108 12:00:54.791218 10107 net.cpp:386] drop7 -> fc7 (in-place)
I1108 12:00:54.791236 10107 net.cpp:141] Setting up drop7
I1108 12:00:54.791251 10107 net.cpp:148] Top shape: 128 4096 (524288)
I1108 12:00:54.791255 10107 net.cpp:156] Memory required for data: 4386213376
I1108 12:00:54.791270 10107 layer_factory.hpp:77] Creating layer fc8
I1108 12:00:54.791278 10107 net.cpp:91] Creating Layer fc8
I1108 12:00:54.791285 10107 net.cpp:425] fc8 <- fc7
I1108 12:00:54.791290 10107 net.cpp:399] fc8 -> fc8
I1108 12:00:54.792480 10107 net.cpp:141] Setting up fc8
I1108 12:00:54.792495 10107 net.cpp:148] Top shape: 128 40 (5120)
I1108 12:00:54.792500 10107 net.cpp:156] Memory required for data: 4386233856
I1108 12:00:54.792505 10107 layer_factory.hpp:77] Creating layer fc8_fc8_0_split
I1108 12:00:54.792526 10107 net.cpp:91] Creating Layer fc8_fc8_0_split
I1108 12:00:54.792531 10107 net.cpp:425] fc8_fc8_0_split <- fc8
I1108 12:00:54.792538 10107 net.cpp:399] fc8_fc8_0_split -> fc8_fc8_0_split_0
I1108 12:00:54.792546 10107 net.cpp:399] fc8_fc8_0_split -> fc8_fc8_0_split_1
I1108 12:00:54.792567 10107 net.cpp:141] Setting up fc8_fc8_0_split
I1108 12:00:54.792583 10107 net.cpp:148] Top shape: 128 40 (5120)
I1108 12:00:54.792588 10107 net.cpp:148] Top shape: 128 40 (5120)
I1108 12:00:54.792601 10107 net.cpp:156] Memory required for data: 4386274816
I1108 12:00:54.792605 10107 layer_factory.hpp:77] Creating layer accuracy
I1108 12:00:54.792613 10107 net.cpp:91] Creating Layer accuracy
I1108 12:00:54.792618 10107 net.cpp:425] accuracy <- fc8_fc8_0_split_0
I1108 12:00:54.792623 10107 net.cpp:425] accuracy <- label_img_1_split_0
I1108 12:00:54.792630 10107 net.cpp:399] accuracy -> accuracy
…
I1108 12:00:54.793341 10107 solver.cpp:181] Creating test net (#0) specified by test_net file: test.prototxt
I1108 12:00:54.793467 10107 net.cpp:49] Initializing net from parameters: 
state {
  phase: TEST
}
layer {
  name: "img"
  type: "Python"
  top: "img"
  top: "label"
  python_param {
    module: "data_layers.model_net_layer"
    layer: "ModelNetDataLayer"
    param_str: "{\'img_size\': (250, 250), \'split\': \'test\', \'dataset_dir\': \'/home/kevin/dataset/processed_data\', \'variable\': \'depth_map\', \'dtype\': \'object\', \'seed\': 1337, \'batch_size\': 128, \'mean\': 2}"
  }
}
layer {
  name: "conv1"
  type: "Convolution"
  bottom: "img"
  top: "conv1"
  param {
    name: "conv1_w"
    lr_mult: 1
    decay_mult: 1
  }
  param {
    name: "conv1_b"
    lr_mult: 2
    decay_mult: 0
  }
  convolution_param {
    num_output: 128
    pad: 2
    kernel_size: 5
    group: 1
    stride: 2
    weight_filler {
      type: "xavier"
    }
  }
}
layer {
  name: "relu1"
  type: "ReLU"
  bottom: "conv1"
  top: "conv1"
}
layer {
  name: "pool1"
  type: "Pooling"
  bottom: "conv1"
  top: "pool1"
  pooling_param {
    pool: MAX
    kernel_size: 3
    stride: 2
  }
}
layer {
  name: "norm1"
  type: "LRN"
  bottom: "pool1"
  top: "norm1"
  lrn_param {
    local_size: 5
    alpha: 0.0005
    beta: 0.75
    k: 2
  }
}
layer {
  name: "conv2"
  type: "Convolution"
  bottom: "norm1"
  top: "conv2"
  param {
    name: "conv2_w"
    lr_mult: 1
    decay_mult: 1
  }
  param {
    name: "conv2_b"
    lr_mult: 2
    decay_mult: 0
  }
  convolution_param {
    num_output: 256
    pad: 2
    kernel_size: 5
    group: 1
    stride: 1
    weight_filler {
      type: "xavier"
    }
  }
}
layer {
  name: "relu2"
  type: "ReLU"
  bottom: "conv2"
  top: "conv2"
}
layer {
  name: "pool2"
  type: "Pooling"
  bottom: "conv2"
  top: "pool2"
  pooling_param {
    pool: MAX
    kernel_size: 3
    stride: 2
  }
}
layer {
  name: "norm2"
  type: "LRN"
  bottom: "pool2"
  top: "norm2"
  lrn_param {
    local_size: 5
    alpha: 0.0005
    beta: 0.75
    k: 2
  }
}
layer {
  name: "conv3"
  type: "Convolution"
  bottom: "norm2"
  top: "conv3"
  param {
    name: "conv3_w"
    lr_mult: 1
    decay_mult: 1
  }
  param {
    name: "conv3_b"
    lr_mult: 2
    decay_mult: 0
  }
  convolution_param {
    num_output: 256
    pad: 1
    kernel_size: 3
    group: 2
    stride: 1
    weight_filler {
      type: "xavier"
    }
  }
}
layer {
  name: "relu3"
  type: "ReLU"
  bottom: "conv3"
  top: "conv3"
}
layer {
  name: "pool3"
  type: "Pooling"
  bottom: "conv3"
  top: "pool3"
  pooling_param {
    pool: MAX
    kernel_size: 3
    stride: 2
  }
}
layer {
  name: "conv4"
  type: "Convolution"
  bottom: "pool3"
  top: "conv4"
  param {
    name: "conv4_w"
    lr_mult: 1
    decay_mult: 1
  }
  param {
    name: "conv4_b"
    lr_mult: 2
    decay_mult: 0
  }
  convolution_param {
    num_output: 512
    pad: 1
    kernel_size: 3
    group: 2
    stride: 1
    weight_filler {
      type: "xavier"
    }
  }
}
layer {
  name: "relu4"
  type: "ReLU"
  bottom: "conv4"
  top: "conv4"
}
layer {
  name: "conv5"
  type: "Convolution"
  bottom: "conv4"
  top: "conv5"
  param {
    name: "conv5_w"
    lr_mult: 1
    decay_mult: 1
  }
  param {
    name: "conv5_b"
    lr_mult: 2
    decay_mult: 0
  }
  convolution_param {
    num_output: 512
    pad: 1
    kernel_size: 3
    group: 2
    stride: 1
    weight_filler {
      type: "xavier"
    }
  }
}
layer {
  name: "relu5"
  type: "ReLU"
  bottom: "conv5"
  top: "conv5"
}
layer {
  name: "pool5"
  type: "Pooling"
  bottom: "conv5"
  top: "pool5"
  pooling_param {
    pool: MAX
    kernel_size: 3
    stride: 2
  }
}
layer {
  name: "fc6"
  type: "InnerProduct"
  bottom: "pool5"
  top: "fc6"
  param {
    lr_mult: 1
    decay_mult: 1
  }
  param {
    lr_mult: 2
    decay_mult: 0
  }
  inner_product_param {
    num_output: 4096
    weight_filler {
      type: "xavier"
    }
  }
}
layer {
  name: "relu6"
  type: "ReLU"
  bottom: "fc6"
  top: "fc6"
}
layer {
  name: "drop6"
  type: "Dropout"
  bottom: "fc6"
  top: "fc6"
  dropout_param {
    dropout_ratio: 0.5
  }
}
layer {
  name: "fc7"
  type: "InnerProduct"
  bottom: "fc6"
  top: "fc7"
  param {
    lr_mult: 1
    decay_mult: 1
  }
  param {
    lr_mult: 2
    decay_mult: 0
  }
  inner_product_param {
    num_output: 4096
    weight_filler {
      type: "xavier"
    }
  }
}
layer {
  name: "relu7"
  type: "ReLU"
  bottom: "fc7"
  top: "fc7"
}
layer {
  name: "drop7"
  type: "Dropout"
  bottom: "fc7"
  top: "fc7"
  dropout_param {
    dropout_ratio: 0.5
  }
}
layer {
  name: "fc8"
  type: "InnerProduct"
  bottom: "fc7"
  top: "fc8"
  param {
    lr_mult: 1
    decay_mult: 1
  }
  param {
    lr_mult: 2
    decay_mult: 0
  }
  inner_product_param {
    num_output: 40
    weight_filler {
      type: "xavier"
    }
  }
}
layer {
  name: "accuracy"
  type: "Accuracy"
  bottom: "fc8"
  bottom: "label"
  top: "accuracy"
}
layer {
  name: "loss"
  type: "SoftmaxWithLoss"
  bottom: "fc8"
  bottom: "label"
  top: "loss"
}
I1108 12:00:54.794237 10107 layer_factory.hpp:77] Creating layer img
I1108 12:00:54.794278 10107 net.cpp:91] Creating Layer img
I1108 12:00:54.794286 10107 net.cpp:399] img -> img
I1108 12:00:54.794293 10107 net.cpp:399] img -> label
{'img_size': (250, 250), 'split': 'test', 'dataset_dir': '/home/kevin/dataset/processed_data', 'variable': 'depth_map', 'dtype': 'object', 'seed': 1337, 'batch_size': 128, 'mean': 2}
I1108 12:00:54.941984 10107 net.cpp:141] Setting up img
I1108 12:00:54.942015 10107 net.cpp:148] Top shape: 24 1 250 250 (1500000)
I1108 12:00:54.942023 10107 net.cpp:148] Top shape: 24 1 (24)
I1108 12:00:54.942026 10107 net.cpp:156] Memory required for data: 6000096
I1108 12:00:54.942047 10107 layer_factory.hpp:77] Creating layer label_img_1_split
I1108 12:00:54.942070 10107 net.cpp:91] Creating Layer label_img_1_split
I1108 12:00:54.942085 10107 net.cpp:425] label_img_1_split <- label
I1108 12:00:54.942092 10107 net.cpp:399] label_img_1_split -> label_img_1_split_0
I1108 12:00:54.942111 10107 net.cpp:399] label_img_1_split -> label_img_1_split_1
I1108 12:00:54.942188 10107 net.cpp:141] Setting up label_img_1_split
I1108 12:00:54.942206 10107 net.cpp:148] Top shape: 24 1 (24)
I1108 12:00:54.942211 10107 net.cpp:148] Top shape: 24 1 (24)
I1108 12:00:54.942216 10107 net.cpp:156] Memory required for data: 6000288
I1108 12:00:54.942232 10107 layer_factory.hpp:77] Creating layer conv1
I1108 12:00:54.942255 10107 net.cpp:91] Creating Layer conv1
I1108 12:00:54.942272 10107 net.cpp:425] conv1 <- img
I1108 12:00:54.942287 10107 net.cpp:399] conv1 -> conv1
I1108 12:00:54.942497 10107 net.cpp:141] Setting up conv1
I1108 12:00:54.942505 10107 net.cpp:148] Top shape: 24 128 125 125 (48000000)
I1108 12:00:54.942509 10107 net.cpp:156] Memory required for data: 198000288
I1108 12:00:54.942517 10107 layer_factory.hpp:77] Creating layer relu1
I1108 12:00:54.942534 10107 net.cpp:91] Creating Layer relu1
I1108 12:00:54.942539 10107 net.cpp:425] relu1 <- conv1
I1108 12:00:54.942553 10107 net.cpp:386] relu1 -> conv1 (in-place)
I1108 12:00:54.942560 10107 net.cpp:141] Setting up relu1
I1108 12:00:54.942574 10107 net.cpp:148] Top shape: 24 128 125 125 (48000000)
I1108 12:00:54.942579 10107 net.cpp:156] Memory required for data: 390000288
I1108 12:00:54.942594 10107 layer_factory.hpp:77] Creating layer pool1
I1108 12:00:54.942601 10107 net.cpp:91] Creating Layer pool1
I1108 12:00:54.942605 10107 net.cpp:425] pool1 <- conv1
I1108 12:00:54.942610 10107 net.cpp:399] pool1 -> pool1
I1108 12:00:54.942646 10107 net.cpp:141] Setting up pool1
I1108 12:00:54.942661 10107 net.cpp:148] Top shape: 24 128 62 62 (11808768)
I1108 12:00:54.942664 10107 net.cpp:156] Memory required for data: 437235360
I1108 12:00:54.942678 10107 layer_factory.hpp:77] Creating layer norm1
I1108 12:00:54.942684 10107 net.cpp:91] Creating Layer norm1
I1108 12:00:54.942689 10107 net.cpp:425] norm1 <- pool1
I1108 12:00:54.942694 10107 net.cpp:399] norm1 -> norm1
I1108 12:00:54.942714 10107 net.cpp:141] Setting up norm1
I1108 12:00:54.942720 10107 net.cpp:148] Top shape: 24 128 62 62 (11808768)
I1108 12:00:54.942725 10107 net.cpp:156] Memory required for data: 484470432
I1108 12:00:54.942729 10107 layer_factory.hpp:77] Creating layer conv2
I1108 12:00:54.942749 10107 net.cpp:91] Creating Layer conv2
I1108 12:00:54.942752 10107 net.cpp:425] conv2 <- norm1
I1108 12:00:54.942759 10107 net.cpp:399] conv2 -> conv2
I1108 12:00:54.947141 10107 net.cpp:141] Setting up conv2
I1108 12:00:54.947157 10107 net.cpp:148] Top shape: 24 256 62 62 (23617536)
I1108 12:00:54.947162 10107 net.cpp:156] Memory required for data: 578940576
I1108 12:00:54.947170 10107 layer_factory.hpp:77] Creating layer relu2
I1108 12:00:54.947188 10107 net.cpp:91] Creating Layer relu2
I1108 12:00:54.947194 10107 net.cpp:425] relu2 <- conv2
I1108 12:00:54.947209 10107 net.cpp:386] relu2 -> conv2 (in-place)
I1108 12:00:54.947216 10107 net.cpp:141] Setting up relu2
I1108 12:00:54.947222 10107 net.cpp:148] Top shape: 24 256 62 62 (23617536)
I1108 12:00:54.947227 10107 net.cpp:156] Memory required for data: 673410720
I1108 12:00:54.947232 10107 layer_factory.hpp:77] Creating layer pool2
I1108 12:00:54.947238 10107 net.cpp:91] Creating Layer pool2
I1108 12:00:54.947243 10107 net.cpp:425] pool2 <- conv2
I1108 12:00:54.947249 10107 net.cpp:399] pool2 -> pool2
I1108 12:00:54.947304 10107 net.cpp:141] Setting up pool2
I1108 12:00:54.947311 10107 net.cpp:148] Top shape: 24 256 31 31 (5904384)
I1108 12:00:54.947325 10107 net.cpp:156] Memory required for data: 697028256
I1108 12:00:54.947329 10107 layer_factory.hpp:77] Creating layer norm2
I1108 12:00:54.947345 10107 net.cpp:91] Creating Layer norm2
I1108 12:00:54.947350 10107 net.cpp:425] norm2 <- pool2
I1108 12:00:54.947355 10107 net.cpp:399] norm2 -> norm2
I1108 12:00:54.947376 10107 net.cpp:141] Setting up norm2
I1108 12:00:54.947391 10107 net.cpp:148] Top shape: 24 256 31 31 (5904384)
I1108 12:00:54.947396 10107 net.cpp:156] Memory required for data: 720645792
I1108 12:00:54.947408 10107 layer_factory.hpp:77] Creating layer conv3
I1108 12:00:54.947417 10107 net.cpp:91] Creating Layer conv3
I1108 12:00:54.947423 10107 net.cpp:425] conv3 <- norm2
I1108 12:00:54.947428 10107 net.cpp:399] conv3 -> conv3
I1108 12:00:54.949199 10107 net.cpp:141] Setting up conv3
I1108 12:00:54.949214 10107 net.cpp:148] Top shape: 24 256 31 31 (5904384)
I1108 12:00:54.949229 10107 net.cpp:156] Memory required for data: 744263328
I1108 12:00:54.949237 10107 layer_factory.hpp:77] Creating layer relu3
I1108 12:00:54.949244 10107 net.cpp:91] Creating Layer relu3
I1108 12:00:54.949249 10107 net.cpp:425] relu3 <- conv3
I1108 12:00:54.949255 10107 net.cpp:386] relu3 -> conv3 (in-place)
I1108 12:00:54.949262 10107 net.cpp:141] Setting up relu3
I1108 12:00:54.949268 10107 net.cpp:148] Top shape: 24 256 31 31 (5904384)
I1108 12:00:54.949272 10107 net.cpp:156] Memory required for data: 767880864
I1108 12:00:54.949277 10107 layer_factory.hpp:77] Creating layer pool3
I1108 12:00:54.949283 10107 net.cpp:91] Creating Layer pool3
I1108 12:00:54.949288 10107 net.cpp:425] pool3 <- conv3
I1108 12:00:54.949295 10107 net.cpp:399] pool3 -> pool3
I1108 12:00:54.949318 10107 net.cpp:141] Setting up pool3
I1108 12:00:54.949324 10107 net.cpp:148] Top shape: 24 256 15 15 (1382400)
I1108 12:00:54.949329 10107 net.cpp:156] Memory required for data: 773410464
I1108 12:00:54.949334 10107 layer_factory.hpp:77] Creating layer conv4
I1108 12:00:54.949342 10107 net.cpp:91] Creating Layer conv4
I1108 12:00:54.949347 10107 net.cpp:425] conv4 <- pool3
I1108 12:00:54.949354 10107 net.cpp:399] conv4 -> conv4
I1108 12:00:54.953446 10107 net.cpp:141] Setting up conv4
I1108 12:00:54.953474 10107 net.cpp:148] Top shape: 24 512 15 15 (2764800)
I1108 12:00:54.953480 10107 net.cpp:156] Memory required for data: 784469664
I1108 12:00:54.953503 10107 layer_factory.hpp:77] Creating layer relu4
I1108 12:00:54.953523 10107 net.cpp:91] Creating Layer relu4
I1108 12:00:54.953541 10107 net.cpp:425] relu4 <- conv4
I1108 12:00:54.953559 10107 net.cpp:386] relu4 -> conv4 (in-place)
I1108 12:00:54.953579 10107 net.cpp:141] Setting up relu4
I1108 12:00:54.953590 10107 net.cpp:148] Top shape: 24 512 15 15 (2764800)
I1108 12:00:54.953608 10107 net.cpp:156] Memory required for data: 795528864
I1108 12:00:54.953615 10107 layer_factory.hpp:77] Creating layer conv5
I1108 12:00:54.953629 10107 net.cpp:91] Creating Layer conv5
I1108 12:00:54.953635 10107 net.cpp:425] conv5 <- conv4
I1108 12:00:54.953645 10107 net.cpp:399] conv5 -> conv5
I1108 12:00:54.961021 10107 net.cpp:141] Setting up conv5
I1108 12:00:54.961062 10107 net.cpp:148] Top shape: 24 512 15 15 (2764800)
I1108 12:00:54.961068 10107 net.cpp:156] Memory required for data: 806588064
I1108 12:00:54.961093 10107 layer_factory.hpp:77] Creating layer relu5
I1108 12:00:54.961127 10107 net.cpp:91] Creating Layer relu5
I1108 12:00:54.961133 10107 net.cpp:425] relu5 <- conv5
I1108 12:00:54.961153 10107 net.cpp:386] relu5 -> conv5 (in-place)
I1108 12:00:54.961179 10107 net.cpp:141] Setting up relu5
I1108 12:00:54.961184 10107 net.cpp:148] Top shape: 24 512 15 15 (2764800)
I1108 12:00:54.961191 10107 net.cpp:156] Memory required for data: 817647264
I1108 12:00:54.961196 10107 layer_factory.hpp:77] Creating layer pool5
I1108 12:00:54.961205 10107 net.cpp:91] Creating Layer pool5
I1108 12:00:54.961210 10107 net.cpp:425] pool5 <- conv5
I1108 12:00:54.961217 10107 net.cpp:399] pool5 -> pool5
I1108 12:00:54.961278 10107 net.cpp:141] Setting up pool5
I1108 12:00:54.961294 10107 net.cpp:148] Top shape: 24 512 7 7 (602112)
I1108 12:00:54.961308 10107 net.cpp:156] Memory required for data: 820055712
I1108 12:00:54.961313 10107 layer_factory.hpp:77] Creating layer fc6
I1108 12:00:54.961320 10107 net.cpp:91] Creating Layer fc6
I1108 12:00:54.961325 10107 net.cpp:425] fc6 <- pool5
I1108 12:00:54.961331 10107 net.cpp:399] fc6 -> fc6
I1108 12:00:55.541849 10107 net.cpp:141] Setting up fc6
I1108 12:00:55.541898 10107 net.cpp:148] Top shape: 24 4096 (98304)
I1108 12:00:55.541903 10107 net.cpp:156] Memory required for data: 820448928
I1108 12:00:55.541927 10107 layer_factory.hpp:77] Creating layer relu6
I1108 12:00:55.541939 10107 net.cpp:91] Creating Layer relu6
I1108 12:00:55.541946 10107 net.cpp:425] relu6 <- fc6
I1108 12:00:55.541954 10107 net.cpp:386] relu6 -> fc6 (in-place)
I1108 12:00:55.541966 10107 net.cpp:141] Setting up relu6
I1108 12:00:55.541981 10107 net.cpp:148] Top shape: 24 4096 (98304)
I1108 12:00:55.541985 10107 net.cpp:156] Memory required for data: 820842144
I1108 12:00:55.541999 10107 layer_factory.hpp:77] Creating layer drop6
I1108 12:00:55.542009 10107 net.cpp:91] Creating Layer drop6
I1108 12:00:55.542014 10107 net.cpp:425] drop6 <- fc6
I1108 12:00:55.542021 10107 net.cpp:386] drop6 -> fc6 (in-place)
I1108 12:00:55.542047 10107 net.cpp:141] Setting up drop6
I1108 12:00:55.542053 10107 net.cpp:148] Top shape: 24 4096 (98304)
I1108 12:00:55.542057 10107 net.cpp:156] Memory required for data: 821235360
I1108 12:00:55.542062 10107 layer_factory.hpp:77] Creating layer fc7
I1108 12:00:55.542080 10107 net.cpp:91] Creating Layer fc7
I1108 12:00:55.542096 10107 net.cpp:425] fc7 <- fc6
I1108 12:00:55.542104 10107 net.cpp:399] fc7 -> fc7
I1108 12:00:55.628345 10107 net.cpp:141] Setting up fc7
I1108 12:00:55.628386 10107 net.cpp:148] Top shape: 24 4096 (98304)
I1108 12:00:55.628391 10107 net.cpp:156] Memory required for data: 821628576
I1108 12:00:55.628401 10107 layer_factory.hpp:77] Creating layer relu7
I1108 12:00:55.628423 10107 net.cpp:91] Creating Layer relu7
I1108 12:00:55.628429 10107 net.cpp:425] relu7 <- fc7
I1108 12:00:55.628438 10107 net.cpp:386] relu7 -> fc7 (in-place)
I1108 12:00:55.628448 10107 net.cpp:141] Setting up relu7
I1108 12:00:55.628454 10107 net.cpp:148] Top shape: 24 4096 (98304)
I1108 12:00:55.628459 10107 net.cpp:156] Memory required for data: 822021792
I1108 12:00:55.628476 10107 layer_factory.hpp:77] Creating layer drop7
I1108 12:00:55.628484 10107 net.cpp:91] Creating Layer drop7
I1108 12:00:55.628487 10107 net.cpp:425] drop7 <- fc7
I1108 12:00:55.628492 10107 net.cpp:386] drop7 -> fc7 (in-place)
I1108 12:00:55.628521 10107 net.cpp:141] Setting up drop7
I1108 12:00:55.628540 10107 net.cpp:148] Top shape: 24 4096 (98304)
I1108 12:00:55.628543 10107 net.cpp:156] Memory required for data: 822415008
I1108 12:00:55.628547 10107 layer_factory.hpp:77] Creating layer fc8
I1108 12:00:55.628554 10107 net.cpp:91] Creating Layer fc8
I1108 12:00:55.628568 10107 net.cpp:425] fc8 <- fc7
I1108 12:00:55.628574 10107 net.cpp:399] fc8 -> fc8
I1108 12:00:55.630010 10107 net.cpp:141] Setting up fc8
I1108 12:00:55.630036 10107 net.cpp:148] Top shape: 24 40 (960)
I1108 12:00:55.630045 10107 net.cpp:156] Memory required for data: 822418848
I1108 12:00:55.630067 10107 layer_factory.hpp:77] Creating layer fc8_fc8_0_split
I1108 12:00:55.630087 10107 net.cpp:91] Creating Layer fc8_fc8_0_split
I1108 12:00:55.630095 10107 net.cpp:425] fc8_fc8_0_split <- fc8
I1108 12:00:55.630103 10107 net.cpp:399] fc8_fc8_0_split -> fc8_fc8_0_split_0
I1108 12:00:55.630115 10107 net.cpp:399] fc8_fc8_0_split -> fc8_fc8_0_split_1
I1108 12:00:55.630199 10107 net.cpp:141] Setting up fc8_fc8_0_split
I1108 12:00:55.630219 10107 net.cpp:148] Top shape: 24 40 (960)
I1108 12:00:55.630237 10107 net.cpp:148] Top shape: 24 40 (960)
I1108 12:00:55.630244 10107 net.cpp:156] Memory required for data: 822426528
I1108 12:00:55.630252 10107 layer_factory.hpp:77] Creating layer accuracy
I1108 12:00:55.630261 10107 net.cpp:91] Creating Layer accuracy
I1108 12:00:55.630270 10107 net.cpp:425] accuracy <- fc8_fc8_0_split_0
I1108 12:00:55.630278 10107 net.cpp:425] accuracy <- label_img_1_split_0
I1108 12:00:55.630287 10107 net.cpp:399] accuracy -> accuracy
…
I1108 15:30:35.145222 12355 solver.cpp:244]     Train net output #1: loss = 0.766038 (* 1 = 0.766038 loss)
I1108 15:30:35.145232 12355 sgd_solver.cpp:106] Iteration 900, lr = 0.01
I1108 15:39:13.835846 12355 solver.cpp:454] Snapshotting to binary proto file /home/kevin/snapshot/heavy_iter_1000.caffemodel
I1108 15:39:20.249354 12355 sgd_solver.cpp:273] Snapshotting solver state to binary proto file /home/kevin/snapshot/heavy_iter_1000.solverstate
>>> 2016-11-08 15:39:23.236721 Begin model classification tests
>>> 2016-11-08 15:56:48.035684 Iteration 1000 mean cl141] Setting up pool5
I1108 12:02:34.677855 10127 net.cpp:148] Top shape: 128 512 7 7 (3211264)
I1108 12:02:34.677860 10127 net.cpp:156] Memory required for data: 4373630464
I1108 12:02:34.677863 10127 layer_factory.hpp:77] Creating layer fc6
I1108 12:02:34.677872 10127 net.cpp:91] Creating Layer fc6
I1108 12:02:34.677878 10127 net.cpp:425] fc6 <- pool5
I1108 12:02:34.677888 10127 net.cpp:399] fc6 -> fc6
I1108 12:02:35.198487 10127 net.cpp:141] Setting up fc6
I1108 12:02:35.198518 10127 net.cpp:148] Top shape: 128 4096 (524288)
I1108 12:02:35.198523 10127 net.cpp:156] Memory required for data: 4375727616
I1108 12:02:35.198532 10127 layer_factory.hpp:77] Creating layer relu6
I1108 12:02:35.198542 10127 net.cpp:91] Creating Layer relu6
I1108 12:02:35.198547 10127 net.cpp:425] relu6 <- fc6
I1108 12:02:35.198565 10127 net.cpp:386] relu6 -> fc6 (in-place)
I1108 12:02:35.198573 10127 net.cpp:141] Setting up relu6
I1108 12:02:35.198580 10127 net.cpp:148] Top shape: 128 4096 (524288)
I1108 12:02:35.198593 10127 net.cpp:156] Memory required for data: 4377824768
I1108 12:02:35.198596 10127 layer_factory.hpp:77] Creating layer drop6
I1108 12:02:35.198631 10127 net.cpp:91] Creating Layer drop6
I1108 12:02:35.198634 10127 net.cpp:425] drop6 <- fc6
I1108 12:02:35.198652 10127 net.cpp:386] drop6 -> fc6 (in-place)
I1108 12:02:35.198674 10127 net.cpp:141] Setting up drop6
I1108 12:02:35.198680 10127 net.cpp:148] Top shape: 128 4096 (524288)
I1108 12:02:35.198693 10127 net.cpp:156] Memory required for data: 4379921920
I1108 12:02:35.198696 10127 layer_factory.hpp:77] Creating layer fc7
I1108 12:02:35.198714 10127 net.cpp:91] Creating Layer fc7
I1108 12:02:35.198717 10127 net.cpp:425] fc7 <- fc6
I1108 12:02:35.198724 10127 net.cpp:399] fc7 -> fc7
I1108 12:02:35.281272 10127 net.cpp:141] Setting up fc7
I1108 12:02:35.281302 10127 net.cpp:148] Top shape: 128 4096 (524288)
I1108 12:02:35.281307 10127 net.cpp:156] Memory required for data: 4382019072
I1108 12:02:35.281318 10127 layer_factory.hpp:77] Creating layer relu7
I1108 12:02:35.281340 10127 net.cpp:91] Creating Layer relu7
I1108 12:02:35.281357 10127 net.cpp:425] relu7 <- fc7
I1108 12:02:35.281375 10127 net.cpp:386] relu7 -> fc7 (in-place)
I1108 12:02:35.281395 10127 net.cpp:141] Setting up relu7
I1108 12:02:35.281409 10127 net.cpp:148] Top shape: 128 4096 (524288)
I1108 12:02:35.281414 10127 net.cpp:156] Memory required for data: 4384116224
I1108 12:02:35.281427 10127 layer_factory.hpp:77] Creating layer drop7
I1108 12:02:35.281435 10127 net.cpp:91] Creating Layer drop7
I1108 12:02:35.281448 10127 net.cpp:425] drop7 <- fc7
I1108 12:02:35.281455 10127 net.cpp:386] drop7 -> fc7 (in-place)
I1108 12:02:35.281493 10127 net.cpp:141] Setting up drop7
I1108 12:02:35.281499 10127 net.cpp:148] Top shape: 128 4096 (524288)
I1108 12:02:35.281503 10127 net.cpp:156] Memory required for data: 4386213376
I1108 12:02:35.281508 10127 layer_factory.hpp:77] Creating layer fc8
I1108 12:02:35.281525 10127 net.cpp:91] Creating Layer fc8
I1108 12:02:35.281540 10127 net.cpp:425] fc8 <- fc7
I1108 12:02:35.281545 10127 net.cpp:399] fc8 -> fc8
I1108 12:02:35.282635 10127 net.cpp:141] Setting up fc8
I1108 12:02:35.282657 10127 net.cpp:148] Top shape: 128 40 (5120)
I1108 12:02:35.282663 10127 net.cpp:156] Memory required for data: 4386233856
I1108 12:02:35.282680 10127 layer_factory.hpp:77] Creating layer fc8_fc8_0_split
I1108 12:02:35.282687 10127 net.cpp:91] Creating Layer fc8_fc8_0_split
I1108 12:02:35.282692 10127 net.cpp:425] fc8_fc8_0_split <- fc8
I1108 12:02:35.282698 10127 net.cpp:399] fc8_fc8_0_split -> fc8_fc8_0_split_0
I1108 12:02:35.282706 10127 net.cpp:399] fc8_fc8_0_split -> fc8_fc8_0_split_1
I1108 12:02:35.282727 10127 net.cpp:141] Setting up fc8_fc8_0_split
I1108 12:02:35.282743 10127 net.cpp:148] Top shape: 128 40 (5120)
I1108 12:02:35.282747 10127 net.cpp:148] Top shape: 128 40 (5120)
I1108 12:02:35.282759 10127 net.cpp:156] Memory required for data: 4386274816
I1108 12:02:35.282764 10127 layer_factory.hpp:77] Creating layer accuracy
I1108 12:02:35.282775 10127 net.cpp:91] Creating Layer accuracy
I1108 12:02:35.282779 10127 net.cpp:425] accuracy <- fc8_fc8_0_split_0
I1108 12:02:35.282794 10127 net.cpp:425] accuracy <- label_img_1_split_0
I1108 12:02:35.282799 10127 net.cpp:399] accuracy -> accuracy
…
