…
I0209 01:52:50.987251 14948 net.cpp:49] Initializing net from parameters: 
state {
  phase: TRAIN
}
layer {
  name: "data"
  type: "Python"
  top: "rgb"
  top: "depth"
  top: "label"
  python_param {
    module: "data_layers.rgbd_data_layer"
    layer: "RGBDDataLayer"
    param_str: "{\'img_size\': (224, 224), \'split\': \'train\', \'dataset_dir\': \'/home/kevin/dataset/rgbd\', \'randomize\': True, \'mean\': (104.00698793, 116.66876762, 122.67891434), \'seed\': 1337, \'batch_size\': 64, \'crop_size\': (224, 224, 224, 224)}"
  }
}
layer {
  name: "conv1_1"
  type: "Convolution"
  bottom: "rgb"
  top: "conv1_1"
  param {
    name: "conv1_1_w"
    lr_mult: 0
    decay_mult: 1
  }
  param {
    name: "conv1_1_b"
    lr_mult: 0
    decay_mult: 0
  }
  convolution_param {
    num_output: 64
    pad: 1
    kernel_size: 3
    group: 1
    stride: 1
    weight_filler {
      type: "xavier"
    }
  }
}
layer {
  name: "relu1_1"
  type: "ReLU"
  bottom: "conv1_1"
  top: "conv1_1"
}
layer {
  name: "conv1_2"
  type: "Convolution"
  bottom: "conv1_1"
  top: "conv1_2"
  param {
    name: "conv1_2_w"
    lr_mult: 0
    decay_mult: 1
  }
  param {
    name: "conv1_2_b"
    lr_mult: 0
    decay_mult: 0
  }
  convolution_param {
    num_output: 64
    pad: 1
    kernel_size: 3
    group: 1
    stride: 1
    weight_filler {
      type: "xavier"
    }
  }
}
layer {
  name: "relu1_2"
  type: "ReLU"
  bottom: "conv1_2"
  top: "conv1_2"
}
layer {
  name: "rgb_pool1"
  type: "Pooling"
  bottom: "conv1_2"
  top: "rgb_pool1"
  pooling_param {
    pool: MAX
    kernel_size: 2
    stride: 2
  }
}
layer {
  name: "conv2_1"
  type: "Convolution"
  bottom: "rgb_pool1"
  top: "conv2_1"
  param {
    name: "conv2_1_w"
    lr_mult: 0
    decay_mult: 1
  }
  param {
    name: "conv2_1_b"
    lr_mult: 0
    decay_mult: 0
  }
  convolution_param {
    num_output: 128
    pad: 1
    kernel_size: 3
    group: 1
    stride: 1
    weight_filler {
      type: "xavier"
    }
  }
}
layer {
  name: "relu2_1"
  type: "ReLU"
  bottom: "conv2_1"
  top: "conv2_1"
}
layer {
  name: "conv2_2"
  type: "Convolution"
  bottom: "conv2_1"
  top: "conv2_2"
  param {
    name: "conv2_2_w"
    lr_mult: 0
    decay_mult: 1
  }
  param {
    name: "conv2_2_b"
    lr_mult: 0
    decay_mult: 0
  }
  convolution_param {
    num_output: 128
    pad: 1
    kernel_size: 3
    group: 1
    stride: 1
    weight_filler {
      type: "xavier"
    }
  }
}
layer {
  name: "relu2_2"
  type: "ReLU"
  bottom: "conv2_2"
  top: "conv2_2"
}
layer {
  name: "rgb_pool2"
  type: "Pooling"
  bottom: "conv2_2"
  top: "rgb_pool2"
  pooling_param {
    pool: MAX
    kernel_size: 2
    stride: 2
  }
}
layer {
  name: "conv3_1"
  type: "Convolution"
  bottom: "rgb_pool2"
  top: "conv3_1"
  param {
    name: "conv3_1_w"
    lr_mult: 0
    decay_mult: 1
  }
  param {
    name: "conv3_1_b"
    lr_mult: 0
    decay_mult: 0
  }
  convolution_param {
    num_output: 256
    pad: 1
    kernel_size: 3
    group: 1
    stride: 1
    weight_filler {
      type: "xavier"
    }
  }
}
layer {
  name: "relu3_1"
  type: "ReLU"
  bottom: "conv3_1"
  top: "conv3_1"
}
layer {
  name: "conv3_2"
  type: "Convolution"
  bottom: "conv3_1"
  top: "conv3_2"
  param {
    name: "conv3_2_w"
    lr_mult: 0
    decay_mult: 1
  }
  param {
    name: "conv3_2_b"
    lr_mult: 0
    decay_mult: 0
  }
  convolution_param {
    num_output: 256
    pad: 1
    kernel_size: 3
    group: 1
    stride: 1
    weight_filler {
      type: "xavier"
    }
  }
}
layer {
  name: "relu3_2"
  type: "ReLU"
  bottom: "conv3_2"
  top: "conv3_2"
}
layer {
  name: "conv3_3"
  type: "Convolution"
  bottom: "conv3_2"
  top: "conv3_3"
  param {
    name: "conv3_3_w"
    lr_mult: 0
    decay_mult: 1
  }
  param {
    name: "conv3_3_b"
    lr_mult: 0
    decay_mult: 0
  }
  convolution_param {
    num_output: 256
    pad: 1
    kernel_size: 3
    group: 1
    stride: 1
    weight_filler {
      type: "xavier"
    }
  }
}
layer {
  name: "relu3_3"
  type: "ReLU"
  bottom: "conv3_3"
  top: "conv3_3"
}
layer {
  name: "rgb_pool3"
  type: "Pooling"
  bottom: "conv3_3"
  top: "rgb_pool3"
  pooling_param {
    pool: MAX
    kernel_size: 2
    stride: 2
  }
}
layer {
  name: "conv4_1"
  type: "Convolution"
  bottom: "rgb_pool3"
  top: "conv4_1"
  param {
    name: "conv4_1_w"
    lr_mult: 0
    decay_mult: 1
  }
  param {
    name: "conv4_1_b"
    lr_mult: 0
    decay_mult: 0
  }
  convolution_param {
    num_output: 512
    pad: 1
    kernel_size: 3
    group: 1
    stride: 1
    weight_filler {
      type: "xavier"
    }
  }
}
layer {
  name: "relu4_1"
  type: "ReLU"
  bottom: "conv4_1"
  top: "conv4_1"
}
layer {
  name: "conv4_2"
  type: "Convolution"
  bottom: "conv4_1"
  top: "conv4_2"
  param {
    name: "conv4_2_w"
    lr_mult: 0
    decay_mult: 1
  }
  param {
    name: "conv4_2_b"
    lr_mult: 0
    decay_mult: 0
  }
  convolution_param {
    num_output: 512
    pad: 1
    kernel_size: 3
    group: 1
    stride: 1
    weight_filler {
      type: "xavier"
    }
  }
}
layer {
  name: "relu4_2"
  type: "ReLU"
  bottom: "conv4_2"
  top: "conv4_2"
}
layer {
  name: "conv4_3"
  type: "Convolution"
  bottom: "conv4_2"
  top: "conv4_3"
  param {
    name: "conv4_3_w"
    lr_mult: 0
    decay_mult: 1
  }
  param {
    name: "conv4_3_b"
    lr_mult: 0
    decay_mult: 0
  }
  convolution_param {
    num_output: 512
    pad: 1
    kernel_size: 3
    group: 1
    stride: 1
    weight_filler {
      type: "xavier"
    }
  }
}
layer {
  name: "relu4_3"
  type: "ReLU"
  bottom: "conv4_3"
  top: "conv4_3"
}
layer {
  name: "rgb_pool4"
  type: "Pooling"
  bottom: "conv4_3"
  top: "rgb_pool4"
  pooling_param {
    pool: MAX
    kernel_size: 2
    stride: 2
  }
}
layer {
  name: "conv5_1"
  type: "Convolution"
  bottom: "rgb_pool4"
  top: "conv5_1"
  param {
    name: "conv5_1_w"
    lr_mult: 0
    decay_mult: 1
  }
  param {
    name: "conv5_1_b"
    lr_mult: 0
    decay_mult: 0
  }
  convolution_param {
    num_output: 512
    pad: 1
    kernel_size: 3
    group: 1
    stride: 1
    weight_filler {
      type: "xavier"
    }
  }
}
layer {
  name: "relu5_1"
  type: "ReLU"
  bottom: "conv5_1"
  top: "conv5_1"
}
layer {
  name: "conv5_2"
  type: "Convolution"
  bottom: "conv5_1"
  top: "conv5_2"
  param {
    name: "conv5_2_w"
    lr_mult: 0
    decay_mult: 1
  }
  param {
    name: "conv5_2_b"
    lr_mult: 0
    decay_mult: 0
  }
  convolution_param {
    num_output: 512
    pad: 1
    kernel_size: 3
    group: 1
    stride: 1
    weight_filler {
      type: "xavier"
    }
  }
}
layer {
  name: "relu5_2"
  type: "ReLU"
  bottom: "conv5_2"
  top: "conv5_2"
}
layer {
  name: "conv5_3"
  type: "Convolution"
  bottom: "conv5_2"
  top: "conv5_3"
  param {
    name: "conv5_3_w"
    lr_mult: 0
    decay_mult: 1
  }
  param {
    name: "conv5_3_b"
    lr_mult: 0
    decay_mult: 0
  }
  convolution_param {
    num_output: 512
    pad: 1
    kernel_size: 3
    group: 1
    stride: 1
    weight_filler {
      type: "xavier"
    }
  }
}
layer {
  name: "relu5_3"
  type: "ReLU"
  bottom: "conv5_3"
  top: "conv5_3"
}
layer {
  name: "rgb_pool5"
  type: "Pooling"
  bottom: "conv5_3"
  top: "rgb_pool5"
  pooling_param {
    pool: MAX
    kernel_size: 2
    stride: 2
  }
}
layer {
  name: "rgb_fc6"
  type: "InnerProduct"
  bottom: "rgb_pool5"
  top: "rgb_fc6"
  param {
    lr_mult: 1
    decay_mult: 1
  }
  param {
    lr_mult: 2
    decay_mult: 0
  }
  inner_product_param {
    num_output: 4096
    weight_filler {
      type: "xavier"
    }
  }
}
layer {
  name: "rgb_relu6"
  type: "ReLU"
  bottom: "rgb_fc6"
  top: "rgb_fc6"
}
layer {
  name: "rgb_drop6"
  type: "Dropout"
  bottom: "rgb_fc6"
  top: "rgb_fc6"
  dropout_param {
    dropout_ratio: 0.5
  }
}
layer {
  name: "rgb_fc7"
  type: "InnerProduct"
  bottom: "rgb_fc6"
  top: "rgb_fc7"
  param {
    lr_mult: 1
    decay_mult: 1
  }
  param {
    lr_mult: 2
    decay_mult: 0
  }
  inner_product_param {
    num_output: 4096
    weight_filler {
      type: "xavier"
    }
  }
}
layer {
  name: "rgb_relu7"
  type: "ReLU"
  bottom: "rgb_fc7"
  top: "rgb_fc7"
}
layer {
  name: "rgb_drop7"
  type: "Dropout"
  bottom: "rgb_fc7"
  top: "rgb_fc7"
  dropout_param {
    dropout_ratio: 0.5
  }
}
layer {
  name: "conv1"
  type: "Convolution"
  bottom: "depth"
  top: "conv1"
  param {
    name: "conv1_w"
    lr_mult: 0
    decay_mult: 1
  }
  param {
    name: "conv1_b"
    lr_mult: 0
    decay_mult: 0
  }
  convolution_param {
    num_output: 128
    pad: 2
    kernel_size: 5
    group: 1
    stride: 2
    weight_filler {
      type: "xavier"
    }
  }
}
layer {
  name: "relu1"
  type: "ReLU"
  bottom: "conv1"
  top: "conv1"
}
layer {
  name: "depth_pool1"
  type: "Pooling"
  bottom: "conv1"
  top: "depth_pool1"
  pooling_param {
    pool: MAX
    kernel_size: 3
    stride: 2
  }
}
layer {
  name: "norm1"
  type: "LRN"
  bottom: "depth_pool1"
  top: "norm1"
  lrn_param {
    local_size: 5
    alpha: 0.0005
    beta: 0.75
    k: 2
  }
}
layer {
  name: "conv2"
  type: "Convolution"
  bottom: "norm1"
  top: "conv2"
  param {
    name: "conv2_w"
    lr_mult: 0
    decay_mult: 1
  }
  param {
    name: "conv2_b"
    lr_mult: 0
    decay_mult: 0
  }
  convolution_param {
    num_output: 256
    pad: 2
    kernel_size: 5
    group: 1
    stride: 1
    weight_filler {
      type: "xavier"
    }
  }
}
layer {
  name: "relu2"
  type: "ReLU"
  bottom: "conv2"
  top: "conv2"
}
layer {
  name: "depth_pool2"
  type: "Pooling"
  bottom: "conv2"
  top: "depth_pool2"
  pooling_param {
    pool: MAX
    kernel_size: 3
    stride: 2
  }
}
layer {
  name: "norm2"
  type: "LRN"
  bottom: "depth_pool2"
  top: "norm2"
  lrn_param {
    local_size: 5
    alpha: 0.0005
    beta: 0.75
    k: 2
  }
}
layer {
  name: "conv3"
  type: "Convolution"
  bottom: "norm2"
  top: "conv3"
  param {
    name: "conv3_w"
    lr_mult: 0
    decay_mult: 1
  }
  param {
    name: "conv3_b"
    lr_mult: 0
    decay_mult: 0
  }
  convolution_param {
    num_output: 384
    pad: 1
    kernel_size: 3
    group: 2
    stride: 1
    weight_filler {
      type: "xavier"
    }
  }
}
layer {
  name: "relu3"
  type: "ReLU"
  bottom: "conv3"
  top: "conv3"
}
layer {
  name: "depth_pool3"
  type: "Pooling"
  bottom: "conv3"
  top: "depth_pool3"
  pooling_param {
    pool: MAX
    kernel_size: 3
    stride: 2
  }
}
layer {
  name: "conv4"
  type: "Convolution"
  bottom: "depth_pool3"
  top: "conv4"
  param {
    name: "conv4_w"
    lr_mult: 0
    decay_mult: 1
  }
  param {
    name: "conv4_b"
    lr_mult: 0
    decay_mult: 0
  }
  convolution_param {
    num_output: 512
    pad: 1
    kernel_size: 3
    group: 1
    stride: 1
    weight_filler {
      type: "xavier"
    }
  }
}
layer {
  name: "relu4"
  type: "ReLU"
  bottom: "conv4"
  top: "conv4"
}
layer {
  name: "conv5"
  type: "Convolution"
  bottom: "conv4"
  top: "conv5"
  param {
    name: "conv5_w"
    lr_mult: 0
    decay_mult: 1
  }
  param {
    name: "conv5_b"
    lr_mult: 0
    decay_mult: 0
  }
  convolution_param {
    num_output: 512
    pad: 1
    kernel_size: 3
    group: 1
    stride: 1
    weight_filler {
      type: "xavier"
    }
  }
}
layer {
  name: "relu5"
  type: "ReLU"
  bottom: "conv5"
  top: "conv5"
}
layer {
  name: "depth_pool5"
  type: "Pooling"
  bottom: "conv5"
  top: "depth_pool5"
  pooling_param {
    pool: MAX
    kernel_size: 3
    stride: 2
  }
}
layer {
  name: "depth_fc6"
  type: "InnerProduct"
  bottom: "depth_pool5"
  top: "depth_fc6"
  param {
    lr_mult: 1
    decay_mult: 1
  }
  param {
    lr_mult: 2
    decay_mult: 0
  }
  inner_product_param {
    num_output: 4096
    weight_filler {
      type: "xavier"
    }
  }
}
layer {
  name: "depth_relu6"
  type: "ReLU"
  bottom: "depth_fc6"
  top: "depth_fc6"
}
layer {
  name: "depth_drop6"
  type: "Dropout"
  bottom: "depth_fc6"
  top: "depth_fc6"
  dropout_param {
    dropout_ratio: 0.5
  }
}
layer {
  name: "depth_fc7"
  type: "InnerProduct"
  bottom: "depth_fc6"
  top: "depth_fc7"
  param {
    lr_mult: 1
    decay_mult: 1
  }
  param {
    lr_mult: 2
    decay_mult: 0
  }
  inner_product_param {
    num_output: 4096
    weight_filler {
      type: "xavier"
    }
  }
}
layer {
  name: "depth_relu7"
  type: "ReLU"
  bottom: "depth_fc7"
  top: "depth_fc7"
}
layer {
  name: "depth_drop7"
  type: "Dropout"
  bottom: "depth_fc7"
  top: "depth_fc7"
  dropout_param {
    dropout_ratio: 0.5
  }
}
layer {
  name: "concat"
  type: "Concat"
  bottom: "rgb_fc7"
  bottom: "depth_fc7"
  top: "concat"
  concat_param {
    axis: 1
  }
}
layer {
  name: "fuse_fc1"
  type: "InnerProduct"
  bottom: "concat"
  top: "fuse_fc1"
  param {
    lr_mult: 1
    decay_mult: 1
  }
  param {
    lr_mult: 2
    decay_mult: 0
  }
  inner_product_param {
    num_output: 1024
    weight_filler {
      type: "xavier"
    }
  }
}
layer {
  name: "fuse_relu1"
  type: "ReLU"
  bottom: "fuse_fc1"
  top: "fuse_fc1"
}
layer {
  name: "fuse_drop1"
  type: "Dropout"
  bottom: "fuse_fc1"
  top: "fuse_fc1"
  dropout_param {
    dropout_ratio: 0.5
  }
}
layer {
  name: "fuse_fc2"
  type: "InnerProduct"
  bottom: "fuse_fc1"
  top: "fuse_fc2"
  param {
    lr_mult: 1
    decay_mult: 1
  }
  param {
    lr_mult: 2
    decay_mult: 0
  }
  inner_product_param {
    num_output: 1024
    weight_filler {
      type: "xavier"
    }
  }
}
layer {
  name: "fuse_relu2"
  type: "ReLU"
  bottom: "fuse_fc2"
  top: "fuse_fc2"
}
layer {
  name: "fuse_drop2"
  type: "Dropout"
  bottom: "fuse_fc2"
  top: "fuse_fc2"
  dropout_param {
    dropout_ratio: 0.5
  }
}
layer {
  name: "rgbd_fc8"
  type: "InnerProduct"
  bottom: "fuse_fc2"
  top: "rgbd_fc8"
  param {
    lr_mult: 1
    decay_mult: 1
  }
  param {
    lr_mult: 2
    decay_mult: 0
  }
  inner_product_param {
    num_output: 11
    weight_filler {
      type: "xavier"
    }
  }
}
layer {
  name: "rgbd_accuracy"
  type: "Accuracy"
  bottom: "rgbd_fc8"
  bottom: "label"
  top: "rgbd_accuracy"
}
layer {
  name: "rgbd_loss"
  type: "SoftmaxWithLoss"
  bottom: "rgbd_fc8"
  bottom: "label"
  top: "rgbd_loss"
}
I0209 01:52:50.989475 14948 layer_factory.hpp:77] Creating layer data
I0209 01:52:51.157369 14948 net.cpp:91] Creating Layer data
I0209 01:52:51.157398 14948 net.cpp:399] data -> rgb
I0209 01:52:51.157407 14948 net.cpp:399] data -> depth
I0209 01:52:51.157413 14948 net.cpp:399] data -> label
{'img_size': (224, 224), 'split': 'train', 'dataset_dir': '/home/kevin/dataset/rgbd', 'crop_size': (224, 224, 224, 224), 'randomize': True, 'seed': 1337, 'batch_size': 64, 'mean': (104.00698793, 116.66876762, 122.67891434)}
I0209 01:52:51.435160 14948 net.cpp:141] Setting up data
I0209 01:52:51.435187 14948 net.cpp:148] Top shape: 64 3 224 224 (9633792)
I0209 01:52:51.435194 14948 net.cpp:148] Top shape: 64 1 224 224 (3211264)
I0209 01:52:51.435197 14948 net.cpp:148] Top shape: 64 1 (64)
I0209 01:52:51.435201 14948 net.cpp:156] Memory required for data: 51380480
I0209 01:52:51.435220 14948 layer_factory.hpp:77] Creating layer label_data_2_split
I0209 01:52:51.435243 14948 net.cpp:91] Creating Layer label_data_2_split
I0209 01:52:51.435248 14948 net.cpp:425] label_data_2_split <- label
I0209 01:52:51.435266 14948 net.cpp:399] label_data_2_split -> label_data_2_split_0
I0209 01:52:51.435274 14948 net.cpp:399] label_data_2_split -> label_data_2_split_1
I0209 01:52:51.435319 14948 net.cpp:141] Setting up label_data_2_split
I0209 01:52:51.435334 14948 net.cpp:148] Top shape: 64 1 (64)
I0209 01:52:51.435338 14948 net.cpp:148] Top shape: 64 1 (64)
I0209 01:52:51.435341 14948 net.cpp:156] Memory required for data: 51380992
I0209 01:52:51.435355 14948 layer_factory.hpp:77] Creating layer conv1_1
I0209 01:52:51.435375 14948 net.cpp:91] Creating Layer conv1_1
I0209 01:52:51.435390 14948 net.cpp:425] conv1_1 <- rgb
I0209 01:52:51.435396 14948 net.cpp:399] conv1_1 -> conv1_1
I0209 01:52:51.436228 14948 net.cpp:141] Setting up conv1_1
I0209 01:52:51.436240 14948 net.cpp:148] Top shape: 64 64 224 224 (205520896)
I0209 01:52:51.436244 14948 net.cpp:156] Memory required for data: 873464576
I0209 01:52:51.436252 14948 layer_factory.hpp:77] Creating layer relu1_1
I0209 01:52:51.436269 14948 net.cpp:91] Creating Layer relu1_1
I0209 01:52:51.436274 14948 net.cpp:425] relu1_1 <- conv1_1
I0209 01:52:51.436278 14948 net.cpp:386] relu1_1 -> conv1_1 (in-place)
I0209 01:52:51.436293 14948 net.cpp:141] Setting up relu1_1
I0209 01:52:51.436308 14948 net.cpp:148] Top shape: 64 64 224 224 (205520896)
I0209 01:52:51.436312 14948 net.cpp:156] Memory required for data: 1695548160
I0209 01:52:51.436316 14948 layer_factory.hpp:77] Creating layer conv1_2
I0209 01:52:51.436336 14948 net.cpp:91] Creating Layer conv1_2
I0209 01:52:51.436341 14948 net.cpp:425] conv1_2 <- conv1_1
I0209 01:52:51.436357 14948 net.cpp:399] conv1_2 -> conv1_2
I0209 01:52:51.436621 14948 net.cpp:141] Setting up conv1_2
I0209 01:52:51.436628 14948 net.cpp:148] Top shape: 64 64 224 224 (205520896)
I0209 01:52:51.436632 14948 net.cpp:156] Memory required for data: 2517631744
I0209 01:52:51.436638 14948 layer_factory.hpp:77] Creating layer relu1_2
I0209 01:52:51.436643 14948 net.cpp:91] Creating Layer relu1_2
I0209 01:52:51.436648 14948 net.cpp:425] relu1_2 <- conv1_2
I0209 01:52:51.436662 14948 net.cpp:386] relu1_2 -> conv1_2 (in-place)
I0209 01:52:51.436667 14948 net.cpp:141] Setting up relu1_2
I0209 01:52:51.436673 14948 net.cpp:148] Top shape: 64 64 224 224 (205520896)
I0209 01:52:51.436687 14948 net.cpp:156] Memory required for data: 3339715328
I0209 01:52:51.436691 14948 layer_factory.hpp:77] Creating layer rgb_pool1
I0209 01:52:51.436697 14948 net.cpp:91] Creating Layer rgb_pool1
I0209 01:52:51.436713 14948 net.cpp:425] rgb_pool1 <- conv1_2
I0209 01:52:51.436728 14948 net.cpp:399] rgb_pool1 -> rgb_pool1
I0209 01:52:51.436771 14948 net.cpp:141] Setting up rgb_pool1
I0209 01:52:51.436776 14948 net.cpp:148] Top shape: 64 64 112 112 (51380224)
I0209 01:52:51.436789 14948 net.cpp:156] Memory required for data: 3545236224
I0209 01:52:51.436794 14948 layer_factory.hpp:77] Creating layer conv2_1
I0209 01:52:51.436800 14948 net.cpp:91] Creating Layer conv2_1
I0209 01:52:51.436813 14948 net.cpp:425] conv2_1 <- rgb_pool1
I0209 01:52:51.436818 14948 net.cpp:399] conv2_1 -> conv2_1
I0209 01:52:51.437664 14948 net.cpp:141] Setting up conv2_1
I0209 01:52:51.437675 14948 net.cpp:148] Top shape: 64 128 112 112 (102760448)
I0209 01:52:51.437680 14948 net.cpp:156] Memory required for data: 3956278016
I0209 01:52:51.437697 14948 layer_factory.hpp:77] Creating layer relu2_1
I0209 01:52:51.437703 14948 net.cpp:91] Creating Layer relu2_1
I0209 01:52:51.437708 14948 net.cpp:425] relu2_1 <- conv2_1
I0209 01:52:51.437727 14948 net.cpp:386] relu2_1 -> conv2_1 (in-place)
I0209 01:52:51.437743 14948 net.cpp:141] Setting up relu2_1
I0209 01:52:51.437748 14948 net.cpp:148] Top shape: 64 128 112 112 (102760448)
I0209 01:52:51.437762 14948 net.cpp:156] Memory required for data: 4367319808
I0209 01:52:51.437767 14948 layer_factory.hpp:77] Creating layer conv2_2
I0209 01:52:51.437774 14948 net.cpp:91] Creating Layer conv2_2
I0209 01:52:51.437778 14948 net.cpp:425] conv2_2 <- conv2_1
I0209 01:52:51.437784 14948 net.cpp:399] conv2_2 -> conv2_2
I0209 01:52:51.438462 14948 net.cpp:141] Setting up conv2_2
I0209 01:52:51.438470 14948 net.cpp:148] Top shape: 64 128 112 112 (102760448)
I0209 01:52:51.438474 14948 net.cpp:156] Memory required for data: 4778361600
I0209 01:52:51.438479 14948 layer_factory.hpp:77] Creating layer relu2_2
I0209 01:52:51.438485 14948 net.cpp:91] Creating Layer relu2_2
I0209 01:52:51.438489 14948 net.cpp:425] relu2_2 <- conv2_2
I0209 01:52:51.438495 14948 net.cpp:386] relu2_2 -> conv2_2 (in-place)
I0209 01:52:51.438500 14948 net.cpp:141] Setting up relu2_2
I0209 01:52:51.438505 14948 net.cpp:148] Top shape: 64 128 112 112 (102760448)
I0209 01:52:51.438509 14948 net.cpp:156] Memory required for data: 5189403392
I0209 01:52:51.438514 14948 layer_factory.hpp:77] Creating layer rgb_pool2
I0209 01:52:51.438519 14948 net.cpp:91] Creating Layer rgb_pool2
I0209 01:52:51.438534 14948 net.cpp:425] rgb_pool2 <- conv2_2
I0209 01:52:51.438539 14948 net.cpp:399] rgb_pool2 -> rgb_pool2
I0209 01:52:51.438558 14948 net.cpp:141] Setting up rgb_pool2
I0209 01:52:51.438565 14948 net.cpp:148] Top shape: 64 128 56 56 (25690112)
I0209 01:52:51.438568 14948 net.cpp:156] Memory required for data: 5292163840
I0209 01:52:51.438573 14948 layer_factory.hpp:77] Creating layer conv3_1
I0209 01:52:51.438581 14948 net.cpp:91] Creating Layer conv3_1
I0209 01:52:51.438585 14948 net.cpp:425] conv3_1 <- rgb_pool2
I0209 01:52:51.438601 14948 net.cpp:399] conv3_1 -> conv3_1
I0209 01:52:51.440035 14948 net.cpp:141] Setting up conv3_1
I0209 01:52:51.440047 14948 net.cpp:148] Top shape: 64 256 56 56 (51380224)
I0209 01:52:51.440050 14948 net.cpp:156] Memory required for data: 5497684736
I0209 01:52:51.440058 14948 layer_factory.hpp:77] Creating layer relu3_1
I0209 01:52:51.440064 14948 net.cpp:91] Creating Layer relu3_1
I0209 01:52:51.440068 14948 net.cpp:425] relu3_1 <- conv3_1
I0209 01:52:51.440074 14948 net.cpp:386] relu3_1 -> conv3_1 (in-place)
I0209 01:52:51.440080 14948 net.cpp:141] Setting up relu3_1
I0209 01:52:51.440085 14948 net.cpp:148] Top shape: 64 256 56 56 (51380224)
I0209 01:52:51.440089 14948 net.cpp:156] Memory required for data: 5703205632
I0209 01:52:51.440093 14948 layer_factory.hpp:77] Creating layer conv3_2
I0209 01:52:51.440101 14948 net.cpp:91] Creating Layer conv3_2
I0209 01:52:51.440105 14948 net.cpp:425] conv3_2 <- conv3_1
I0209 01:52:51.440111 14948 net.cpp:399] conv3_2 -> conv3_2
I0209 01:52:51.442896 14948 net.cpp:141] Setting up conv3_2
I0209 01:52:51.442909 14948 net.cpp:148] Top shape: 64 256 56 56 (51380224)
I0209 01:52:51.442912 14948 net.cpp:156] Memory required for data: 5908726528
I0209 01:52:51.442919 14948 layer_factory.hpp:77] Creating layer relu3_2
I0209 01:52:51.442924 14948 net.cpp:91] Creating Layer relu3_2
I0209 01:52:51.442929 14948 net.cpp:425] relu3_2 <- conv3_2
I0209 01:52:51.442934 14948 net.cpp:386] relu3_2 -> conv3_2 (in-place)
I0209 01:52:51.442940 14948 net.cpp:141] Setting up relu3_2
I0209 01:52:51.442945 14948 net.cpp:148] Top shape: 64 256 56 56 (51380224)
I0209 01:52:51.442960 14948 net.cpp:156] Memory required for data: 6114247424
I0209 01:52:51.442965 14948 layer_factory.hpp:77] Creating layer conv3_3
I0209 01:52:51.442972 14948 net.cpp:91] Creating Layer conv3_3
I0209 01:52:51.442977 14948 net.cpp:425] conv3_3 <- conv3_2
I0209 01:52:51.442982 14948 net.cpp:399] conv3_3 -> conv3_3
I0209 01:52:51.445886 14948 net.cpp:141] Setting up conv3_3
I0209 01:52:51.445899 14948 net.cpp:148] Top shape: 64 256 56 56 (51380224)
I0209 01:52:51.445904 14948 net.cpp:156] Memory required for data: 6319768320
I0209 01:52:51.445920 14948 layer_factory.hpp:77] Creating layer relu3_3
I0209 01:52:51.445926 14948 net.cpp:91] Creating Layer relu3_3
I0209 01:52:51.445931 14948 net.cpp:425] relu3_3 <- conv3_3
I0209 01:52:51.445947 14948 net.cpp:386] relu3_3 -> conv3_3 (in-place)
I0209 01:52:51.445963 14948 net.cpp:141] Setting up relu3_3
I0209 01:52:51.445968 14948 net.cpp:148] Top shape: 64 256 56 56 (51380224)
I0209 01:52:51.445986 14948 net.cpp:156] Memory required for data: 6525289216
I0209 01:52:51.445989 14948 layer_factory.hpp:77] Creating layer rgb_pool3
I0209 01:52:51.446004 14948 net.cpp:91] Creating Layer rgb_pool3
I0209 01:52:51.446008 14948 net.cpp:425] rgb_pool3 <- conv3_3
I0209 01:52:51.446027 14948 net.cpp:399] rgb_pool3 -> rgb_pool3
I0209 01:52:51.446058 14948 net.cpp:141] Setting up rgb_pool3
I0209 01:52:51.446072 14948 net.cpp:148] Top shape: 64 256 28 28 (12845056)
I0209 01:52:51.446076 14948 net.cpp:156] Memory required for data: 6576669440
I0209 01:52:51.446090 14948 layer_factory.hpp:77] Creating layer conv4_1
I0209 01:52:51.446097 14948 net.cpp:91] Creating Layer conv4_1
I0209 01:52:51.446101 14948 net.cpp:425] conv4_1 <- rgb_pool3
I0209 01:52:51.446121 14948 net.cpp:399] conv4_1 -> conv4_1
I0209 01:52:51.452383 14948 net.cpp:141] Setting up conv4_1
I0209 01:52:51.452407 14948 net.cpp:148] Top shape: 64 512 28 28 (25690112)
I0209 01:52:51.452412 14948 net.cpp:156] Memory required for data: 6679429888
I0209 01:52:51.452421 14948 layer_factory.hpp:77] Creating layer relu4_1
I0209 01:52:51.452441 14948 net.cpp:91] Creating Layer relu4_1
I0209 01:52:51.452446 14948 net.cpp:425] relu4_1 <- conv4_1
I0209 01:52:51.452466 14948 net.cpp:386] relu4_1 -> conv4_1 (in-place)
I0209 01:52:51.452482 14948 net.cpp:141] Setting up relu4_1
I0209 01:52:51.452497 14948 net.cpp:148] Top shape: 64 512 28 28 (25690112)
I0209 01:52:51.452500 14948 net.cpp:156] Memory required for data: 6782190336
I0209 01:52:51.452513 14948 layer_factory.hpp:77] Creating layer conv4_2
I0209 01:52:51.452533 14948 net.cpp:91] Creating Layer conv4_2
I0209 01:52:51.452536 14948 net.cpp:425] conv4_2 <- conv4_1
I0209 01:52:51.452551 14948 net.cpp:399] conv4_2 -> conv4_2
I0209 01:52:51.463881 14948 net.cpp:141] Setting up conv4_2
I0209 01:52:51.463907 14948 net.cpp:148] Top shape: 64 512 28 28 (25690112)
I0209 01:52:51.463912 14948 net.cpp:156] Memory required for data: 6884950784
I0209 01:52:51.463925 14948 layer_factory.hpp:77] Creating layer relu4_2
I0209 01:52:51.463945 14948 net.cpp:91] Creating Layer relu4_2
I0209 01:52:51.463950 14948 net.cpp:425] relu4_2 <- conv4_2
I0209 01:52:51.463956 14948 net.cpp:386] relu4_2 -> conv4_2 (in-place)
I0209 01:52:51.463964 14948 net.cpp:141] Setting up relu4_2
I0209 01:52:51.463969 14948 net.cpp:148] Top shape: 64 512 28 28 (25690112)
I0209 01:52:51.463973 14948 net.cpp:156] Memory required for data: 6987711232
I0209 01:52:51.463989 14948 layer_factory.hpp:77] Creating layer conv4_3
I0209 01:52:51.464007 14948 net.cpp:91] Creating Layer conv4_3
I0209 01:52:51.464011 14948 net.cpp:425] conv4_3 <- conv4_2
I0209 01:52:51.464027 14948 net.cpp:399] conv4_3 -> conv4_3
I0209 01:52:51.475417 14948 net.cpp:141] Setting up conv4_3
I0209 01:52:51.475450 14948 net.cpp:148] Top shape: 64 512 28 28 (25690112)
I0209 01:52:51.475455 14948 net.cpp:156] Memory required for data: 7090471680
I0209 01:52:51.475463 14948 layer_factory.hpp:77] Creating layer relu4_3
I0209 01:52:51.475473 14948 net.cpp:91] Creating Layer relu4_3
I0209 01:52:51.475478 14948 net.cpp:425] relu4_3 <- conv4_3
I0209 01:52:51.475484 14948 net.cpp:386] relu4_3 -> conv4_3 (in-place)
I0209 01:52:51.475504 14948 net.cpp:141] Setting up relu4_3
I0209 01:52:51.475519 14948 net.cpp:148] Top shape: 64 512 28 28 (25690112)
I0209 01:52:51.475522 14948 net.cpp:156] Memory required for data: 7193232128
I0209 01:52:51.475538 14948 layer_factory.hpp:77] Creating layer rgb_pool4
I0209 01:52:51.475559 14948 net.cpp:91] Creating Layer rgb_pool4
I0209 01:52:51.475564 14948 net.cpp:425] rgb_pool4 <- conv4_3
I0209 01:52:51.475577 14948 net.cpp:399] rgb_pool4 -> rgb_pool4
I0209 01:52:51.475628 14948 net.cpp:141] Setting up rgb_pool4
I0209 01:52:51.475646 14948 net.cpp:148] Top shape: 64 512 14 14 (6422528)
I0209 01:52:51.475659 14948 net.cpp:156] Memory required for data: 7218922240
I0209 01:52:51.475663 14948 layer_factory.hpp:77] Creating layer conv5_1
I0209 01:52:51.475697 14948 net.cpp:91] Creating Layer conv5_1
I0209 01:52:51.475702 14948 net.cpp:425] conv5_1 <- rgb_pool4
I0209 01:52:51.475708 14948 net.cpp:399] conv5_1 -> conv5_1
I0209 01:52:51.486774 14948 net.cpp:141] Setting up conv5_1
I0209 01:52:51.486800 14948 net.cpp:148] Top shape: 64 512 14 14 (6422528)
I0209 01:52:51.486805 14948 net.cpp:156] Memory required for data: 7244612352
I0209 01:52:51.486814 14948 layer_factory.hpp:77] Creating layer relu5_1
I0209 01:52:51.486835 14948 net.cpp:91] Creating Layer relu5_1
I0209 01:52:51.486840 14948 net.cpp:425] relu5_1 <- conv5_1
I0209 01:52:51.486857 14948 net.cpp:386] relu5_1 -> conv5_1 (in-place)
I0209 01:52:51.486876 14948 net.cpp:141] Setting up relu5_1
I0209 01:52:51.486889 14948 net.cpp:148] Top shape: 64 512 14 14 (6422528)
I0209 01:52:51.486893 14948 net.cpp:156] Memory required for data: 7270302464
I0209 01:52:51.486907 14948 layer_factory.hpp:77] Creating layer conv5_2
I0209 01:52:51.486925 14948 net.cpp:91] Creating Layer conv5_2
I0209 01:52:51.486929 14948 net.cpp:425] conv5_2 <- conv5_1
I0209 01:52:51.486944 14948 net.cpp:399] conv5_2 -> conv5_2
I0209 01:52:51.501210 14948 net.cpp:141] Setting up conv5_2
I0209 01:52:51.501238 14948 net.cpp:148] Top shape: 64 512 14 14 (6422528)
I0209 01:52:51.501243 14948 net.cpp:156] Memory required for data: 7295992576
I0209 01:52:51.501252 14948 layer_factory.hpp:77] Creating layer relu5_2
I0209 01:52:51.501273 14948 net.cpp:91] Creating Layer relu5_2
I0209 01:52:51.501278 14948 net.cpp:425] relu5_2 <- conv5_2
I0209 01:52:51.501287 14948 net.cpp:386] relu5_2 -> conv5_2 (in-place)
I0209 01:52:51.501305 14948 net.cpp:141] Setting up relu5_2
I0209 01:52:51.501310 14948 net.cpp:148] Top shape: 64 512 14 14 (6422528)
I0209 01:52:51.501324 14948 net.cpp:156] Memory required for data: 7321682688
I0209 01:52:51.501328 14948 layer_factory.hpp:77] Creating layer conv5_3
I0209 01:52:51.501348 14948 net.cpp:91] Creating Layer conv5_3
I0209 01:52:51.501363 14948 net.cpp:425] conv5_3 <- conv5_2
I0209 01:52:51.501379 14948 net.cpp:399] conv5_3 -> conv5_3
I0209 01:52:51.512547 14948 net.cpp:141] Setting up conv5_3
I0209 01:52:51.512576 14948 net.cpp:148] Top shape: 64 512 14 14 (6422528)
I0209 01:52:51.512581 14948 net.cpp:156] Memory required for data: 7347372800
I0209 01:52:51.512590 14948 layer_factory.hpp:77] Creating layer relu5_3
I0209 01:52:51.512611 14948 net.cpp:91] Creating Layer relu5_3
I0209 01:52:51.512625 14948 net.cpp:425] relu5_3 <- conv5_3
I0209 01:52:51.512632 14948 net.cpp:386] relu5_3 -> conv5_3 (in-place)
I0209 01:52:51.512662 14948 net.cpp:141] Setting up relu5_3
I0209 01:52:51.512667 14948 net.cpp:148] Top shape: 64 512 14 14 (6422528)
I0209 01:52:51.512671 14948 net.cpp:156] Memory required for data: 7373062912
I0209 01:52:51.512686 14948 layer_factory.hpp:77] Creating layer rgb_pool5
I0209 01:52:51.512704 14948 net.cpp:91] Creating Layer rgb_pool5
I0209 01:52:51.512709 14948 net.cpp:425] rgb_pool5 <- conv5_3
I0209 01:52:51.512724 14948 net.cpp:399] rgb_pool5 -> rgb_pool5
I0209 01:52:51.512780 14948 net.cpp:141] Setting up rgb_pool5
I0209 01:52:51.512799 14948 net.cpp:148] Top shape: 64 512 7 7 (1605632)
I0209 01:52:51.512804 14948 net.cpp:156] Memory required for data: 7379485440
I0209 01:52:51.512816 14948 layer_factory.hpp:77] Creating layer rgb_fc6
I0209 01:52:51.512837 14948 net.cpp:91] Creating Layer rgb_fc6
I0209 01:52:51.512841 14948 net.cpp:425] rgb_fc6 <- rgb_pool5
I0209 01:52:51.512848 14948 net.cpp:399] rgb_fc6 -> rgb_fc6
I0209 01:52:51.993975 14948 net.cpp:141] Setting up rgb_fc6
I0209 01:52:51.994006 14948 net.cpp:148] Top shape: 64 4096 (262144)
I0209 01:52:51.994011 14948 net.cpp:156] Memory required for data: 7380534016
I0209 01:52:51.994021 14948 layer_factory.hpp:77] Creating layer rgb_relu6
I0209 01:52:51.994045 14948 net.cpp:91] Creating Layer rgb_relu6
I0209 01:52:51.994062 14948 net.cpp:425] rgb_relu6 <- rgb_fc6
I0209 01:52:51.994079 14948 net.cpp:386] rgb_relu6 -> rgb_fc6 (in-place)
I0209 01:52:51.994099 14948 net.cpp:141] Setting up rgb_relu6
I0209 01:52:51.994107 14948 net.cpp:148] Top shape: 64 4096 (262144)
I0209 01:52:51.994112 14948 net.cpp:156] Memory required for data: 7381582592
I0209 01:52:51.994118 14948 layer_factory.hpp:77] Creating layer rgb_drop6
I0209 01:52:51.994132 14948 net.cpp:91] Creating Layer rgb_drop6
I0209 01:52:51.994138 14948 net.cpp:425] rgb_drop6 <- rgb_fc6
I0209 01:52:51.994143 14948 net.cpp:386] rgb_drop6 -> rgb_fc6 (in-place)
I0209 01:52:51.994174 14948 net.cpp:141] Setting up rgb_drop6
I0209 01:52:51.994181 14948 net.cpp:148] Top shape: 64 4096 (262144)
I0209 01:52:51.994195 14948 net.cpp:156] Memory required for data: 7382631168
I0209 01:52:51.994199 14948 layer_factory.hpp:77] Creating layer rgb_fc7
I0209 01:52:51.994218 14948 net.cpp:91] Creating Layer rgb_fc7
I0209 01:52:51.994235 14948 net.cpp:425] rgb_fc7 <- rgb_fc6
I0209 01:52:51.994241 14948 net.cpp:399] rgb_fc7 -> rgb_fc7
I0209 01:52:52.073426 14948 net.cpp:141] Setting up rgb_fc7
I0209 01:52:52.073457 14948 net.cpp:148] Top shape: 64 4096 (262144)
I0209 01:52:52.073462 14948 net.cpp:156] Memory required for data: 7383679744
I0209 01:52:52.073472 14948 layer_factory.hpp:77] Creating layer rgb_relu7
I0209 01:52:52.073494 14948 net.cpp:91] Creating Layer rgb_relu7
I0209 01:52:52.073515 14948 net.cpp:425] rgb_relu7 <- rgb_fc7
I0209 01:52:52.073532 14948 net.cpp:386] rgb_relu7 -> rgb_fc7 (in-place)
I0209 01:52:52.073542 14948 net.cpp:141] Setting up rgb_relu7
I0209 01:52:52.073549 14948 net.cpp:148] Top shape: 64 4096 (262144)
I0209 01:52:52.073552 14948 net.cpp:156] Memory required for data: 7384728320
I0209 01:52:52.073557 14948 layer_factory.hpp:77] Creating layer rgb_drop7
I0209 01:52:52.073580 14948 net.cpp:91] Creating Layer rgb_drop7
I0209 01:52:52.073596 14948 net.cpp:425] rgb_drop7 <- rgb_fc7
I0209 01:52:52.073611 14948 net.cpp:386] rgb_drop7 -> rgb_fc7 (in-place)
I0209 01:52:52.073642 14948 net.cpp:141] Setting up rgb_drop7
I0209 01:52:52.073657 14948 net.cpp:148] Top shape: 64 4096 (262144)
I0209 01:52:52.073660 14948 net.cpp:156] Memory required for data: 7385776896
I0209 01:52:52.073673 14948 layer_factory.hpp:77] Creating layer conv1
I0209 01:52:52.073684 14948 net.cpp:91] Creating Layer conv1
I0209 01:52:52.073698 14948 net.cpp:425] conv1 <- depth
I0209 01:52:52.073714 14948 net.cpp:399] conv1 -> conv1
I0209 01:52:52.073886 14948 net.cpp:141] Setting up conv1
I0209 01:52:52.073894 14948 net.cpp:148] Top shape: 64 128 112 112 (102760448)
I0209 01:52:52.073897 14948 net.cpp:156] Memory required for data: 7796818688
I0209 01:52:52.073904 14948 layer_factory.hpp:77] Creating layer relu1
I0209 01:52:52.073909 14948 net.cpp:91] Creating Layer relu1
I0209 01:52:52.073925 14948 net.cpp:425] relu1 <- conv1
I0209 01:52:52.073930 14948 net.cpp:386] relu1 -> conv1 (in-place)
I0209 01:52:52.073945 14948 net.cpp:141] Setting up relu1
I0209 01:52:52.073949 14948 net.cpp:148] Top shape: 64 128 112 112 (102760448)
I0209 01:52:52.073962 14948 net.cpp:156] Memory required for data: 8207860480
I0209 01:52:52.073966 14948 layer_factory.hpp:77] Creating layer depth_pool1
I0209 01:52:52.073973 14948 net.cpp:91] Creating Layer depth_pool1
I0209 01:52:52.073985 14948 net.cpp:425] depth_pool1 <- conv1
I0209 01:52:52.073990 14948 net.cpp:399] depth_pool1 -> depth_pool1
I0209 01:52:52.074048 14948 net.cpp:141] Setting up depth_pool1
I0209 01:52:52.074054 14948 net.cpp:148] Top shape: 64 128 56 56 (25690112)
I0209 01:52:52.074069 14948 net.cpp:156] Memory required for data: 8310620928
I0209 01:52:52.074072 14948 layer_factory.hpp:77] Creating layer norm1
I0209 01:52:52.074079 14948 net.cpp:91] Creating Layer norm1
I0209 01:52:52.074092 14948 net.cpp:425] norm1 <- depth_pool1
I0209 01:52:52.074108 14948 net.cpp:399] norm1 -> norm1
I0209 01:52:52.074141 14948 net.cpp:141] Setting up norm1
I0209 01:52:52.074146 14948 net.cpp:148] Top shape: 64 128 56 56 (25690112)
I0209 01:52:52.074160 14948 net.cpp:156] Memory required for data: 8413381376
I0209 01:52:52.074163 14948 layer_factory.hpp:77] Creating layer conv2
I0209 01:52:52.074173 14948 net.cpp:91] Creating Layer conv2
I0209 01:52:52.074177 14948 net.cpp:425] conv2 <- norm1
I0209 01:52:52.074193 14948 net.cpp:399] conv2 -> conv2
I0209 01:52:52.078254 14948 net.cpp:141] Setting up conv2
I0209 01:52:52.078266 14948 net.cpp:148] Top shape: 64 256 56 56 (51380224)
I0209 01:52:52.078269 14948 net.cpp:156] Memory required for data: 8618902272
I0209 01:52:52.078281 14948 layer_factory.hpp:77] Creating layer relu2
I0209 01:52:52.078299 14948 net.cpp:91] Creating Layer relu2
I0209 01:52:52.078303 14948 net.cpp:425] relu2 <- conv2
I0209 01:52:52.078318 14948 net.cpp:386] relu2 -> conv2 (in-place)
I0209 01:52:52.078333 14948 net.cpp:141] Setting up relu2
I0209 01:52:52.078339 14948 net.cpp:148] Top shape: 64 256 56 56 (51380224)
I0209 01:52:52.078352 14948 net.cpp:156] Memory required for data: 8824423168
I0209 01:52:52.078356 14948 layer_factory.hpp:77] Creating layer depth_pool2
I0209 01:52:52.078372 14948 net.cpp:91] Creating Layer depth_pool2
I0209 01:52:52.078377 14948 net.cpp:425] depth_pool2 <- conv2
I0209 01:52:52.078393 14948 net.cpp:399] depth_pool2 -> depth_pool2
I0209 01:52:52.078436 14948 net.cpp:141] Setting up depth_pool2
I0209 01:52:52.078452 14948 net.cpp:148] Top shape: 64 256 28 28 (12845056)
I0209 01:52:52.078456 14948 net.cpp:156] Memory required for data: 8875803392
I0209 01:52:52.078460 14948 layer_factory.hpp:77] Creating layer norm2
I0209 01:52:52.078476 14948 net.cpp:91] Creating Layer norm2
I0209 01:52:52.078480 14948 net.cpp:425] norm2 <- depth_pool2
I0209 01:52:52.078485 14948 net.cpp:399] norm2 -> norm2
I0209 01:52:52.078505 14948 net.cpp:141] Setting up norm2
I0209 01:52:52.078511 14948 net.cpp:148] Top shape: 64 256 28 28 (12845056)
I0209 01:52:52.078516 14948 net.cpp:156] Memory required for data: 8927183616
I0209 01:52:52.078519 14948 layer_factory.hpp:77] Creating layer conv3
I0209 01:52:52.078527 14948 net.cpp:91] Creating Layer conv3
I0209 01:52:52.078531 14948 net.cpp:425] conv3 <- norm2
I0209 01:52:52.078537 14948 net.cpp:399] conv3 -> conv3
I0209 01:52:52.081066 14948 net.cpp:141] Setting up conv3
I0209 01:52:52.081080 14948 net.cpp:148] Top shape: 64 384 28 28 (19267584)
I0209 01:52:52.081084 14948 net.cpp:156] Memory required for data: 9004253952
I0209 01:52:52.081090 14948 layer_factory.hpp:77] Creating layer relu3
I0209 01:52:52.081095 14948 net.cpp:91] Creating Layer relu3
I0209 01:52:52.081100 14948 net.cpp:425] relu3 <- conv3
I0209 01:52:52.081106 14948 net.cpp:386] relu3 -> conv3 (in-place)
I0209 01:52:52.081112 14948 net.cpp:141] Setting up relu3
I0209 01:52:52.081117 14948 net.cpp:148] Top shape: 64 384 28 28 (19267584)
I0209 01:52:52.081121 14948 net.cpp:156] Memory required for data: 9081324288
I0209 01:52:52.081126 14948 layer_factory.hpp:77] Creating layer depth_pool3
I0209 01:52:52.081131 14948 net.cpp:91] Creating Layer depth_pool3
I0209 01:52:52.081136 14948 net.cpp:425] depth_pool3 <- conv3
I0209 01:52:52.081141 14948 net.cpp:399] depth_pool3 -> depth_pool3
I0209 01:52:52.081181 14948 net.cpp:141] Setting up depth_pool3
I0209 01:52:52.081187 14948 net.cpp:148] Top shape: 64 384 14 14 (4816896)
I0209 01:52:52.081190 14948 net.cpp:156] Memory required for data: 9100591872
I0209 01:52:52.081194 14948 layer_factory.hpp:77] Creating layer conv4
I0209 01:52:52.081203 14948 net.cpp:91] Creating Layer conv4
I0209 01:52:52.081208 14948 net.cpp:425] conv4 <- depth_pool3
I0209 01:52:52.081223 14948 net.cpp:399] conv4 -> conv4
I0209 01:52:52.090328 14948 net.cpp:141] Setting up conv4
I0209 01:52:52.090353 14948 net.cpp:148] Top shape: 64 512 14 14 (6422528)
I0209 01:52:52.090358 14948 net.cpp:156] Memory required for data: 9126281984
I0209 01:52:52.090366 14948 layer_factory.hpp:77] Creating layer relu4
I0209 01:52:52.090389 14948 net.cpp:91] Creating Layer relu4
I0209 01:52:52.090394 14948 net.cpp:425] relu4 <- conv4
I0209 01:52:52.090410 14948 net.cpp:386] relu4 -> conv4 (in-place)
I0209 01:52:52.090427 14948 net.cpp:141] Setting up relu4
I0209 01:52:52.090432 14948 net.cpp:148] Top shape: 64 512 14 14 (6422528)
I0209 01:52:52.090445 14948 net.cpp:156] Memory required for data: 9151972096
I0209 01:52:52.090450 14948 layer_factory.hpp:77] Creating layer conv5
I0209 01:52:52.090483 14948 net.cpp:91] Creating Layer conv5
I0209 01:52:52.090487 14948 net.cpp:425] conv5 <- conv4
I0209 01:52:52.090507 14948 net.cpp:399] conv5 -> conv5
I0209 01:52:52.102098 14948 net.cpp:141] Setting up conv5
I0209 01:52:52.102136 14948 net.cpp:148] Top shape: 64 512 14 14 (6422528)
I0209 01:52:52.102141 14948 net.cpp:156] Memory required for data: 9177662208
I0209 01:52:52.102166 14948 layer_factory.hpp:77] Creating layer relu5
I0209 01:52:52.102185 14948 net.cpp:91] Creating Layer relu5
I0209 01:52:52.102191 14948 net.cpp:425] relu5 <- conv5
I0209 01:52:52.102207 14948 net.cpp:386] relu5 -> conv5 (in-place)
I0209 01:52:52.102217 14948 net.cpp:141] Setting up relu5
I0209 01:52:52.102222 14948 net.cpp:148] Top shape: 64 512 14 14 (6422528)
I0209 01:52:52.102227 14948 net.cpp:156] Memory required for data: 9203352320
I0209 01:52:52.102232 14948 layer_factory.hpp:77] Creating layer depth_pool5
I0209 01:52:52.102241 14948 net.cpp:91] Creating Layer depth_pool5
I0209 01:52:52.102246 14948 net.cpp:425] depth_pool5 <- conv5
I0209 01:52:52.102252 14948 net.cpp:399] depth_pool5 -> depth_pool5
I0209 01:52:52.102304 14948 net.cpp:141] Setting up depth_pool5
I0209 01:52:52.102310 14948 net.cpp:148] Top shape: 64 512 7 7 (1605632)
I0209 01:52:52.102324 14948 net.cpp:156] Memory required for data: 9209774848
I0209 01:52:52.102327 14948 layer_factory.hpp:77] Creating layer depth_fc6
I0209 01:52:52.102346 14948 net.cpp:91] Creating Layer depth_fc6
I0209 01:52:52.102355 14948 net.cpp:425] depth_fc6 <- depth_pool5
I0209 01:52:52.102360 14948 net.cpp:399] depth_fc6 -> depth_fc6
I0209 01:52:52.582017 14948 net.cpp:141] Setting up depth_fc6
I0209 01:52:52.582049 14948 net.cpp:148] Top shape: 64 4096 (262144)
I0209 01:52:52.582056 14948 net.cpp:156] Memory required for data: 9210823424
I0209 01:52:52.582065 14948 layer_factory.hpp:77] Creating layer depth_relu6
I0209 01:52:52.582089 14948 net.cpp:91] Creating Layer depth_relu6
I0209 01:52:52.582106 14948 net.cpp:425] depth_relu6 <- depth_fc6
I0209 01:52:52.582123 14948 net.cpp:386] depth_relu6 -> depth_fc6 (in-place)
I0209 01:52:52.582144 14948 net.cpp:141] Setting up depth_relu6
I0209 01:52:52.582150 14948 net.cpp:148] Top shape: 64 4096 (262144)
I0209 01:52:52.582157 14948 net.cpp:156] Memory required for data: 9211872000
I0209 01:52:52.582162 14948 layer_factory.hpp:77] Creating layer depth_drop6
I0209 01:52:52.582171 14948 net.cpp:91] Creating Layer depth_drop6
I0209 01:52:52.582187 14948 net.cpp:425] depth_drop6 <- depth_fc6
I0209 01:52:52.582192 14948 net.cpp:386] depth_drop6 -> depth_fc6 (in-place)
I0209 01:52:52.582242 14948 net.cpp:141] Setting up depth_drop6
I0209 01:52:52.582247 14948 net.cpp:148] Top shape: 64 4096 (262144)
I0209 01:52:52.582260 14948 net.cpp:156] Memory required for data: 9212920576
I0209 01:52:52.582264 14948 layer_factory.hpp:77] Creating layer depth_fc7
I0209 01:52:52.582283 14948 net.cpp:91] Creating Layer depth_fc7
I0209 01:52:52.582285 14948 net.cpp:425] depth_fc7 <- depth_fc6
I0209 01:52:52.582300 14948 net.cpp:399] depth_fc7 -> depth_fc7
I0209 01:52:52.661034 14948 net.cpp:141] Setting up depth_fc7
I0209 01:52:52.661064 14948 net.cpp:148] Top shape: 64 4096 (262144)
I0209 01:52:52.661070 14948 net.cpp:156] Memory required for data: 9213969152
I0209 01:52:52.661080 14948 layer_factory.hpp:77] Creating layer depth_relu7
I0209 01:52:52.661101 14948 net.cpp:91] Creating Layer depth_relu7
I0209 01:52:52.661118 14948 net.cpp:425] depth_relu7 <- depth_fc7
I0209 01:52:52.661124 14948 net.cpp:386] depth_relu7 -> depth_fc7 (in-place)
I0209 01:52:52.661156 14948 net.cpp:141] Setting up depth_relu7
I0209 01:52:52.661164 14948 net.cpp:148] Top shape: 64 4096 (262144)
I0209 01:52:52.661176 14948 net.cpp:156] Memory required for data: 9215017728
I0209 01:52:52.661180 14948 layer_factory.hpp:77] Creating layer depth_drop7
I0209 01:52:52.661197 14948 net.cpp:91] Creating Layer depth_drop7
I0209 01:52:52.661212 14948 net.cpp:425] depth_drop7 <- depth_fc7
I0209 01:52:52.661217 14948 net.cpp:386] depth_drop7 -> depth_fc7 (in-place)
I0209 01:52:52.661269 14948 net.cpp:141] Setting up depth_drop7
I0209 01:52:52.661275 14948 net.cpp:148] Top shape: 64 4096 (262144)
I0209 01:52:52.661289 14948 net.cpp:156] Memory required for data: 9216066304
I0209 01:52:52.661294 14948 layer_factory.hpp:77] Creating layer concat
I0209 01:52:52.661324 14948 net.cpp:91] Creating Layer concat
I0209 01:52:52.661329 14948 net.cpp:425] concat <- rgb_fc7
I0209 01:52:52.661342 14948 net.cpp:425] concat <- depth_fc7
I0209 01:52:52.661350 14948 net.cpp:399] concat -> concat
I0209 01:52:52.661379 14948 net.cpp:141] Setting up concat
I0209 01:52:52.661384 14948 net.cpp:148] Top shape: 64 8192 (524288)
I0209 01:52:52.661389 14948 net.cpp:156] Memory required for data: 9218163456
I0209 01:52:52.661402 14948 layer_factory.hpp:77] Creating layer fuse_fc1
I0209 01:52:52.661411 14948 net.cpp:91] Creating Layer fuse_fc1
I0209 01:52:52.661414 14948 net.cpp:425] fuse_fc1 <- concat
I0209 01:52:52.661420 14948 net.cpp:399] fuse_fc1 -> fuse_fc1
I0209 01:52:52.701534 14948 net.cpp:141] Setting up fuse_fc1
I0209 01:52:52.701588 14948 net.cpp:148] Top shape: 64 1024 (65536)
I0209 01:52:52.701594 14948 net.cpp:156] Memory required for data: 9218425600
I0209 01:52:52.701604 14948 layer_factory.hpp:77] Creating layer fuse_relu1
I0209 01:52:52.701614 14948 net.cpp:91] Creating Layer fuse_relu1
I0209 01:52:52.701622 14948 net.cpp:425] fuse_relu1 <- fuse_fc1
I0209 01:52:52.701644 14948 net.cpp:386] fuse_relu1 -> fuse_fc1 (in-place)
I0209 01:52:52.701661 14948 net.cpp:141] Setting up fuse_relu1
I0209 01:52:52.701668 14948 net.cpp:148] Top shape: 64 1024 (65536)
I0209 01:52:52.701673 14948 net.cpp:156] Memory required for data: 9218687744
I0209 01:52:52.701678 14948 layer_factory.hpp:77] Creating layer fuse_drop1
I0209 01:52:52.701712 14948 net.cpp:91] Creating Layer fuse_drop1
I0209 01:52:52.701717 14948 net.cpp:425] fuse_drop1 <- fuse_fc1
I0209 01:52:52.701722 14948 net.cpp:386] fuse_drop1 -> fuse_fc1 (in-place)
I0209 01:52:52.701743 14948 net.cpp:141] Setting up fuse_drop1
I0209 01:52:52.701750 14948 net.cpp:148] Top shape: 64 1024 (65536)
I0209 01:52:52.701752 14948 net.cpp:156] Memory required for data: 9218949888
I0209 01:52:52.701756 14948 layer_factory.hpp:77] Creating layer fuse_fc2
I0209 01:52:52.701763 14948 net.cpp:91] Creating Layer fuse_fc2
I0209 01:52:52.701768 14948 net.cpp:425] fuse_fc2 <- fuse_fc1
I0209 01:52:52.701774 14948 net.cpp:399] fuse_fc2 -> fuse_fc2
I0209 01:52:52.706965 14948 net.cpp:141] Setting up fuse_fc2
I0209 01:52:52.706979 14948 net.cpp:148] Top shape: 64 1024 (65536)
I0209 01:52:52.706982 14948 net.cpp:156] Memory required for data: 9219212032
I0209 01:52:52.706990 14948 layer_factory.hpp:77] Creating layer fuse_relu2
I0209 01:52:52.707007 14948 net.cpp:91] Creating Layer fuse_relu2
I0209 01:52:52.707012 14948 net.cpp:425] fuse_relu2 <- fuse_fc2
I0209 01:52:52.707028 14948 net.cpp:386] fuse_relu2 -> fuse_fc2 (in-place)
I0209 01:52:52.707034 14948 net.cpp:141] Setting up fuse_relu2
I0209 01:52:52.707048 14948 net.cpp:148] Top shape: 64 1024 (65536)
I0209 01:52:52.707051 14948 net.cpp:156] Memory required for data: 9219474176
I0209 01:52:52.707068 14948 layer_factory.hpp:77] Creating layer fuse_drop2
I0209 01:52:52.707074 14948 net.cpp:91] Creating Layer fuse_drop2
I0209 01:52:52.707079 14948 net.cpp:425] fuse_drop2 <- fuse_fc2
I0209 01:52:52.707084 14948 net.cpp:386] fuse_drop2 -> fuse_fc2 (in-place)
I0209 01:52:52.707103 14948 net.cpp:141] Setting up fuse_drop2
I0209 01:52:52.707121 14948 net.cpp:148] Top shape: 64 1024 (65536)
I0209 01:52:52.707125 14948 net.cpp:156] Memory required for data: 9219736320
I0209 01:52:52.707137 14948 layer_factory.hpp:77] Creating layer rgbd_fc8
I0209 01:52:52.707154 14948 net.cpp:91] Creating Layer rgbd_fc8
I0209 01:52:52.707157 14948 net.cpp:425] rgbd_fc8 <- fuse_fc2
I0209 01:52:52.707164 14948 net.cpp:399] rgbd_fc8 -> rgbd_fc8
I0209 01:52:52.707309 14948 net.cpp:141] Setting up rgbd_fc8
I0209 01:52:52.707315 14948 net.cpp:148] Top shape: 64 11 (704)
I0209 01:52:52.707319 14948 net.cpp:156] Memory required for data: 9219739136
I0209 01:52:52.707324 14948 layer_factory.hpp:77] Creating layer rgbd_fc8_rgbd_fc8_0_split
I0209 01:52:52.707329 14948 net.cpp:91] Creating Layer rgbd_fc8_rgbd_fc8_0_split
I0209 01:52:52.707334 14948 net.cpp:425] rgbd_fc8_rgbd_fc8_0_split <- rgbd_fc8
I0209 01:52:52.707350 14948 net.cpp:399] rgbd_fc8_rgbd_fc8_0_split -> rgbd_fc8_rgbd_fc8_0_split_0
I0209 01:52:52.707356 14948 net.cpp:399] rgbd_fc8_rgbd_fc8_0_split -> rgbd_fc8_rgbd_fc8_0_split_1
I0209 01:52:52.707408 14948 net.cpp:141] Setting up rgbd_fc8_rgbd_fc8_0_split
I0209 01:52:52.707414 14948 net.cpp:148] Top shape: 64 11 (704)
I0209 01:52:52.707418 14948 net.cpp:148] Top shape: 64 11 (704)
I0209 01:52:52.707423 14948 net.cpp:156] Memory required for data: 9219744768
I0209 01:52:52.707440 14948 layer_factory.hpp:77] Creating layer rgbd_accuracy
I0209 01:52:52.707464 14948 net.cpp:91] Creating Layer rgbd_accuracy
I0209 01:52:52.707468 14948 net.cpp:425] rgbd_accuracy <- rgbd_fc8_rgbd_fc8_0_split_0
I0209 01:52:52.707484 14948 net.cpp:425] rgbd_accuracy <- label_data_2_split_0
…
I0209 01:52:52.709208 14948 net.cpp:49] Initializing net from parameters: 
state {
  phase: TEST
}
layer {
  name: "data"
  type: "Python"
  top: "rgb"
  top: "depth"
  top: "label"
  python_param {
    module: "data_layers.rgbd_data_layer"
    layer: "RGBDDataLayer"
    param_str: "{\'img_size\': (224, 224), \'split\': \'test\', \'dataset_dir\': \'/home/kevin/dataset/rgbd\', \'randomize\': False, \'mean\': (104.00698793, 116.66876762, 122.67891434), \'seed\': 1337, \'batch_size\': 1, \'crop_size\': (224, 224, 224, 224)}"
  }
}
layer {
  name: "conv1_1"
  type: "Convolution"
  bottom: "rgb"
  top: "conv1_1"
  param {
    name: "conv1_1_w"
    lr_mult: 0
    decay_mult: 1
  }
  param {
    name: "conv1_1_b"
    lr_mult: 0
    decay_mult: 0
  }
  convolution_param {
    num_output: 64
    pad: 1
    kernel_size: 3
    group: 1
    stride: 1
    weight_filler {
      type: "xavier"
    }
  }
}
layer {
  name: "relu1_1"
  type: "ReLU"
  bottom: "conv1_1"
  top: "conv1_1"
}
layer {
  name: "conv1_2"
  type: "Convolution"
  bottom: "conv1_1"
  top: "conv1_2"
  param {
    name: "conv1_2_w"
    lr_mult: 0
    decay_mult: 1
  }
  param {
    name: "conv1_2_b"
    lr_mult: 0
    decay_mult: 0
  }
  convolution_param {
    num_output: 64
    pad: 1
    kernel_size: 3
    group: 1
    stride: 1
    weight_filler {
      type: "xavier"
    }
  }
}
layer {
  name: "relu1_2"
  type: "ReLU"
  bottom: "conv1_2"
  top: "conv1_2"
}
layer {
  name: "rgb_pool1"
  type: "Pooling"
  bottom: "conv1_2"
  top: "rgb_pool1"
  pooling_param {
    pool: MAX
    kernel_size: 2
    stride: 2
  }
}
layer {
  name: "conv2_1"
  type: "Convolution"
  bottom: "rgb_pool1"
  top: "conv2_1"
  param {
    name: "conv2_1_w"
    lr_mult: 0
    decay_mult: 1
  }
  param {
    name: "conv2_1_b"
    lr_mult: 0
    decay_mult: 0
  }
  convolution_param {
    num_output: 128
    pad: 1
    kernel_size: 3
    group: 1
    stride: 1
    weight_filler {
      type: "xavier"
    }
  }
}
layer {
  name: "relu2_1"
  type: "ReLU"
  bottom: "conv2_1"
  top: "conv2_1"
}
layer {
  name: "conv2_2"
  type: "Convolution"
  bottom: "conv2_1"
  top: "conv2_2"
  param {
    name: "conv2_2_w"
    lr_mult: 0
    decay_mult: 1
  }
  param {
    name: "conv2_2_b"
    lr_mult: 0
    decay_mult: 0
  }
  convolution_param {
    num_output: 128
    pad: 1
    kernel_size: 3
    group: 1
    stride: 1
    weight_filler {
      type: "xavier"
    }
  }
}
layer {
  name: "relu2_2"
  type: "ReLU"
  bottom: "conv2_2"
  top: "conv2_2"
}
layer {
  name: "rgb_pool2"
  type: "Pooling"
  bottom: "conv2_2"
  top: "rgb_pool2"
  pooling_param {
    pool: MAX
    kernel_size: 2
    stride: 2
  }
}
layer {
  name: "conv3_1"
  type: "Convolution"
  bottom: "rgb_pool2"
  top: "conv3_1"
  param {
    name: "conv3_1_w"
    lr_mult: 0
    decay_mult: 1
  }
  param {
    name: "conv3_1_b"
    lr_mult: 0
    decay_mult: 0
  }
  convolution_param {
    num_output: 256
    pad: 1
    kernel_size: 3
    group: 1
    stride: 1
    weight_filler {
      type: "xavier"
    }
  }
}
layer {
  name: "relu3_1"
  type: "ReLU"
  bottom: "conv3_1"
  top: "conv3_1"
}
layer {
  name: "conv3_2"
  type: "Convolution"
  bottom: "conv3_1"
  top: "conv3_2"
  param {
    name: "conv3_2_w"
    lr_mult: 0
    decay_mult: 1
  }
  param {
    name: "conv3_2_b"
    lr_mult: 0
    decay_mult: 0
  }
  convolution_param {
    num_output: 256
    pad: 1
    kernel_size: 3
    group: 1
    stride: 1
    weight_filler {
      type: "xavier"
    }
  }
}
layer {
  name: "relu3_2"
  type: "ReLU"
  bottom: "conv3_2"
  top: "conv3_2"
}
layer {
  name: "conv3_3"
  type: "Convolution"
  bottom: "conv3_2"
  top: "conv3_3"
  param {
    name: "conv3_3_w"
    lr_mult: 0
    decay_mult: 1
  }
  param {
    name: "conv3_3_b"
    lr_mult: 0
    decay_mult: 0
  }
  convolution_param {
    num_output: 256
    pad: 1
    kernel_size: 3
    group: 1
    stride: 1
    weight_filler {
      type: "xavier"
    }
  }
}
layer {
  name: "relu3_3"
  type: "ReLU"
  bottom: "conv3_3"
  top: "conv3_3"
}
layer {
  name: "rgb_pool3"
  type: "Pooling"
  bottom: "conv3_3"
  top: "rgb_pool3"
  pooling_param {
    pool: MAX
    kernel_size: 2
    stride: 2
  }
}
layer {
  name: "conv4_1"
  type: "Convolution"
  bottom: "rgb_pool3"
  top: "conv4_1"
  param {
    name: "conv4_1_w"
    lr_mult: 0
    decay_mult: 1
  }
  param {
    name: "conv4_1_b"
    lr_mult: 0
    decay_mult: 0
  }
  convolution_param {
    num_output: 512
    pad: 1
    kernel_size: 3
    group: 1
    stride: 1
    weight_filler {
      type: "xavier"
    }
  }
}
layer {
  name: "relu4_1"
  type: "ReLU"
  bottom: "conv4_1"
  top: "conv4_1"
}
layer {
  name: "conv4_2"
  type: "Convolution"
  bottom: "conv4_1"
  top: "conv4_2"
  param {
    name: "conv4_2_w"
    lr_mult: 0
    decay_mult: 1
  }
  param {
    name: "conv4_2_b"
    lr_mult: 0
    decay_mult: 0
  }
  convolution_param {
    num_output: 512
    pad: 1
    kernel_size: 3
    group: 1
    stride: 1
    weight_filler {
      type: "xavier"
    }
  }
}
layer {
  name: "relu4_2"
  type: "ReLU"
  bottom: "conv4_2"
  top: "conv4_2"
}
layer {
  name: "conv4_3"
  type: "Convolution"
  bottom: "conv4_2"
  top: "conv4_3"
  param {
    name: "conv4_3_w"
    lr_mult: 0
    decay_mult: 1
  }
  param {
    name: "conv4_3_b"
    lr_mult: 0
    decay_mult: 0
  }
  convolution_param {
    num_output: 512
    pad: 1
    kernel_size: 3
    group: 1
    stride: 1
    weight_filler {
      type: "xavier"
    }
  }
}
layer {
  name: "relu4_3"
  type: "ReLU"
  bottom: "conv4_3"
  top: "conv4_3"
}
layer {
  name: "rgb_pool4"
  type: "Pooling"
  bottom: "conv4_3"
  top: "rgb_pool4"
  pooling_param {
    pool: MAX
    kernel_size: 2
    stride: 2
  }
}
layer {
  name: "conv5_1"
  type: "Convolution"
  bottom: "rgb_pool4"
  top: "conv5_1"
  param {
    name: "conv5_1_w"
    lr_mult: 0
    decay_mult: 1
  }
  param {
    name: "conv5_1_b"
    lr_mult: 0
    decay_mult: 0
  }
  convolution_param {
    num_output: 512
    pad: 1
    kernel_size: 3
    group: 1
    stride: 1
    weight_filler {
      type: "xavier"
    }
  }
}
layer {
  name: "relu5_1"
  type: "ReLU"
  bottom: "conv5_1"
  top: "conv5_1"
}
layer {
  name: "conv5_2"
  type: "Convolution"
  bottom: "conv5_1"
  top: "conv5_2"
  param {
    name: "conv5_2_w"
    lr_mult: 0
    decay_mult: 1
  }
  param {
    name: "conv5_2_b"
    lr_mult: 0
    decay_mult: 0
  }
  convolution_param {
    num_output: 512
    pad: 1
    kernel_size: 3
    group: 1
    stride: 1
    weight_filler {
      type: "xavier"
    }
  }
}
layer {
  name: "relu5_2"
  type: "ReLU"
  bottom: "conv5_2"
  top: "conv5_2"
}
layer {
  name: "conv5_3"
  type: "Convolution"
  bottom: "conv5_2"
  top: "conv5_3"
  param {
    name: "conv5_3_w"
    lr_mult: 0
    decay_mult: 1
  }
  param {
    name: "conv5_3_b"
    lr_mult: 0
    decay_mult: 0
  }
  convolution_param {
    num_output: 512
    pad: 1
    kernel_size: 3
    group: 1
    stride: 1
    weight_filler {
      type: "xavier"
    }
  }
}
layer {
  name: "relu5_3"
  type: "ReLU"
  bottom: "conv5_3"
  top: "conv5_3"
}
layer {
  name: "rgb_pool5"
  type: "Pooling"
  bottom: "conv5_3"
  top: "rgb_pool5"
  pooling_param {
    pool: MAX
    kernel_size: 2
    stride: 2
  }
}
layer {
  name: "rgb_fc6"
  type: "InnerProduct"
  bottom: "rgb_pool5"
  top: "rgb_fc6"
  param {
    lr_mult: 1
    decay_mult: 1
  }
  param {
    lr_mult: 2
    decay_mult: 0
  }
  inner_product_param {
    num_output: 4096
    weight_filler {
      type: "xavier"
    }
  }
}
layer {
  name: "rgb_relu6"
  type: "ReLU"
  bottom: "rgb_fc6"
  top: "rgb_fc6"
}
layer {
  name: "rgb_drop6"
  type: "Dropout"
  bottom: "rgb_fc6"
  top: "rgb_fc6"
  dropout_param {
    dropout_ratio: 0.5
  }
}
layer {
  name: "rgb_fc7"
  type: "InnerProduct"
  bottom: "rgb_fc6"
  top: "rgb_fc7"
  param {
    lr_mult: 1
    decay_mult: 1
  }
  param {
    lr_mult: 2
    decay_mult: 0
  }
  inner_product_param {
    num_output: 4096
    weight_filler {
      type: "xavier"
    }
  }
}
layer {
  name: "rgb_relu7"
  type: "ReLU"
  bottom: "rgb_fc7"
  top: "rgb_fc7"
}
layer {
  name: "rgb_drop7"
  type: "Dropout"
  bottom: "rgb_fc7"
  top: "rgb_fc7"
  dropout_param {
    dropout_ratio: 0.5
  }
}
layer {
  name: "conv1"
  type: "Convolution"
  bottom: "depth"
  top: "conv1"
  param {
    name: "conv1_w"
    lr_mult: 0
    decay_mult: 1
  }
  param {
    name: "conv1_b"
    lr_mult: 0
    decay_mult: 0
  }
  convolution_param {
    num_output: 128
    pad: 2
    kernel_size: 5
    group: 1
    stride: 2
    weight_filler {
      type: "xavier"
    }
  }
}
layer {
  name: "relu1"
  type: "ReLU"
  bottom: "conv1"
  top: "conv1"
}
layer {
  name: "depth_pool1"
  type: "Pooling"
  bottom: "conv1"
  top: "depth_pool1"
  pooling_param {
    pool: MAX
    kernel_size: 3
    stride: 2
  }
}
layer {
  name: "norm1"
  type: "LRN"
  bottom: "depth_pool1"
  top: "norm1"
  lrn_param {
    local_size: 5
    alpha: 0.0005
    beta: 0.75
    k: 2
  }
}
layer {
  name: "conv2"
  type: "Convolution"
  bottom: "norm1"
  top: "conv2"
  param {
    name: "conv2_w"
    lr_mult: 0
    decay_mult: 1
  }
  param {
    name: "conv2_b"
    lr_mult: 0
    decay_mult: 0
  }
  convolution_param {
    num_output: 256
    pad: 2
    kernel_size: 5
    group: 1
    stride: 1
    weight_filler {
      type: "xavier"
    }
  }
}
layer {
  name: "relu2"
  type: "ReLU"
  bottom: "conv2"
  top: "conv2"
}
layer {
  name: "depth_pool2"
  type: "Pooling"
  bottom: "conv2"
  top: "depth_pool2"
  pooling_param {
    pool: MAX
    kernel_size: 3
    stride: 2
  }
}
layer {
  name: "norm2"
  type: "LRN"
  bottom: "depth_pool2"
  top: "norm2"
  lrn_param {
    local_size: 5
    alpha: 0.0005
    beta: 0.75
    k: 2
  }
}
layer {
  name: "conv3"
  type: "Convolution"
  bottom: "norm2"
  top: "conv3"
  param {
    name: "conv3_w"
    lr_mult: 0
    decay_mult: 1
  }
  param {
    name: "conv3_b"
    lr_mult: 0
    decay_mult: 0
  }
  convolution_param {
    num_output: 384
    pad: 1
    kernel_size: 3
    group: 2
    stride: 1
    weight_filler {
      type: "xavier"
    }
  }
}
layer {
  name: "relu3"
  type: "ReLU"
  bottom: "conv3"
  top: "conv3"
}
layer {
  name: "depth_pool3"
  type: "Pooling"
  bottom: "conv3"
  top: "depth_pool3"
  pooling_param {
    pool: MAX
    kernel_size: 3
    stride: 2
  }
}
layer {
  name: "conv4"
  type: "Convolution"
  bottom: "depth_pool3"
  top: "conv4"
  param {
    name: "conv4_w"
    lr_mult: 0
    decay_mult: 1
  }
  param {
    name: "conv4_b"
    lr_mult: 0
    decay_mult: 0
  }
  convolution_param {
    num_output: 512
    pad: 1
    kernel_size: 3
    group: 1
    stride: 1
    weight_filler {
      type: "xavier"
    }
  }
}
layer {
  name: "relu4"
  type: "ReLU"
  bottom: "conv4"
  top: "conv4"
}
layer {
  name: "conv5"
  type: "Convolution"
  bottom: "conv4"
  top: "conv5"
  param {
    name: "conv5_w"
    lr_mult: 0
    decay_mult: 1
  }
  param {
    name: "conv5_b"
    lr_mult: 0
    decay_mult: 0
  }
  convolution_param {
    num_output: 512
    pad: 1
    kernel_size: 3
    group: 1
    stride: 1
    weight_filler {
      type: "xavier"
    }
  }
}
layer {
  name: "relu5"
  type: "ReLU"
  bottom: "conv5"
  top: "conv5"
}
layer {
  name: "depth_pool5"
  type: "Pooling"
  bottom: "conv5"
  top: "depth_pool5"
  pooling_param {
    pool: MAX
    kernel_size: 3
    stride: 2
  }
}
layer {
  name: "depth_fc6"
  type: "InnerProduct"
  bottom: "depth_pool5"
  top: "depth_fc6"
  param {
    lr_mult: 1
    decay_mult: 1
  }
  param {
    lr_mult: 2
    decay_mult: 0
  }
  inner_product_param {
    num_output: 4096
    weight_filler {
      type: "xavier"
    }
  }
}
layer {
  name: "depth_relu6"
  type: "ReLU"
  bottom: "depth_fc6"
  top: "depth_fc6"
}
layer {
  name: "depth_drop6"
  type: "Dropout"
  bottom: "depth_fc6"
  top: "depth_fc6"
  dropout_param {
    dropout_ratio: 0.5
  }
}
layer {
  name: "depth_fc7"
  type: "InnerProduct"
  bottom: "depth_fc6"
  top: "depth_fc7"
  param {
    lr_mult: 1
    decay_mult: 1
  }
  param {
    lr_mult: 2
    decay_mult: 0
  }
  inner_product_param {
    num_output: 4096
    weight_filler {
      type: "xavier"
    }
  }
}
layer {
  name: "depth_relu7"
  type: "ReLU"
  bottom: "depth_fc7"
  top: "depth_fc7"
}
layer {
  name: "depth_drop7"
  type: "Dropout"
  bottom: "depth_fc7"
  top: "depth_fc7"
  dropout_param {
    dropout_ratio: 0.5
  }
}
layer {
  name: "concat"
  type: "Concat"
  bottom: "rgb_fc7"
  bottom: "depth_fc7"
  top: "concat"
  concat_param {
    axis: 1
  }
}
layer {
  name: "fuse_fc1"
  type: "InnerProduct"
  bottom: "concat"
  top: "fuse_fc1"
  param {
    lr_mult: 1
    decay_mult: 1
  }
  param {
    lr_mult: 2
    decay_mult: 0
  }
  inner_product_param {
    num_output: 1024
    weight_filler {
      type: "xavier"
    }
  }
}
layer {
  name: "fuse_relu1"
  type: "ReLU"
  bottom: "fuse_fc1"
  top: "fuse_fc1"
}
layer {
  name: "fuse_drop1"
  type: "Dropout"
  bottom: "fuse_fc1"
  top: "fuse_fc1"
  dropout_param {
    dropout_ratio: 0.5
  }
}
layer {
  name: "fuse_fc2"
  type: "InnerProduct"
  bottom: "fuse_fc1"
  top: "fuse_fc2"
  param {
    lr_mult: 1
    decay_mult: 1
  }
  param {
    lr_mult: 2
    decay_mult: 0
  }
  inner_product_param {
    num_output: 1024
    weight_filler {
      type: "xavier"
    }
  }
}
layer {
  name: "fuse_relu2"
  type: "ReLU"
  bottom: "fuse_fc2"
  top: "fuse_fc2"
}
layer {
  name: "fuse_drop2"
  type: "Dropout"
  bottom: "fuse_fc2"
  top: "fuse_fc2"
  dropout_param {
    dropout_ratio: 0.5
  }
}
layer {
  name: "rgbd_fc8"
  type: "InnerProduct"
  bottom: "fuse_fc2"
  top: "rgbd_fc8"
  param {
    lr_mult: 1
    decay_mult: 1
  }
  param {
    lr_mult: 2
    decay_mult: 0
  }
  inner_product_param {
    num_output: 11
    weight_filler {
      type: "xavier"
    }
  }
}
layer {
  name: "rgbd_accuracy"
  type: "Accuracy"
  bottom: "rgbd_fc8"
  bottom: "label"
  top: "rgbd_accuracy"
}
layer {
  name: "rgbd_loss"
  type: "SoftmaxWithLoss"
  bottom: "rgbd_fc8"
  bottom: "label"
  top: "rgbd_loss"
}
I0209 01:52:52.712394 14948 layer_factory.hpp:77] Creating layer data
I0209 01:52:52.712487 14948 net.cpp:91] Creating Layer data
I0209 01:52:52.712498 14948 net.cpp:399] data -> rgb
I0209 01:52:52.712510 14948 net.cpp:399] data -> depth
I0209 01:52:52.712518 14948 net.cpp:399] data -> label
{'img_size': (224, 224), 'split': 'test', 'dataset_dir': '/home/kevin/dataset/rgbd', 'crop_size': (224, 224, 224, 224), 'randomize': False, 'seed': 1337, 'batch_size': 1, 'mean': (104.00698793, 116.66876762, 122.67891434)}
I0209 01:52:52.749716 14948 net.cpp:141] Setting up data
I0209 01:52:52.749748 14948 net.cpp:148] Top shape: 1 3 224 224 (150528)
I0209 01:52:52.749758 14948 net.cpp:148] Top shape: 1 1 224 224 (50176)
I0209 01:52:52.749778 14948 net.cpp:148] Top shape: 1 1 (1)
I0209 01:52:52.749799 14948 net.cpp:156] Memory required for data: 802820
I0209 01:52:52.749825 14948 layer_factory.hpp:77] Creating layer label_data_2_split
I0209 01:52:52.749871 14948 net.cpp:91] Creating Layer label_data_2_split
I0209 01:52:52.749893 14948 net.cpp:425] label_data_2_split <- label
I0209 01:52:52.749918 14948 net.cpp:399] label_data_2_split -> label_data_2_split_0
I0209 01:52:52.749941 14948 net.cpp:399] label_data_2_split -> label_data_2_split_1
I0209 01:52:52.750032 14948 net.cpp:141] Setting up label_data_2_split
I0209 01:52:52.750049 14948 net.cpp:148] Top shape: 1 1 (1)
I0209 01:52:52.750061 14948 net.cpp:148] Top shape: 1 1 (1)
I0209 01:52:52.750072 14948 net.cpp:156] Memory required for data: 802828
I0209 01:52:52.750083 14948 layer_factory.hpp:77] Creating layer conv1_1
I0209 01:52:52.750109 14948 net.cpp:91] Creating Layer conv1_1
I0209 01:52:52.750133 14948 net.cpp:425] conv1_1 <- rgb
I0209 01:52:52.750146 14948 net.cpp:399] conv1_1 -> conv1_1
I0209 01:52:52.750598 14948 net.cpp:141] Setting up conv1_1
I0209 01:52:52.750627 14948 net.cpp:148] Top shape: 1 64 224 224 (3211264)
I0209 01:52:52.750639 14948 net.cpp:156] Memory required for data: 13647884
I0209 01:52:52.750677 14948 layer_factory.hpp:77] Creating layer relu1_1
I0209 01:52:52.750702 14948 net.cpp:91] Creating Layer relu1_1
I0209 01:52:52.750722 14948 net.cpp:425] relu1_1 <- conv1_1
I0209 01:52:52.750751 14948 net.cpp:386] relu1_1 -> conv1_1 (in-place)
I0209 01:52:52.750777 14948 net.cpp:141] Setting up relu1_1
I0209 01:52:52.750799 14948 net.cpp:148] Top shape: 1 64 224 224 (3211264)
I0209 01:52:52.750818 14948 net.cpp:156] Memory required for data: 26492940
I0209 01:52:52.750828 14948 layer_factory.hpp:77] Creating layer conv1_2
I0209 01:52:52.750847 14948 net.cpp:91] Creating Layer conv1_2
I0209 01:52:52.750867 14948 net.cpp:425] conv1_2 <- conv1_1
I0209 01:52:52.750890 14948 net.cpp:399] conv1_2 -> conv1_2
I0209 01:52:52.751989 14948 net.cpp:141] Setting up conv1_2
I0209 01:52:52.752018 14948 net.cpp:148] Top shape: 1 64 224 224 (3211264)
I0209 01:52:52.752023 14948 net.cpp:156] Memory required for data: 39337996
I0209 01:52:52.752034 14948 layer_factory.hpp:77] Creating layer relu1_2
I0209 01:52:52.752043 14948 net.cpp:91] Creating Layer relu1_2
I0209 01:52:52.752049 14948 net.cpp:425] relu1_2 <- conv1_2
I0209 01:52:52.752058 14948 net.cpp:386] relu1_2 -> conv1_2 (in-place)
I0209 01:52:52.752065 14948 net.cpp:141] Setting up relu1_2
I0209 01:52:52.752071 14948 net.cpp:148] Top shape: 1 64 224 224 (3211264)
I0209 01:52:52.752075 14948 net.cpp:156] Memory required for data: 52183052
I0209 01:52:52.752079 14948 layer_factory.hpp:77] Creating layer rgb_pool1
I0209 01:52:52.752089 14948 net.cpp:91] Creating Layer rgb_pool1
I0209 01:52:52.752094 14948 net.cpp:425] rgb_pool1 <- conv1_2
I0209 01:52:52.752099 14948 net.cpp:399] rgb_pool1 -> rgb_pool1
I0209 01:52:52.752140 14948 net.cpp:141] Setting up rgb_pool1
I0209 01:52:52.752147 14948 net.cpp:148] Top shape: 1 64 112 112 (802816)
I0209 01:52:52.752152 14948 net.cpp:156] Memory required for data: 55394316
I0209 01:52:52.752157 14948 layer_factory.hpp:77] Creating layer conv2_1
I0209 01:52:52.752171 14948 net.cpp:91] Creating Layer conv2_1
I0209 01:52:52.752177 14948 net.cpp:425] conv2_1 <- rgb_pool1
I0209 01:52:52.752182 14948 net.cpp:399] conv2_1 -> conv2_1
I0209 01:52:52.753108 14948 net.cpp:141] Setting up conv2_1
I0209 01:52:52.753131 14948 net.cpp:148] Top shape: 1 128 112 112 (1605632)
I0209 01:52:52.753139 14948 net.cpp:156] Memory required for data: 61816844
I0209 01:52:52.753151 14948 layer_factory.hpp:77] Creating layer relu2_1
I0209 01:52:52.753163 14948 net.cpp:91] Creating Layer relu2_1
I0209 01:52:52.753170 14948 net.cpp:425] relu2_1 <- conv2_1
I0209 01:52:52.753177 14948 net.cpp:386] relu2_1 -> conv2_1 (in-place)
I0209 01:52:52.753185 14948 net.cpp:141] Setting up relu2_1
I0209 01:52:52.753191 14948 net.cpp:148] Top shape: 1 128 112 112 (1605632)
I0209 01:52:52.753196 14948 net.cpp:156] Memory required for data: 68239372
I0209 01:52:52.753201 14948 layer_factory.hpp:77] Creating layer conv2_2
I0209 01:52:52.753211 14948 net.cpp:91] Creating Layer conv2_2
I0209 01:52:52.753216 14948 net.cpp:425] conv2_2 <- conv2_1
I0209 01:52:52.753222 14948 net.cpp:399] conv2_2 -> conv2_2
I0209 01:52:52.754098 14948 net.cpp:141] Setting up conv2_2
I0209 01:52:52.754124 14948 net.cpp:148] Top shape: 1 128 112 112 (1605632)
I0209 01:52:52.754132 14948 net.cpp:156] Memory required for data: 74661900
I0209 01:52:52.754142 14948 layer_factory.hpp:77] Creating layer relu2_2
I0209 01:52:52.754155 14948 net.cpp:91] Creating Layer relu2_2
I0209 01:52:52.754161 14948 net.cpp:425] relu2_2 <- conv2_2
I0209 01:52:52.754170 14948 net.cpp:386] relu2_2 -> conv2_2 (in-place)
I0209 01:52:52.754179 14948 net.cpp:141] Setting up relu2_2
I0209 01:52:52.754186 14948 net.cpp:148] Top shape: 1 128 112 112 (1605632)
I0209 01:52:52.754190 14948 net.cpp:156] Memory required for data: 81084428
I0209 01:52:52.754194 14948 layer_factory.hpp:77] Creating layer rgb_pool2
I0209 01:52:52.754204 14948 net.cpp:91] Creating Layer rgb_pool2
I0209 01:52:52.754209 14948 net.cpp:425] rgb_pool2 <- conv2_2
I0209 01:52:52.754215 14948 net.cpp:399] rgb_pool2 -> rgb_pool2
I0209 01:52:52.754252 14948 net.cpp:141] Setting up rgb_pool2
I0209 01:52:52.754261 14948 net.cpp:148] Top shape: 1 128 56 56 (401408)
I0209 01:52:52.754266 14948 net.cpp:156] Memory required for data: 82690060
I0209 01:52:52.754271 14948 layer_factory.hpp:77] Creating layer conv3_1
I0209 01:52:52.754282 14948 net.cpp:91] Creating Layer conv3_1
I0209 01:52:52.754288 14948 net.cpp:425] conv3_1 <- rgb_pool2
I0209 01:52:52.754295 14948 net.cpp:399] conv3_1 -> conv3_1
I0209 01:52:52.756412 14948 net.cpp:141] Setting up conv3_1
I0209 01:52:52.756438 14948 net.cpp:148] Top shape: 1 256 56 56 (802816)
I0209 01:52:52.756446 14948 net.cpp:156] Memory required for data: 85901324
I0209 01:52:52.756463 14948 layer_factory.hpp:77] Creating layer relu3_1
I0209 01:52:52.756474 14948 net.cpp:91] Creating Layer relu3_1
I0209 01:52:52.756481 14948 net.cpp:425] relu3_1 <- conv3_1
I0209 01:52:52.756491 14948 net.cpp:386] relu3_1 -> conv3_1 (in-place)
I0209 01:52:52.756501 14948 net.cpp:141] Setting up relu3_1
I0209 01:52:52.756511 14948 net.cpp:148] Top shape: 1 256 56 56 (802816)
I0209 01:52:52.756518 14948 net.cpp:156] Memory required for data: 89112588
I0209 01:52:52.756526 14948 layer_factory.hpp:77] Creating layer conv3_2
I0209 01:52:52.756539 14948 net.cpp:91] Creating Layer conv3_2
I0209 01:52:52.756546 14948 net.cpp:425] conv3_2 <- conv3_1
I0209 01:52:52.756556 14948 net.cpp:399] conv3_2 -> conv3_2
I0209 01:52:52.760329 14948 net.cpp:141] Setting up conv3_2
I0209 01:52:52.760360 14948 net.cpp:148] Top shape: 1 256 56 56 (802816)
I0209 01:52:52.760366 14948 net.cpp:156] Memory required for data: 92323852
I0209 01:52:52.760377 14948 layer_factory.hpp:77] Creating layer relu3_2
I0209 01:52:52.760388 14948 net.cpp:91] Creating Layer relu3_2
I0209 01:52:52.760396 14948 net.cpp:425] relu3_2 <- conv3_2
I0209 01:52:52.760401 14948 net.cpp:386] relu3_2 -> conv3_2 (in-place)
I0209 01:52:52.760411 14948 net.cpp:141] Setting up relu3_2
I0209 01:52:52.760419 14948 net.cpp:148] Top shape: 1 256 56 56 (802816)
I0209 01:52:52.760423 14948 net.cpp:156] Memory required for data: 95535116
I0209 01:52:52.760429 14948 layer_factory.hpp:77] Creating layer conv3_3
I0209 01:52:52.760442 14948 net.cpp:91] Creating Layer conv3_3
I0209 01:52:52.760447 14948 net.cpp:425] conv3_3 <- conv3_2
I0209 01:52:52.760453 14948 net.cpp:399] conv3_3 -> conv3_3
I0209 01:52:52.763640 14948 net.cpp:141] Setting up conv3_3
I0209 01:52:52.763654 14948 net.cpp:148] Top shape: 1 256 56 56 (802816)
I0209 01:52:52.763659 14948 net.cpp:156] Memory required for data: 98746380
I0209 01:52:52.763666 14948 layer_factory.hpp:77] Creating layer relu3_3
I0209 01:52:52.763674 14948 net.cpp:91] Creating Layer relu3_3
I0209 01:52:52.763679 14948 net.cpp:425] relu3_3 <- conv3_3
I0209 01:52:52.763684 14948 net.cpp:386] relu3_3 -> conv3_3 (in-place)
I0209 01:52:52.763691 14948 net.cpp:141] Setting up relu3_3
I0209 01:52:52.763696 14948 net.cpp:148] Top shape: 1 256 56 56 (802816)
I0209 01:52:52.763701 14948 net.cpp:156] Memory required for data: 101957644
I0209 01:52:52.763705 14948 layer_factory.hpp:77] Creating layer rgb_pool3
I0209 01:52:52.763722 14948 net.cpp:91] Creating Layer rgb_pool3
I0209 01:52:52.763736 14948 net.cpp:425] rgb_pool3 <- conv3_3
I0209 01:52:52.763741 14948 net.cpp:399] rgb_pool3 -> rgb_pool3
I0209 01:52:52.763777 14948 net.cpp:141] Setting up rgb_pool3
I0209 01:52:52.763782 14948 net.cpp:148] Top shape: 1 256 28 28 (200704)
I0209 01:52:52.763787 14948 net.cpp:156] Memory required for data: 102760460
I0209 01:52:52.763790 14948 layer_factory.hpp:77] Creating layer conv4_1
I0209 01:52:52.763798 14948 net.cpp:91] Creating Layer conv4_1
I0209 01:52:52.763803 14948 net.cpp:425] conv4_1 <- rgb_pool3
I0209 01:52:52.763809 14948 net.cpp:399] conv4_1 -> conv4_1
I0209 01:52:52.769642 14948 net.cpp:141] Setting up conv4_1
I0209 01:52:52.769667 14948 net.cpp:148] Top shape: 1 512 28 28 (401408)
I0209 01:52:52.769671 14948 net.cpp:156] Memory required for data: 104366092
I0209 01:52:52.769677 14948 layer_factory.hpp:77] Creating layer relu4_1
I0209 01:52:52.769685 14948 net.cpp:91] Creating Layer relu4_1
I0209 01:52:52.769701 14948 net.cpp:425] relu4_1 <- conv4_1
I0209 01:52:52.769706 14948 net.cpp:386] relu4_1 -> conv4_1 (in-place)
I0209 01:52:52.769722 14948 net.cpp:141] Setting up relu4_1
I0209 01:52:52.769726 14948 net.cpp:148] Top shape: 1 512 28 28 (401408)
I0209 01:52:52.769731 14948 net.cpp:156] Memory required for data: 105971724
I0209 01:52:52.769748 14948 layer_factory.hpp:77] Creating layer conv4_2
I0209 01:52:52.769767 14948 net.cpp:91] Creating Layer conv4_2
I0209 01:52:52.769770 14948 net.cpp:425] conv4_2 <- conv4_1
I0209 01:52:52.769776 14948 net.cpp:399] conv4_2 -> conv4_2
I0209 01:52:52.781054 14948 net.cpp:141] Setting up conv4_2
I0209 01:52:52.781080 14948 net.cpp:148] Top shape: 1 512 28 28 (401408)
I0209 01:52:52.781085 14948 net.cpp:156] Memory required for data: 107577356
I0209 01:52:52.781096 14948 layer_factory.hpp:77] Creating layer relu4_2
I0209 01:52:52.781105 14948 net.cpp:91] Creating Layer relu4_2
I0209 01:52:52.781111 14948 net.cpp:425] relu4_2 <- conv4_2
I0209 01:52:52.781117 14948 net.cpp:386] relu4_2 -> conv4_2 (in-place)
I0209 01:52:52.781124 14948 net.cpp:141] Setting up relu4_2
I0209 01:52:52.781129 14948 net.cpp:148] Top shape: 1 512 28 28 (401408)
I0209 01:52:52.781133 14948 net.cpp:156] Memory required for data: 109182988
I0209 01:52:52.781137 14948 layer_factory.hpp:77] Creating layer conv4_3
I0209 01:52:52.781147 14948 net.cpp:91] Creating Layer conv4_3
I0209 01:52:52.781150 14948 net.cpp:425] conv4_3 <- conv4_2
I0209 01:52:52.781157 14948 net.cpp:399] conv4_3 -> conv4_3
I0209 01:52:52.792932 14948 net.cpp:141] Setting up conv4_3
I0209 01:52:52.792986 14948 net.cpp:148] Top shape: 1 512 28 28 (401408)
I0209 01:52:52.792991 14948 net.cpp:156] Memory required for data: 110788620
I0209 01:52:52.793005 14948 layer_factory.hpp:77] Creating layer relu4_3
I0209 01:52:52.793020 14948 net.cpp:91] Creating Layer relu4_3
I0209 01:52:52.793025 14948 net.cpp:425] relu4_3 <- conv4_3
I0209 01:52:52.793031 14948 net.cpp:386] relu4_3 -> conv4_3 (in-place)
I0209 01:52:52.793053 14948 net.cpp:141] Setting up relu4_3
I0209 01:52:52.793058 14948 net.cpp:148] Top shape: 1 512 28 28 (401408)
I0209 01:52:52.793062 14948 net.cpp:156] Memory required for data: 112394252
I0209 01:52:52.793066 14948 layer_factory.hpp:77] Creating layer rgb_pool4
I0209 01:52:52.793077 14948 net.cpp:91] Creating Layer rgb_pool4
I0209 01:52:52.793082 14948 net.cpp:425] rgb_pool4 <- conv4_3
I0209 01:52:52.793088 14948 net.cpp:399] rgb_pool4 -> rgb_pool4
I0209 01:52:52.793128 14948 net.cpp:141] Setting up rgb_pool4
I0209 01:52:52.793143 14948 net.cpp:148] Top shape: 1 512 14 14 (100352)
I0209 01:52:52.793148 14948 net.cpp:156] Memory required for data: 112795660
I0209 01:52:52.793160 14948 layer_factory.hpp:77] Creating layer conv5_1
I0209 01:52:52.793171 14948 net.cpp:91] Creating Layer conv5_1
I0209 01:52:52.793176 14948 net.cpp:425] conv5_1 <- rgb_pool4
I0209 01:52:52.793181 14948 net.cpp:399] conv5_1 -> conv5_1
I0209 01:52:52.805455 14948 net.cpp:141] Setting up conv5_1
I0209 01:52:52.805487 14948 net.cpp:148] Top shape: 1 512 14 14 (100352)
I0209 01:52:52.805496 14948 net.cpp:156] Memory required for data: 113197068
I0209 01:52:52.805516 14948 layer_factory.hpp:77] Creating layer relu5_1
I0209 01:52:52.805529 14948 net.cpp:91] Creating Layer relu5_1
I0209 01:52:52.805536 14948 net.cpp:425] relu5_1 <- conv5_1
I0209 01:52:52.805543 14948 net.cpp:386] relu5_1 -> conv5_1 (in-place)
I0209 01:52:52.805562 14948 net.cpp:141] Setting up relu5_1
I0209 01:52:52.805579 14948 net.cpp:148] Top shape: 1 512 14 14 (100352)
I0209 01:52:52.805584 14948 net.cpp:156] Memory required for data: 113598476
I0209 01:52:52.805593 14948 layer_factory.hpp:77] Creating layer conv5_2
I0209 01:52:52.805603 14948 net.cpp:91] Creating Layer conv5_2
I0209 01:52:52.805608 14948 net.cpp:425] conv5_2 <- conv5_1
I0209 01:52:52.805625 14948 net.cpp:399] conv5_2 -> conv5_2
I0209 01:52:52.817458 14948 net.cpp:141] Setting up conv5_2
I0209 01:52:52.817487 14948 net.cpp:148] Top shape: 1 512 14 14 (100352)
I0209 01:52:52.817492 14948 net.cpp:156] Memory required for data: 113999884
I0209 01:52:52.817502 14948 layer_factory.hpp:77] Creating layer relu5_2
I0209 01:52:52.817539 14948 net.cpp:91] Creating Layer relu5_2
I0209 01:52:52.817548 14948 net.cpp:425] relu5_2 <- conv5_2
I0209 01:52:52.817556 14948 net.cpp:386] relu5_2 -> conv5_2 (in-place)
I0209 01:52:52.817574 14948 net.cpp:141] Setting up relu5_2
I0209 01:52:52.817581 14948 net.cpp:148] Top shape: 1 512 14 14 (100352)
I0209 01:52:52.817595 14948 net.cpp:156] Memory required for data: 114401292
I0209 01:52:52.817600 14948 layer_factory.hpp:77] Creating layer conv5_3
I0209 01:52:52.817631 14948 net.cpp:91] Creating Layer conv5_3
I0209 01:52:52.817636 14948 net.cpp:425] conv5_3 <- conv5_2
I0209 01:52:52.817641 14948 net.cpp:399] conv5_3 -> conv5_3
I0209 01:52:52.829008 14948 net.cpp:141] Setting up conv5_3
I0209 01:52:52.829066 14948 net.cpp:148] Top shape: 1 512 14 14 (100352)
I0209 01:52:52.829077 14948 net.cpp:156] Memory required for data: 114802700
I0209 01:52:52.829105 14948 layer_factory.hpp:77] Creating layer relu5_3
I0209 01:52:52.829131 14948 net.cpp:91] Creating Layer relu5_3
I0209 01:52:52.829141 14948 net.cpp:425] relu5_3 <- conv5_3
I0209 01:52:52.829162 14948 net.cpp:386] relu5_3 -> conv5_3 (in-place)
I0209 01:52:52.829175 14948 net.cpp:141] Setting up relu5_3
I0209 01:52:52.829185 14948 net.cpp:148] Top shape: 1 512 14 14 (100352)
I0209 01:52:52.829191 14948 net.cpp:156] Memory required for data: 115204108
I0209 01:52:52.829197 14948 layer_factory.hpp:77] Creating layer rgb_pool5
I0209 01:52:52.829218 14948 net.cpp:91] Creating Layer rgb_pool5
I0209 01:52:52.829226 14948 net.cpp:425] rgb_pool5 <- conv5_3
I0209 01:52:52.829236 14948 net.cpp:399] rgb_pool5 -> rgb_pool5
I0209 01:52:52.829327 14948 net.cpp:141] Setting up rgb_pool5
I0209 01:52:52.829349 14948 net.cpp:148] Top shape: 1 512 7 7 (25088)
I0209 01:52:52.829355 14948 net.cpp:156] Memory required for data: 115304460
I0209 01:52:52.829368 14948 layer_factory.hpp:77] Creating layer rgb_fc6
I0209 01:52:52.829390 14948 net.cpp:91] Creating Layer rgb_fc6
I0209 01:52:52.829397 14948 net.cpp:425] rgb_fc6 <- rgb_pool5
I0209 01:52:52.829406 14948 net.cpp:399] rgb_fc6 -> rgb_fc6
I0209 01:52:53.307788 14948 net.cpp:141] Setting up rgb_fc6
I0209 01:52:53.307818 14948 net.cpp:148] Top shape: 1 4096 (4096)
I0209 01:52:53.307824 14948 net.cpp:156] Memory required for data: 115320844
I0209 01:52:53.307835 14948 layer_factory.hpp:77] Creating layer rgb_relu6
I0209 01:52:53.307858 14948 net.cpp:91] Creating Layer rgb_relu6
I0209 01:52:53.307874 14948 net.cpp:425] rgb_relu6 <- rgb_fc6
I0209 01:52:53.307890 14948 net.cpp:386] rgb_relu6 -> rgb_fc6 (in-place)
I0209 01:52:53.307911 14948 net.cpp:141] Setting up rgb_relu6
I0209 01:52:53.307917 14948 net.cpp:148] Top shape: 1 4096 (4096)
I0209 01:52:53.307931 14948 net.cpp:156] Memory required for data: 115337228
I0209 01:52:53.307935 14948 layer_factory.hpp:77] Creating layer rgb_drop6
I0209 01:52:53.307955 14948 net.cpp:91] Creating Layer rgb_drop6
I0209 01:52:53.307968 14948 net.cpp:425] rgb_drop6 <- rgb_fc6
I0209 01:52:53.307973 14948 net.cpp:386] rgb_drop6 -> rgb_fc6 (in-place)
I0209 01:52:53.308015 14948 net.cpp:141] Setting up rgb_drop6
I0209 01:52:53.308030 14948 net.cpp:148] Top shape: 1 4096 (4096)
I0209 01:52:53.308034 14948 net.cpp:156] Memory required for data: 115353612
I0209 01:52:53.308048 14948 layer_factory.hpp:77] Creating layer rgb_fc7
I0209 01:52:53.308055 14948 net.cpp:91] Creating Layer rgb_fc7
I0209 01:52:53.308068 14948 net.cpp:425] rgb_fc7 <- rgb_fc6
I0209 01:52:53.308086 14948 net.cpp:399] rgb_fc7 -> rgb_fc7
I0209 01:52:53.388146 14948 net.cpp:141] Setting up rgb_fc7
I0209 01:52:53.388193 14948 net.cpp:148] Top shape: 1 4096 (4096)
I0209 01:52:53.388201 14948 net.cpp:156] Memory required for data: 115369996
I0209 01:52:53.388217 14948 layer_factory.hpp:77] Creating layer rgb_relu7
I0209 01:52:53.388240 14948 net.cpp:91] Creating Layer rgb_relu7
I0209 01:52:53.388259 14948 net.cpp:425] rgb_relu7 <- rgb_fc7
I0209 01:52:53.388270 14948 net.cpp:386] rgb_relu7 -> rgb_fc7 (in-place)
I0209 01:52:53.388283 14948 net.cpp:141] Setting up rgb_relu7
I0209 01:52:53.388289 14948 net.cpp:148] Top shape: 1 4096 (4096)
I0209 01:52:53.388294 14948 net.cpp:156] Memory required for data: 115386380
I0209 01:52:53.388301 14948 layer_factory.hpp:77] Creating layer rgb_drop7
I0209 01:52:53.388311 14948 net.cpp:91] Creating Layer rgb_drop7
I0209 01:52:53.388317 14948 net.cpp:425] rgb_drop7 <- rgb_fc7
I0209 01:52:53.388324 14948 net.cpp:386] rgb_drop7 -> rgb_fc7 (in-place)
I0209 01:52:53.388366 14948 net.cpp:141] Setting up rgb_drop7
I0209 01:52:53.388381 14948 net.cpp:148] Top shape: 1 4096 (4096)
I0209 01:52:53.388386 14948 net.cpp:156] Memory required for data: 115402764
I0209 01:52:53.388389 14948 layer_factory.hpp:77] Creating layer conv1
I0209 01:52:53.388409 14948 net.cpp:91] Creating Layer conv1
I0209 01:52:53.388425 14948 net.cpp:425] conv1 <- depth
I0209 01:52:53.388432 14948 net.cpp:399] conv1 -> conv1
I0209 01:52:53.388669 14948 net.cpp:141] Setting up conv1
I0209 01:52:53.388687 14948 net.cpp:148] Top shape: 1 128 112 112 (1605632)
I0209 01:52:53.388691 14948 net.cpp:156] Memory required for data: 121825292
I0209 01:52:53.388698 14948 layer_factory.hpp:77] Creating layer relu1
I0209 01:52:53.388716 14948 net.cpp:91] Creating Layer relu1
I0209 01:52:53.388721 14948 net.cpp:425] relu1 <- conv1
I0209 01:52:53.388727 14948 net.cpp:386] relu1 -> conv1 (in-place)
I0209 01:52:53.388734 14948 net.cpp:141] Setting up relu1
I0209 01:52:53.388741 14948 net.cpp:148] Top shape: 1 128 112 112 (1605632)
I0209 01:52:53.388744 14948 net.cpp:156] Memory required for data: 128247820
I0209 01:52:53.388749 14948 layer_factory.hpp:77] Creating layer depth_pool1
I0209 01:52:53.388758 14948 net.cpp:91] Creating Layer depth_pool1
I0209 01:52:53.388762 14948 net.cpp:425] depth_pool1 <- conv1
I0209 01:52:53.388777 14948 net.cpp:399] depth_pool1 -> depth_pool1
I0209 01:52:53.388831 14948 net.cpp:141] Setting up depth_pool1
I0209 01:52:53.388839 14948 net.cpp:148] Top shape: 1 128 56 56 (401408)
I0209 01:52:53.388844 14948 net.cpp:156] Memory required for data: 129853452
I0209 01:52:53.388849 14948 layer_factory.hpp:77] Creating layer norm1
I0209 01:52:53.388855 14948 net.cpp:91] Creating Layer norm1
I0209 01:52:53.388860 14948 net.cpp:425] norm1 <- depth_pool1
I0209 01:52:53.388866 14948 net.cpp:399] norm1 -> norm1
I0209 01:52:53.388903 14948 net.cpp:141] Setting up norm1
I0209 01:52:53.388908 14948 net.cpp:148] Top shape: 1 128 56 56 (401408)
I0209 01:52:53.388912 14948 net.cpp:156] Memory required for data: 131459084
I0209 01:52:53.388926 14948 layer_factory.hpp:77] Creating layer conv2
I0209 01:52:53.388936 14948 net.cpp:91] Creating Layer conv2
I0209 01:52:53.388939 14948 net.cpp:425] conv2 <- norm1
I0209 01:52:53.388945 14948 net.cpp:399] conv2 -> conv2
I0209 01:52:53.393076 14948 net.cpp:141] Setting up conv2
I0209 01:52:53.393091 14948 net.cpp:148] Top shape: 1 256 56 56 (802816)
I0209 01:52:53.393106 14948 net.cpp:156] Memory required for data: 134670348
I0209 01:52:53.393117 14948 layer_factory.hpp:77] Creating layer relu2
I0209 01:52:53.393124 14948 net.cpp:91] Creating Layer relu2
I0209 01:52:53.393128 14948 net.cpp:425] relu2 <- conv2
I0209 01:52:53.393134 14948 net.cpp:386] relu2 -> conv2 (in-place)
I0209 01:52:53.393141 14948 net.cpp:141] Setting up relu2
I0209 01:52:53.393146 14948 net.cpp:148] Top shape: 1 256 56 56 (802816)
I0209 01:52:53.393160 14948 net.cpp:156] Memory required for data: 137881612
I0209 01:52:53.393164 14948 layer_factory.hpp:77] Creating layer depth_pool2
I0209 01:52:53.393170 14948 net.cpp:91] Creating Layer depth_pool2
I0209 01:52:53.393184 14948 net.cpp:425] depth_pool2 <- conv2
I0209 01:52:53.393189 14948 net.cpp:399] depth_pool2 -> depth_pool2
I0209 01:52:53.393224 14948 net.cpp:141] Setting up depth_pool2
I0209 01:52:53.393230 14948 net.cpp:148] Top shape: 1 256 28 28 (200704)
I0209 01:52:53.393234 14948 net.cpp:156] Memory required for data: 138684428
I0209 01:52:53.393239 14948 layer_factory.hpp:77] Creating layer norm2
I0209 01:52:53.393245 14948 net.cpp:91] Creating Layer norm2
I0209 01:52:53.393259 14948 net.cpp:425] norm2 <- depth_pool2
I0209 01:52:53.393265 14948 net.cpp:399] norm2 -> norm2
I0209 01:52:53.393285 14948 net.cpp:141] Setting up norm2
I0209 01:52:53.393290 14948 net.cpp:148] Top shape: 1 256 28 28 (200704)
I0209 01:52:53.393296 14948 net.cpp:156] Memory required for data: 139487244
I0209 01:52:53.393299 14948 layer_factory.hpp:77] Creating layer conv3
I0209 01:52:53.393306 14948 net.cpp:91] Creating Layer conv3
I0209 01:52:53.393311 14948 net.cpp:425] conv3 <- norm2
I0209 01:52:53.393316 14948 net.cpp:399] conv3 -> conv3
I0209 01:52:53.395558 14948 net.cpp:141] Setting up conv3
I0209 01:52:53.395570 14948 net.cpp:148] Top shape: 1 384 28 28 (301056)
I0209 01:52:53.395575 14948 net.cpp:156] Memory required for data: 140691468
I0209 01:52:53.395581 14948 layer_factory.hpp:77] Creating layer relu3
I0209 01:52:53.395588 14948 net.cpp:91] Creating Layer relu3
I0209 01:52:53.395592 14948 net.cpp:425] relu3 <- conv3
I0209 01:52:53.395598 14948 net.cpp:386] relu3 -> conv3 (in-place)
I0209 01:52:53.395604 14948 net.cpp:141] Setting up relu3
I0209 01:52:53.395609 14948 net.cpp:148] Top shape: 1 384 28 28 (301056)
I0209 01:52:53.395613 14948 net.cpp:156] Memory required for data: 141895692
I0209 01:52:53.395617 14948 layer_factory.hpp:77] Creating layer depth_pool3
I0209 01:52:53.395623 14948 net.cpp:91] Creating Layer depth_pool3
I0209 01:52:53.395627 14948 net.cpp:425] depth_pool3 <- conv3
I0209 01:52:53.395633 14948 net.cpp:399] depth_pool3 -> depth_pool3
I0209 01:52:53.395659 14948 net.cpp:141] Setting up depth_pool3
I0209 01:52:53.395665 14948 net.cpp:148] Top shape: 1 384 14 14 (75264)
I0209 01:52:53.395669 14948 net.cpp:156] Memory required for data: 142196748
I0209 01:52:53.395673 14948 layer_factory.hpp:77] Creating layer conv4
I0209 01:52:53.395680 14948 net.cpp:91] Creating Layer conv4
I0209 01:52:53.395684 14948 net.cpp:425] conv4 <- depth_pool3
I0209 01:52:53.395690 14948 net.cpp:399] conv4 -> conv4
I0209 01:52:53.404253 14948 net.cpp:141] Setting up conv4
I0209 01:52:53.404280 14948 net.cpp:148] Top shape: 1 512 14 14 (100352)
I0209 01:52:53.404285 14948 net.cpp:156] Memory required for data: 142598156
I0209 01:52:53.404294 14948 layer_factory.hpp:77] Creating layer relu4
I0209 01:52:53.404314 14948 net.cpp:91] Creating Layer relu4
I0209 01:52:53.404320 14948 net.cpp:425] relu4 <- conv4
I0209 01:52:53.404335 14948 net.cpp:386] relu4 -> conv4 (in-place)
I0209 01:52:53.404353 14948 net.cpp:141] Setting up relu4
I0209 01:52:53.404357 14948 net.cpp:148] Top shape: 1 512 14 14 (100352)
I0209 01:52:53.404371 14948 net.cpp:156] Memory required for data: 142999564
I0209 01:52:53.404376 14948 layer_factory.hpp:77] Creating layer conv5
I0209 01:52:53.404393 14948 net.cpp:91] Creating Layer conv5
I0209 01:52:53.404397 14948 net.cpp:425] conv5 <- conv4
I0209 01:52:53.404414 14948 net.cpp:399] conv5 -> conv5
I0209 01:52:53.415685 14948 net.cpp:141] Setting up conv5
I0209 01:52:53.415719 14948 net.cpp:148] Top shape: 1 512 14 14 (100352)
I0209 01:52:53.415735 14948 net.cpp:156] Memory required for data: 143400972
I0209 01:52:53.415745 14948 layer_factory.hpp:77] Creating layer relu5
I0209 01:52:53.415765 14948 net.cpp:91] Creating Layer relu5
I0209 01:52:53.415769 14948 net.cpp:425] relu5 <- conv5
I0209 01:52:53.415776 14948 net.cpp:386] relu5 -> conv5 (in-place)
I0209 01:52:53.415784 14948 net.cpp:141] Setting up relu5
I0209 01:52:53.415789 14948 net.cpp:148] Top shape: 1 512 14 14 (100352)
I0209 01:52:53.415796 14948 net.cpp:156] Memory required for data: 143802380
I0209 01:52:53.415799 14948 layer_factory.hpp:77] Creating layer depth_pool5
I0209 01:52:53.415817 14948 net.cpp:91] Creating Layer depth_pool5
I0209 01:52:53.415819 14948 net.cpp:425] depth_pool5 <- conv5
I0209 01:52:53.415824 14948 net.cpp:399] depth_pool5 -> depth_pool5
I0209 01:52:53.415874 14948 net.cpp:141] Setting up depth_pool5
I0209 01:52:53.415879 14948 net.cpp:148] Top shape: 1 512 7 7 (25088)
I0209 01:52:53.415892 14948 net.cpp:156] Memory required for data: 143902732
I0209 01:52:53.415897 14948 layer_factory.hpp:77] Creating layer depth_fc6
I0209 01:52:53.415913 14948 net.cpp:91] Creating Layer depth_fc6
I0209 01:52:53.415931 14948 net.cpp:425] depth_fc6 <- depth_pool5
I0209 01:52:53.415937 14948 net.cpp:399] depth_fc6 -> depth_fc6
I0209 01:52:53.895623 14948 net.cpp:141] Setting up depth_fc6
I0209 01:52:53.895654 14948 net.cpp:148] Top shape: 1 4096 (4096)
I0209 01:52:53.895660 14948 net.cpp:156] Memory required for data: 143919116
I0209 01:52:53.895671 14948 layer_factory.hpp:77] Creating layer depth_relu6
I0209 01:52:53.895694 14948 net.cpp:91] Creating Layer depth_relu6
I0209 01:52:53.895710 14948 net.cpp:425] depth_relu6 <- depth_fc6
I0209 01:52:53.895727 14948 net.cpp:386] depth_relu6 -> depth_fc6 (in-place)
I0209 01:52:53.895737 14948 net.cpp:141] Setting up depth_relu6
I0209 01:52:53.895743 14948 net.cpp:148] Top shape: 1 4096 (4096)
I0209 01:52:53.895748 14948 net.cpp:156] Memory required for data: 143935500
I0209 01:52:53.895753 14948 layer_factory.hpp:77] Creating layer depth_drop6
I0209 01:52:53.895761 14948 net.cpp:91] Creating Layer depth_drop6
I0209 01:52:53.895766 14948 net.cpp:425] depth_drop6 <- depth_fc6
I0209 01:52:53.895782 14948 net.cpp:386] depth_drop6 -> depth_fc6 (in-place)
I0209 01:52:53.895825 14948 net.cpp:141] Setting up depth_drop6
I0209 01:52:53.895831 14948 net.cpp:148] Top shape: 1 4096 (4096)
I0209 01:52:53.895849 14948 net.cpp:156] Memory required for data: 143951884
I0209 01:52:53.895853 14948 layer_factory.hpp:77] Creating layer depth_fc7
I0209 01:52:53.895869 14948 net.cpp:91] Creating Layer depth_fc7
I0209 01:52:53.895874 14948 net.cpp:425] depth_fc7 <- depth_fc6
I0209 01:52:53.895889 14948 net.cpp:399] depth_fc7 -> depth_fc7
I0209 01:52:53.974858 14948 net.cpp:141] Setting up depth_fc7
I0209 01:52:53.974934 14948 net.cpp:148] Top shape: 1 4096 (4096)
I0209 01:52:53.974948 14948 net.cpp:156] Memory required for data: 143968268
I0209 01:52:53.974969 14948 layer_factory.hpp:77] Creating layer depth_relu7
I0209 01:52:53.974998 14948 net.cpp:91] Creating Layer depth_relu7
I0209 01:52:53.975011 14948 net.cpp:425] depth_relu7 <- depth_fc7
I0209 01:52:53.975033 14948 net.cpp:386] depth_relu7 -> depth_fc7 (in-place)
I0209 01:52:53.975049 14948 net.cpp:141] Setting up depth_relu7
I0209 01:52:53.975059 14948 net.cpp:148] Top shape: 1 4096 (4096)
I0209 01:52:53.975065 14948 net.cpp:156] Memory required for data: 143984652
I0209 01:52:53.975073 14948 layer_factory.hpp:77] Creating layer depth_drop7
I0209 01:52:53.975085 14948 net.cpp:91] Creating Layer depth_drop7
I0209 01:52:53.975091 14948 net.cpp:425] depth_drop7 <- depth_fc7
I0209 01:52:53.975098 14948 net.cpp:386] depth_drop7 -> depth_fc7 (in-place)
I0209 01:52:53.975167 14948 net.cpp:141] Setting up depth_drop7
I0209 01:52:53.975185 14948 net.cpp:148] Top shape: 1 4096 (4096)
I0209 01:52:53.975190 14948 net.cpp:156] Memory required for data: 144001036
I0209 01:52:53.975194 14948 layer_factory.hpp:77] Creating layer concat
I0209 01:52:53.975214 14948 net.cpp:91] Creating Layer concat
I0209 01:52:53.975220 14948 net.cpp:425] concat <- rgb_fc7
I0209 01:52:53.975230 14948 net.cpp:425] concat <- depth_fc7
I0209 01:52:53.975237 14948 net.cpp:399] concat -> concat
I0209 01:52:53.975301 14948 net.cpp:141] Setting up concat
I0209 01:52:53.975307 14948 net.cpp:148] Top shape: 1 8192 (8192)
I0209 01:52:53.975322 14948 net.cpp:156] Memory required for data: 144033804
I0209 01:52:53.975327 14948 layer_factory.hpp:77] Creating layer fuse_fc1
I0209 01:52:53.975347 14948 net.cpp:91] Creating Layer fuse_fc1
I0209 01:52:53.975353 14948 net.cpp:425] fuse_fc1 <- concat
I0209 01:52:53.975368 14948 net.cpp:399] fuse_fc1 -> fuse_fc1
I0209 01:52:54.016680 14948 net.cpp:141] Setting up fuse_fc1
I0209 01:52:54.016732 14948 net.cpp:148] Top shape: 1 1024 (1024)
I0209 01:52:54.016737 14948 net.cpp:156] Memory required for data: 144037900
I0209 01:52:54.016746 14948 layer_factory.hpp:77] Creating layer fuse_relu1
I0209 01:52:54.016767 14948 net.cpp:91] Creating Layer fuse_relu1
I0209 01:52:54.016784 14948 net.cpp:425] fuse_relu1 <- fuse_fc1
I0209 01:52:54.016791 14948 net.cpp:386] fuse_relu1 -> fuse_fc1 (in-place)
I0209 01:52:54.016800 14948 net.cpp:141] Setting up fuse_relu1
I0209 01:52:54.016806 14948 net.cpp:148] Top shape: 1 1024 (1024)
I0209 01:52:54.016809 14948 net.cpp:156] Memory required for data: 144041996
I0209 01:52:54.016813 14948 layer_factory.hpp:77] Creating layer fuse_drop1
I0209 01:52:54.016827 14948 net.cpp:91] Creating Layer fuse_drop1
I0209 01:52:54.016831 14948 net.cpp:425] fuse_drop1 <- fuse_fc1
I0209 01:52:54.016845 14948 net.cpp:386] fuse_drop1 -> fuse_fc1 (in-place)
I0209 01:52:54.016907 14948 net.cpp:141] Setting up fuse_drop1
I0209 01:52:54.016922 14948 net.cpp:148] Top shape: 1 1024 (1024)
I0209 01:52:54.016927 14948 net.cpp:156] Memory required for data: 144046092
I0209 01:52:54.016930 14948 layer_factory.hpp:77] Creating layer fuse_fc2
I0209 01:52:54.016950 14948 net.cpp:91] Creating Layer fuse_fc2
I0209 01:52:54.016954 14948 net.cpp:425] fuse_fc2 <- fuse_fc1
I0209 01:52:54.016962 14948 net.cpp:399] fuse_fc2 -> fuse_fc2
I0209 01:52:54.023037 14948 net.cpp:141] Setting up fuse_fc2
I0209 01:52:54.023084 14948 net.cpp:148] Top shape: 1 1024 (1024)
I0209 01:52:54.023097 14948 net.cpp:156] Memory required for data: 144050188
I0209 01:52:54.023120 14948 layer_factory.hpp:77] Creating layer fuse_relu2
I0209 01:52:54.023134 14948 net.cpp:91] Creating Layer fuse_relu2
I0209 01:52:54.023152 14948 net.cpp:425] fuse_relu2 <- fuse_fc2
I0209 01:52:54.023170 14948 net.cpp:386] fuse_relu2 -> fuse_fc2 (in-place)
I0209 01:52:54.023182 14948 net.cpp:141] Setting up fuse_relu2
I0209 01:52:54.023197 14948 net.cpp:148] Top shape: 1 1024 (1024)
I0209 01:52:54.023201 14948 net.cpp:156] Memory required for data: 144054284
I0209 01:52:54.023216 14948 layer_factory.hpp:77] Creating layer fuse_drop2
I0209 01:52:54.023226 14948 net.cpp:91] Creating Layer fuse_drop2
I0209 01:52:54.023229 14948 net.cpp:425] fuse_drop2 <- fuse_fc2
I0209 01:52:54.023237 14948 net.cpp:386] fuse_drop2 -> fuse_fc2 (in-place)
I0209 01:52:54.023279 14948 net.cpp:141] Setting up fuse_drop2
I0209 01:52:54.023288 14948 net.cpp:148] Top shape: 1 1024 (1024)
I0209 01:52:54.023301 14948 net.cpp:156] Memory required for data: 144058380
I0209 01:52:54.023308 14948 layer_factory.hpp:77] Creating layer rgbd_fc8
I0209 01:52:54.023317 14948 net.cpp:91] Creating Layer rgbd_fc8
I0209 01:52:54.023324 14948 net.cpp:425] rgbd_fc8 <- fuse_fc2
I0209 01:52:54.023331 14948 net.cpp:399] rgbd_fc8 -> rgbd_fc8
I0209 01:52:54.023488 14948 net.cpp:141] Setting up rgbd_fc8
I0209 01:52:54.023496 14948 net.cpp:148] Top shape: 1 11 (11)
I0209 01:52:54.023509 14948 net.cpp:156] Memory required for data: 144058424
I0209 01:52:54.023517 14948 layer_factory.hpp:77] Creating layer rgbd_fc8_rgbd_fc8_0_split
I0209 01:52:54.023524 14948 net.cpp:91] Creating Layer rgbd_fc8_rgbd_fc8_0_split
I0209 01:52:54.023528 14948 net.cpp:425] rgbd_fc8_rgbd_fc8_0_split <- rgbd_fc8
I0209 01:52:54.023533 14948 net.cpp:399] rgbd_fc8_rgbd_fc8_0_split -> rgbd_fc8_rgbd_fc8_0_split_0
I0209 01:52:54.023541 14948 net.cpp:399] rgbd_fc8_rgbd_fc8_0_split -> rgbd_fc8_rgbd_fc8_0_split_1
I0209 01:52:54.023567 14948 net.cpp:141] Setting up rgbd_fc8_rgbd_fc8_0_split
I0209 01:52:54.023573 14948 net.cpp:148] Top shape: 1 11 (11)
I0209 01:52:54.023578 14948 net.cpp:148] Top shape: 1 11 (11)
I0209 01:52:54.023582 14948 net.cpp:156] Memory required for data: 144058512
I0209 01:52:54.023586 14948 layer_factory.hpp:77] Creating layer rgbd_accuracy
I0209 01:52:54.023593 14948 net.cpp:91] Creating Layer rgbd_accuracy
I0209 01:52:54.023597 14948 net.cpp:425] rgbd_accuracy <- rgbd_fc8_rgbd_fc8_0_split_0
I0209 01:52:54.023603 14948 net.cpp:425] rgbd_accuracy <- label_data_2_split_0
…
