…
I0131 01:10:56.014106 25291 net.cpp:49] Initializing net from parameters: 
state {
  phase: TRAIN
}
layer {
  name: "data"
  type: "Python"
  top: "rgb"
  top: "depth"
  top: "label"
  python_param {
    module: "data_layers.washington_data_layer"
    layer: "WashingtonDataLayer"
    param_str: "{\'img_size\': (224, 224), \'split\': \'train\', \'dataset_dir\': \'/home/kevin/dataset/washington_rgbd_dataset\', \'randomize\': True, \'mean\': (104.00698793, 116.66876762, 122.67891434), \'seed\': 1337, \'batch_size\': 32, \'crop_size\': (224, 224, 224, 224)}"
  }
}
layer {
  name: "conv1_1"
  type: "Convolution"
  bottom: "rgb"
  top: "conv1_1"
  param {
    name: "conv1_1_w"
    lr_mult: 0
    decay_mult: 1
  }
  param {
    name: "conv1_1_b"
    lr_mult: 0
    decay_mult: 0
  }
  convolution_param {
    num_output: 64
    pad: 1
    kernel_size: 3
    group: 1
    stride: 1
    weight_filler {
      type: "xavier"
    }
  }
}
layer {
  name: "relu1_1"
  type: "ReLU"
  bottom: "conv1_1"
  top: "conv1_1"
}
layer {
  name: "conv1_2"
  type: "Convolution"
  bottom: "conv1_1"
  top: "conv1_2"
  param {
    name: "conv1_2_w"
    lr_mult: 0
    decay_mult: 1
  }
  param {
    name: "conv1_2_b"
    lr_mult: 0
    decay_mult: 0
  }
  convolution_param {
    num_output: 64
    pad: 1
    kernel_size: 3
    group: 1
    stride: 1
    weight_filler {
      type: "xavier"
    }
  }
}
layer {
  name: "relu1_2"
  type: "ReLU"
  bottom: "conv1_2"
  top: "conv1_2"
}
layer {
  name: "rgb_pool1"
  type: "Pooling"
  bottom: "conv1_2"
  top: "rgb_pool1"
  pooling_param {
    pool: MAX
    kernel_size: 2
    stride: 2
  }
}
layer {
  name: "conv2_1"
  type: "Convolution"
  bottom: "rgb_pool1"
  top: "conv2_1"
  param {
    name: "conv2_1_w"
    lr_mult: 0
    decay_mult: 1
  }
  param {
    name: "conv2_1_b"
    lr_mult: 0
    decay_mult: 0
  }
  convolution_param {
    num_output: 128
    pad: 1
    kernel_size: 3
    group: 1
    stride: 1
    weight_filler {
      type: "xavier"
    }
  }
}
layer {
  name: "relu2_1"
  type: "ReLU"
  bottom: "conv2_1"
  top: "conv2_1"
}
layer {
  name: "conv2_2"
  type: "Convolution"
  bottom: "conv2_1"
  top: "conv2_2"
  param {
    name: "conv2_2_w"
    lr_mult: 0
    decay_mult: 1
  }
  param {
    name: "conv2_2_b"
    lr_mult: 0
    decay_mult: 0
  }
  convolution_param {
    num_output: 128
    pad: 1
    kernel_size: 3
    group: 1
    stride: 1
    weight_filler {
      type: "xavier"
    }
  }
}
layer {
  name: "relu2_2"
  type: "ReLU"
  bottom: "conv2_2"
  top: "conv2_2"
}
layer {
  name: "rgb_pool2"
  type: "Pooling"
  bottom: "conv2_2"
  top: "rgb_pool2"
  pooling_param {
    pool: MAX
    kernel_size: 2
    stride: 2
  }
}
layer {
  name: "conv3_1"
  type: "Convolution"
  bottom: "rgb_pool2"
  top: "conv3_1"
  param {
    name: "conv3_1_w"
    lr_mult: 0
    decay_mult: 1
  }
  param {
    name: "conv3_1_b"
    lr_mult: 0
    decay_mult: 0
  }
  convolution_param {
    num_output: 256
    pad: 1
    kernel_size: 3
    group: 1
    stride: 1
    weight_filler {
      type: "xavier"
    }
  }
}
layer {
  name: "relu3_1"
  type: "ReLU"
  bottom: "conv3_1"
  top: "conv3_1"
}
layer {
  name: "conv3_2"
  type: "Convolution"
  bottom: "conv3_1"
  top: "conv3_2"
  param {
    name: "conv3_2_w"
    lr_mult: 0
    decay_mult: 1
  }
  param {
    name: "conv3_2_b"
    lr_mult: 0
    decay_mult: 0
  }
  convolution_param {
    num_output: 256
    pad: 1
    kernel_size: 3
    group: 1
    stride: 1
    weight_filler {
      type: "xavier"
    }
  }
}
layer {
  name: "relu3_2"
  type: "ReLU"
  bottom: "conv3_2"
  top: "conv3_2"
}
layer {
  name: "conv3_3"
  type: "Convolution"
  bottom: "conv3_2"
  top: "conv3_3"
  param {
    name: "conv3_3_w"
    lr_mult: 0
    decay_mult: 1
  }
  param {
    name: "conv3_3_b"
    lr_mult: 0
    decay_mult: 0
  }
  convolution_param {
    num_output: 256
    pad: 1
    kernel_size: 3
    group: 1
    stride: 1
    weight_filler {
      type: "xavier"
    }
  }
}
layer {
  name: "relu3_3"
  type: "ReLU"
  bottom: "conv3_3"
  top: "conv3_3"
}
layer {
  name: "rgb_pool3"
  type: "Pooling"
  bottom: "conv3_3"
  top: "rgb_pool3"
  pooling_param {
    pool: MAX
    kernel_size: 2
    stride: 2
  }
}
layer {
  name: "conv4_1"
  type: "Convolution"
  bottom: "rgb_pool3"
  top: "conv4_1"
  param {
    name: "conv4_1_w"
    lr_mult: 0
    decay_mult: 1
  }
  param {
    name: "conv4_1_b"
    lr_mult: 0
    decay_mult: 0
  }
  convolution_param {
    num_output: 512
    pad: 1
    kernel_size: 3
    group: 1
    stride: 1
    weight_filler {
      type: "xavier"
    }
  }
}
layer {
  name: "relu4_1"
  type: "ReLU"
  bottom: "conv4_1"
  top: "conv4_1"
}
layer {
  name: "conv4_2"
  type: "Convolution"
  bottom: "conv4_1"
  top: "conv4_2"
  param {
    name: "conv4_2_w"
    lr_mult: 0
    decay_mult: 1
  }
  param {
    name: "conv4_2_b"
    lr_mult: 0
    decay_mult: 0
  }
  convolution_param {
    num_output: 512
    pad: 1
    kernel_size: 3
    group: 1
    stride: 1
    weight_filler {
      type: "xavier"
    }
  }
}
layer {
  name: "relu4_2"
  type: "ReLU"
  bottom: "conv4_2"
  top: "conv4_2"
}
layer {
  name: "conv4_3"
  type: "Convolution"
  bottom: "conv4_2"
  top: "conv4_3"
  param {
    name: "conv4_3_w"
    lr_mult: 0
    decay_mult: 1
  }
  param {
    name: "conv4_3_b"
    lr_mult: 0
    decay_mult: 0
  }
  convolution_param {
    num_output: 512
    pad: 1
    kernel_size: 3
    group: 1
    stride: 1
    weight_filler {
      type: "xavier"
    }
  }
}
layer {
  name: "relu4_3"
  type: "ReLU"
  bottom: "conv4_3"
  top: "conv4_3"
}
layer {
  name: "rgb_pool4"
  type: "Pooling"
  bottom: "conv4_3"
  top: "rgb_pool4"
  pooling_param {
    pool: MAX
    kernel_size: 2
    stride: 2
  }
}
layer {
  name: "conv5_1"
  type: "Convolution"
  bottom: "rgb_pool4"
  top: "conv5_1"
  param {
    name: "conv5_1_w"
    lr_mult: 0
    decay_mult: 1
  }
  param {
    name: "conv5_1_b"
    lr_mult: 0
    decay_mult: 0
  }
  convolution_param {
    num_output: 512
    pad: 1
    kernel_size: 3
    group: 1
    stride: 1
    weight_filler {
      type: "xavier"
    }
  }
}
layer {
  name: "relu5_1"
  type: "ReLU"
  bottom: "conv5_1"
  top: "conv5_1"
}
layer {
  name: "conv5_2"
  type: "Convolution"
  bottom: "conv5_1"
  top: "conv5_2"
  param {
    name: "conv5_2_w"
    lr_mult: 0
    decay_mult: 1
  }
  param {
    name: "conv5_2_b"
    lr_mult: 0
    decay_mult: 0
  }
  convolution_param {
    num_output: 512
    pad: 1
    kernel_size: 3
    group: 1
    stride: 1
    weight_filler {
      type: "xavier"
    }
  }
}
layer {
  name: "relu5_2"
  type: "ReLU"
  bottom: "conv5_2"
  top: "conv5_2"
}
layer {
  name: "conv5_3"
  type: "Convolution"
  bottom: "conv5_2"
  top: "conv5_3"
  param {
    name: "conv5_3_w"
    lr_mult: 0
    decay_mult: 1
  }
  param {
    name: "conv5_3_b"
    lr_mult: 0
    decay_mult: 0
  }
  convolution_param {
    num_output: 512
    pad: 1
    kernel_size: 3
    group: 1
    stride: 1
    weight_filler {
      type: "xavier"
    }
  }
}
layer {
  name: "relu5_3"
  type: "ReLU"
  bottom: "conv5_3"
  top: "conv5_3"
}
layer {
  name: "rgb_pool5"
  type: "Pooling"
  bottom: "conv5_3"
  top: "rgb_pool5"
  pooling_param {
    pool: MAX
    kernel_size: 2
    stride: 2
  }
}
layer {
  name: "rgb_fc6"
  type: "InnerProduct"
  bottom: "rgb_pool5"
  top: "rgb_fc6"
  param {
    lr_mult: 1
    decay_mult: 1
  }
  param {
    lr_mult: 2
    decay_mult: 0
  }
  inner_product_param {
    num_output: 4096
    weight_filler {
      type: "xavier"
    }
  }
}
layer {
  name: "rgb_relu6"
  type: "ReLU"
  bottom: "rgb_fc6"
  top: "rgb_fc6"
}
layer {
  name: "rgb_drop6"
  type: "Dropout"
  bottom: "rgb_fc6"
  top: "rgb_fc6"
  dropout_param {
    dropout_ratio: 0.5
  }
}
layer {
  name: "rgb_fc7"
  type: "InnerProduct"
  bottom: "rgb_fc6"
  top: "rgb_fc7"
  param {
    lr_mult: 1
    decay_mult: 1
  }
  param {
    lr_mult: 2
    decay_mult: 0
  }
  inner_product_param {
    num_output: 4096
    weight_filler {
      type: "xavier"
    }
  }
}
layer {
  name: "rgb_relu7"
  type: "ReLU"
  bottom: "rgb_fc7"
  top: "rgb_fc7"
}
layer {
  name: "rgb_drop7"
  type: "Dropout"
  bottom: "rgb_fc7"
  top: "rgb_fc7"
  dropout_param {
    dropout_ratio: 0.5
  }
}
layer {
  name: "rgb_fc8"
  type: "InnerProduct"
  bottom: "rgb_fc7"
  top: "rgb_fc8"
  param {
    lr_mult: 1
    decay_mult: 1
  }
  param {
    lr_mult: 2
    decay_mult: 0
  }
  inner_product_param {
    num_output: 51
    weight_filler {
      type: "xavier"
    }
  }
}
layer {
  name: "conv1"
  type: "Convolution"
  bottom: "depth"
  top: "conv1"
  param {
    name: "conv1_w"
    lr_mult: 0
    decay_mult: 1
  }
  param {
    name: "conv1_b"
    lr_mult: 0
    decay_mult: 0
  }
  convolution_param {
    num_output: 128
    pad: 2
    kernel_size: 5
    group: 1
    stride: 2
    weight_filler {
      type: "xavier"
    }
  }
}
layer {
  name: "relu1"
  type: "ReLU"
  bottom: "conv1"
  top: "conv1"
}
layer {
  name: "depth_pool1"
  type: "Pooling"
  bottom: "conv1"
  top: "depth_pool1"
  pooling_param {
    pool: MAX
    kernel_size: 3
    stride: 2
  }
}
layer {
  name: "norm1"
  type: "LRN"
  bottom: "depth_pool1"
  top: "norm1"
  lrn_param {
    local_size: 5
    alpha: 0.0005
    beta: 0.75
    k: 2
  }
}
layer {
  name: "conv2"
  type: "Convolution"
  bottom: "norm1"
  top: "conv2"
  param {
    name: "conv2_w"
    lr_mult: 0
    decay_mult: 1
  }
  param {
    name: "conv2_b"
    lr_mult: 0
    decay_mult: 0
  }
  convolution_param {
    num_output: 256
    pad: 2
    kernel_size: 5
    group: 1
    stride: 1
    weight_filler {
      type: "xavier"
    }
  }
}
layer {
  name: "relu2"
  type: "ReLU"
  bottom: "conv2"
  top: "conv2"
}
layer {
  name: "depth_pool2"
  type: "Pooling"
  bottom: "conv2"
  top: "depth_pool2"
  pooling_param {
    pool: MAX
    kernel_size: 3
    stride: 2
  }
}
layer {
  name: "norm2"
  type: "LRN"
  bottom: "depth_pool2"
  top: "norm2"
  lrn_param {
    local_size: 5
    alpha: 0.0005
    beta: 0.75
    k: 2
  }
}
layer {
  name: "conv3"
  type: "Convolution"
  bottom: "norm2"
  top: "conv3"
  param {
    name: "conv3_w"
    lr_mult: 0
    decay_mult: 1
  }
  param {
    name: "conv3_b"
    lr_mult: 0
    decay_mult: 0
  }
  convolution_param {
    num_output: 384
    pad: 1
    kernel_size: 3
    group: 2
    stride: 1
    weight_filler {
      type: "xavier"
    }
  }
}
layer {
  name: "relu3"
  type: "ReLU"
  bottom: "conv3"
  top: "conv3"
}
layer {
  name: "depth_pool3"
  type: "Pooling"
  bottom: "conv3"
  top: "depth_pool3"
  pooling_param {
    pool: MAX
    kernel_size: 3
    stride: 2
  }
}
layer {
  name: "conv4"
  type: "Convolution"
  bottom: "depth_pool3"
  top: "conv4"
  param {
    name: "conv4_w"
    lr_mult: 0
    decay_mult: 1
  }
  param {
    name: "conv4_b"
    lr_mult: 0
    decay_mult: 0
  }
  convolution_param {
    num_output: 512
    pad: 1
    kernel_size: 3
    group: 1
    stride: 1
    weight_filler {
      type: "xavier"
    }
  }
}
layer {
  name: "relu4"
  type: "ReLU"
  bottom: "conv4"
  top: "conv4"
}
layer {
  name: "conv5"
  type: "Convolution"
  bottom: "conv4"
  top: "conv5"
  param {
    name: "conv5_w"
    lr_mult: 0
    decay_mult: 1
  }
  param {
    name: "conv5_b"
    lr_mult: 0
    decay_mult: 0
  }
  convolution_param {
    num_output: 512
    pad: 1
    kernel_size: 3
    group: 1
    stride: 1
    weight_filler {
      type: "xavier"
    }
  }
}
layer {
  name: "relu5"
  type: "ReLU"
  bottom: "conv5"
  top: "conv5"
}
layer {
  name: "depth_pool5"
  type: "Pooling"
  bottom: "conv5"
  top: "depth_pool5"
  pooling_param {
    pool: MAX
    kernel_size: 3
    stride: 2
  }
}
layer {
  name: "depth_fc6"
  type: "InnerProduct"
  bottom: "depth_pool5"
  top: "depth_fc6"
  param {
    lr_mult: 1
    decay_mult: 1
  }
  param {
    lr_mult: 2
    decay_mult: 0
  }
  inner_product_param {
    num_output: 4096
    weight_filler {
      type: "xavier"
    }
  }
}
layer {
  name: "depth_relu6"
  type: "ReLU"
  bottom: "depth_fc6"
  top: "depth_fc6"
}
layer {
  name: "depth_drop6"
  type: "Dropout"
  bottom: "depth_fc6"
  top: "depth_fc6"
  dropout_param {
    dropout_ratio: 0.5
  }
}
layer {
  name: "depth_fc7"
  type: "InnerProduct"
  bottom: "depth_fc6"
  top: "depth_fc7"
  param {
    lr_mult: 1
    decay_mult: 1
  }
  param {
    lr_mult: 2
    decay_mult: 0
  }
  inner_product_param {
    num_output: 4096
    weight_filler {
      type: "xavier"
    }
  }
}
layer {
  name: "depth_relu7"
  type: "ReLU"
  bottom: "depth_fc7"
  top: "depth_fc7"
}
layer {
  name: "depth_drop7"
  type: "Dropout"
  bottom: "depth_fc7"
  top: "depth_fc7"
  dropout_param {
    dropout_ratio: 0.5
  }
}
layer {
  name: "depth_fc8"
  type: "InnerProduct"
  bottom: "depth_fc7"
  top: "depth_fc8"
  param {
    lr_mult: 1
    decay_mult: 1
  }
  param {
    lr_mult: 2
    decay_mult: 0
  }
  inner_product_param {
    num_output: 51
    weight_filler {
      type: "xavier"
    }
  }
}
layer {
  name: "concat"
  type: "Concat"
  bottom: "rgb_fc7"
  bottom: "depth_fc7"
  top: "concat"
  concat_param {
    axis: 1
  }
}
layer {
  name: "rgbd_fc8"
  type: "InnerProduct"
  bottom: "concat"
  top: "rgbd_fc8"
  param {
    lr_mult: 1
    decay_mult: 1
  }
  param {
    lr_mult: 2
    decay_mult: 0
  }
  inner_product_param {
    num_output: 51
    weight_filler {
      type: "xavier"
    }
  }
}
layer {
  name: "rgb_accuracy"
  type: "Accuracy"
  bottom: "rgb_fc8"
  bottom: "label"
  top: "rgb_accuracy"
}
layer {
  name: "rgb_loss"
  type: "SoftmaxWithLoss"
  bottom: "rgb_fc8"
  bottom: "label"
  top: "rgb_loss"
}
layer {
  name: "depth_accuracy"
  type: "Accuracy"
  bottom: "depth_fc8"
  bottom: "label"
  top: "depth_accuracy"
}
layer {
  name: "depth_loss"
  type: "SoftmaxWithLoss"
  bottom: "depth_fc8"
  bottom: "label"
  top: "depth_loss"
}
layer {
  name: "rgbd_accuracy"
  type: "Accuracy"
  bottom: "rgbd_fc8"
  bottom: "label"
  top: "rgbd_accuracy"
}
layer {
  name: "rgbd_loss"
  type: "SoftmaxWithLoss"
  bottom: "rgbd_fc8"
  bottom: "label"
  top: "rgbd_loss"
}
I0131 01:10:56.017668 25291 layer_factory.hpp:77] Creating layer data
I0131 01:10:56.161484 25291 net.cpp:91] Creating Layer data
I0131 01:10:56.161514 25291 net.cpp:399] data -> rgb
I0131 01:10:56.161525 25291 net.cpp:399] data -> depth
I0131 01:10:56.161531 25291 net.cpp:399] data -> label
{'img_size': (224, 224), 'split': 'train', 'dataset_dir': '/home/kevin/dataset/washington_rgbd_dataset', 'crop_size': (224, 224, 224, 224), 'randomize': True, 'seed': 1337, 'batch_size': 32, 'mean': (104.00698793, 116.66876762, 122.67891434)}
I0131 01:10:56.246924 25291 net.cpp:141] Setting up data
I0131 01:10:56.246960 25291 net.cpp:148] Top shape: 32 3 224 224 (4816896)
I0131 01:10:56.246971 25291 net.cpp:148] Top shape: 32 1 224 224 (1605632)
I0131 01:10:56.246979 25291 net.cpp:148] Top shape: 32 1 (32)
I0131 01:10:56.246989 25291 net.cpp:156] Memory required for data: 25690240
I0131 01:10:56.246999 25291 layer_factory.hpp:77] Creating layer label_data_2_split
I0131 01:10:56.247022 25291 net.cpp:91] Creating Layer label_data_2_split
I0131 01:10:56.247032 25291 net.cpp:425] label_data_2_split <- label
I0131 01:10:56.247045 25291 net.cpp:399] label_data_2_split -> label_data_2_split_0
I0131 01:10:56.247061 25291 net.cpp:399] label_data_2_split -> label_data_2_split_1
I0131 01:10:56.247073 25291 net.cpp:399] label_data_2_split -> label_data_2_split_2
I0131 01:10:56.247084 25291 net.cpp:399] label_data_2_split -> label_data_2_split_3
I0131 01:10:56.247097 25291 net.cpp:399] label_data_2_split -> label_data_2_split_4
I0131 01:10:56.247107 25291 net.cpp:399] label_data_2_split -> label_data_2_split_5
I0131 01:10:56.247182 25291 net.cpp:141] Setting up label_data_2_split
I0131 01:10:56.247195 25291 net.cpp:148] Top shape: 32 1 (32)
I0131 01:10:56.247205 25291 net.cpp:148] Top shape: 32 1 (32)
I0131 01:10:56.247213 25291 net.cpp:148] Top shape: 32 1 (32)
I0131 01:10:56.247222 25291 net.cpp:148] Top shape: 32 1 (32)
I0131 01:10:56.247231 25291 net.cpp:148] Top shape: 32 1 (32)
I0131 01:10:56.247239 25291 net.cpp:148] Top shape: 32 1 (32)
I0131 01:10:56.247247 25291 net.cpp:156] Memory required for data: 25691008
I0131 01:10:56.247256 25291 layer_factory.hpp:77] Creating layer conv1_1
I0131 01:10:56.247275 25291 net.cpp:91] Creating Layer conv1_1
I0131 01:10:56.247284 25291 net.cpp:425] conv1_1 <- rgb
I0131 01:10:56.247298 25291 net.cpp:399] conv1_1 -> conv1_1
I0131 01:10:56.248349 25291 net.cpp:141] Setting up conv1_1
I0131 01:10:56.248369 25291 net.cpp:148] Top shape: 32 64 224 224 (102760448)
I0131 01:10:56.248378 25291 net.cpp:156] Memory required for data: 436732800
I0131 01:10:56.248394 25291 layer_factory.hpp:77] Creating layer relu1_1
I0131 01:10:56.248407 25291 net.cpp:91] Creating Layer relu1_1
I0131 01:10:56.248416 25291 net.cpp:425] relu1_1 <- conv1_1
I0131 01:10:56.248428 25291 net.cpp:386] relu1_1 -> conv1_1 (in-place)
I0131 01:10:56.248445 25291 net.cpp:141] Setting up relu1_1
I0131 01:10:56.248456 25291 net.cpp:148] Top shape: 32 64 224 224 (102760448)
I0131 01:10:56.248463 25291 net.cpp:156] Memory required for data: 847774592
I0131 01:10:56.248471 25291 layer_factory.hpp:77] Creating layer conv1_2
I0131 01:10:56.248486 25291 net.cpp:91] Creating Layer conv1_2
I0131 01:10:56.248494 25291 net.cpp:425] conv1_2 <- conv1_1
I0131 01:10:56.248504 25291 net.cpp:399] conv1_2 -> conv1_2
I0131 01:10:56.248842 25291 net.cpp:141] Setting up conv1_2
I0131 01:10:56.248855 25291 net.cpp:148] Top shape: 32 64 224 224 (102760448)
I0131 01:10:56.248863 25291 net.cpp:156] Memory required for data: 1258816384
I0131 01:10:56.248877 25291 layer_factory.hpp:77] Creating layer relu1_2
I0131 01:10:56.248888 25291 net.cpp:91] Creating Layer relu1_2
I0131 01:10:56.248896 25291 net.cpp:425] relu1_2 <- conv1_2
I0131 01:10:56.248905 25291 net.cpp:386] relu1_2 -> conv1_2 (in-place)
I0131 01:10:56.248916 25291 net.cpp:141] Setting up relu1_2
I0131 01:10:56.248925 25291 net.cpp:148] Top shape: 32 64 224 224 (102760448)
I0131 01:10:56.248934 25291 net.cpp:156] Memory required for data: 1669858176
I0131 01:10:56.248944 25291 layer_factory.hpp:77] Creating layer rgb_pool1
I0131 01:10:56.248955 25291 net.cpp:91] Creating Layer rgb_pool1
I0131 01:10:56.248963 25291 net.cpp:425] rgb_pool1 <- conv1_2
I0131 01:10:56.248972 25291 net.cpp:399] rgb_pool1 -> rgb_pool1
I0131 01:10:56.249017 25291 net.cpp:141] Setting up rgb_pool1
I0131 01:10:56.249029 25291 net.cpp:148] Top shape: 32 64 112 112 (25690112)
I0131 01:10:56.249037 25291 net.cpp:156] Memory required for data: 1772618624
I0131 01:10:56.249047 25291 layer_factory.hpp:77] Creating layer conv2_1
I0131 01:10:56.249061 25291 net.cpp:91] Creating Layer conv2_1
I0131 01:10:56.249070 25291 net.cpp:425] conv2_1 <- rgb_pool1
I0131 01:10:56.249081 25291 net.cpp:399] conv2_1 -> conv2_1
I0131 01:10:56.250200 25291 net.cpp:141] Setting up conv2_1
I0131 01:10:56.250222 25291 net.cpp:148] Top shape: 32 128 112 112 (51380224)
I0131 01:10:56.250231 25291 net.cpp:156] Memory required for data: 1978139520
I0131 01:10:56.250252 25291 layer_factory.hpp:77] Creating layer relu2_1
I0131 01:10:56.250268 25291 net.cpp:91] Creating Layer relu2_1
I0131 01:10:56.250277 25291 net.cpp:425] relu2_1 <- conv2_1
I0131 01:10:56.250288 25291 net.cpp:386] relu2_1 -> conv2_1 (in-place)
I0131 01:10:56.250300 25291 net.cpp:141] Setting up relu2_1
I0131 01:10:56.250310 25291 net.cpp:148] Top shape: 32 128 112 112 (51380224)
I0131 01:10:56.250319 25291 net.cpp:156] Memory required for data: 2183660416
I0131 01:10:56.250327 25291 layer_factory.hpp:77] Creating layer conv2_2
I0131 01:10:56.250344 25291 net.cpp:91] Creating Layer conv2_2
I0131 01:10:56.250352 25291 net.cpp:425] conv2_2 <- conv2_1
I0131 01:10:56.250365 25291 net.cpp:399] conv2_2 -> conv2_2
I0131 01:10:56.251359 25291 net.cpp:141] Setting up conv2_2
I0131 01:10:56.251377 25291 net.cpp:148] Top shape: 32 128 112 112 (51380224)
I0131 01:10:56.251386 25291 net.cpp:156] Memory required for data: 2389181312
I0131 01:10:56.251396 25291 layer_factory.hpp:77] Creating layer relu2_2
I0131 01:10:56.251410 25291 net.cpp:91] Creating Layer relu2_2
I0131 01:10:56.251417 25291 net.cpp:425] relu2_2 <- conv2_2
I0131 01:10:56.251427 25291 net.cpp:386] relu2_2 -> conv2_2 (in-place)
I0131 01:10:56.251440 25291 net.cpp:141] Setting up relu2_2
I0131 01:10:56.251449 25291 net.cpp:148] Top shape: 32 128 112 112 (51380224)
I0131 01:10:56.251457 25291 net.cpp:156] Memory required for data: 2594702208
I0131 01:10:56.251466 25291 layer_factory.hpp:77] Creating layer rgb_pool2
I0131 01:10:56.251480 25291 net.cpp:91] Creating Layer rgb_pool2
I0131 01:10:56.251488 25291 net.cpp:425] rgb_pool2 <- conv2_2
I0131 01:10:56.251498 25291 net.cpp:399] rgb_pool2 -> rgb_pool2
I0131 01:10:56.251533 25291 net.cpp:141] Setting up rgb_pool2
I0131 01:10:56.251543 25291 net.cpp:148] Top shape: 32 128 56 56 (12845056)
I0131 01:10:56.251551 25291 net.cpp:156] Memory required for data: 2646082432
I0131 01:10:56.251559 25291 layer_factory.hpp:77] Creating layer conv3_1
I0131 01:10:56.251574 25291 net.cpp:91] Creating Layer conv3_1
I0131 01:10:56.251583 25291 net.cpp:425] conv3_1 <- rgb_pool2
I0131 01:10:56.251595 25291 net.cpp:399] conv3_1 -> conv3_1
I0131 01:10:56.253423 25291 net.cpp:141] Setting up conv3_1
I0131 01:10:56.253453 25291 net.cpp:148] Top shape: 32 256 56 56 (25690112)
I0131 01:10:56.253461 25291 net.cpp:156] Memory required for data: 2748842880
I0131 01:10:56.253479 25291 layer_factory.hpp:77] Creating layer relu3_1
I0131 01:10:56.253494 25291 net.cpp:91] Creating Layer relu3_1
I0131 01:10:56.253504 25291 net.cpp:425] relu3_1 <- conv3_1
I0131 01:10:56.253515 25291 net.cpp:386] relu3_1 -> conv3_1 (in-place)
I0131 01:10:56.253527 25291 net.cpp:141] Setting up relu3_1
I0131 01:10:56.253537 25291 net.cpp:148] Top shape: 32 256 56 56 (25690112)
I0131 01:10:56.253545 25291 net.cpp:156] Memory required for data: 2851603328
I0131 01:10:56.253553 25291 layer_factory.hpp:77] Creating layer conv3_2
I0131 01:10:56.253567 25291 net.cpp:91] Creating Layer conv3_2
I0131 01:10:56.253576 25291 net.cpp:425] conv3_2 <- conv3_1
I0131 01:10:56.253587 25291 net.cpp:399] conv3_2 -> conv3_2
I0131 01:10:56.257513 25291 net.cpp:141] Setting up conv3_2
I0131 01:10:56.257553 25291 net.cpp:148] Top shape: 32 256 56 56 (25690112)
I0131 01:10:56.257562 25291 net.cpp:156] Memory required for data: 2954363776
I0131 01:10:56.257576 25291 layer_factory.hpp:77] Creating layer relu3_2
I0131 01:10:56.257592 25291 net.cpp:91] Creating Layer relu3_2
I0131 01:10:56.257602 25291 net.cpp:425] relu3_2 <- conv3_2
I0131 01:10:56.257616 25291 net.cpp:386] relu3_2 -> conv3_2 (in-place)
I0131 01:10:56.257629 25291 net.cpp:141] Setting up relu3_2
I0131 01:10:56.257640 25291 net.cpp:148] Top shape: 32 256 56 56 (25690112)
I0131 01:10:56.257648 25291 net.cpp:156] Memory required for data: 3057124224
I0131 01:10:56.257657 25291 layer_factory.hpp:77] Creating layer conv3_3
I0131 01:10:56.257675 25291 net.cpp:91] Creating Layer conv3_3
I0131 01:10:56.257684 25291 net.cpp:425] conv3_3 <- conv3_2
I0131 01:10:56.257695 25291 net.cpp:399] conv3_3 -> conv3_3
I0131 01:10:56.261478 25291 net.cpp:141] Setting up conv3_3
I0131 01:10:56.261519 25291 net.cpp:148] Top shape: 32 256 56 56 (25690112)
I0131 01:10:56.261528 25291 net.cpp:156] Memory required for data: 3159884672
I0131 01:10:56.261543 25291 layer_factory.hpp:77] Creating layer relu3_3
I0131 01:10:56.261556 25291 net.cpp:91] Creating Layer relu3_3
I0131 01:10:56.261566 25291 net.cpp:425] relu3_3 <- conv3_3
I0131 01:10:56.261577 25291 net.cpp:386] relu3_3 -> conv3_3 (in-place)
I0131 01:10:56.261591 25291 net.cpp:141] Setting up relu3_3
I0131 01:10:56.261601 25291 net.cpp:148] Top shape: 32 256 56 56 (25690112)
I0131 01:10:56.261610 25291 net.cpp:156] Memory required for data: 3262645120
I0131 01:10:56.261617 25291 layer_factory.hpp:77] Creating layer rgb_pool3
I0131 01:10:56.261631 25291 net.cpp:91] Creating Layer rgb_pool3
I0131 01:10:56.261639 25291 net.cpp:425] rgb_pool3 <- conv3_3
I0131 01:10:56.261649 25291 net.cpp:399] rgb_pool3 -> rgb_pool3
I0131 01:10:56.261693 25291 net.cpp:141] Setting up rgb_pool3
I0131 01:10:56.261708 25291 net.cpp:148] Top shape: 32 256 28 28 (6422528)
I0131 01:10:56.261716 25291 net.cpp:156] Memory required for data: 3288335232
I0131 01:10:56.261724 25291 layer_factory.hpp:77] Creating layer conv4_1
I0131 01:10:56.261741 25291 net.cpp:91] Creating Layer conv4_1
I0131 01:10:56.261750 25291 net.cpp:425] conv4_1 <- rgb_pool3
I0131 01:10:56.261762 25291 net.cpp:399] conv4_1 -> conv4_1
I0131 01:10:56.270372 25291 net.cpp:141] Setting up conv4_1
I0131 01:10:56.270406 25291 net.cpp:148] Top shape: 32 512 28 28 (12845056)
I0131 01:10:56.270414 25291 net.cpp:156] Memory required for data: 3339715456
I0131 01:10:56.270429 25291 layer_factory.hpp:77] Creating layer relu4_1
I0131 01:10:56.270445 25291 net.cpp:91] Creating Layer relu4_1
I0131 01:10:56.270455 25291 net.cpp:425] relu4_1 <- conv4_1
I0131 01:10:56.270467 25291 net.cpp:386] relu4_1 -> conv4_1 (in-place)
I0131 01:10:56.270479 25291 net.cpp:141] Setting up relu4_1
I0131 01:10:56.270489 25291 net.cpp:148] Top shape: 32 512 28 28 (12845056)
I0131 01:10:56.270498 25291 net.cpp:156] Memory required for data: 3391095680
I0131 01:10:56.270505 25291 layer_factory.hpp:77] Creating layer conv4_2
I0131 01:10:56.270521 25291 net.cpp:91] Creating Layer conv4_2
I0131 01:10:56.270529 25291 net.cpp:425] conv4_2 <- conv4_1
I0131 01:10:56.270541 25291 net.cpp:399] conv4_2 -> conv4_2
I0131 01:10:56.283756 25291 net.cpp:141] Setting up conv4_2
I0131 01:10:56.283793 25291 net.cpp:148] Top shape: 32 512 28 28 (12845056)
I0131 01:10:56.283804 25291 net.cpp:156] Memory required for data: 3442475904
I0131 01:10:56.283829 25291 layer_factory.hpp:77] Creating layer relu4_2
I0131 01:10:56.283846 25291 net.cpp:91] Creating Layer relu4_2
I0131 01:10:56.283857 25291 net.cpp:425] relu4_2 <- conv4_2
I0131 01:10:56.283870 25291 net.cpp:386] relu4_2 -> conv4_2 (in-place)
I0131 01:10:56.283884 25291 net.cpp:141] Setting up relu4_2
I0131 01:10:56.283892 25291 net.cpp:148] Top shape: 32 512 28 28 (12845056)
I0131 01:10:56.283900 25291 net.cpp:156] Memory required for data: 3493856128
I0131 01:10:56.283908 25291 layer_factory.hpp:77] Creating layer conv4_3
I0131 01:10:56.283924 25291 net.cpp:91] Creating Layer conv4_3
I0131 01:10:56.283933 25291 net.cpp:425] conv4_3 <- conv4_2
I0131 01:10:56.283946 25291 net.cpp:399] conv4_3 -> conv4_3
I0131 01:10:56.298538 25291 net.cpp:141] Setting up conv4_3
I0131 01:10:56.298578 25291 net.cpp:148] Top shape: 32 512 28 28 (12845056)
I0131 01:10:56.298588 25291 net.cpp:156] Memory required for data: 3545236352
I0131 01:10:56.298605 25291 layer_factory.hpp:77] Creating layer relu4_3
I0131 01:10:56.298622 25291 net.cpp:91] Creating Layer relu4_3
I0131 01:10:56.298633 25291 net.cpp:425] relu4_3 <- conv4_3
I0131 01:10:56.298650 25291 net.cpp:386] relu4_3 -> conv4_3 (in-place)
I0131 01:10:56.298667 25291 net.cpp:141] Setting up relu4_3
I0131 01:10:56.298678 25291 net.cpp:148] Top shape: 32 512 28 28 (12845056)
I0131 01:10:56.298686 25291 net.cpp:156] Memory required for data: 3596616576
I0131 01:10:56.298694 25291 layer_factory.hpp:77] Creating layer rgb_pool4
I0131 01:10:56.298707 25291 net.cpp:91] Creating Layer rgb_pool4
I0131 01:10:56.298715 25291 net.cpp:425] rgb_pool4 <- conv4_3
I0131 01:10:56.298727 25291 net.cpp:399] rgb_pool4 -> rgb_pool4
I0131 01:10:56.298780 25291 net.cpp:141] Setting up rgb_pool4
I0131 01:10:56.298795 25291 net.cpp:148] Top shape: 32 512 14 14 (3211264)
I0131 01:10:56.298804 25291 net.cpp:156] Memory required for data: 3609461632
I0131 01:10:56.298812 25291 layer_factory.hpp:77] Creating layer conv5_1
I0131 01:10:56.298830 25291 net.cpp:91] Creating Layer conv5_1
I0131 01:10:56.298838 25291 net.cpp:425] conv5_1 <- rgb_pool4
I0131 01:10:56.298853 25291 net.cpp:399] conv5_1 -> conv5_1
I0131 01:10:56.313560 25291 net.cpp:141] Setting up conv5_1
I0131 01:10:56.313597 25291 net.cpp:148] Top shape: 32 512 14 14 (3211264)
I0131 01:10:56.313607 25291 net.cpp:156] Memory required for data: 3622306688
I0131 01:10:56.313621 25291 layer_factory.hpp:77] Creating layer relu5_1
I0131 01:10:56.313637 25291 net.cpp:91] Creating Layer relu5_1
I0131 01:10:56.313647 25291 net.cpp:425] relu5_1 <- conv5_1
I0131 01:10:56.313659 25291 net.cpp:386] relu5_1 -> conv5_1 (in-place)
I0131 01:10:56.313673 25291 net.cpp:141] Setting up relu5_1
I0131 01:10:56.313683 25291 net.cpp:148] Top shape: 32 512 14 14 (3211264)
I0131 01:10:56.313691 25291 net.cpp:156] Memory required for data: 3635151744
I0131 01:10:56.313699 25291 layer_factory.hpp:77] Creating layer conv5_2
I0131 01:10:56.313716 25291 net.cpp:91] Creating Layer conv5_2
I0131 01:10:56.313724 25291 net.cpp:425] conv5_2 <- conv5_1
I0131 01:10:56.313737 25291 net.cpp:399] conv5_2 -> conv5_2
I0131 01:10:56.328194 25291 net.cpp:141] Setting up conv5_2
I0131 01:10:56.328230 25291 net.cpp:148] Top shape: 32 512 14 14 (3211264)
I0131 01:10:56.328239 25291 net.cpp:156] Memory required for data: 3647996800
I0131 01:10:56.328253 25291 layer_factory.hpp:77] Creating layer relu5_2
I0131 01:10:56.328269 25291 net.cpp:91] Creating Layer relu5_2
I0131 01:10:56.328279 25291 net.cpp:425] relu5_2 <- conv5_2
I0131 01:10:56.328292 25291 net.cpp:386] relu5_2 -> conv5_2 (in-place)
I0131 01:10:56.328306 25291 net.cpp:141] Setting up relu5_2
I0131 01:10:56.328316 25291 net.cpp:148] Top shape: 32 512 14 14 (3211264)
I0131 01:10:56.328323 25291 net.cpp:156] Memory required for data: 3660841856
I0131 01:10:56.328330 25291 layer_factory.hpp:77] Creating layer conv5_3
I0131 01:10:56.328347 25291 net.cpp:91] Creating Layer conv5_3
I0131 01:10:56.328356 25291 net.cpp:425] conv5_3 <- conv5_2
I0131 01:10:56.328367 25291 net.cpp:399] conv5_3 -> conv5_3
I0131 01:10:56.343334 25291 net.cpp:141] Setting up conv5_3
I0131 01:10:56.343374 25291 net.cpp:148] Top shape: 32 512 14 14 (3211264)
I0131 01:10:56.343386 25291 net.cpp:156] Memory required for data: 3673686912
I0131 01:10:56.343402 25291 layer_factory.hpp:77] Creating layer relu5_3
I0131 01:10:56.343421 25291 net.cpp:91] Creating Layer relu5_3
I0131 01:10:56.343433 25291 net.cpp:425] relu5_3 <- conv5_3
I0131 01:10:56.343446 25291 net.cpp:386] relu5_3 -> conv5_3 (in-place)
I0131 01:10:56.343462 25291 net.cpp:141] Setting up relu5_3
I0131 01:10:56.343473 25291 net.cpp:148] Top shape: 32 512 14 14 (3211264)
I0131 01:10:56.343482 25291 net.cpp:156] Memory required for data: 3686531968
I0131 01:10:56.343490 25291 layer_factory.hpp:77] Creating layer rgb_pool5
I0131 01:10:56.343510 25291 net.cpp:91] Creating Layer rgb_pool5
I0131 01:10:56.343519 25291 net.cpp:425] rgb_pool5 <- conv5_3
I0131 01:10:56.343533 25291 net.cpp:399] rgb_pool5 -> rgb_pool5
I0131 01:10:56.343595 25291 net.cpp:141] Setting up rgb_pool5
I0131 01:10:56.343611 25291 net.cpp:148] Top shape: 32 512 7 7 (802816)
I0131 01:10:56.343619 25291 net.cpp:156] Memory required for data: 3689743232
I0131 01:10:56.343627 25291 layer_factory.hpp:77] Creating layer rgb_fc6
I0131 01:10:56.343652 25291 net.cpp:91] Creating Layer rgb_fc6
I0131 01:10:56.343662 25291 net.cpp:425] rgb_fc6 <- rgb_pool5
I0131 01:10:56.343674 25291 net.cpp:399] rgb_fc6 -> rgb_fc6
I0131 01:10:56.933928 25291 net.cpp:141] Setting up rgb_fc6
I0131 01:10:56.933969 25291 net.cpp:148] Top shape: 32 4096 (131072)
I0131 01:10:56.933980 25291 net.cpp:156] Memory required for data: 3690267520
I0131 01:10:56.933997 25291 layer_factory.hpp:77] Creating layer rgb_relu6
I0131 01:10:56.934015 25291 net.cpp:91] Creating Layer rgb_relu6
I0131 01:10:56.934026 25291 net.cpp:425] rgb_relu6 <- rgb_fc6
I0131 01:10:56.934041 25291 net.cpp:386] rgb_relu6 -> rgb_fc6 (in-place)
I0131 01:10:56.934057 25291 net.cpp:141] Setting up rgb_relu6
I0131 01:10:56.934068 25291 net.cpp:148] Top shape: 32 4096 (131072)
I0131 01:10:56.934077 25291 net.cpp:156] Memory required for data: 3690791808
I0131 01:10:56.934084 25291 layer_factory.hpp:77] Creating layer rgb_drop6
I0131 01:10:56.934104 25291 net.cpp:91] Creating Layer rgb_drop6
I0131 01:10:56.934113 25291 net.cpp:425] rgb_drop6 <- rgb_fc6
I0131 01:10:56.934124 25291 net.cpp:386] rgb_drop6 -> rgb_fc6 (in-place)
I0131 01:10:56.934166 25291 net.cpp:141] Setting up rgb_drop6
I0131 01:10:56.934180 25291 net.cpp:148] Top shape: 32 4096 (131072)
I0131 01:10:56.934188 25291 net.cpp:156] Memory required for data: 3691316096
I0131 01:10:56.934196 25291 layer_factory.hpp:77] Creating layer rgb_fc7
I0131 01:10:56.934211 25291 net.cpp:91] Creating Layer rgb_fc7
I0131 01:10:56.934219 25291 net.cpp:425] rgb_fc7 <- rgb_fc6
I0131 01:10:56.934231 25291 net.cpp:399] rgb_fc7 -> rgb_fc7
I0131 01:10:57.034631 25291 net.cpp:141] Setting up rgb_fc7
I0131 01:10:57.034673 25291 net.cpp:148] Top shape: 32 4096 (131072)
I0131 01:10:57.034685 25291 net.cpp:156] Memory required for data: 3691840384
I0131 01:10:57.034703 25291 layer_factory.hpp:77] Creating layer rgb_relu7
I0131 01:10:57.034719 25291 net.cpp:91] Creating Layer rgb_relu7
I0131 01:10:57.034732 25291 net.cpp:425] rgb_relu7 <- rgb_fc7
I0131 01:10:57.034744 25291 net.cpp:386] rgb_relu7 -> rgb_fc7 (in-place)
I0131 01:10:57.034759 25291 net.cpp:141] Setting up rgb_relu7
I0131 01:10:57.034767 25291 net.cpp:148] Top shape: 32 4096 (131072)
I0131 01:10:57.034773 25291 net.cpp:156] Memory required for data: 3692364672
I0131 01:10:57.034780 25291 layer_factory.hpp:77] Creating layer rgb_drop7
I0131 01:10:57.034792 25291 net.cpp:91] Creating Layer rgb_drop7
I0131 01:10:57.034801 25291 net.cpp:425] rgb_drop7 <- rgb_fc7
I0131 01:10:57.034811 25291 net.cpp:386] rgb_drop7 -> rgb_fc7 (in-place)
I0131 01:10:57.034855 25291 net.cpp:141] Setting up rgb_drop7
I0131 01:10:57.034870 25291 net.cpp:148] Top shape: 32 4096 (131072)
I0131 01:10:57.034878 25291 net.cpp:156] Memory required for data: 3692888960
I0131 01:10:57.034884 25291 layer_factory.hpp:77] Creating layer rgb_fc7_rgb_drop7_0_split
I0131 01:10:57.034896 25291 net.cpp:91] Creating Layer rgb_fc7_rgb_drop7_0_split
I0131 01:10:57.034904 25291 net.cpp:425] rgb_fc7_rgb_drop7_0_split <- rgb_fc7
I0131 01:10:57.034914 25291 net.cpp:399] rgb_fc7_rgb_drop7_0_split -> rgb_fc7_rgb_drop7_0_split_0
I0131 01:10:57.034925 25291 net.cpp:399] rgb_fc7_rgb_drop7_0_split -> rgb_fc7_rgb_drop7_0_split_1
I0131 01:10:57.034989 25291 net.cpp:141] Setting up rgb_fc7_rgb_drop7_0_split
I0131 01:10:57.035004 25291 net.cpp:148] Top shape: 32 4096 (131072)
I0131 01:10:57.035014 25291 net.cpp:148] Top shape: 32 4096 (131072)
I0131 01:10:57.035022 25291 net.cpp:156] Memory required for data: 3693937536
I0131 01:10:57.035032 25291 layer_factory.hpp:77] Creating layer rgb_fc8
I0131 01:10:57.035045 25291 net.cpp:91] Creating Layer rgb_fc8
I0131 01:10:57.035054 25291 net.cpp:425] rgb_fc8 <- rgb_fc7_rgb_drop7_0_split_0
I0131 01:10:57.035065 25291 net.cpp:399] rgb_fc8 -> rgb_fc8
I0131 01:10:57.036523 25291 net.cpp:141] Setting up rgb_fc8
I0131 01:10:57.036542 25291 net.cpp:148] Top shape: 32 51 (1632)
I0131 01:10:57.036551 25291 net.cpp:156] Memory required for data: 3693944064
I0131 01:10:57.036564 25291 layer_factory.hpp:77] Creating layer rgb_fc8_rgb_fc8_0_split
I0131 01:10:57.036578 25291 net.cpp:91] Creating Layer rgb_fc8_rgb_fc8_0_split
I0131 01:10:57.036587 25291 net.cpp:425] rgb_fc8_rgb_fc8_0_split <- rgb_fc8
I0131 01:10:57.036598 25291 net.cpp:399] rgb_fc8_rgb_fc8_0_split -> rgb_fc8_rgb_fc8_0_split_0
I0131 01:10:57.036617 25291 net.cpp:399] rgb_fc8_rgb_fc8_0_split -> rgb_fc8_rgb_fc8_0_split_1
I0131 01:10:57.036664 25291 net.cpp:141] Setting up rgb_fc8_rgb_fc8_0_split
I0131 01:10:57.036677 25291 net.cpp:148] Top shape: 32 51 (1632)
I0131 01:10:57.036686 25291 net.cpp:148] Top shape: 32 51 (1632)
I0131 01:10:57.036695 25291 net.cpp:156] Memory required for data: 3693957120
I0131 01:10:57.036702 25291 layer_factory.hpp:77] Creating layer conv1
I0131 01:10:57.036720 25291 net.cpp:91] Creating Layer conv1
I0131 01:10:57.036731 25291 net.cpp:425] conv1 <- depth
I0131 01:10:57.036742 25291 net.cpp:399] conv1 -> conv1
I0131 01:10:57.036943 25291 net.cpp:141] Setting up conv1
I0131 01:10:57.036957 25291 net.cpp:148] Top shape: 32 128 112 112 (51380224)
I0131 01:10:57.036964 25291 net.cpp:156] Memory required for data: 3899478016
I0131 01:10:57.036991 25291 layer_factory.hpp:77] Creating layer relu1
I0131 01:10:57.037005 25291 net.cpp:91] Creating Layer relu1
I0131 01:10:57.037014 25291 net.cpp:425] relu1 <- conv1
I0131 01:10:57.037025 25291 net.cpp:386] relu1 -> conv1 (in-place)
I0131 01:10:57.037036 25291 net.cpp:141] Setting up relu1
I0131 01:10:57.037047 25291 net.cpp:148] Top shape: 32 128 112 112 (51380224)
I0131 01:10:57.037056 25291 net.cpp:156] Memory required for data: 4104998912
I0131 01:10:57.037065 25291 layer_factory.hpp:77] Creating layer depth_pool1
I0131 01:10:57.037080 25291 net.cpp:91] Creating Layer depth_pool1
I0131 01:10:57.037087 25291 net.cpp:425] depth_pool1 <- conv1
I0131 01:10:57.037098 25291 net.cpp:399] depth_pool1 -> depth_pool1
I0131 01:10:57.037147 25291 net.cpp:141] Setting up depth_pool1
I0131 01:10:57.037159 25291 net.cpp:148] Top shape: 32 128 56 56 (12845056)
I0131 01:10:57.037168 25291 net.cpp:156] Memory required for data: 4156379136
I0131 01:10:57.037175 25291 layer_factory.hpp:77] Creating layer norm1
I0131 01:10:57.037189 25291 net.cpp:91] Creating Layer norm1
I0131 01:10:57.037196 25291 net.cpp:425] norm1 <- depth_pool1
I0131 01:10:57.037209 25291 net.cpp:399] norm1 -> norm1
I0131 01:10:57.037251 25291 net.cpp:141] Setting up norm1
I0131 01:10:57.037262 25291 net.cpp:148] Top shape: 32 128 56 56 (12845056)
I0131 01:10:57.037271 25291 net.cpp:156] Memory required for data: 4207759360
I0131 01:10:57.037279 25291 layer_factory.hpp:77] Creating layer conv2
I0131 01:10:57.037297 25291 net.cpp:91] Creating Layer conv2
I0131 01:10:57.037305 25291 net.cpp:425] conv2 <- norm1
I0131 01:10:57.037317 25291 net.cpp:399] conv2 -> conv2
I0131 01:10:57.042095 25291 net.cpp:141] Setting up conv2
I0131 01:10:57.042129 25291 net.cpp:148] Top shape: 32 256 56 56 (25690112)
I0131 01:10:57.042138 25291 net.cpp:156] Memory required for data: 4310519808
I0131 01:10:57.042152 25291 layer_factory.hpp:77] Creating layer relu2
I0131 01:10:57.042165 25291 net.cpp:91] Creating Layer relu2
I0131 01:10:57.042174 25291 net.cpp:425] relu2 <- conv2
I0131 01:10:57.042184 25291 net.cpp:386] relu2 -> conv2 (in-place)
I0131 01:10:57.042197 25291 net.cpp:141] Setting up relu2
I0131 01:10:57.042207 25291 net.cpp:148] Top shape: 32 256 56 56 (25690112)
I0131 01:10:57.042215 25291 net.cpp:156] Memory required for data: 4413280256
I0131 01:10:57.042222 25291 layer_factory.hpp:77] Creating layer depth_pool2
I0131 01:10:57.042234 25291 net.cpp:91] Creating Layer depth_pool2
I0131 01:10:57.042249 25291 net.cpp:425] depth_pool2 <- conv2
I0131 01:10:57.042261 25291 net.cpp:399] depth_pool2 -> depth_pool2
I0131 01:10:57.042302 25291 net.cpp:141] Setting up depth_pool2
I0131 01:10:57.042313 25291 net.cpp:148] Top shape: 32 256 28 28 (6422528)
I0131 01:10:57.042321 25291 net.cpp:156] Memory required for data: 4438970368
I0131 01:10:57.042328 25291 layer_factory.hpp:77] Creating layer norm2
I0131 01:10:57.042341 25291 net.cpp:91] Creating Layer norm2
I0131 01:10:57.042351 25291 net.cpp:425] norm2 <- depth_pool2
I0131 01:10:57.042362 25291 net.cpp:399] norm2 -> norm2
I0131 01:10:57.042397 25291 net.cpp:141] Setting up norm2
I0131 01:10:57.042409 25291 net.cpp:148] Top shape: 32 256 28 28 (6422528)
I0131 01:10:57.042418 25291 net.cpp:156] Memory required for data: 4464660480
I0131 01:10:57.042426 25291 layer_factory.hpp:77] Creating layer conv3
I0131 01:10:57.042440 25291 net.cpp:91] Creating Layer conv3
I0131 01:10:57.042449 25291 net.cpp:425] conv3 <- norm2
I0131 01:10:57.042462 25291 net.cpp:399] conv3 -> conv3
I0131 01:10:57.046172 25291 net.cpp:141] Setting up conv3
I0131 01:10:57.046200 25291 net.cpp:148] Top shape: 32 384 28 28 (9633792)
I0131 01:10:57.046205 25291 net.cpp:156] Memory required for data: 4503195648
I0131 01:10:57.046217 25291 layer_factory.hpp:77] Creating layer relu3
I0131 01:10:57.046229 25291 net.cpp:91] Creating Layer relu3
I0131 01:10:57.046234 25291 net.cpp:425] relu3 <- conv3
I0131 01:10:57.046254 25291 net.cpp:386] relu3 -> conv3 (in-place)
I0131 01:10:57.046264 25291 net.cpp:141] Setting up relu3
I0131 01:10:57.046269 25291 net.cpp:148] Top shape: 32 384 28 28 (9633792)
I0131 01:10:57.046273 25291 net.cpp:156] Memory required for data: 4541730816
I0131 01:10:57.046277 25291 layer_factory.hpp:77] Creating layer depth_pool3
I0131 01:10:57.046285 25291 net.cpp:91] Creating Layer depth_pool3
I0131 01:10:57.046289 25291 net.cpp:425] depth_pool3 <- conv3
I0131 01:10:57.046298 25291 net.cpp:399] depth_pool3 -> depth_pool3
I0131 01:10:57.046337 25291 net.cpp:141] Setting up depth_pool3
I0131 01:10:57.046345 25291 net.cpp:148] Top shape: 32 384 14 14 (2408448)
I0131 01:10:57.046350 25291 net.cpp:156] Memory required for data: 4551364608
I0131 01:10:57.046353 25291 layer_factory.hpp:77] Creating layer conv4
I0131 01:10:57.046365 25291 net.cpp:91] Creating Layer conv4
I0131 01:10:57.046368 25291 net.cpp:425] conv4 <- depth_pool3
I0131 01:10:57.046375 25291 net.cpp:399] conv4 -> conv4
I0131 01:10:57.059540 25291 net.cpp:141] Setting up conv4
I0131 01:10:57.059586 25291 net.cpp:148] Top shape: 32 512 14 14 (3211264)
I0131 01:10:57.059598 25291 net.cpp:156] Memory required for data: 4564209664
I0131 01:10:57.059617 25291 layer_factory.hpp:77] Creating layer relu4
I0131 01:10:57.059635 25291 net.cpp:91] Creating Layer relu4
I0131 01:10:57.059645 25291 net.cpp:425] relu4 <- conv4
I0131 01:10:57.059659 25291 net.cpp:386] relu4 -> conv4 (in-place)
I0131 01:10:57.059674 25291 net.cpp:141] Setting up relu4
I0131 01:10:57.059685 25291 net.cpp:148] Top shape: 32 512 14 14 (3211264)
I0131 01:10:57.059695 25291 net.cpp:156] Memory required for data: 4577054720
I0131 01:10:57.059703 25291 layer_factory.hpp:77] Creating layer conv5
I0131 01:10:57.059720 25291 net.cpp:91] Creating Layer conv5
I0131 01:10:57.059729 25291 net.cpp:425] conv5 <- conv4
I0131 01:10:57.059744 25291 net.cpp:399] conv5 -> conv5
I0131 01:10:57.077530 25291 net.cpp:141] Setting up conv5
I0131 01:10:57.077579 25291 net.cpp:148] Top shape: 32 512 14 14 (3211264)
I0131 01:10:57.077594 25291 net.cpp:156] Memory required for data: 4589899776
I0131 01:10:57.077612 25291 layer_factory.hpp:77] Creating layer relu5
I0131 01:10:57.077632 25291 net.cpp:91] Creating Layer relu5
I0131 01:10:57.077642 25291 net.cpp:425] relu5 <- conv5
I0131 01:10:57.077656 25291 net.cpp:386] relu5 -> conv5 (in-place)
I0131 01:10:57.077673 25291 net.cpp:141] Setting up relu5
I0131 01:10:57.077682 25291 net.cpp:148] Top shape: 32 512 14 14 (3211264)
I0131 01:10:57.077690 25291 net.cpp:156] Memory required for data: 4602744832
I0131 01:10:57.077697 25291 layer_factory.hpp:77] Creating layer depth_pool5
I0131 01:10:57.077710 25291 net.cpp:91] Creating Layer depth_pool5
I0131 01:10:57.077718 25291 net.cpp:425] depth_pool5 <- conv5
I0131 01:10:57.077729 25291 net.cpp:399] depth_pool5 -> depth_pool5
I0131 01:10:57.077795 25291 net.cpp:141] Setting up depth_pool5
I0131 01:10:57.077810 25291 net.cpp:148] Top shape: 32 512 7 7 (802816)
I0131 01:10:57.077818 25291 net.cpp:156] Memory required for data: 4605956096
I0131 01:10:57.077826 25291 layer_factory.hpp:77] Creating layer depth_fc6
I0131 01:10:57.077841 25291 net.cpp:91] Creating Layer depth_fc6
I0131 01:10:57.077852 25291 net.cpp:425] depth_fc6 <- depth_pool5
I0131 01:10:57.077863 25291 net.cpp:399] depth_fc6 -> depth_fc6
I0131 01:10:57.695863 25291 net.cpp:141] Setting up depth_fc6
I0131 01:10:57.695907 25291 net.cpp:148] Top shape: 32 4096 (131072)
I0131 01:10:57.695911 25291 net.cpp:156] Memory required for data: 4606480384
I0131 01:10:57.695921 25291 layer_factory.hpp:77] Creating layer depth_relu6
I0131 01:10:57.695935 25291 net.cpp:91] Creating Layer depth_relu6
I0131 01:10:57.695940 25291 net.cpp:425] depth_relu6 <- depth_fc6
I0131 01:10:57.695947 25291 net.cpp:386] depth_relu6 -> depth_fc6 (in-place)
I0131 01:10:57.695955 25291 net.cpp:141] Setting up depth_relu6
I0131 01:10:57.695961 25291 net.cpp:148] Top shape: 32 4096 (131072)
I0131 01:10:57.695966 25291 net.cpp:156] Memory required for data: 4607004672
I0131 01:10:57.695971 25291 layer_factory.hpp:77] Creating layer depth_drop6
I0131 01:10:57.695976 25291 net.cpp:91] Creating Layer depth_drop6
I0131 01:10:57.695981 25291 net.cpp:425] depth_drop6 <- depth_fc6
I0131 01:10:57.695987 25291 net.cpp:386] depth_drop6 -> depth_fc6 (in-place)
I0131 01:10:57.696005 25291 net.cpp:141] Setting up depth_drop6
I0131 01:10:57.696012 25291 net.cpp:148] Top shape: 32 4096 (131072)
I0131 01:10:57.696017 25291 net.cpp:156] Memory required for data: 4607528960
I0131 01:10:57.696022 25291 layer_factory.hpp:77] Creating layer depth_fc7
I0131 01:10:57.696030 25291 net.cpp:91] Creating Layer depth_fc7
I0131 01:10:57.696035 25291 net.cpp:425] depth_fc7 <- depth_fc6
I0131 01:10:57.696040 25291 net.cpp:399] depth_fc7 -> depth_fc7
I0131 01:10:57.778560 25291 net.cpp:141] Setting up depth_fc7
I0131 01:10:57.778599 25291 net.cpp:148] Top shape: 32 4096 (131072)
I0131 01:10:57.778611 25291 net.cpp:156] Memory required for data: 4608053248
I0131 01:10:57.778623 25291 layer_factory.hpp:77] Creating layer depth_relu7
I0131 01:10:57.778640 25291 net.cpp:91] Creating Layer depth_relu7
I0131 01:10:57.778648 25291 net.cpp:425] depth_relu7 <- depth_fc7
I0131 01:10:57.778656 25291 net.cpp:386] depth_relu7 -> depth_fc7 (in-place)
I0131 01:10:57.778666 25291 net.cpp:141] Setting up depth_relu7
I0131 01:10:57.778674 25291 net.cpp:148] Top shape: 32 4096 (131072)
I0131 01:10:57.778679 25291 net.cpp:156] Memory required for data: 4608577536
I0131 01:10:57.778683 25291 layer_factory.hpp:77] Creating layer depth_drop7
I0131 01:10:57.778692 25291 net.cpp:91] Creating Layer depth_drop7
I0131 01:10:57.778697 25291 net.cpp:425] depth_drop7 <- depth_fc7
I0131 01:10:57.778702 25291 net.cpp:386] depth_drop7 -> depth_fc7 (in-place)
I0131 01:10:57.778723 25291 net.cpp:141] Setting up depth_drop7
I0131 01:10:57.778730 25291 net.cpp:148] Top shape: 32 4096 (131072)
I0131 01:10:57.778735 25291 net.cpp:156] Memory required for data: 4609101824
I0131 01:10:57.778739 25291 layer_factory.hpp:77] Creating layer depth_fc7_depth_drop7_0_split
I0131 01:10:57.778753 25291 net.cpp:91] Creating Layer depth_fc7_depth_drop7_0_split
I0131 01:10:57.778759 25291 net.cpp:425] depth_fc7_depth_drop7_0_split <- depth_fc7
I0131 01:10:57.778764 25291 net.cpp:399] depth_fc7_depth_drop7_0_split -> depth_fc7_depth_drop7_0_split_0
I0131 01:10:57.778771 25291 net.cpp:399] depth_fc7_depth_drop7_0_split -> depth_fc7_depth_drop7_0_split_1
I0131 01:10:57.778797 25291 net.cpp:141] Setting up depth_fc7_depth_drop7_0_split
I0131 01:10:57.778805 25291 net.cpp:148] Top shape: 32 4096 (131072)
I0131 01:10:57.778810 25291 net.cpp:148] Top shape: 32 4096 (131072)
I0131 01:10:57.778815 25291 net.cpp:156] Memory required for data: 4610150400
I0131 01:10:57.778818 25291 layer_factory.hpp:77] Creating layer depth_fc8
I0131 01:10:57.778827 25291 net.cpp:91] Creating Layer depth_fc8
I0131 01:10:57.778832 25291 net.cpp:425] depth_fc8 <- depth_fc7_depth_drop7_0_split_0
I0131 01:10:57.778839 25291 net.cpp:399] depth_fc8 -> depth_fc8
I0131 01:10:57.780118 25291 net.cpp:141] Setting up depth_fc8
I0131 01:10:57.780140 25291 net.cpp:148] Top shape: 32 51 (1632)
I0131 01:10:57.780144 25291 net.cpp:156] Memory required for data: 4610156928
I0131 01:10:57.780153 25291 layer_factory.hpp:77] Creating layer depth_fc8_depth_fc8_0_split
I0131 01:10:57.780159 25291 net.cpp:91] Creating Layer depth_fc8_depth_fc8_0_split
I0131 01:10:57.780165 25291 net.cpp:425] depth_fc8_depth_fc8_0_split <- depth_fc8
I0131 01:10:57.780171 25291 net.cpp:399] depth_fc8_depth_fc8_0_split -> depth_fc8_depth_fc8_0_split_0
I0131 01:10:57.780179 25291 net.cpp:399] depth_fc8_depth_fc8_0_split -> depth_fc8_depth_fc8_0_split_1
I0131 01:10:57.780205 25291 net.cpp:141] Setting up depth_fc8_depth_fc8_0_split
I0131 01:10:57.780210 25291 net.cpp:148] Top shape: 32 51 (1632)
I0131 01:10:57.780215 25291 net.cpp:148] Top shape: 32 51 (1632)
I0131 01:10:57.780220 25291 net.cpp:156] Memory required for data: 4610169984
I0131 01:10:57.780225 25291 layer_factory.hpp:77] Creating layer concat
I0131 01:10:57.780237 25291 net.cpp:91] Creating Layer concat
I0131 01:10:57.780243 25291 net.cpp:425] concat <- rgb_fc7_rgb_drop7_0_split_1
I0131 01:10:57.780248 25291 net.cpp:425] concat <- depth_fc7_depth_drop7_0_split_1
I0131 01:10:57.780256 25291 net.cpp:399] concat -> concat
I0131 01:10:57.780272 25291 net.cpp:141] Setting up concat
I0131 01:10:57.780278 25291 net.cpp:148] Top shape: 32 8192 (262144)
I0131 01:10:57.780282 25291 net.cpp:156] Memory required for data: 4611218560
I0131 01:10:57.780287 25291 layer_factory.hpp:77] Creating layer rgbd_fc8
I0131 01:10:57.780294 25291 net.cpp:91] Creating Layer rgbd_fc8
I0131 01:10:57.780299 25291 net.cpp:425] rgbd_fc8 <- concat
I0131 01:10:57.780306 25291 net.cpp:399] rgbd_fc8 -> rgbd_fc8
I0131 01:10:57.783368 25291 net.cpp:141] Setting up rgbd_fc8
I0131 01:10:57.783386 25291 net.cpp:148] Top shape: 32 51 (1632)
I0131 01:10:57.783393 25291 net.cpp:156] Memory required for data: 4611225088
I0131 01:10:57.783401 25291 layer_factory.hpp:77] Creating layer rgbd_fc8_rgbd_fc8_0_split
I0131 01:10:57.783408 25291 net.cpp:91] Creating Layer rgbd_fc8_rgbd_fc8_0_split
I0131 01:10:57.783414 25291 net.cpp:425] rgbd_fc8_rgbd_fc8_0_split <- rgbd_fc8
I0131 01:10:57.783421 25291 net.cpp:399] rgbd_fc8_rgbd_fc8_0_split -> rgbd_fc8_rgbd_fc8_0_split_0
I0131 01:10:57.783429 25291 net.cpp:399] rgbd_fc8_rgbd_fc8_0_split -> rgbd_fc8_rgbd_fc8_0_split_1
I0131 01:10:57.783453 25291 net.cpp:141] Setting up rgbd_fc8_rgbd_fc8_0_split
I0131 01:10:57.783459 25291 net.cpp:148] Top shape: 32 51 (1632)
I0131 01:10:57.783465 25291 net.cpp:148] Top shape: 32 51 (1632)
I0131 01:10:57.783470 25291 net.cpp:156] Memory required for data: 4611238144
I0131 01:10:57.783473 25291 layer_factory.hpp:77] Creating layer rgb_accuracy
I0131 01:10:57.783489 25291 net.cpp:91] Creating Layer rgb_accuracy
I0131 01:10:57.783494 25291 net.cpp:425] rgb_accuracy <- rgb_fc8_rgb_fc8_0_split_0
I0131 01:10:57.783500 25291 net.cpp:425] rgb_accuracy <- label_data_2_split_0
…
I0131 01:10:57.785477 25291 net.cpp:49] Initializing net from parameters: 
state {
  phase: TEST
}
layer {
  name: "data"
  type: "Python"
  top: "rgb"
  top: "depth"
  top: "label"
  python_param {
    module: "data_layers.washington_data_layer"
    layer: "WashingtonDataLayer"
    param_str: "{\'img_size\': (224, 224), \'split\': \'test\', \'dataset_dir\': \'/home/kevin/dataset/washington_rgbd_dataset\', \'randomize\': False, \'mean\': (104.00698793, 116.66876762, 122.67891434), \'seed\': 1337, \'batch_size\': 1, \'crop_size\': (224, 224, 224, 224)}"
  }
}
layer {
  name: "conv1_1"
  type: "Convolution"
  bottom: "rgb"
  top: "conv1_1"
  param {
    name: "conv1_1_w"
    lr_mult: 0
    decay_mult: 1
  }
  param {
    name: "conv1_1_b"
    lr_mult: 0
    decay_mult: 0
  }
  convolution_param {
    num_output: 64
    pad: 1
    kernel_size: 3
    group: 1
    stride: 1
    weight_filler {
      type: "xavier"
    }
  }
}
layer {
  name: "relu1_1"
  type: "ReLU"
  bottom: "conv1_1"
  top: "conv1_1"
}
layer {
  name: "conv1_2"
  type: "Convolution"
  bottom: "conv1_1"
  top: "conv1_2"
  param {
    name: "conv1_2_w"
    lr_mult: 0
    decay_mult: 1
  }
  param {
    name: "conv1_2_b"
    lr_mult: 0
    decay_mult: 0
  }
  convolution_param {
    num_output: 64
    pad: 1
    kernel_size: 3
    group: 1
    stride: 1
    weight_filler {
      type: "xavier"
    }
  }
}
layer {
  name: "relu1_2"
  type: "ReLU"
  bottom: "conv1_2"
  top: "conv1_2"
}
layer {
  name: "rgb_pool1"
  type: "Pooling"
  bottom: "conv1_2"
  top: "rgb_pool1"
  pooling_param {
    pool: MAX
    kernel_size: 2
    stride: 2
  }
}
layer {
  name: "conv2_1"
  type: "Convolution"
  bottom: "rgb_pool1"
  top: "conv2_1"
  param {
    name: "conv2_1_w"
    lr_mult: 0
    decay_mult: 1
  }
  param {
    name: "conv2_1_b"
    lr_mult: 0
    decay_mult: 0
  }
  convolution_param {
    num_output: 128
    pad: 1
    kernel_size: 3
    group: 1
    stride: 1
    weight_filler {
      type: "xavier"
    }
  }
}
layer {
  name: "relu2_1"
  type: "ReLU"
  bottom: "conv2_1"
  top: "conv2_1"
}
layer {
  name: "conv2_2"
  type: "Convolution"
  bottom: "conv2_1"
  top: "conv2_2"
  param {
    name: "conv2_2_w"
    lr_mult: 0
    decay_mult: 1
  }
  param {
    name: "conv2_2_b"
    lr_mult: 0
    decay_mult: 0
  }
  convolution_param {
    num_output: 128
    pad: 1
    kernel_size: 3
    group: 1
    stride: 1
    weight_filler {
      type: "xavier"
    }
  }
}
layer {
  name: "relu2_2"
  type: "ReLU"
  bottom: "conv2_2"
  top: "conv2_2"
}
layer {
  name: "rgb_pool2"
  type: "Pooling"
  bottom: "conv2_2"
  top: "rgb_pool2"
  pooling_param {
    pool: MAX
    kernel_size: 2
    stride: 2
  }
}
layer {
  name: "conv3_1"
  type: "Convolution"
  bottom: "rgb_pool2"
  top: "conv3_1"
  param {
    name: "conv3_1_w"
    lr_mult: 0
    decay_mult: 1
  }
  param {
    name: "conv3_1_b"
    lr_mult: 0
    decay_mult: 0
  }
  convolution_param {
    num_output: 256
    pad: 1
    kernel_size: 3
    group: 1
    stride: 1
    weight_filler {
      type: "xavier"
    }
  }
}
layer {
  name: "relu3_1"
  type: "ReLU"
  bottom: "conv3_1"
  top: "conv3_1"
}
layer {
  name: "conv3_2"
  type: "Convolution"
  bottom: "conv3_1"
  top: "conv3_2"
  param {
    name: "conv3_2_w"
    lr_mult: 0
    decay_mult: 1
  }
  param {
    name: "conv3_2_b"
    lr_mult: 0
    decay_mult: 0
  }
  convolution_param {
    num_output: 256
    pad: 1
    kernel_size: 3
    group: 1
    stride: 1
    weight_filler {
      type: "xavier"
    }
  }
}
layer {
  name: "relu3_2"
  type: "ReLU"
  bottom: "conv3_2"
  top: "conv3_2"
}
layer {
  name: "conv3_3"
  type: "Convolution"
  bottom: "conv3_2"
  top: "conv3_3"
  param {
    name: "conv3_3_w"
    lr_mult: 0
    decay_mult: 1
  }
  param {
    name: "conv3_3_b"
    lr_mult: 0
    decay_mult: 0
  }
  convolution_param {
    num_output: 256
    pad: 1
    kernel_size: 3
    group: 1
    stride: 1
    weight_filler {
      type: "xavier"
    }
  }
}
layer {
  name: "relu3_3"
  type: "ReLU"
  bottom: "conv3_3"
  top: "conv3_3"
}
layer {
  name: "rgb_pool3"
  type: "Pooling"
  bottom: "conv3_3"
  top: "rgb_pool3"
  pooling_param {
    pool: MAX
    kernel_size: 2
    stride: 2
  }
}
layer {
  name: "conv4_1"
  type: "Convolution"
  bottom: "rgb_pool3"
  top: "conv4_1"
  param {
    name: "conv4_1_w"
    lr_mult: 0
    decay_mult: 1
  }
  param {
    name: "conv4_1_b"
    lr_mult: 0
    decay_mult: 0
  }
  convolution_param {
    num_output: 512
    pad: 1
    kernel_size: 3
    group: 1
    stride: 1
    weight_filler {
      type: "xavier"
    }
  }
}
layer {
  name: "relu4_1"
  type: "ReLU"
  bottom: "conv4_1"
  top: "conv4_1"
}
layer {
  name: "conv4_2"
  type: "Convolution"
  bottom: "conv4_1"
  top: "conv4_2"
  param {
    name: "conv4_2_w"
    lr_mult: 0
    decay_mult: 1
  }
  param {
    name: "conv4_2_b"
    lr_mult: 0
    decay_mult: 0
  }
  convolution_param {
    num_output: 512
    pad: 1
    kernel_size: 3
    group: 1
    stride: 1
    weight_filler {
      type: "xavier"
    }
  }
}
layer {
  name: "relu4_2"
  type: "ReLU"
  bottom: "conv4_2"
  top: "conv4_2"
}
layer {
  name: "conv4_3"
  type: "Convolution"
  bottom: "conv4_2"
  top: "conv4_3"
  param {
    name: "conv4_3_w"
    lr_mult: 0
    decay_mult: 1
  }
  param {
    name: "conv4_3_b"
    lr_mult: 0
    decay_mult: 0
  }
  convolution_param {
    num_output: 512
    pad: 1
    kernel_size: 3
    group: 1
    stride: 1
    weight_filler {
      type: "xavier"
    }
  }
}
layer {
  name: "relu4_3"
  type: "ReLU"
  bottom: "conv4_3"
  top: "conv4_3"
}
layer {
  name: "rgb_pool4"
  type: "Pooling"
  bottom: "conv4_3"
  top: "rgb_pool4"
  pooling_param {
    pool: MAX
    kernel_size: 2
    stride: 2
  }
}
layer {
  name: "conv5_1"
  type: "Convolution"
  bottom: "rgb_pool4"
  top: "conv5_1"
  param {
    name: "conv5_1_w"
    lr_mult: 0
    decay_mult: 1
  }
  param {
    name: "conv5_1_b"
    lr_mult: 0
    decay_mult: 0
  }
  convolution_param {
    num_output: 512
    pad: 1
    kernel_size: 3
    group: 1
    stride: 1
    weight_filler {
      type: "xavier"
    }
  }
}
layer {
  name: "relu5_1"
  type: "ReLU"
  bottom: "conv5_1"
  top: "conv5_1"
}
layer {
  name: "conv5_2"
  type: "Convolution"
  bottom: "conv5_1"
  top: "conv5_2"
  param {
    name: "conv5_2_w"
    lr_mult: 0
    decay_mult: 1
  }
  param {
    name: "conv5_2_b"
    lr_mult: 0
    decay_mult: 0
  }
  convolution_param {
    num_output: 512
    pad: 1
    kernel_size: 3
    group: 1
    stride: 1
    weight_filler {
      type: "xavier"
    }
  }
}
layer {
  name: "relu5_2"
  type: "ReLU"
  bottom: "conv5_2"
  top: "conv5_2"
}
layer {
  name: "conv5_3"
  type: "Convolution"
  bottom: "conv5_2"
  top: "conv5_3"
  param {
    name: "conv5_3_w"
    lr_mult: 0
    decay_mult: 1
  }
  param {
    name: "conv5_3_b"
    lr_mult: 0
    decay_mult: 0
  }
  convolution_param {
    num_output: 512
    pad: 1
    kernel_size: 3
    group: 1
    stride: 1
    weight_filler {
      type: "xavier"
    }
  }
}
layer {
  name: "relu5_3"
  type: "ReLU"
  bottom: "conv5_3"
  top: "conv5_3"
}
layer {
  name: "rgb_pool5"
  type: "Pooling"
  bottom: "conv5_3"
  top: "rgb_pool5"
  pooling_param {
    pool: MAX
    kernel_size: 2
    stride: 2
  }
}
layer {
  name: "rgb_fc6"
  type: "InnerProduct"
  bottom: "rgb_pool5"
  top: "rgb_fc6"
  param {
    lr_mult: 1
    decay_mult: 1
  }
  param {
    lr_mult: 2
    decay_mult: 0
  }
  inner_product_param {
    num_output: 4096
    weight_filler {
      type: "xavier"
    }
  }
}
layer {
  name: "rgb_relu6"
  type: "ReLU"
  bottom: "rgb_fc6"
  top: "rgb_fc6"
}
layer {
  name: "rgb_drop6"
  type: "Dropout"
  bottom: "rgb_fc6"
  top: "rgb_fc6"
  dropout_param {
    dropout_ratio: 0.5
  }
}
layer {
  name: "rgb_fc7"
  type: "InnerProduct"
  bottom: "rgb_fc6"
  top: "rgb_fc7"
  param {
    lr_mult: 1
    decay_mult: 1
  }
  param {
    lr_mult: 2
    decay_mult: 0
  }
  inner_product_param {
    num_output: 4096
    weight_filler {
      type: "xavier"
    }
  }
}
layer {
  name: "rgb_relu7"
  type: "ReLU"
  bottom: "rgb_fc7"
  top: "rgb_fc7"
}
layer {
  name: "rgb_drop7"
  type: "Dropout"
  bottom: "rgb_fc7"
  top: "rgb_fc7"
  dropout_param {
    dropout_ratio: 0.5
  }
}
layer {
  name: "rgb_fc8"
  type: "InnerProduct"
  bottom: "rgb_fc7"
  top: "rgb_fc8"
  param {
    lr_mult: 1
    decay_mult: 1
  }
  param {
    lr_mult: 2
    decay_mult: 0
  }
  inner_product_param {
    num_output: 51
    weight_filler {
      type: "xavier"
    }
  }
}
layer {
  name: "conv1"
  type: "Convolution"
  bottom: "depth"
  top: "conv1"
  param {
    name: "conv1_w"
    lr_mult: 0
    decay_mult: 1
  }
  param {
    name: "conv1_b"
    lr_mult: 0
    decay_mult: 0
  }
  convolution_param {
    num_output: 128
    pad: 2
    kernel_size: 5
    group: 1
    stride: 2
    weight_filler {
      type: "xavier"
    }
  }
}
layer {
  name: "relu1"
  type: "ReLU"
  bottom: "conv1"
  top: "conv1"
}
layer {
  name: "depth_pool1"
  type: "Pooling"
  bottom: "conv1"
  top: "depth_pool1"
  pooling_param {
    pool: MAX
    kernel_size: 3
    stride: 2
  }
}
layer {
  name: "norm1"
  type: "LRN"
  bottom: "depth_pool1"
  top: "norm1"
  lrn_param {
    local_size: 5
    alpha: 0.0005
    beta: 0.75
    k: 2
  }
}
layer {
  name: "conv2"
  type: "Convolution"
  bottom: "norm1"
  top: "conv2"
  param {
    name: "conv2_w"
    lr_mult: 0
    decay_mult: 1
  }
  param {
    name: "conv2_b"
    lr_mult: 0
    decay_mult: 0
  }
  convolution_param {
    num_output: 256
    pad: 2
    kernel_size: 5
    group: 1
    stride: 1
    weight_filler {
      type: "xavier"
    }
  }
}
layer {
  name: "relu2"
  type: "ReLU"
  bottom: "conv2"
  top: "conv2"
}
layer {
  name: "depth_pool2"
  type: "Pooling"
  bottom: "conv2"
  top: "depth_pool2"
  pooling_param {
    pool: MAX
    kernel_size: 3
    stride: 2
  }
}
layer {
  name: "norm2"
  type: "LRN"
  bottom: "depth_pool2"
  top: "norm2"
  lrn_param {
    local_size: 5
    alpha: 0.0005
    beta: 0.75
    k: 2
  }
}
layer {
  name: "conv3"
  type: "Convolution"
  bottom: "norm2"
  top: "conv3"
  param {
    name: "conv3_w"
    lr_mult: 0
    decay_mult: 1
  }
  param {
    name: "conv3_b"
    lr_mult: 0
    decay_mult: 0
  }
  convolution_param {
    num_output: 384
    pad: 1
    kernel_size: 3
    group: 2
    stride: 1
    weight_filler {
      type: "xavier"
    }
  }
}
layer {
  name: "relu3"
  type: "ReLU"
  bottom: "conv3"
  top: "conv3"
}
layer {
  name: "depth_pool3"
  type: "Pooling"
  bottom: "conv3"
  top: "depth_pool3"
  pooling_param {
    pool: MAX
    kernel_size: 3
    stride: 2
  }
}
layer {
  name: "conv4"
  type: "Convolution"
  bottom: "depth_pool3"
  top: "conv4"
  param {
    name: "conv4_w"
    lr_mult: 0
    decay_mult: 1
  }
  param {
    name: "conv4_b"
    lr_mult: 0
    decay_mult: 0
  }
  convolution_param {
    num_output: 512
    pad: 1
    kernel_size: 3
    group: 1
    stride: 1
    weight_filler {
      type: "xavier"
    }
  }
}
layer {
  name: "relu4"
  type: "ReLU"
  bottom: "conv4"
  top: "conv4"
}
layer {
  name: "conv5"
  type: "Convolution"
  bottom: "conv4"
  top: "conv5"
  param {
    name: "conv5_w"
    lr_mult: 0
    decay_mult: 1
  }
  param {
    name: "conv5_b"
    lr_mult: 0
    decay_mult: 0
  }
  convolution_param {
    num_output: 512
    pad: 1
    kernel_size: 3
    group: 1
    stride: 1
    weight_filler {
      type: "xavier"
    }
  }
}
layer {
  name: "relu5"
  type: "ReLU"
  bottom: "conv5"
  top: "conv5"
}
layer {
  name: "depth_pool5"
  type: "Pooling"
  bottom: "conv5"
  top: "depth_pool5"
  pooling_param {
    pool: MAX
    kernel_size: 3
    stride: 2
  }
}
layer {
  name: "depth_fc6"
  type: "InnerProduct"
  bottom: "depth_pool5"
  top: "depth_fc6"
  param {
    lr_mult: 1
    decay_mult: 1
  }
  param {
    lr_mult: 2
    decay_mult: 0
  }
  inner_product_param {
    num_output: 4096
    weight_filler {
      type: "xavier"
    }
  }
}
layer {
  name: "depth_relu6"
  type: "ReLU"
  bottom: "depth_fc6"
  top: "depth_fc6"
}
layer {
  name: "depth_drop6"
  type: "Dropout"
  bottom: "depth_fc6"
  top: "depth_fc6"
  dropout_param {
    dropout_ratio: 0.5
  }
}
layer {
  name: "depth_fc7"
  type: "InnerProduct"
  bottom: "depth_fc6"
  top: "depth_fc7"
  param {
    lr_mult: 1
    decay_mult: 1
  }
  param {
    lr_mult: 2
    decay_mult: 0
  }
  inner_product_param {
    num_output: 4096
    weight_filler {
      type: "xavier"
    }
  }
}
layer {
  name: "depth_relu7"
  type: "ReLU"
  bottom: "depth_fc7"
  top: "depth_fc7"
}
layer {
  name: "depth_drop7"
  type: "Dropout"
  bottom: "depth_fc7"
  top: "depth_fc7"
  dropout_param {
    dropout_ratio: 0.5
  }
}
layer {
  name: "depth_fc8"
  type: "InnerProduct"
  bottom: "depth_fc7"
  top: "depth_fc8"
  param {
    lr_mult: 1
    decay_mult: 1
  }
  param {
    lr_mult: 2
    decay_mult: 0
  }
  inner_product_param {
    num_output: 51
    weight_filler {
      type: "xavier"
    }
  }
}
layer {
  name: "concat"
  type: "Concat"
  bottom: "rgb_fc7"
  bottom: "depth_fc7"
  top: "concat"
  concat_param {
    axis: 1
  }
}
layer {
  name: "rgbd_fc8"
  type: "InnerProduct"
  bottom: "concat"
  top: "rgbd_fc8"
  param {
    lr_mult: 1
    decay_mult: 1
  }
  param {
    lr_mult: 2
    decay_mult: 0
  }
  inner_product_param {
    num_output: 51
    weight_filler {
      type: "xavier"
    }
  }
}
layer {
  name: "rgb_accuracy"
  type: "Accuracy"
  bottom: "rgb_fc8"
  bottom: "label"
  top: "rgb_accuracy"
}
layer {
  name: "rgb_loss"
  type: "SoftmaxWithLoss"
  bottom: "rgb_fc8"
  bottom: "label"
  top: "rgb_loss"
}
layer {
  name: "depth_accuracy"
  type: "Accuracy"
  bottom: "depth_fc8"
  bottom: "label"
  top: "depth_accuracy"
}
layer {
  name: "depth_loss"
  type: "SoftmaxWithLoss"
  bottom: "depth_fc8"
  bottom: "label"
  top: "depth_loss"
}
layer {
  name: "rgbd_accuracy"
  type: "Accuracy"
  bottom: "rgbd_fc8"
  bottom: "label"
  top: "rgbd_accuracy"
}
layer {
  name: "rgbd_loss"
  type: "SoftmaxWithLoss"
  bottom: "rgbd_fc8"
  bottom: "label"
  top: "rgbd_loss"
}
I0131 01:10:57.787792 25291 layer_factory.hpp:77] Creating layer data
I0131 01:10:57.787847 25291 net.cpp:91] Creating Layer data
I0131 01:10:57.787855 25291 net.cpp:399] data -> rgb
I0131 01:10:57.787863 25291 net.cpp:399] data -> depth
I0131 01:10:57.787868 25291 net.cpp:399] data -> label
{'img_size': (224, 224), 'split': 'test', 'dataset_dir': '/home/kevin/dataset/washington_rgbd_dataset', 'crop_size': (224, 224, 224, 224), 'randomize': False, 'seed': 1337, 'batch_size': 1, 'mean': (104.00698793, 116.66876762, 122.67891434)}
I0131 01:10:57.791038 25291 net.cpp:141] Setting up data
I0131 01:10:57.791061 25291 net.cpp:148] Top shape: 1 3 224 224 (150528)
I0131 01:10:57.791067 25291 net.cpp:148] Top shape: 1 1 224 224 (50176)
I0131 01:10:57.791074 25291 net.cpp:148] Top shape: 1 1 (1)
I0131 01:10:57.791077 25291 net.cpp:156] Memory required for data: 802820
I0131 01:10:57.791085 25291 layer_factory.hpp:77] Creating layer label_data_2_split
I0131 01:10:57.791093 25291 net.cpp:91] Creating Layer label_data_2_split
I0131 01:10:57.791100 25291 net.cpp:425] label_data_2_split <- label
I0131 01:10:57.791106 25291 net.cpp:399] label_data_2_split -> label_data_2_split_0
I0131 01:10:57.791115 25291 net.cpp:399] label_data_2_split -> label_data_2_split_1
I0131 01:10:57.791121 25291 net.cpp:399] label_data_2_split -> label_data_2_split_2
I0131 01:10:57.791126 25291 net.cpp:399] label_data_2_split -> label_data_2_split_3
I0131 01:10:57.791131 25291 net.cpp:399] label_data_2_split -> label_data_2_split_4
I0131 01:10:57.791137 25291 net.cpp:399] label_data_2_split -> label_data_2_split_5
I0131 01:10:57.791188 25291 net.cpp:141] Setting up label_data_2_split
I0131 01:10:57.791194 25291 net.cpp:148] Top shape: 1 1 (1)
I0131 01:10:57.791199 25291 net.cpp:148] Top shape: 1 1 (1)
I0131 01:10:57.791204 25291 net.cpp:148] Top shape: 1 1 (1)
I0131 01:10:57.791209 25291 net.cpp:148] Top shape: 1 1 (1)
I0131 01:10:57.791214 25291 net.cpp:148] Top shape: 1 1 (1)
I0131 01:10:57.791219 25291 net.cpp:148] Top shape: 1 1 (1)
I0131 01:10:57.791224 25291 net.cpp:156] Memory required for data: 802844
I0131 01:10:57.791229 25291 layer_factory.hpp:77] Creating layer conv1_1
I0131 01:10:57.791239 25291 net.cpp:91] Creating Layer conv1_1
I0131 01:10:57.791244 25291 net.cpp:425] conv1_1 <- rgb
I0131 01:10:57.791250 25291 net.cpp:399] conv1_1 -> conv1_1
I0131 01:10:57.791422 25291 net.cpp:141] Setting up conv1_1
I0131 01:10:57.791430 25291 net.cpp:148] Top shape: 1 64 224 224 (3211264)
I0131 01:10:57.791435 25291 net.cpp:156] Memory required for data: 13647900
I0131 01:10:57.791445 25291 layer_factory.hpp:77] Creating layer relu1_1
I0131 01:10:57.791450 25291 net.cpp:91] Creating Layer relu1_1
I0131 01:10:57.791455 25291 net.cpp:425] relu1_1 <- conv1_1
I0131 01:10:57.791460 25291 net.cpp:386] relu1_1 -> conv1_1 (in-place)
I0131 01:10:57.791465 25291 net.cpp:141] Setting up relu1_1
I0131 01:10:57.791471 25291 net.cpp:148] Top shape: 1 64 224 224 (3211264)
I0131 01:10:57.791476 25291 net.cpp:156] Memory required for data: 26492956
I0131 01:10:57.791479 25291 layer_factory.hpp:77] Creating layer conv1_2
I0131 01:10:57.791487 25291 net.cpp:91] Creating Layer conv1_2
I0131 01:10:57.791492 25291 net.cpp:425] conv1_2 <- conv1_1
I0131 01:10:57.791497 25291 net.cpp:399] conv1_2 -> conv1_2
I0131 01:10:57.792105 25291 net.cpp:141] Setting up conv1_2
I0131 01:10:57.792117 25291 net.cpp:148] Top shape: 1 64 224 224 (3211264)
I0131 01:10:57.792122 25291 net.cpp:156] Memory required for data: 39338012
I0131 01:10:57.792131 25291 layer_factory.hpp:77] Creating layer relu1_2
I0131 01:10:57.792138 25291 net.cpp:91] Creating Layer relu1_2
I0131 01:10:57.792145 25291 net.cpp:425] relu1_2 <- conv1_2
I0131 01:10:57.792150 25291 net.cpp:386] relu1_2 -> conv1_2 (in-place)
I0131 01:10:57.792156 25291 net.cpp:141] Setting up relu1_2
I0131 01:10:57.792161 25291 net.cpp:148] Top shape: 1 64 224 224 (3211264)
I0131 01:10:57.792166 25291 net.cpp:156] Memory required for data: 52183068
I0131 01:10:57.792171 25291 layer_factory.hpp:77] Creating layer rgb_pool1
I0131 01:10:57.792177 25291 net.cpp:91] Creating Layer rgb_pool1
I0131 01:10:57.792182 25291 net.cpp:425] rgb_pool1 <- conv1_2
I0131 01:10:57.792187 25291 net.cpp:399] rgb_pool1 -> rgb_pool1
I0131 01:10:57.792213 25291 net.cpp:141] Setting up rgb_pool1
I0131 01:10:57.792220 25291 net.cpp:148] Top shape: 1 64 112 112 (802816)
I0131 01:10:57.792224 25291 net.cpp:156] Memory required for data: 55394332
I0131 01:10:57.792229 25291 layer_factory.hpp:77] Creating layer conv2_1
I0131 01:10:57.792237 25291 net.cpp:91] Creating Layer conv2_1
I0131 01:10:57.792242 25291 net.cpp:425] conv2_1 <- rgb_pool1
I0131 01:10:57.792248 25291 net.cpp:399] conv2_1 -> conv2_1
I0131 01:10:57.792917 25291 net.cpp:141] Setting up conv2_1
I0131 01:10:57.792929 25291 net.cpp:148] Top shape: 1 128 112 112 (1605632)
I0131 01:10:57.792934 25291 net.cpp:156] Memory required for data: 61816860
I0131 01:10:57.792942 25291 layer_factory.hpp:77] Creating layer relu2_1
I0131 01:10:57.792948 25291 net.cpp:91] Creating Layer relu2_1
I0131 01:10:57.792953 25291 net.cpp:425] relu2_1 <- conv2_1
I0131 01:10:57.792958 25291 net.cpp:386] relu2_1 -> conv2_1 (in-place)
I0131 01:10:57.792964 25291 net.cpp:141] Setting up relu2_1
I0131 01:10:57.792970 25291 net.cpp:148] Top shape: 1 128 112 112 (1605632)
I0131 01:10:57.792974 25291 net.cpp:156] Memory required for data: 68239388
I0131 01:10:57.792979 25291 layer_factory.hpp:77] Creating layer conv2_2
I0131 01:10:57.792986 25291 net.cpp:91] Creating Layer conv2_2
I0131 01:10:57.792991 25291 net.cpp:425] conv2_2 <- conv2_1
I0131 01:10:57.792996 25291 net.cpp:399] conv2_2 -> conv2_2
I0131 01:10:57.793701 25291 net.cpp:141] Setting up conv2_2
I0131 01:10:57.793709 25291 net.cpp:148] Top shape: 1 128 112 112 (1605632)
I0131 01:10:57.793715 25291 net.cpp:156] Memory required for data: 74661916
I0131 01:10:57.793720 25291 layer_factory.hpp:77] Creating layer relu2_2
I0131 01:10:57.793726 25291 net.cpp:91] Creating Layer relu2_2
I0131 01:10:57.793731 25291 net.cpp:425] relu2_2 <- conv2_2
I0131 01:10:57.793736 25291 net.cpp:386] relu2_2 -> conv2_2 (in-place)
I0131 01:10:57.793742 25291 net.cpp:141] Setting up relu2_2
I0131 01:10:57.793747 25291 net.cpp:148] Top shape: 1 128 112 112 (1605632)
I0131 01:10:57.793751 25291 net.cpp:156] Memory required for data: 81084444
I0131 01:10:57.793756 25291 layer_factory.hpp:77] Creating layer rgb_pool2
I0131 01:10:57.793762 25291 net.cpp:91] Creating Layer rgb_pool2
I0131 01:10:57.793766 25291 net.cpp:425] rgb_pool2 <- conv2_2
I0131 01:10:57.793771 25291 net.cpp:399] rgb_pool2 -> rgb_pool2
I0131 01:10:57.793795 25291 net.cpp:141] Setting up rgb_pool2
I0131 01:10:57.793802 25291 net.cpp:148] Top shape: 1 128 56 56 (401408)
I0131 01:10:57.793805 25291 net.cpp:156] Memory required for data: 82690076
I0131 01:10:57.793809 25291 layer_factory.hpp:77] Creating layer conv3_1
I0131 01:10:57.793817 25291 net.cpp:91] Creating Layer conv3_1
I0131 01:10:57.793820 25291 net.cpp:425] conv3_1 <- rgb_pool2
I0131 01:10:57.793828 25291 net.cpp:399] conv3_1 -> conv3_1
I0131 01:10:57.795382 25291 net.cpp:141] Setting up conv3_1
I0131 01:10:57.795394 25291 net.cpp:148] Top shape: 1 256 56 56 (802816)
I0131 01:10:57.795399 25291 net.cpp:156] Memory required for data: 85901340
I0131 01:10:57.795408 25291 layer_factory.hpp:77] Creating layer relu3_1
I0131 01:10:57.795413 25291 net.cpp:91] Creating Layer relu3_1
I0131 01:10:57.795418 25291 net.cpp:425] relu3_1 <- conv3_1
I0131 01:10:57.795424 25291 net.cpp:386] relu3_1 -> conv3_1 (in-place)
I0131 01:10:57.795430 25291 net.cpp:141] Setting up relu3_1
I0131 01:10:57.795436 25291 net.cpp:148] Top shape: 1 256 56 56 (802816)
I0131 01:10:57.795440 25291 net.cpp:156] Memory required for data: 89112604
I0131 01:10:57.795445 25291 layer_factory.hpp:77] Creating layer conv3_2
I0131 01:10:57.795452 25291 net.cpp:91] Creating Layer conv3_2
I0131 01:10:57.795457 25291 net.cpp:425] conv3_2 <- conv3_1
I0131 01:10:57.795464 25291 net.cpp:399] conv3_2 -> conv3_2
I0131 01:10:57.798466 25291 net.cpp:141] Setting up conv3_2
I0131 01:10:57.798493 25291 net.cpp:148] Top shape: 1 256 56 56 (802816)
I0131 01:10:57.798497 25291 net.cpp:156] Memory required for data: 92323868
I0131 01:10:57.798506 25291 layer_factory.hpp:77] Creating layer relu3_2
I0131 01:10:57.798514 25291 net.cpp:91] Creating Layer relu3_2
I0131 01:10:57.798519 25291 net.cpp:425] relu3_2 <- conv3_2
I0131 01:10:57.798526 25291 net.cpp:386] relu3_2 -> conv3_2 (in-place)
I0131 01:10:57.798532 25291 net.cpp:141] Setting up relu3_2
I0131 01:10:57.798537 25291 net.cpp:148] Top shape: 1 256 56 56 (802816)
I0131 01:10:57.798540 25291 net.cpp:156] Memory required for data: 95535132
I0131 01:10:57.798544 25291 layer_factory.hpp:77] Creating layer conv3_3
I0131 01:10:57.798554 25291 net.cpp:91] Creating Layer conv3_3
I0131 01:10:57.798558 25291 net.cpp:425] conv3_3 <- conv3_2
I0131 01:10:57.798563 25291 net.cpp:399] conv3_3 -> conv3_3
I0131 01:10:57.801718 25291 net.cpp:141] Setting up conv3_3
I0131 01:10:57.801753 25291 net.cpp:148] Top shape: 1 256 56 56 (802816)
I0131 01:10:57.801759 25291 net.cpp:156] Memory required for data: 98746396
I0131 01:10:57.801769 25291 layer_factory.hpp:77] Creating layer relu3_3
I0131 01:10:57.801779 25291 net.cpp:91] Creating Layer relu3_3
I0131 01:10:57.801785 25291 net.cpp:425] relu3_3 <- conv3_3
I0131 01:10:57.801793 25291 net.cpp:386] relu3_3 -> conv3_3 (in-place)
I0131 01:10:57.801801 25291 net.cpp:141] Setting up relu3_3
I0131 01:10:57.801807 25291 net.cpp:148] Top shape: 1 256 56 56 (802816)
I0131 01:10:57.801811 25291 net.cpp:156] Memory required for data: 101957660
I0131 01:10:57.801816 25291 layer_factory.hpp:77] Creating layer rgb_pool3
I0131 01:10:57.801823 25291 net.cpp:91] Creating Layer rgb_pool3
I0131 01:10:57.801828 25291 net.cpp:425] rgb_pool3 <- conv3_3
I0131 01:10:57.801834 25291 net.cpp:399] rgb_pool3 -> rgb_pool3
I0131 01:10:57.801862 25291 net.cpp:141] Setting up rgb_pool3
I0131 01:10:57.801868 25291 net.cpp:148] Top shape: 1 256 28 28 (200704)
I0131 01:10:57.801872 25291 net.cpp:156] Memory required for data: 102760476
I0131 01:10:57.801878 25291 layer_factory.hpp:77] Creating layer conv4_1
I0131 01:10:57.801887 25291 net.cpp:91] Creating Layer conv4_1
I0131 01:10:57.801892 25291 net.cpp:425] conv4_1 <- rgb_pool3
I0131 01:10:57.801898 25291 net.cpp:399] conv4_1 -> conv4_1
I0131 01:10:57.808048 25291 net.cpp:141] Setting up conv4_1
I0131 01:10:57.808104 25291 net.cpp:148] Top shape: 1 512 28 28 (401408)
I0131 01:10:57.808115 25291 net.cpp:156] Memory required for data: 104366108
I0131 01:10:57.808133 25291 layer_factory.hpp:77] Creating layer relu4_1
I0131 01:10:57.808151 25291 net.cpp:91] Creating Layer relu4_1
I0131 01:10:57.808163 25291 net.cpp:425] relu4_1 <- conv4_1
I0131 01:10:57.808174 25291 net.cpp:386] relu4_1 -> conv4_1 (in-place)
I0131 01:10:57.808187 25291 net.cpp:141] Setting up relu4_1
I0131 01:10:57.808193 25291 net.cpp:148] Top shape: 1 512 28 28 (401408)
I0131 01:10:57.808198 25291 net.cpp:156] Memory required for data: 105971740
I0131 01:10:57.808203 25291 layer_factory.hpp:77] Creating layer conv4_2
I0131 01:10:57.808215 25291 net.cpp:91] Creating Layer conv4_2
I0131 01:10:57.808221 25291 net.cpp:425] conv4_2 <- conv4_1
I0131 01:10:57.808229 25291 net.cpp:399] conv4_2 -> conv4_2
I0131 01:10:57.824722 25291 net.cpp:141] Setting up conv4_2
I0131 01:10:57.824793 25291 net.cpp:148] Top shape: 1 512 28 28 (401408)
I0131 01:10:57.824811 25291 net.cpp:156] Memory required for data: 107577372
I0131 01:10:57.824841 25291 layer_factory.hpp:77] Creating layer relu4_2
I0131 01:10:57.824861 25291 net.cpp:91] Creating Layer relu4_2
I0131 01:10:57.824873 25291 net.cpp:425] relu4_2 <- conv4_2
I0131 01:10:57.824887 25291 net.cpp:386] relu4_2 -> conv4_2 (in-place)
I0131 01:10:57.824900 25291 net.cpp:141] Setting up relu4_2
I0131 01:10:57.824910 25291 net.cpp:148] Top shape: 1 512 28 28 (401408)
I0131 01:10:57.824918 25291 net.cpp:156] Memory required for data: 109183004
I0131 01:10:57.824924 25291 layer_factory.hpp:77] Creating layer conv4_3
I0131 01:10:57.824939 25291 net.cpp:91] Creating Layer conv4_3
I0131 01:10:57.824949 25291 net.cpp:425] conv4_3 <- conv4_2
I0131 01:10:57.824960 25291 net.cpp:399] conv4_3 -> conv4_3
I0131 01:10:57.840930 25291 net.cpp:141] Setting up conv4_3
I0131 01:10:57.840988 25291 net.cpp:148] Top shape: 1 512 28 28 (401408)
I0131 01:10:57.841004 25291 net.cpp:156] Memory required for data: 110788636
I0131 01:10:57.841023 25291 layer_factory.hpp:77] Creating layer relu4_3
I0131 01:10:57.841042 25291 net.cpp:91] Creating Layer relu4_3
I0131 01:10:57.841054 25291 net.cpp:425] relu4_3 <- conv4_3
I0131 01:10:57.841066 25291 net.cpp:386] relu4_3 -> conv4_3 (in-place)
I0131 01:10:57.841081 25291 net.cpp:141] Setting up relu4_3
I0131 01:10:57.841090 25291 net.cpp:148] Top shape: 1 512 28 28 (401408)
I0131 01:10:57.841099 25291 net.cpp:156] Memory required for data: 112394268
I0131 01:10:57.841106 25291 layer_factory.hpp:77] Creating layer rgb_pool4
I0131 01:10:57.841119 25291 net.cpp:91] Creating Layer rgb_pool4
I0131 01:10:57.841126 25291 net.cpp:425] rgb_pool4 <- conv4_3
I0131 01:10:57.841136 25291 net.cpp:399] rgb_pool4 -> rgb_pool4
I0131 01:10:57.841197 25291 net.cpp:141] Setting up rgb_pool4
I0131 01:10:57.841209 25291 net.cpp:148] Top shape: 1 512 14 14 (100352)
I0131 01:10:57.841217 25291 net.cpp:156] Memory required for data: 112795676
I0131 01:10:57.841224 25291 layer_factory.hpp:77] Creating layer conv5_1
I0131 01:10:57.841238 25291 net.cpp:91] Creating Layer conv5_1
I0131 01:10:57.841246 25291 net.cpp:425] conv5_1 <- rgb_pool4
I0131 01:10:57.841255 25291 net.cpp:399] conv5_1 -> conv5_1
I0131 01:10:57.855901 25291 net.cpp:141] Setting up conv5_1
I0131 01:10:57.855962 25291 net.cpp:148] Top shape: 1 512 14 14 (100352)
I0131 01:10:57.855975 25291 net.cpp:156] Memory required for data: 113197084
I0131 01:10:57.856000 25291 layer_factory.hpp:77] Creating layer relu5_1
I0131 01:10:57.856020 25291 net.cpp:91] Creating Layer relu5_1
I0131 01:10:57.856032 25291 net.cpp:425] relu5_1 <- conv5_1
I0131 01:10:57.856047 25291 net.cpp:386] relu5_1 -> conv5_1 (in-place)
I0131 01:10:57.856065 25291 net.cpp:141] Setting up relu5_1
I0131 01:10:57.856076 25291 net.cpp:148] Top shape: 1 512 14 14 (100352)
I0131 01:10:57.856083 25291 net.cpp:156] Memory required for data: 113598492
I0131 01:10:57.856091 25291 layer_factory.hpp:77] Creating layer conv5_2
I0131 01:10:57.856108 25291 net.cpp:91] Creating Layer conv5_2
I0131 01:10:57.856118 25291 net.cpp:425] conv5_2 <- conv5_1
I0131 01:10:57.856132 25291 net.cpp:399] conv5_2 -> conv5_2
I0131 01:10:57.869657 25291 net.cpp:141] Setting up conv5_2
I0131 01:10:57.869709 25291 net.cpp:148] Top shape: 1 512 14 14 (100352)
I0131 01:10:57.869724 25291 net.cpp:156] Memory required for data: 113999900
I0131 01:10:57.869742 25291 layer_factory.hpp:77] Creating layer relu5_2
I0131 01:10:57.869756 25291 net.cpp:91] Creating Layer relu5_2
I0131 01:10:57.869765 25291 net.cpp:425] relu5_2 <- conv5_2
I0131 01:10:57.869774 25291 net.cpp:386] relu5_2 -> conv5_2 (in-place)
I0131 01:10:57.869791 25291 net.cpp:141] Setting up relu5_2
I0131 01:10:57.869806 25291 net.cpp:148] Top shape: 1 512 14 14 (100352)
I0131 01:10:57.869813 25291 net.cpp:156] Memory required for data: 114401308
I0131 01:10:57.869820 25291 layer_factory.hpp:77] Creating layer conv5_3
I0131 01:10:57.869833 25291 net.cpp:91] Creating Layer conv5_3
I0131 01:10:57.869839 25291 net.cpp:425] conv5_3 <- conv5_2
I0131 01:10:57.869848 25291 net.cpp:399] conv5_3 -> conv5_3
I0131 01:10:57.883724 25291 net.cpp:141] Setting up conv5_3
I0131 01:10:57.883770 25291 net.cpp:148] Top shape: 1 512 14 14 (100352)
I0131 01:10:57.883780 25291 net.cpp:156] Memory required for data: 114802716
I0131 01:10:57.883795 25291 layer_factory.hpp:77] Creating layer relu5_3
I0131 01:10:57.883808 25291 net.cpp:91] Creating Layer relu5_3
I0131 01:10:57.883817 25291 net.cpp:425] relu5_3 <- conv5_3
I0131 01:10:57.883826 25291 net.cpp:386] relu5_3 -> conv5_3 (in-place)
I0131 01:10:57.883837 25291 net.cpp:141] Setting up relu5_3
I0131 01:10:57.883846 25291 net.cpp:148] Top shape: 1 512 14 14 (100352)
I0131 01:10:57.883859 25291 net.cpp:156] Memory required for data: 115204124
I0131 01:10:57.883865 25291 layer_factory.hpp:77] Creating layer rgb_pool5
I0131 01:10:57.883879 25291 net.cpp:91] Creating Layer rgb_pool5
I0131 01:10:57.883886 25291 net.cpp:425] rgb_pool5 <- conv5_3
I0131 01:10:57.883898 25291 net.cpp:399] rgb_pool5 -> rgb_pool5
I0131 01:10:57.883968 25291 net.cpp:141] Setting up rgb_pool5
I0131 01:10:57.883980 25291 net.cpp:148] Top shape: 1 512 7 7 (25088)
I0131 01:10:57.883985 25291 net.cpp:156] Memory required for data: 115304476
I0131 01:10:57.883991 25291 layer_factory.hpp:77] Creating layer rgb_fc6
I0131 01:10:57.884002 25291 net.cpp:91] Creating Layer rgb_fc6
I0131 01:10:57.884008 25291 net.cpp:425] rgb_fc6 <- rgb_pool5
I0131 01:10:57.884016 25291 net.cpp:399] rgb_fc6 -> rgb_fc6
I0131 01:10:58.447971 25291 net.cpp:141] Setting up rgb_fc6
I0131 01:10:58.448019 25291 net.cpp:148] Top shape: 1 4096 (4096)
I0131 01:10:58.448035 25291 net.cpp:156] Memory required for data: 115320860
I0131 01:10:58.448051 25291 layer_factory.hpp:77] Creating layer rgb_relu6
I0131 01:10:58.448065 25291 net.cpp:91] Creating Layer rgb_relu6
I0131 01:10:58.448074 25291 net.cpp:425] rgb_relu6 <- rgb_fc6
I0131 01:10:58.448083 25291 net.cpp:386] rgb_relu6 -> rgb_fc6 (in-place)
I0131 01:10:58.448096 25291 net.cpp:141] Setting up rgb_relu6
I0131 01:10:58.448103 25291 net.cpp:148] Top shape: 1 4096 (4096)
I0131 01:10:58.448109 25291 net.cpp:156] Memory required for data: 115337244
I0131 01:10:58.448114 25291 layer_factory.hpp:77] Creating layer rgb_drop6
I0131 01:10:58.448123 25291 net.cpp:91] Creating Layer rgb_drop6
I0131 01:10:58.448129 25291 net.cpp:425] rgb_drop6 <- rgb_fc6
I0131 01:10:58.448137 25291 net.cpp:386] rgb_drop6 -> rgb_fc6 (in-place)
I0131 01:10:58.448173 25291 net.cpp:141] Setting up rgb_drop6
I0131 01:10:58.448181 25291 net.cpp:148] Top shape: 1 4096 (4096)
I0131 01:10:58.448185 25291 net.cpp:156] Memory required for data: 115353628
I0131 01:10:58.448191 25291 layer_factory.hpp:77] Creating layer rgb_fc7
I0131 01:10:58.448200 25291 net.cpp:91] Creating Layer rgb_fc7
I0131 01:10:58.448206 25291 net.cpp:425] rgb_fc7 <- rgb_fc6
I0131 01:10:58.448213 25291 net.cpp:399] rgb_fc7 -> rgb_fc7
I0131 01:10:58.544797 25291 net.cpp:141] Setting up rgb_fc7
I0131 01:10:58.544839 25291 net.cpp:148] Top shape: 1 4096 (4096)
I0131 01:10:58.544847 25291 net.cpp:156] Memory required for data: 115370012
I0131 01:10:58.544864 25291 layer_factory.hpp:77] Creating layer rgb_relu7
I0131 01:10:58.544878 25291 net.cpp:91] Creating Layer rgb_relu7
I0131 01:10:58.544889 25291 net.cpp:425] rgb_relu7 <- rgb_fc7
I0131 01:10:58.544898 25291 net.cpp:386] rgb_relu7 -> rgb_fc7 (in-place)
I0131 01:10:58.544909 25291 net.cpp:141] Setting up rgb_relu7
I0131 01:10:58.544915 25291 net.cpp:148] Top shape: 1 4096 (4096)
I0131 01:10:58.544919 25291 net.cpp:156] Memory required for data: 115386396
I0131 01:10:58.544924 25291 layer_factory.hpp:77] Creating layer rgb_drop7
I0131 01:10:58.544932 25291 net.cpp:91] Creating Layer rgb_drop7
I0131 01:10:58.544941 25291 net.cpp:425] rgb_drop7 <- rgb_fc7
I0131 01:10:58.544950 25291 net.cpp:386] rgb_drop7 -> rgb_fc7 (in-place)
I0131 01:10:58.544989 25291 net.cpp:141] Setting up rgb_drop7
I0131 01:10:58.544998 25291 net.cpp:148] Top shape: 1 4096 (4096)
I0131 01:10:58.545004 25291 net.cpp:156] Memory required for data: 115402780
I0131 01:10:58.545009 25291 layer_factory.hpp:77] Creating layer rgb_fc7_rgb_drop7_0_split
I0131 01:10:58.545017 25291 net.cpp:91] Creating Layer rgb_fc7_rgb_drop7_0_split
I0131 01:10:58.545023 25291 net.cpp:425] rgb_fc7_rgb_drop7_0_split <- rgb_fc7
I0131 01:10:58.545029 25291 net.cpp:399] rgb_fc7_rgb_drop7_0_split -> rgb_fc7_rgb_drop7_0_split_0
I0131 01:10:58.545037 25291 net.cpp:399] rgb_fc7_rgb_drop7_0_split -> rgb_fc7_rgb_drop7_0_split_1
I0131 01:10:58.545073 25291 net.cpp:141] Setting up rgb_fc7_rgb_drop7_0_split
I0131 01:10:58.545080 25291 net.cpp:148] Top shape: 1 4096 (4096)
I0131 01:10:58.545086 25291 net.cpp:148] Top shape: 1 4096 (4096)
I0131 01:10:58.545091 25291 net.cpp:156] Memory required for data: 115435548
I0131 01:10:58.545096 25291 layer_factory.hpp:77] Creating layer rgb_fc8
I0131 01:10:58.545105 25291 net.cpp:91] Creating Layer rgb_fc8
I0131 01:10:58.545111 25291 net.cpp:425] rgb_fc8 <- rgb_fc7_rgb_drop7_0_split_0
I0131 01:10:58.545119 25291 net.cpp:399] rgb_fc8 -> rgb_fc8
I0131 01:10:58.546550 25291 net.cpp:141] Setting up rgb_fc8
I0131 01:10:58.546566 25291 net.cpp:148] Top shape: 1 51 (51)
I0131 01:10:58.546571 25291 net.cpp:156] Memory required for data: 115435752
I0131 01:10:58.546579 25291 layer_factory.hpp:77] Creating layer rgb_fc8_rgb_fc8_0_split
I0131 01:10:58.546586 25291 net.cpp:91] Creating Layer rgb_fc8_rgb_fc8_0_split
I0131 01:10:58.546593 25291 net.cpp:425] rgb_fc8_rgb_fc8_0_split <- rgb_fc8
I0131 01:10:58.546600 25291 net.cpp:399] rgb_fc8_rgb_fc8_0_split -> rgb_fc8_rgb_fc8_0_split_0
I0131 01:10:58.546612 25291 net.cpp:399] rgb_fc8_rgb_fc8_0_split -> rgb_fc8_rgb_fc8_0_split_1
I0131 01:10:58.546641 25291 net.cpp:141] Setting up rgb_fc8_rgb_fc8_0_split
I0131 01:10:58.546649 25291 net.cpp:148] Top shape: 1 51 (51)
I0131 01:10:58.546655 25291 net.cpp:148] Top shape: 1 51 (51)
I0131 01:10:58.546659 25291 net.cpp:156] Memory required for data: 115436160
I0131 01:10:58.546665 25291 layer_factory.hpp:77] Creating layer conv1
I0131 01:10:58.546675 25291 net.cpp:91] Creating Layer conv1
I0131 01:10:58.546681 25291 net.cpp:425] conv1 <- depth
I0131 01:10:58.546689 25291 net.cpp:399] conv1 -> conv1
I0131 01:10:58.546885 25291 net.cpp:141] Setting up conv1
I0131 01:10:58.546893 25291 net.cpp:148] Top shape: 1 128 112 112 (1605632)
I0131 01:10:58.546900 25291 net.cpp:156] Memory required for data: 121858688
I0131 01:10:58.546910 25291 layer_factory.hpp:77] Creating layer relu1
I0131 01:10:58.546917 25291 net.cpp:91] Creating Layer relu1
I0131 01:10:58.546923 25291 net.cpp:425] relu1 <- conv1
I0131 01:10:58.546929 25291 net.cpp:386] relu1 -> conv1 (in-place)
I0131 01:10:58.546936 25291 net.cpp:141] Setting up relu1
I0131 01:10:58.546942 25291 net.cpp:148] Top shape: 1 128 112 112 (1605632)
I0131 01:10:58.546947 25291 net.cpp:156] Memory required for data: 128281216
I0131 01:10:58.546952 25291 layer_factory.hpp:77] Creating layer depth_pool1
I0131 01:10:58.546959 25291 net.cpp:91] Creating Layer depth_pool1
I0131 01:10:58.546964 25291 net.cpp:425] depth_pool1 <- conv1
I0131 01:10:58.546972 25291 net.cpp:399] depth_pool1 -> depth_pool1
I0131 01:10:58.547003 25291 net.cpp:141] Setting up depth_pool1
I0131 01:10:58.547009 25291 net.cpp:148] Top shape: 1 128 56 56 (401408)
I0131 01:10:58.547014 25291 net.cpp:156] Memory required for data: 129886848
I0131 01:10:58.547019 25291 layer_factory.hpp:77] Creating layer norm1
I0131 01:10:58.547026 25291 net.cpp:91] Creating Layer norm1
I0131 01:10:58.547030 25291 net.cpp:425] norm1 <- depth_pool1
I0131 01:10:58.547037 25291 net.cpp:399] norm1 -> norm1
I0131 01:10:58.547063 25291 net.cpp:141] Setting up norm1
I0131 01:10:58.547070 25291 net.cpp:148] Top shape: 1 128 56 56 (401408)
I0131 01:10:58.547075 25291 net.cpp:156] Memory required for data: 131492480
I0131 01:10:58.547080 25291 layer_factory.hpp:77] Creating layer conv2
I0131 01:10:58.547089 25291 net.cpp:91] Creating Layer conv2
I0131 01:10:58.547094 25291 net.cpp:425] conv2 <- norm1
I0131 01:10:58.547101 25291 net.cpp:399] conv2 -> conv2
I0131 01:10:58.551864 25291 net.cpp:141] Setting up conv2
I0131 01:10:58.551900 25291 net.cpp:148] Top shape: 1 256 56 56 (802816)
I0131 01:10:58.551908 25291 net.cpp:156] Memory required for data: 134703744
I0131 01:10:58.551923 25291 layer_factory.hpp:77] Creating layer relu2
I0131 01:10:58.551934 25291 net.cpp:91] Creating Layer relu2
I0131 01:10:58.551946 25291 net.cpp:425] relu2 <- conv2
I0131 01:10:58.551954 25291 net.cpp:386] relu2 -> conv2 (in-place)
I0131 01:10:58.551964 25291 net.cpp:141] Setting up relu2
I0131 01:10:58.551971 25291 net.cpp:148] Top shape: 1 256 56 56 (802816)
I0131 01:10:58.551976 25291 net.cpp:156] Memory required for data: 137915008
I0131 01:10:58.551982 25291 layer_factory.hpp:77] Creating layer depth_pool2
I0131 01:10:58.551990 25291 net.cpp:91] Creating Layer depth_pool2
I0131 01:10:58.551996 25291 net.cpp:425] depth_pool2 <- conv2
I0131 01:10:58.552003 25291 net.cpp:399] depth_pool2 -> depth_pool2
I0131 01:10:58.552045 25291 net.cpp:141] Setting up depth_pool2
I0131 01:10:58.552053 25291 net.cpp:148] Top shape: 1 256 28 28 (200704)
I0131 01:10:58.552058 25291 net.cpp:156] Memory required for data: 138717824
I0131 01:10:58.552063 25291 layer_factory.hpp:77] Creating layer norm2
I0131 01:10:58.552072 25291 net.cpp:91] Creating Layer norm2
I0131 01:10:58.552078 25291 net.cpp:425] norm2 <- depth_pool2
I0131 01:10:58.552083 25291 net.cpp:399] norm2 -> norm2
I0131 01:10:58.552114 25291 net.cpp:141] Setting up norm2
I0131 01:10:58.552120 25291 net.cpp:148] Top shape: 1 256 28 28 (200704)
I0131 01:10:58.552125 25291 net.cpp:156] Memory required for data: 139520640
I0131 01:10:58.552129 25291 layer_factory.hpp:77] Creating layer conv3
I0131 01:10:58.552139 25291 net.cpp:91] Creating Layer conv3
I0131 01:10:58.552145 25291 net.cpp:425] conv3 <- norm2
I0131 01:10:58.552152 25291 net.cpp:399] conv3 -> conv3
I0131 01:10:58.554874 25291 net.cpp:141] Setting up conv3
I0131 01:10:58.554903 25291 net.cpp:148] Top shape: 1 384 28 28 (301056)
I0131 01:10:58.554910 25291 net.cpp:156] Memory required for data: 140724864
I0131 01:10:58.554920 25291 layer_factory.hpp:77] Creating layer relu3
I0131 01:10:58.554931 25291 net.cpp:91] Creating Layer relu3
I0131 01:10:58.554939 25291 net.cpp:425] relu3 <- conv3
I0131 01:10:58.554945 25291 net.cpp:386] relu3 -> conv3 (in-place)
I0131 01:10:58.554955 25291 net.cpp:141] Setting up relu3
I0131 01:10:58.554960 25291 net.cpp:148] Top shape: 1 384 28 28 (301056)
I0131 01:10:58.554965 25291 net.cpp:156] Memory required for data: 141929088
I0131 01:10:58.554971 25291 layer_factory.hpp:77] Creating layer depth_pool3
I0131 01:10:58.554978 25291 net.cpp:91] Creating Layer depth_pool3
I0131 01:10:58.554983 25291 net.cpp:425] depth_pool3 <- conv3
I0131 01:10:58.554991 25291 net.cpp:399] depth_pool3 -> depth_pool3
I0131 01:10:58.555034 25291 net.cpp:141] Setting up depth_pool3
I0131 01:10:58.555050 25291 net.cpp:148] Top shape: 1 384 14 14 (75264)
I0131 01:10:58.555059 25291 net.cpp:156] Memory required for data: 142230144
I0131 01:10:58.555068 25291 layer_factory.hpp:77] Creating layer conv4
I0131 01:10:58.555079 25291 net.cpp:91] Creating Layer conv4
I0131 01:10:58.555085 25291 net.cpp:425] conv4 <- depth_pool3
I0131 01:10:58.555093 25291 net.cpp:399] conv4 -> conv4
I0131 01:10:58.565321 25291 net.cpp:141] Setting up conv4
I0131 01:10:58.565372 25291 net.cpp:148] Top shape: 1 512 14 14 (100352)
I0131 01:10:58.565384 25291 net.cpp:156] Memory required for data: 142631552
I0131 01:10:58.565402 25291 layer_factory.hpp:77] Creating layer relu4
I0131 01:10:58.565418 25291 net.cpp:91] Creating Layer relu4
I0131 01:10:58.565428 25291 net.cpp:425] relu4 <- conv4
I0131 01:10:58.565443 25291 net.cpp:386] relu4 -> conv4 (in-place)
I0131 01:10:58.565455 25291 net.cpp:141] Setting up relu4
I0131 01:10:58.565465 25291 net.cpp:148] Top shape: 1 512 14 14 (100352)
I0131 01:10:58.565474 25291 net.cpp:156] Memory required for data: 143032960
I0131 01:10:58.565480 25291 layer_factory.hpp:77] Creating layer conv5
I0131 01:10:58.565496 25291 net.cpp:91] Creating Layer conv5
I0131 01:10:58.565506 25291 net.cpp:425] conv5 <- conv4
I0131 01:10:58.565518 25291 net.cpp:399] conv5 -> conv5
I0131 01:10:58.579041 25291 net.cpp:141] Setting up conv5
I0131 01:10:58.579080 25291 net.cpp:148] Top shape: 1 512 14 14 (100352)
I0131 01:10:58.579092 25291 net.cpp:156] Memory required for data: 143434368
I0131 01:10:58.579104 25291 layer_factory.hpp:77] Creating layer relu5
I0131 01:10:58.579118 25291 net.cpp:91] Creating Layer relu5
I0131 01:10:58.579126 25291 net.cpp:425] relu5 <- conv5
I0131 01:10:58.579135 25291 net.cpp:386] relu5 -> conv5 (in-place)
I0131 01:10:58.579146 25291 net.cpp:141] Setting up relu5
I0131 01:10:58.579154 25291 net.cpp:148] Top shape: 1 512 14 14 (100352)
I0131 01:10:58.579160 25291 net.cpp:156] Memory required for data: 143835776
I0131 01:10:58.579166 25291 layer_factory.hpp:77] Creating layer depth_pool5
I0131 01:10:58.579174 25291 net.cpp:91] Creating Layer depth_pool5
I0131 01:10:58.579180 25291 net.cpp:425] depth_pool5 <- conv5
I0131 01:10:58.579187 25291 net.cpp:399] depth_pool5 -> depth_pool5
I0131 01:10:58.579236 25291 net.cpp:141] Setting up depth_pool5
I0131 01:10:58.579244 25291 net.cpp:148] Top shape: 1 512 7 7 (25088)
I0131 01:10:58.579249 25291 net.cpp:156] Memory required for data: 143936128
I0131 01:10:58.579254 25291 layer_factory.hpp:77] Creating layer depth_fc6
I0131 01:10:58.579262 25291 net.cpp:91] Creating Layer depth_fc6
I0131 01:10:58.579268 25291 net.cpp:425] depth_fc6 <- depth_pool5
I0131 01:10:58.579275 25291 net.cpp:399] depth_fc6 -> depth_fc6
I0131 01:10:59.175056 25291 net.cpp:141] Setting up depth_fc6
I0131 01:10:59.175097 25291 net.cpp:148] Top shape: 1 4096 (4096)
I0131 01:10:59.175107 25291 net.cpp:156] Memory required for data: 143952512
I0131 01:10:59.175120 25291 layer_factory.hpp:77] Creating layer depth_relu6
I0131 01:10:59.175134 25291 net.cpp:91] Creating Layer depth_relu6
I0131 01:10:59.175143 25291 net.cpp:425] depth_relu6 <- depth_fc6
I0131 01:10:59.175154 25291 net.cpp:386] depth_relu6 -> depth_fc6 (in-place)
I0131 01:10:59.175166 25291 net.cpp:141] Setting up depth_relu6
I0131 01:10:59.175174 25291 net.cpp:148] Top shape: 1 4096 (4096)
I0131 01:10:59.175181 25291 net.cpp:156] Memory required for data: 143968896
I0131 01:10:59.175187 25291 layer_factory.hpp:77] Creating layer depth_drop6
I0131 01:10:59.175197 25291 net.cpp:91] Creating Layer depth_drop6
I0131 01:10:59.175204 25291 net.cpp:425] depth_drop6 <- depth_fc6
I0131 01:10:59.175215 25291 net.cpp:386] depth_drop6 -> depth_fc6 (in-place)
I0131 01:10:59.175240 25291 net.cpp:141] Setting up depth_drop6
I0131 01:10:59.175249 25291 net.cpp:148] Top shape: 1 4096 (4096)
I0131 01:10:59.175256 25291 net.cpp:156] Memory required for data: 143985280
I0131 01:10:59.175261 25291 layer_factory.hpp:77] Creating layer depth_fc7
I0131 01:10:59.175271 25291 net.cpp:91] Creating Layer depth_fc7
I0131 01:10:59.175277 25291 net.cpp:425] depth_fc7 <- depth_fc6
I0131 01:10:59.175285 25291 net.cpp:399] depth_fc7 -> depth_fc7
I0131 01:10:59.270967 25291 net.cpp:141] Setting up depth_fc7
I0131 01:10:59.271030 25291 net.cpp:148] Top shape: 1 4096 (4096)
I0131 01:10:59.271050 25291 net.cpp:156] Memory required for data: 144001664
I0131 01:10:59.271069 25291 layer_factory.hpp:77] Creating layer depth_relu7
I0131 01:10:59.271085 25291 net.cpp:91] Creating Layer depth_relu7
I0131 01:10:59.271096 25291 net.cpp:425] depth_relu7 <- depth_fc7
I0131 01:10:59.271109 25291 net.cpp:386] depth_relu7 -> depth_fc7 (in-place)
I0131 01:10:59.271123 25291 net.cpp:141] Setting up depth_relu7
I0131 01:10:59.271131 25291 net.cpp:148] Top shape: 1 4096 (4096)
I0131 01:10:59.271136 25291 net.cpp:156] Memory required for data: 144018048
I0131 01:10:59.271139 25291 layer_factory.hpp:77] Creating layer depth_drop7
I0131 01:10:59.271152 25291 net.cpp:91] Creating Layer depth_drop7
I0131 01:10:59.271157 25291 net.cpp:425] depth_drop7 <- depth_fc7
I0131 01:10:59.271163 25291 net.cpp:386] depth_drop7 -> depth_fc7 (in-place)
I0131 01:10:59.271203 25291 net.cpp:141] Setting up depth_drop7
I0131 01:10:59.271211 25291 net.cpp:148] Top shape: 1 4096 (4096)
I0131 01:10:59.271215 25291 net.cpp:156] Memory required for data: 144034432
I0131 01:10:59.271221 25291 layer_factory.hpp:77] Creating layer depth_fc7_depth_drop7_0_split
I0131 01:10:59.271237 25291 net.cpp:91] Creating Layer depth_fc7_depth_drop7_0_split
I0131 01:10:59.271244 25291 net.cpp:425] depth_fc7_depth_drop7_0_split <- depth_fc7
I0131 01:10:59.271250 25291 net.cpp:399] depth_fc7_depth_drop7_0_split -> depth_fc7_depth_drop7_0_split_0
I0131 01:10:59.271258 25291 net.cpp:399] depth_fc7_depth_drop7_0_split -> depth_fc7_depth_drop7_0_split_1
I0131 01:10:59.271316 25291 net.cpp:141] Setting up depth_fc7_depth_drop7_0_split
I0131 01:10:59.271323 25291 net.cpp:148] Top shape: 1 4096 (4096)
I0131 01:10:59.271328 25291 net.cpp:148] Top shape: 1 4096 (4096)
I0131 01:10:59.271333 25291 net.cpp:156] Memory required for data: 144067200
I0131 01:10:59.271338 25291 layer_factory.hpp:77] Creating layer depth_fc8
I0131 01:10:59.271348 25291 net.cpp:91] Creating Layer depth_fc8
I0131 01:10:59.271354 25291 net.cpp:425] depth_fc8 <- depth_fc7_depth_drop7_0_split_0
I0131 01:10:59.271361 25291 net.cpp:399] depth_fc8 -> depth_fc8
I0131 01:10:59.273011 25291 net.cpp:141] Setting up depth_fc8
I0131 01:10:59.273039 25291 net.cpp:148] Top shape: 1 51 (51)
I0131 01:10:59.273048 25291 net.cpp:156] Memory required for data: 144067404
I0131 01:10:59.273058 25291 layer_factory.hpp:77] Creating layer depth_fc8_depth_fc8_0_split
I0131 01:10:59.273067 25291 net.cpp:91] Creating Layer depth_fc8_depth_fc8_0_split
I0131 01:10:59.273074 25291 net.cpp:425] depth_fc8_depth_fc8_0_split <- depth_fc8
I0131 01:10:59.273082 25291 net.cpp:399] depth_fc8_depth_fc8_0_split -> depth_fc8_depth_fc8_0_split_0
I0131 01:10:59.273092 25291 net.cpp:399] depth_fc8_depth_fc8_0_split -> depth_fc8_depth_fc8_0_split_1
I0131 01:10:59.273128 25291 net.cpp:141] Setting up depth_fc8_depth_fc8_0_split
I0131 01:10:59.273138 25291 net.cpp:148] Top shape: 1 51 (51)
I0131 01:10:59.273142 25291 net.cpp:148] Top shape: 1 51 (51)
I0131 01:10:59.273146 25291 net.cpp:156] Memory required for data: 144067812
I0131 01:10:59.273151 25291 layer_factory.hpp:77] Creating layer concat
I0131 01:10:59.273160 25291 net.cpp:91] Creating Layer concat
I0131 01:10:59.273167 25291 net.cpp:425] concat <- rgb_fc7_rgb_drop7_0_split_1
I0131 01:10:59.273174 25291 net.cpp:425] concat <- depth_fc7_depth_drop7_0_split_1
I0131 01:10:59.273180 25291 net.cpp:399] concat -> concat
I0131 01:10:59.273203 25291 net.cpp:141] Setting up concat
I0131 01:10:59.273211 25291 net.cpp:148] Top shape: 1 8192 (8192)
I0131 01:10:59.273216 25291 net.cpp:156] Memory required for data: 144100580
I0131 01:10:59.273219 25291 layer_factory.hpp:77] Creating layer rgbd_fc8
I0131 01:10:59.273228 25291 net.cpp:91] Creating Layer rgbd_fc8
I0131 01:10:59.273232 25291 net.cpp:425] rgbd_fc8 <- concat
I0131 01:10:59.273238 25291 net.cpp:399] rgbd_fc8 -> rgbd_fc8
I0131 01:10:59.275634 25291 net.cpp:141] Setting up rgbd_fc8
I0131 01:10:59.275655 25291 net.cpp:148] Top shape: 1 51 (51)
I0131 01:10:59.275660 25291 net.cpp:156] Memory required for data: 144100784
I0131 01:10:59.275671 25291 layer_factory.hpp:77] Creating layer rgbd_fc8_rgbd_fc8_0_split
I0131 01:10:59.275679 25291 net.cpp:91] Creating Layer rgbd_fc8_rgbd_fc8_0_split
I0131 01:10:59.275684 25291 net.cpp:425] rgbd_fc8_rgbd_fc8_0_split <- rgbd_fc8
I0131 01:10:59.275691 25291 net.cpp:399] rgbd_fc8_rgbd_fc8_0_split -> rgbd_fc8_rgbd_fc8_0_split_0
I0131 01:10:59.275697 25291 net.cpp:399] rgbd_fc8_rgbd_fc8_0_split -> rgbd_fc8_rgbd_fc8_0_split_1
I0131 01:10:59.275730 25291 net.cpp:141] Setting up rgbd_fc8_rgbd_fc8_0_split
I0131 01:10:59.275738 25291 net.cpp:148] Top shape: 1 51 (51)
I0131 01:10:59.275744 25291 net.cpp:148] Top shape: 1 51 (51)
I0131 01:10:59.275748 25291 net.cpp:156] Memory required for data: 144101192
I0131 01:10:59.275751 25291 layer_factory.hpp:77] Creating layer rgb_accuracy
I0131 01:10:59.275758 25291 net.cpp:91] Creating Layer rgb_accuracy
I0131 01:10:59.275763 25291 net.cpp:425] rgb_accuracy <- rgb_fc8_rgb_fc8_0_split_0
I0131 01:10:59.275769 25291 net.cpp:425] rgb_accuracy <- label_data_2_split_0
I0131 01:10:59.275775 25291 net.cpp:399] rgb_accuracy -> rgb_accuracy
…
